output_bbox_gcn/EVALUATOR_layout_MultiLayer_2023_09_21_16_51_13/Model/evaluator_1540.pth (torch, 9147 bytes, 11 tensors)

LayoutSeq.weight_ih_l0 f4 [32, 4]
0	0x3d410d41	0.04713178
1	0xbd860741	-0.06544352
2	0xbdd34041	-0.1031499
3	0x3d7db8f7	0.061943974
4	0x3de0c6df	0.10975432
5	0xbdd7d1a7	-0.10538035
6	0xbc63d19c	-0.013904955
7	0x3d9d4818	0.076797664
8	0x3df7f232	0.12106742
9	0x3d77c092	0.060486384
10	0x3e3257bb	0.17416279
11	0x3e9d8285	0.3076364
12	0xbe823a3d	-0.25435057
13	0x3dacb874	0.08433619
14	0x3e245190	0.16046739
15	0x3da7131a	0.0815794
16	0xbebe7aae	-0.37202972
17	0x3e89b7fd	0.26898184
18	0x3df2e26a	0.11859591
19	0x3e2aae31	0.16668011
20	0xbe940a6c	-0.289142
21	0x3e50f574	0.20406133
22	0x3e126d22	0.14299443
23	0x3e0f3a4f	0.13987087
24	0x3e044d52	0.1292012
25	0x3db08863	0.08619764
26	0xbe4228dc	-0.18960899
27	0xbe0bdc95	-0.13658364
28	0xbc858574	-0.016298987
29	0x3e1a25b6	0.15053448
30	0xbd87bdce	-0.06627999
31	0x3eb0856a	0.34476787
32	0x3e514b4b	0.20438878
33	0x3e9e04ba	0.3086298
34	0x3e2d5515	0.16926987
35	0xbb7e209a	-0.0038776756
36	0x3e990ffb	0.29895005
37	0xba9b3520	-0.0011841394
38	0xbdfc0d42	-0.12307216
39	0x3d40f358	0.04710707
40	0xbe92f0c7	-0.28699324
41	0x3dc927bb	0.09822031
42	0xbe91c026	-0.2846691
43	0xbe2a3c2a	-0.16624513
44	0xbe1289dc	-0.14310402
45	0x3d85b323	0.06528308
46	0xbe26ad39	-0.16277017
47	0xbe3bf5d0	-0.18355489
48	0xbe33c808	-0.17556775
49	0xbd24f3a1	-0.040271405
50	0x3e954b1f	0.29158875
51	0xbcde88c1	-0.027164819
52	0xbd82c5b7	-0.06385367
53	0x3db30363	0.0874088
54	0x3e891516	0.267739
55	0x3ed01b3c	0.40645778
56	0xbe140a59	-0.14457072
57	0xbd9b91c9	-0.07596166
58	0xbe34f1d2	-0.17670372
59	0x3d0cf6ed	0.034415174
60	0x3de57e58	0.11205739
61	0x3e91bd68	0.28464818
62	0x3e69016d	0.2275445
63	0xbd036a49	-0.032083783
64	0x3e228055	0.15869267
65	0x3dbca856	0.09211795
66	0x3e8eaa0a	0.27864105
67	0x3c981c51	0.01856819
68	0xbc99fbc0	-0.018796802
69	0xbe86fee5	-0.26366344
70	0xbe3b7774	-0.18307287
71	0xbe1376c7	-0.14400779
72	0xbd38bc57	-0.04510149
73	0x3f0406b7	0.51572746
74	0xbe9dc26b	-0.30812392
75	0xbd2cf108	-0.042222053
76	0xbdd4468e	-0.1036502
77	0xbe75ac64	-0.23991543
78	0x3de1aad8	0.11018914
79	0xbebd991a	-0.3703087
80	0xbebb59b7	-0.36591884
81	0x3e9d5bdc	0.30734146
82	0xbd9c6e1c	-0.07638189
83	0x3e96a709	0.29424313
84	0x3ea14edc	0.31505477
85	0xbeb054a7	-0.34439585
86	0x3d5c7b67	0.053828623
87	0x3dcd10ce	0.10012971
88	0xbe9bf49e	-0.30460066
89	0x3de1157a	0.109904245
90	0x3e95cd81	0.2925835
91	0xbe75fc67	-0.24022065
92	0xbe19b528	-0.15010512
93	0x3e369d21	0.17833377
94	0x3df63e7d	0.120236374
95	0x3dd1acc6	0.10238032
96	0x3d863795	0.0655357
97	0xbd79d8a3	-0.060997616
98	0x3e609b36	0.21934208
99	0xbe01b61a	-0.12667122
100	0x3d900359	0.070318885
101	0x3ea8736c	0.3290056
102	0x3e1e5018	0.15460241
103	0x3d0763a8	0.033054024
104	0xbd96ed8c	-0.07369527
105	0xbe2213fc	-0.15827936
106	0xbcf15f38	-0.02946435
107	0x3d70ddbd	0.058805216
108	0xbdf187ad	-0.11793456
109	0xbe1482ed	-0.14503069
110	0x3e96f6b8	0.29485106
111	0x3d433965	0.047662158
112	0x3c8b7210	0.017022163
113	0xbe2682b7	-0.16260801
114	0xbdd1a289	-0.10236079
115	0x3e0a3ce4	0.1349979
116	0xbe4b32d9	-0.19843616
117	0x3e86767d	0.26262274
118	0xbd975985	-0.07390121
119	0xbe29bef1	-0.16576745
120	0x3d980e61	0.074246176
121	0x3e5f3070	0.21795821
122	0xbe410760	-0.1885047
123	0xbe842830	-0.2581191
124	0x3e32f4a8	0.17476141
125	0x3e0f0f97	0.13970791
126	0x3d889d52	0.066706315
127	0xbd6d9a84	-0.058008686

LayoutSeq.weight_hh_l0 f4 [32, 8]
0	0x3dc6ad9a	0.097010806
1	0xbe6bfe9e	-0.23046347
2	0x3e26529a	0.16242447
3	0xbe74c734	-0.23904115
4	0x3d69d20c	0.057085082
5	0x3de9a01a	0.1140749
6	0x3ab9d2c1	0.001417719
7	0x3e751379	0.2393321
8	0x3e405a4a	0.18784443
9	0x3dbf90a4	0.0935376
10	0x3de7d69d	0.11320231
11	0xbe1e32bd	-0.15449043
12	0xbcf8f9b1	-0.0303925
13	0x3d2f0046	0.04272487
14	0x3e03f7e0	0.12887526
15	0x3e1fa2aa	0.15589395
16	0xbe1c05ba	-0.1523656
17	0x3e245a5e	0.16050097
18	0xbcc50f6a	-0.024055202
19	0xbccf98d6	-0.025341433
20	0xbab1ad2f	-0.0013555641
21	0x3d7c0b01	0.06153393
22	0x3e48320b	0.1955034
23	0xbdc6ca06	-0.09706502
24	0x3dbc9913	0.09208884
25	0xbc9b5488	-0.018961206
26	0x3d9769d1	0.0739323
27	0xbd4fcb3b	-0.050730925
28	0x3d20a46f	0.039219316
29	0x3ce2c49e	0.027681645
30	0x3ca83eec	0.020537816
31	0x3e10193a	0.14072123
32	0x3e200221	0.15625812
33	0xbe4d98d8	-0.20077837
34	0xbe1629a3	-0.1466432
35	0xbe7b4de8	-0.24541438
36	0xbb6d7306	-0.003623189
37	0xbc0b2c81	-0.008494497
38	0x3e124ce0	0.14287138
39	0x3c97f36a	0.018548686
40	0xbde5638a	-0.11200626
41	0xbb958adf	-0.004563674
42	0xbea51169	-0.32239845
43	0xbe51e072	-0.20495775
44	0xbe6f9799	-0.23397674
45	0x3c1d3d4a	0.009597132
46	0xbd9b7817	-0.07591265
47	0x3e59e3c7	0.21278296
48	0xbd9684e2	-0.07349564
49	0xbbfca456	-0.00771002
50	0x3d1f94b4	0.038960174
51	0xbd0286aa	-0.031866707
52	0xbe0ede68	-0.13952029
53	0xbcd4b63c	-0.025965802
54	0x3c010a89	0.007876047
55	0x3c245efe	0.0100324135
56	0xbe3018ea	-0.17197004
57	0x3e797e1f	0.24364518
58	0x3cd8ee13	0.02648071
59	0xbcd726b8	-0.02626358
60	0x3d89930b	0.06717499
61	0x3d8eed73	0.069788836
62	0xbe77ad51	-0.24187209
63	0x3d95e044	0.07318166
64	0xbd86f6af	-0.0659002
65	0xbe4e922b	-0.20172946
66	0xbe3465fb	-0.17617027
67	0x3d971613	0.07377257
68	0x3d136abf	0.035990473
69	0xbccb1d75	-0.02479432
70	0x3e148a1c	0.1450581
71	0xbd486b7c	-0.04893063
72	0xbd9da8ae	-0.07698189
73	0x3cee9a4e	0.029126313
74	0x3dd80c84	0.10549262
75	0xbe6e7009	-0.23284926
76	0x3e10501e	0.14093062
77	0x3dd487b7	0.10377448
78	0x3db619ec	0.08891663
79	0xbd0d5bdc	-0.034511432
80	0xbe0c51fe	-0.13703153
81	0xbd6b757c	-0.05748509
82	0xbe017028	-0.1264044
83	0x3bae362b	0.005316516
84	0xbd7403aa	-0.059573807
85	0x3d61bf58	0.05511412
86	0xbe5c7cd6	-0.21531996
87	0x3d3551ce	0.04426747
88	0x3cf476fb	0.02984189
89	0xbdcf8ad7	-0.101339035
90	0xbe0008a2	-0.12503293
91	0xbe8e04ad	-0.27737942
92	0x3cdc5c10	0.026899368
93	0x3e3246b1	0.17409779
94	0x3e20a5a4	0.15688187
95	0x3e281373	0.1641367
96	0xbe112c10	-0.14176965
97	0x3d2bc9de	0.041940562
98	0x3ea4723c	0.32118404
99	0xbe43609f	-0.19079827
100	0x3e2230bc	0.15838903
101	0x3dfea5d6	0.124339744
102	0x3c48f8dd	0.012266365
103	0x3e410a89	0.18851675
104	0x3d758147	0.05993774
105	0xbe047d02	-0.12938312
106	0x3eb057d1	0.34442
107	0x3e43a674	0.19106466
108	0x3dd4aeab	0.10384878
109	0x3e5e0ba9	0.21684135
110	0x3c771259	0.015080058
111	0x3e9ed2e2	0.31020266
112	0xbdcbf159	-0.09958143
113	0xbdb2fce1	-0.08739639
114	0x3c57ad84	0.013163928
115	0xbe073e73	-0.13207416
116	0xbdde34fc	-0.1084995
117	0x3de93745	0.11387495
118	0x3dc4f598	0.09617156
119	0x3d6e9a9b	0.058252912
120	0x3a92051b	0.0011140438
121	0xbd2bb264	-0.041918173
122	0x3e4405a8	0.19142783
123	0xbea4e053	-0.32202396
124	0xbe4622c8	-0.19349205
125	0x3e16b040	0.14715672
126	0x3e042530	0.12904811
127	0x3dfd9c76	0.12383358
128	0xbe6c703f	-0.23089693
129	0xbdea1b01	-0.11430932
130	0x3dec2afb	0.115316354
131	0x3dd5914b	0.10428103
132	0x3e59f071	0.21283127
133	0xbd1fa730	-0.0389778
134	0xbe953807	-0.29144308
135	0x3e579100	0.21051407
136	0xbd228f90	-0.039687693
137	0xbe10ef9a	-0.141539
138	0x3e9653fb	0.29360947
139	0x3e214d23	0.15752082
140	0x3da01f1d	0.078184344
141	0x3eae08f2	0.339912
142	0x3e84d422	0.25943094
143	0x3e1e6d55	0.15471394
144	0x3d91f1df	0.071262114
145	0x3ecbdb24	0.3981563
146	0x3e2b7323	0.1674314
147	0xbcce0b17	-0.025151772
148	0xbebb09c4	-0.36530888
149	0xbe2b4a45	-0.1672755
150	0x3e6b53eb	0.22981231
151	0x3d207a26	0.03917899
152	0xbe2e566f	-0.1702516
153	0x3da5cd8d	0.08095846
154	0x3ea5df1a	0.32396775
155	0x3ebfa12d	0.37427655
156	0x3d8f5946	0.069994494
157	0x3dd67b7e	0.10472773
158	0xbe2a9f4c	-0.1666233
159	0xbdda0fae	-0.10647522
160	0x3e044c18	0.12919652
161	0x3e8f9393	0.28042278
162	0xbe9a12db	-0.3009251
163	0x3e73638b	0.23768441
164	0x3e0835a0	0.13301706
165	0xbeab03cd	-0.33401337
166	0xbe82f6f0	-0.25579023
167	0x3da6b890	0.08140671
168	0xbe3d3fc8	-0.18481362
169	0x3d9bae4b	0.07601603
170	0x3e84d4b2	0.25943524
171	0x3d5b6c69	0.053570185
172	0xbe3c9c95	-0.18419106
173	0xbdd26c60	-0.10274577
174	0xbe0cb460	-0.13740683
175	0x3ec5be25	0.3862163
176	0x3e50d343	0.2039309
177	0x3cbe2ebd	0.023215646
178	0x3e92a20a	0.2863925
179	0xbe8ed23e	-0.27894777
180	0xbe748ffe	-0.23883054
181	0xbd2dc672	-0.04242558
182	0x3e698f97	0.22808681
183	0xbd8e8a8a	-0.06960018
184	0xbe97af5b	-0.29625973
185	0xbe509a3d	-0.20371337
186	0xbc6fde3e	-0.014640389
187	0xbc54955e	-0.012975065
188	0xbeaaefc6	-0.33386058
189	0x3ece755e	0.4032392
190	0x3e6b27b6	0.22964367
191	0xbc8d7e34	-0.017272092
192	0x3cebc86b	0.02878209
193	0x3dc7329c	0.0972645
194	0x3d7d4aa9	0.06183878
195	0xbea872b7	-0.3290002
196	0x3bf1aa62	0.0073750475
197	0x3d2f9f94	0.042876795
198	0x3dc088e1	0.094011076
199	0x3e9c0e55	0.30479684
200	0x3e50d02a	0.20391908
201	0xbe4f7e1b	-0.20262949
202	0xbdc0d1a1	-0.094149835
203	0x3da5090b	0.080583654
204	0x3d981eaa	0.07427724
205	0x3e023c51	0.12718321
206	0x3e38dd15	0.18053086
207	0x3e503d36	0.2033585
208	0xbe25ad72	-0.16179445
209	0x3e36bfeb	0.17846648
210	0x3e4a72fb	0.19770424
211	0x3e4a4f6b	0.19756858
212	0xbe05a4ab	-0.13051097
213	0x3ceb3cf2	0.028715584
214	0x3e422d9d	0.18962713
215	0x3e4dd089	0.20099081
216	0x3e210473	0.15724353
217	0xbd97d6fd	-0.07414053
218	0xbdf6e8fa	-0.120561555
219	0xbe7b1627	-0.24520169
220	0xbd1ec791	-0.03876454
221	0x3cd90807	0.026493086
222	0x3ddb29bf	0.10701322
223	0x3d330bbf	0.043712374
224	0x3c83001c	0.015991263
225	0x3dc8ef24	0.098112375
226	0x3e99b8a9	0.30023697
227	0x3debc8c7	0.115129046
228	0xbe09c0d8	-0.1345247
229	0x3d6274ab	0.055287044
230	0xbe3e8326	-0.18604717
231	0xbd58a7e0	-0.052894473
232	0xbe4f7a81	-0.20261575
233	0xbd6de3b0	-0.058078468
234	0x3ad53882	0.0016267451
235	0xbe664865	-0.22488554
236	0xbe017866	-0.12643585
237	0x3d44c4b5	0.048039157
238	0xbda62656	-0.08112781
239	0x3e09c3a0	0.13453531
240	0xbe24bb98	-0.16087186
241	0xbd913b1a	-0.07091351
242	0x3e974904	0.29547894
243	0xbe25419e	-0.16138312
244	0x3dad0f2b	0.08450159
245	0xbd3b5e31	-0.045744125
246	0xbd8a8fc0	-0.067656994
247	0xbd109970	-0.03530258
248	0x3d9d981d	0.07695029
249	0x3d42a744	0.0475228
250	0xbd941408	-0.07230383
251	0xbce9c8ec	-0.02853819
252	0xbdde671b	-0.108595096
253	0x3d1c9d48	0.038235933
254	0xbcb21dba	-0.02174269
255	0x3df5e5dc	0.12006733

LayoutSeq.bias_ih_l0 f4 [32]
0	0x3da17b8b	0.07884892
1	0x3e87f38d	0.26553002
2	0x3e0cbd29	0.13744034
3	0x3db8d4a6	0.090249345
4	0x3d29daf7	0.041468587
5	0x3e836966	0.2566635
6	0x3e765c1a	0.24058571
7	0xbe045db9	-0.12926377
8	0xbd618016	-0.055053793
9	0x3e5ccf8f	0.21563552
10	0xbc562d55	-0.013072331
11	0x3e1b952d	0.15193625
12	0xbe55b98b	-0.2087156
13	0x3dd555e2	0.104167715
14	0x3e6fc069	0.23413242
15	0x3ca5014a	0.020142216
16	0xbd8f167b	-0.0698671
17	0x3df045e2	0.11732079
18	0x3df821d0	0.12115824
19	0xbe2b550e	-0.16731665
20	0xbd991f66	-0.07476692
21	0x3cdb3f5e	0.026763614
22	0xbca0f5ce	-0.019648459
23	0x3dba5441	0.090981014
24	0x3e5b80d2	0.2143586
25	0xbd9eccca	-0.07753904
26	0x3e9cebbb	0.30648598
27	0xbdb66910	-0.08906758
28	0x3ec62df7	0.38706943
29	0x3cb67211	0.022271188
30	0xbe2e0873	-0.1699541
31	0x3e59ccf6	0.21269593

LayoutSeq.bias_hh_l0 f4 [32]
0	0xbd00a988	-0.031411678
1	0xbd4d19a2	-0.050073273
2	0x3e9c8204	0.30567944
3	0x3e89eaf5	0.2693707
4	0xbe47454e	-0.19460031
5	0xbe7ca7ea	-0.24673429
6	0xbe04f883	-0.12985425
7	0x3dccd294	0.10001102
8	0x3e6ab319	0.22919883
9	0x3ea8b4ca	0.3295043
10	0xbe3def90	-0.18548417
11	0x3ec030f0	0.37537336
12	0xbe615af2	-0.22007349
13	0xbd71ef12	-0.059065886
14	0x3d565dc7	0.052335527
15	0x3e030852	0.12796143
16	0xbe372990	-0.17886949
17	0xbe8462be	-0.25856584
18	0x3e410fad	0.18853636
19	0x3ddbd8db	0.10734721
20	0xbd030089	-0.031982932
21	0x3d1b129d	0.037859548
22	0x3e903d3c	0.28171718
23	0xbdfafc01	-0.12255097
24	0xbb61706b	-0.0034399282
25	0x3e3f14ea	0.18660322
26	0x3e27828c	0.16358393
27	0x3dd5695c	0.10420486
28	0xbe30c06d	-0.17260905
29	0xbdb7479c	-0.08949205
30	0xbd9f3aee	-0.07774912
31	0x3e90174b	0.2814277

mlp.0.weight f4 [32, 8]
0	0x3d7e8cce	0.062146
1	0xbe52e6f6	-0.20595917
2	0x3cf8faae	0.03039297
3	0x3e0dd9b2	0.13852575
4	0x3defa320	0.117010355
5	0x3d3b2045	0.04568507
6	0xbdb1fadc	-0.08690426
7	0x3e02a85c	0.12759537
8	0xbe408ab1	-0.18802907
9	0x3d906590	0.070506215
10	0xbd286e5d	-0.041120876
11	0x3c84cd0b	0.016211053
12	0x3d52fa51	0.05150825
13	0x3c2b793c	0.010465916
14	0xbe39add7	-0.18132721
15	0xbdb8d787	-0.090254836
16	0x3cb1cbed	0.021703685
17	0xbddb7867	-0.10716324
18	0x3e6a4907	0.2287942
19	0x3d1d1087	0.03834584
20	0xbe482575	-0.19545539
21	0xbdceb70a	-0.10093506
22	0x3bfe077a	0.007752356
23	0xbe18c8cd	-0.1492035
24	0x3eb97496	0.3622176
25	0xbcf90c15	-0.030401269
26	0x3ec6147d	0.38687506
27	0xbcd06091	-0.025436671
28	0x3b38e138	0.0028210413
29	0x3e4a25ed	0.1974103
30	0x3db5366c	0.08848271
31	0x3e0bf50b	0.13667695
32	0x3d81babe	0.06334446
33	0xbe5d0b53	-0.21586351
34	0x3cbd9c24	0.023145743
35	0xbe4c7f21	-0.19970371
36	0xbe8bc394	-0.27297652
37	0xbbca78d2	-0.0061789537
38	0x3df52185	0.11969284
39	0xbe7d3b39	-0.24729623
40	0xbd39006b	-0.045166414
41	0x3de98aba	0.11403413
42	0xbd8cc463	-0.06873395
43	0x3d9ebee2	0.07751252
44	0x3e3f33a3	0.18672042
45	0x3cc33dd5	0.023833195
46	0xbe7de5e1	-0.24794723
47	0x3e630b77	0.22172342
48	0xbda393f1	-0.07987202
49	0xbee0a407	-0.43875143
50	0x3d114b97	0.03547248
51	0xbd4d1e22	-0.050077565
52	0x3dc696bb	0.09696718
53	0x3e216fd2	0.15765312
54	0xbe4901a5	-0.19629534
55	0xbe0103f9	-0.12599172
56	0x3deaa3a1	0.11456991
57	0x3e2aa7a3	0.16665511
58	0xbe73ab11	-0.23795725
59	0xbe5148c1	-0.2043791
60	0xbd9b6cb3	-0.07589092
61	0xbe9ffd28	-0.3124783
62	0xbd2b6500	-0.041844368
63	0xbd9f6bf0	-0.07784259
64	0xbd8aed07	-0.06783491
65	0xbe9af424	-0.3026439
66	0x3e05a76c	0.13052148
67	0xbe91270d	-0.28350106
68	0xbe33492b	-0.1750838
69	0xbe57317e	-0.21014974
70	0x3e5919a8	0.21201193
71	0xbecda204	-0.4016267
72	0xbebe1c23	-0.37130842
73	0x3d1fff53	0.039061856
74	0xbd257e7e	-0.040403835
75	0x3daade26	0.08343153
76	0xbe78d601	-0.24300386
77	0x3e1553d4	0.14582759
78	0xbd25a10d	-0.040436793
79	0x3f14c4ae	0.5811261
80	0xbe3b6b58	-0.18302667
81	0xbe78ffad	-0.24316283
82	0x3d982c41	0.07430316
83	0x3dfc5b03	0.123220466
84	0xbb803bee	-0.003913394
85	0xbdb2699c	-0.0871155
86	0x3b46c04b	0.0030327018
87	0xbe826f19	-0.25475386
88	0x3daccf99	0.084380336
89	0x3d948302	0.0725155
90	0x3e009d9b	0.12560122
91	0xbe46cadf	-0.19413327
92	0xbd2af7af	-0.041740116
93	0x3c05f177	0.0081752455
94	0xbea93b7e	-0.330532
95	0x3eabfbfb	0.33590683
96	0xbe7c5a34	-0.24643785
97	0x3e8cedfc	0.27525318
98	0x3e115234	0.14191514
99	0x3d86f71e	0.065901026
100	0xbee1ba7a	-0.44087583
101	0x3ea15948	0.3151343
102	0xbda9a24e	-0.0828291
103	0x3f60957a	0.87728083
104	0x3e0cd935	0.13754733
105	0xbe034db9	-0.12822618
106	0x3e3db09a	0.185244
107	0xbda19ec8	-0.07891613
108	0x3c8d2b7f	0.017232655
109	0x3e2e371c	0.1701321
110	0xbe2848fe	-0.16434094
111	0x3db7faf1	0.0898341
112	0x3e15fc32	0.14646986
113	0xbc0ab77e	-0.0084665995
114	0x3d587873	0.052849244
115	0xbe0cb886	-0.13742265
116	0x3d0300f0	0.031983316
117	0xbcf0115f	-0.029305158
118	0x3d8c1ac7	0.06841045
119	0x3d72421f	0.05914509
120	0xbd4b562c	-0.049642727
121	0x3c58b0dc	0.01322576
122	0x3d23e563	0.040013682
123	0xbc543191	-0.012951271
124	0x3d53e585	0.05173256
125	0x3d6cd3fd	0.057819355
126	0xbd09edc0	-0.033674
127	0x3d0e9400	0.034809113
128	0x3e2820de	0.16418788
129	0xbe4e6bcc	-0.20158309
130	0x3c2d6eb4	0.010585476
131	0xbe1a3020	-0.1505742
132	0x3e3404cf	0.1757996
133	0xbe1b42a7	-0.15162145
134	0xbe0da557	-0.13832603
135	0xbda2f125	-0.07956151
136	0xbe35177f	-0.17684744
137	0xbde7702a	-0.113006905
138	0xbd5e2b94	-0.054240778
139	0x3c74d76c	0.014943939
140	0xbe2e53ae	-0.17024109
141	0xbe4a11ce	-0.19733354
142	0xbe0c3092	-0.13690403
143	0x3e126526	0.14296398
144	0xbe13200a	-0.1436769
145	0xbe4ece6e	-0.20195934
146	0x3eb3cc7c	0.35116947
147	0x3dbd6eff	0.092496864
148	0xbd78d5f1	-0.060750905
149	0x3d92d709	0.07169921
150	0x3cca46b7	0.024691923
151	0xbd89b7ef	-0.06724536
152	0x3debbbca	0.11510427
153	0x3d2f5b89	0.042811904
154	0x3de7560b	0.11295708
155	0x3dfef975	0.12449924
156	0xbd0a44ea	-0.033757128
157	0x3cf51743	0.029918319
158	0x3d892e02	0.066982284
159	0x3d22d22a	0.03975121
160	0xbe74863a	-0.23879328
161	0x3d587bd4	0.052852467
162	0x3d7ced66	0.06174984
163	0x3d2baac8	0.041910917
164	0xbd23ee5b	-0.040022235
165	0x3ca66431	0.020311447
166	0x3cd87198	0.026421353
167	0x3de2a9e8	0.11067563
168	0xbe8d4f44	-0.27599537
169	0xbdc6c8b9	-0.097062536
170	0xbe325aec	-0.17417496
171	0xbd987ffe	-0.074462876
172	0xbe0d7f0d	-0.13817997
173	0xbcb29045	-0.021797309
174	0xbe0694a0	-0.13142633
175	0x3eeea044	0.46606648
176	0xbebf5ee1	-0.37377074
177	0xbe1ab0d1	-0.15106513
178	0xbdd8e152	-0.105898514
179	0x3e43acab	0.19108836
180	0x3e812b5c	0.25228393
181	0x3c3e3ddc	0.011611428
182	0xbd1441a8	-0.036195427
183	0x3dd5b966	0.104357526
184	0xbd2202cb	-0.039553445
185	0xbe68a5ac	-0.22719449
186	0xbe2335eb	-0.15938537
187	0xbd10499b	-0.035226446
188	0x3ea99ae2	0.3312598
189	0xbe61cb7f	-0.22050284
190	0xbc499810	-0.012304321
191	0xbd76b759	-0.060233448
192	0xbd6f553b	-0.05843089
193	0xbde0c7bf	-0.109755985
194	0xbe872920	-0.26398563
195	0x3e5c2e27	0.2150198
196	0x3d8089e4	0.062763005
197	0xbd20ea23	-0.03928579
198	0xbe4b07fa	-0.19827262
199	0x3da7e14f	0.08197271
200	0xbe7154b9	-0.23567475
201	0xbe4f757d	-0.20259662
202	0x3dee66a3	0.1164067
203	0xbcdc1f07	-0.026870264
204	0xbda6bea1	-0.08141828
205	0xbd16b582	-0.036794193
206	0x3e059be3	0.13047747
207	0x3ea4adad	0.32163754
208	0x3d565bc9	0.052333627
209	0xbe740ee0	-0.238338
210	0xbe05a1f7	-0.13050066
211	0x3c446790	0.011987582
212	0x3d91f05d	0.07125924
213	0x3e9cff15	0.30663362
214	0x3da41ef1	0.08013714
215	0xbd9bc153	-0.07605233
216	0x3e796f48	0.24358857
217	0xbd20ac9b	-0.03922711
218	0x3c8adcc1	0.016950967
219	0x3d43a67d	0.047766197
220	0x3d83c11b	0.06433316
221	0xbe64c71e	-0.22341582
222	0x3e278dd1	0.16362692
223	0xbe25349f	-0.16133355
224	0x3d1a34ae	0.037647896
225	0xbe51ffb5	-0.205077
226	0x3ec74cc4	0.38925755
227	0x3e7f3ec5	0.24926288
228	0xbd8546e0	-0.06507659
229	0xbd0b386b	-0.03398935
230	0x3dd431cf	0.10361063
231	0xbc199769	-0.009374478
232	0x3e5bdf44	0.21471888
233	0x3daf8eb6	0.08572142
234	0xbd1e999d	-0.038720716
235	0xbe30b788	-0.17257512
236	0xbe66d527	-0.22542249
237	0x3da187d7	0.078872375
238	0x3e1bb8f1	0.15207268
239	0xbe033bfb	-0.1281585
240	0xbde8dcb4	-0.11370221
241	0xbd2f1432	-0.04274387
242	0xbcba10e1	-0.022713127
243	0xbd3bfc3f	-0.045894857
244	0xbdfb8b8f	-0.12282478
245	0xbe48f46e	-0.19624493
246	0x3e01ec2b	0.12687747
247	0x3c037c60	0.008025259
248	0x3e317dbd	0.17333122
249	0xbe320148	-0.17383301
250	0xbc26fbb5	-0.010191848
251	0x3dc8cd32	0.09804763
252	0xbe079e1f	-0.13243912
253	0x3bb2047d	0.005432664
254	0xbd4417d3	-0.047874283
255	0xbe03d9c5	-0.12876041

mlp.0.bias f4 [32]
0	0x37ecae7a	2.821464e-05
1	0xb6f3b411	-7.262927e-06
2	0xb6d0c790	-6.222115e-06
3	0x38da6082	0.00010413026
4	0x382ce03b	4.1216827e-05
5	0x370dd952	8.454854e-06
6	0x371bd01e	9.287176e-06
7	0x38344d63	4.2987416e-05
8	0xb903e4f5	-0.00012578427
9	0x3913893f	0.0001407014
10	0x376748a4	1.3785586e-05
11	0xb73a2084	-1.1094035e-05
12	0x39c875b5	0.0003823467
13	0xb7d9279d	-2.5886862e-05
14	0x3615fe6c	2.2350823e-06
15	0x3679f42e	3.7246023e-06
16	0xb835df1a	-4.3361542e-05
17	0xb907669a	-0.00012912825
18	0xb7908f06	-1.7232738e-05
19	0xb7f300b4	-2.8968185e-05
20	0xb7aebdc4	-2.0830783e-05
21	0x3742d010	1.1611744e-05
22	0xb8c0b426	-9.188829e-05
23	0xb8818cb2	-6.177406e-05
24	0x37fe6882	3.0327825e-05
25	0x38e89d2a	0.00011091896
26	0x3664908c	3.4058785e-06
27	0x37c08f98	2.295505e-05
28	0xb76bf666	-1.4064461e-05
29	0xb8367d92	-4.3509128e-05
30	0xb599e300	-1.1465454e-06
31	0x3786be0e	1.6062546e-05

mlp.1.weight f4 [32]
0	0x3f16440d	0.5869759
1	0x3ed3b171	0.41346315
2	0x3f242e16	0.6413282
3	0x3f0e782d	0.55652124
4	0x3f2ebda6	0.6825813
5	0x3f40d9af	0.7533216
6	0x3f4c51ff	0.79812616
7	0x3f39763a	0.72446024
8	0x3f3dd5d7	0.7415442
9	0x3f2f9603	0.68588275
10	0x3f461a55	0.7738393
11	0x3f296037	0.6616244
12	0x3f714b69	0.9425569
13	0x3f1121d9	0.5669227
14	0x3f04bd0d	0.5185097
15	0x3eb7c05f	0.35888955
16	0x3f4379cb	0.76357716
17	0x3f4437ca	0.7664763
18	0x3f62b06f	0.88550466
19	0x3f243ece	0.6415833
20	0x3f2ff046	0.68726003
21	0x3f4b7176	0.7947
22	0x3f420886	0.75794256
23	0x3f419a47	0.75626034
24	0x3f11c8b4	0.56946874
25	0x3f2b1fd7	0.6684546
26	0x3f3f8413	0.74810904
27	0x3f2db1fe	0.6784972
28	0x3f2cffa4	0.67577577
29	0x3f24bd7d	0.64351636
30	0x3f48e9ca	0.78481734
31	0x3f0ce823	0.5504171

mlp.1.bias f4 [32]
0	0xbca54fcd	-0.020179654
1	0x3e6657c8	0.22494423
2	0x3daad72d	0.08341823
3	0xbee22daf	-0.4417548
4	0xbd00dfd9	-0.031463478
5	0x3ba512b6	0.005037631
6	0xbdb5ec05	-0.08882908
7	0xbd801773	-0.062544726
8	0xbd871471	-0.06595696
9	0x3d0230d7	0.03178486
10	0x3bb85ef6	0.0056265546
11	0xbdb4b46c	-0.08823475
12	0xbe0d4ae4	-0.137981
13	0x3ce74a25	0.028233597
14	0xbd5f1b28	-0.054469258
15	0x3cdc9d48	0.026930466
16	0xbd3700aa	-0.044678368
17	0xbe07b74a	-0.13253513
18	0xbc379427	-0.011204756
19	0xbe018852	-0.12649658
20	0x3ce2bcf7	0.027677996
21	0x3d61dedf	0.055144187
22	0x3e6bde8f	0.23034118
23	0x3caceb66	0.02110834
24	0x3cb735fd	0.02236461
25	0x3db97d45	0.090570964
26	0xbd335a9f	-0.043787595
27	0x3dde1081	0.108429916
28	0x3e507519	0.20357169
29	0xbdd5fbb2	-0.10448398
30	0x3cc0ced7	0.023536129
31	0x3d5a24f1	0.053257886

mlp.1.running_mean f4 [32]
0	0x3d03ce02	0.032178886
1	0xbdc6595f	-0.09685015
2	0x3d19bf27	0.037535813
3	0x3e3c37e8	0.18380702
4	0x3df30456	0.118660614
5	0xbd99ee0e	-0.075161085
6	0x3db14389	0.086554594
7	0xbdbfd07e	-0.093659386
8	0x3deaeb0c	0.11470613
9	0x3e189620	0.14901018
10	0xbd246a78	-0.0401406
11	0x3ddad04d	0.106842615
12	0x3e8236c0	0.25432396
13	0x3df6b5a0	0.12046361
14	0x3d9c491f	0.07631134
15	0x3c498a52	0.012301045
16	0x3c7d78cf	0.015470698
17	0x3c9a6196	0.01884536
18	0x3dcb9ac2	0.09941627
19	0x3bdce7ad	0.006741485
20	0x3ca9feac	0.02075132
21	0x3dfe4748	0.124159396
22	0xbd74d8d2	-0.05977709
23	0xbd6fc59e	-0.05853807
24	0xbdec4614	-0.11536804
25	0x3e45089c	0.19241565
26	0x3d8d70d6	0.06906287
27	0xbd5a5954	-0.053307846
28	0x3d9e5f8d	0.077330686
29	0x3d8015e6	0.06254177
30	0x3ce30e35	0.027716735
31	0xbacabca2	-0.0015467594

mlp.1.running_var f4 [32]
0	0x394ef2da	0.0001973616
1	0x39966323	0.00028684092
2	0x39a831fd	0.000320807
3	0x39834d04	0.00025043648
4	0x3946a01d	0.00018942398
5	0x395342f8	0.00020147476
6	0x3a40edde	0.0007359664
7	0x394b57ac	0.00019392249
8	0x391ae4de	0.00014771844
9	0x385c8f6a	5.2585652e-05
10	0x39a5e335	0.00031640535
11	0x3a39fc14	0.00070947525
12	0x388799d1	6.465952e-05
13	0x39e6aae1	0.00043996333
14	0x392117be	0.00015363001
15	0x3829be9f	4.047027e-05
16	0x3a0363db	0.0005012133
17	0x373dfbd8	1.1323915e-05
18	0x3a1ee16d	0.0006060813
19	0x38fa4b10	0.000119349104
20	0x397fc83d	0.0002439329
21	0x3a1a5596	0.0005887387
22	0x39706493	0.0002292565
23	0x3988f43b	0.00026121907
24	0x3980d782	0.00024574628
25	0x392c6fd0	0.00016444852
26	0x3a1f4041	0.0006074943
27	0x397430ec	0.00023287878
28	0x3a409302	0.00073461246
29	0x39a8a50f	0.00032166435
30	0x38dcad47	0.00010522693
31	0x39530713	0.00020125163

mlp.3.weight f4 [1, 32]
0	0x3de2ff09	0.110838
1	0xbd5e7317	-0.054308977
2	0xbdbb053c	-0.09131858
3	0xbe6dbbac	-0.23216122
4	0x3e1c36f6	0.15255341
5	0x3e35a4e3	0.1773868
6	0xbeb52409	-0.35379055
7	0xbe425f09	-0.18981566
8	0xbe27f413	-0.164017
9	0x3e42ed1f	0.19035767
10	0xbe73e9d8	-0.23819673
11	0xbe0844dd	-0.1330752
12	0x3eebd87d	0.46063605
13	0x3decb79f	0.115584604
14	0xbdbe6a74	-0.09297648
15	0xbc831899	-0.01600294
16	0x3e5773c4	0.21040255
17	0xbe81fa6d	-0.25386372
18	0x3eacecb8	0.33774352
19	0x3df9aef2	0.12191571
20	0x3e05945e	0.13044879
21	0x3e5c1dd2	0.2149575
22	0xbe713ca1	-0.23558284
23	0xbe63f7c6	-0.22262487
24	0x3da85499	0.08219261
25	0x3e1219d6	0.14267668
26	0xbe4a6f87	-0.19769107
27	0xbe1f365f	-0.15548085
28	0xbe02847a	-0.12745848
29	0xbe065570	-0.1311853
30	0x3e334314	0.17506057
31	0x3de1329a	0.109959796
