output_bbox_gcn/EVALUATOR_layout_MultiLayer_2023_09_21_16_51_13/Model/evaluator_1030.pth (torch, 9147 bytes, 11 tensors)

LayoutSeq.weight_ih_l0 f4 [32, 4]
0	0x3d91b238	0.07114071
1	0xbe03b764	-0.12862927
2	0xbdb4fc70	-0.08837211
3	0x3d9220a8	0.07135135
4	0x3df6167d	0.12016008
5	0xbe301a7b	-0.17197601
6	0xbcff04c0	-0.031130195
7	0x3da938c5	0.08262781
8	0x3e1fdad1	0.15610816
9	0x3dfe306f	0.12411582
10	0x3e44b90a	0.19211212
11	0x3e9b472a	0.3032773
12	0xbe8b7d64	-0.27244103
13	0x3dd752ac	0.10513815
14	0x3e245162	0.1604667
15	0x3d7fcc2d	0.062450577
16	0xbead243b	-0.33816704
17	0x3e96bdb9	0.29441622
18	0x3ddaab41	0.10677195
19	0x3e45f274	0.1933077
20	0xbe852894	-0.2600752
21	0x3dba7e12	0.09106077
22	0x3e0bf538	0.13667762
23	0x3e20bd28	0.15697157
24	0x3e35cab6	0.1775311
25	0x3dccf1d8	0.100070655
26	0xbe58a277	-0.21155725
27	0xbe028bdf	-0.12748669
28	0xbd8d6512	-0.06904043
29	0x3e3f8ed9	0.18706836
30	0xbd2e9dbe	-0.042630903
31	0x3eafd11f	0.34339234
32	0x3e39ec55	0.1815656
33	0x3e9d7707	0.30754873
34	0x3e58fd0c	0.2119028
35	0x3ab90ed0	0.0014118794
36	0x3e9b06ea	0.30278713
37	0xbcad9812	-0.021190677
38	0xbdd9b48b	-0.10630139
39	0x3d00da68	0.03145829
40	0xbe93945a	-0.2882412
41	0x3db793fa	0.08963771
42	0xbe6ccd07	-0.23125087
43	0xbe328da0	-0.17436838
44	0xbdc9d77d	-0.09855554
45	0x3d3ca295	0.046053488
46	0xbe35b373	-0.17744236
47	0xbe377071	-0.17913987
48	0xbe58b85f	-0.21164082
49	0xbd251dfd	-0.040311802
50	0x3e9ba0d4	0.3039614
51	0xbd1b983f	-0.03798699
52	0xbced959e	-0.029002007
53	0x3e28d86f	0.16488813
54	0x3e8e0792	0.2774015
55	0x3ecfe136	0.4060151
56	0xbe3ee43d	-0.18641753
57	0xbdd9e515	-0.10639397
58	0xbe57274d	-0.21011086
59	0x3bce353f	0.0062929685
60	0x3dfcae26	0.12337904
61	0x3e966a65	0.29378048
62	0x3e819ce8	0.25315022
63	0xbceb843d	-0.02874958
64	0x3e1c00c8	0.15234673
65	0x3dc9cbe1	0.0985334
66	0x3e92099e	0.28522962
67	0x3c9c2d01	0.019064428
68	0xbd4a3f87	-0.04937699
69	0xbe844946	-0.25837153
70	0xbe32e3d7	-0.17469727
71	0xbe15120c	-0.14557666
72	0xbd7ea127	-0.062165406
73	0x3eeb7d94	0.45994246
74	0xbea58219	-0.3232582
75	0xbd17b973	-0.037042093
76	0xbe032762	-0.12807992
77	0xbe6b1697	-0.22957836
78	0x3dceb411	0.10092939
79	0xbebf2f9e	-0.37341017
80	0xbeaf8282	-0.34279257
81	0x3ea0090b	0.312569
82	0xbd9c631d	-0.07636092
83	0x3e9a203f	0.30102727
84	0x3ea48490	0.32132387
85	0xbea892de	-0.3292455
86	0x3d6dceba	0.058058478
87	0x3db6fb76	0.08934681
88	0xbe8f0569	-0.27933815
89	0x3e0addb6	0.13561139
90	0x3ea06416	0.3132636
91	0xbe7e36dd	-0.24825616
92	0xbe169463	-0.14705043
93	0x3e2e1b70	0.17002654
94	0x3dedfc00	0.11620331
95	0x3dddaa7f	0.10823535
96	0x3d226938	0.039651126
97	0xbe04b01f	-0.1295781
98	0x3e8a167d	0.26970282
99	0xbe14001a	-0.14453164
100	0x3d3d9ae8	0.04629031
101	0x3eaa7153	0.33289585
102	0x3e265818	0.16244543
103	0x3d517a6a	0.051142134
104	0xbd2e27d7	-0.042518463
105	0xbe07f7e7	-0.13278161
106	0x3d1de90b	0.038552325
107	0x3d5e169a	0.054220773
108	0xbddf07f0	-0.10890186
109	0xbdfafdad	-0.12255416
110	0x3e9b3852	0.30316406
111	0x3d4b331a	0.04960928
112	0x3d038abb	0.032114726
113	0xbe05dea3	-0.1307321
114	0xbdcf918c	-0.10135183
115	0x3e11f83d	0.14254852
116	0xbe4385c0	-0.1909399
117	0x3e8fea42	0.28108412
118	0xbda5f0af	-0.081025474
119	0xbe213794	-0.15743858
120	0x3d1ac5e1	0.03778637
121	0x3e8036ec	0.25041902
122	0xbe4d2b59	-0.20036067
123	0xbe858894	-0.26080763
124	0x3e5c5588	0.21517003
125	0x3e017025	0.12640436
126	0x3d8f8743	0.07008221
127	0xbd8a91a4	-0.0676606

LayoutSeq.weight_hh_l0 f4 [32, 8]
0	0x3e10e4d3	0.1414979
1	0xbe7e233e	-0.24818131
2	0x3e157fbb	0.14599507
3	0xbe6a3dfb	-0.22875206
4	0x3d102f5e	0.035201423
5	0x3dd9192a	0.10600503
6	0xbab6d254	-0.0013948181
7	0x3e5889b5	0.21146281
8	0x3e6437a7	0.22286855
9	0x3dd4a11a	0.1038229
10	0x3dfeb692	0.12437166
11	0xbe431ee1	-0.19054748
12	0x3d4590d5	0.048233826
13	0x3d0bd213	0.03413589
14	0x3db3c3f3	0.08777609
15	0x3e292d15	0.16521104
16	0xbe21e52e	-0.15810081
17	0x3e1c888f	0.15286468
18	0xbd848247	-0.06470161
19	0xbd6e3f08	-0.05816558
20	0x3cd49905	0.025951872
21	0x3d6cb74a	0.057791986
22	0x3e4da420	0.2008214
23	0xbe004c26	-0.12529048
24	0x3db7bc38	0.08971447
25	0x3c9aadf8	0.018881783
26	0x3dc0eee2	0.09420563
27	0xbd13e6f6	-0.036108933
28	0x3d5a9984	0.05336906
29	0x3b8cc271	0.00429564
30	0x3ca8c0de	0.020599779
31	0x3e0d5026	0.13800105
32	0x3e4ed9c1	0.20200254
33	0xbe6c2c72	-0.2306383
34	0xbe2df321	-0.16987278
35	0xbe93500b	-0.28772005
36	0x3c2e9bfd	0.010657308
37	0xbd2f720e	-0.04283338
38	0x3e1a855e	0.15089938
39	0x3cbc4fd4	0.022987284
40	0xbe0cb025	-0.13739069
41	0xbbc3bd4e	-0.0059734946
42	0xbeab76ed	-0.3348917
43	0xbe555fc0	-0.20837307
44	0xbe86a055	-0.262942
45	0xbd09a031	-0.033600036
46	0xbdd25713	-0.10270514
47	0x3e60da09	0.21958174
48	0xbe0f0b02	-0.13969043
49	0xbd14206a	-0.036163725
50	0x3d5cb9ff	0.053888317
51	0xbd96d137	-0.07364123
52	0xbe1b7d0d	-0.15184422
53	0xbcce49e3	-0.025181716
54	0xbcc70ff6	-0.024299603
55	0x3d5207da	0.05127702
56	0xbe456567	-0.19276963
57	0x3e875e9c	0.2643937
58	0x3cdb1747	0.026744498
59	0xbce5f051	-0.028068693
60	0x3d6fa757	0.058509197
61	0x3d9abff9	0.07556147
62	0xbe7432dd	-0.23847528
63	0x3dbd56a5	0.09245042
64	0xbdc15deb	-0.094417416
65	0xbe71d473	-0.23616199
66	0xbe5d1981	-0.2159176
67	0x3da84839	0.082169004
68	0x3cf930b4	0.030418731
69	0xbd1eac26	-0.038738392
70	0x3e3d45de	0.18483683
71	0xbda35253	-0.079746865
72	0xbdc1ae9c	-0.09457132
73	0x3d34f97d	0.044183243
74	0x3de76dcb	0.11300238
75	0xbe7805ad	-0.24220915
76	0x3e332063	0.17492823
77	0x3e073d4e	0.1320698
78	0x3dbedb96	0.093192264
79	0xbd6cf1ec	-0.057847902
80	0xbe1bdabb	-0.15220158
81	0xbdf3e2c7	-0.11908489
82	0xbe01149d	-0.1260552
83	0xbcc58145	-0.024109492
84	0xbd4e441e	-0.05035793
85	0x3ce21853	0.02759949
86	0xbe78b6a1	-0.24288417
87	0x3d91172f	0.070845
88	0xbc38cbc0	-0.011279047
89	0xbd97a3d8	-0.074042976
90	0xbe1bf6de	-0.15230891
91	0xbe882a00	-0.26594543
92	0x3d3bd865	0.045860667
93	0x3e4f82e9	0.20264782
94	0x3e3bcd3f	0.18340014
95	0x3e087d92	0.13329151
96	0xbe23b94e	-0.15988657
97	0x3d5f288e	0.054482035
98	0x3ea689d8	0.3252704
99	0xbe469419	-0.19392432
100	0x3e34047c	0.17579836
101	0x3df9ef69	0.12203867
102	0xbaa9f467	-0.0012966514
103	0x3e47389f	0.19455193
104	0x3d7b3aac	0.06133525
105	0xbe0e7f16	-0.13915667
106	0x3ea45ffb	0.32104477
107	0x3e46b17c	0.19403642
108	0x3e011619	0.12606086
109	0x3e78b2ed	0.24287005
110	0xbc424d4e	-0.011859251
111	0x3ea62346	0.32448786
112	0xbe183740	-0.14864826
113	0xbdde2d2b	-0.10848459
114	0xbd2d903e	-0.04237389
115	0xbe2a6d02	-0.16643146
116	0xbdb1d99e	-0.08684085
117	0x3dc1f9a9	0.09471447
118	0x3d9b7365	0.07590369
119	0x3c0c3664	0.00855789
120	0x3d5b65fd	0.05356406
121	0xbd9a7afe	-0.0754299
122	0x3e0be7f8	0.13662708
123	0xbeb75442	-0.3580647
124	0xbe253f3d	-0.16137405
125	0x3e0ea128	0.13928664
126	0x3e0e4221	0.13892414
127	0x3e25d53c	0.16194624
128	0xbe6edf1e	-0.233273
129	0xbddbddcb	-0.10735663
130	0x3e048cb4	0.12944299
131	0x3e07dabf	0.13267039
132	0x3e5f3dcc	0.21800917
133	0xbce6e4c8	-0.028185263
134	0xbe9f64c8	-0.31131577
135	0x3e52c77e	0.20583913
136	0xbd1ed24b	-0.03877477
137	0xbe23348a	-0.15938011
138	0x3e997c07	0.29977438
139	0x3e2d1360	0.16901922
140	0x3d95341c	0.0728533
141	0x3ea22483	0.3166848
142	0x3e8bd321	0.27309516
143	0x3e22d011	0.15899684
144	0x3d4d097d	0.050057877
145	0x3ed040e7	0.40674517
146	0x3e37f0c0	0.17962933
147	0xbd2c6fe0	-0.04209888
148	0xbeb6b109	-0.35681942
149	0xbe3fa1a5	-0.18714006
150	0x3e827a82	0.2548409
151	0x3d6e3e4d	0.058164883
152	0xbe722f8f	-0.23650955
153	0x3ddcd74e	0.107832536
154	0x3eb70ac4	0.357504
155	0x3ec17055	0.37781015
156	0x3d902a24	0.07039288
157	0x3df798ce	0.12089692
158	0xbe2a26e2	-0.16616395
159	0xbdd3030f	-0.10303318
160	0x3dfc3f60	0.12316775
161	0x3e93f513	0.28897914
162	0xbe920a3c	-0.28523433
163	0x3e7617f3	0.24032573
164	0x3e108c39	0.1411599
165	0xbea9139f	-0.33022782
166	0xbe834b55	-0.2564341
167	0x3da635fc	0.081157655
168	0xbe4c1e14	-0.19933349
169	0x3da152fc	0.07877156
170	0x3e7277cf	0.23678516
171	0x3d344b70	0.044017255
172	0xbe58b88e	-0.21164152
173	0xbdd720a9	-0.10504276
174	0xbe0cec74	-0.13762075
175	0x3ec8c61f	0.39213654
176	0x3e55c42f	0.2087562
177	0x3c524ab5	0.012835194
178	0x3e8f02b2	0.27931744
179	0xbe9eefbc	-0.31042278
180	0xbe75e591	-0.24013354
181	0xbda8edbb	-0.082484685
182	0x3e6c79f0	0.2309339
183	0xbe0024d4	-0.12514049
184	0xbe93fca9	-0.28903702
185	0xbe67f787	-0.22653018
186	0xbd07fa2a	-0.03319756
187	0xbc4c452a	-0.012467662
188	0xbea8457a	-0.32865506
189	0x3ec240f9	0.37940195
190	0x3e54069b	0.20705645
191	0xbd135f58	-0.0359796
192	0xbbf7c0f6	-0.0075608445
193	0x3df17984	0.117907554
194	0x3d3cbce1	0.046078566
195	0xbea929cd	-0.33039704
196	0x3bfa9d6a	0.0076481597
197	0x3cf9dac4	0.030499823
198	0x3da33e86	0.0797091
199	0x3e94d0ae	0.2906546
200	0x3e7a54fc	0.24446481
201	0xbe66e026	-0.22546443
202	0xbe166933	-0.14688568
203	0x3dccb269	0.099949665
204	0x3db5a271	0.08868874
205	0x3e257e6d	0.16161509
206	0x3e4d59ae	0.20053741
207	0x3e5f4f31	0.21807553
208	0xbe3aa0fb	-0.18225472
209	0x3e3dbc7e	0.18528935
210	0x3e45165d	0.19246812
211	0x3e57af70	0.21063018
212	0xbe0dd277	-0.13849817
213	0xbb3b04a0	-0.0028536692
214	0x3e4e3109	0.20135893
215	0x3e50fe14	0.20409423
216	0x3e1d4394	0.1535781
217	0xbd9a4648	-0.07532936
218	0xbe0ce1f6	-0.13758072
219	0xbe92e616	-0.28691167
220	0xbcc00522	-0.023439948
221	0x3af7ceb4	0.0018906207
222	0x3daabb59	0.08336515
223	0x3ca6918f	0.02033308
224	0x3c69dcd0	0.014273837
225	0x3dce30a3	0.100678705
226	0x3e9c4cb4	0.3052727
227	0x3dd6d96d	0.104906894
228	0xbe043b61	-0.12913276
229	0x3cbe4002	0.02322388
230	0xbe509771	-0.2037027
231	0xbd5e4d66	-0.05427303
232	0xbe5138d7	-0.20431839
233	0xbd634fa6	-0.05549588
234	0xbc5720f5	-0.013130416
235	0xbe59010e	-0.21191809
236	0xbe038b94	-0.12846214
237	0x3c97dec6	0.018538844
238	0xbdca82bf	-0.09888219
239	0x3df80128	0.121095955
240	0xbe613ff9	-0.2199706
241	0xbdaac736	-0.08338778
242	0x3ea5e576	0.32401627
243	0xbe436622	-0.1908193
244	0x3de18ed9	0.11013574
245	0xbd2bb653	-0.041921925
246	0xbdd8dab2	-0.10588588
247	0xbd20a5f6	-0.039220773
248	0x3db1be1c	0.086788386
249	0x3d5f484c	0.054512307
250	0xbda68f3f	-0.08132791
251	0xbcf76125	-0.03019769
252	0xbdd4a43a	-0.10382886
253	0x3b9fad1f	0.0048729326
254	0x3b3c0706	0.002869071
255	0x3e0a6c9c	0.13517994

LayoutSeq.bias_ih_l0 f4 [32]
0	0x3db88fcc	0.09011802
1	0x3e82c432	0.2554031
2	0x3e0eb754	0.13937122
3	0x3dc4ed18	0.096155345
4	0x3d1c2159	0.03811774
5	0x3e88cb33	0.2671753
6	0x3e855f74	0.26049387
7	0xbe087f9c	-0.13329929
8	0xbd456034	-0.04818745
9	0x3e6409b0	0.2226932
10	0xbc254bb0	-0.010088846
11	0x3e11330c	0.14179629
12	0xbe677574	-0.22603399
13	0x3dee8b67	0.11647683
14	0x3e5e05ee	0.2168195
15	0x3c4ca9e7	0.01249168
16	0xbd93e54d	-0.0722147
17	0x3de9a16e	0.114077434
18	0x3e000de7	0.12505303
19	0xbe2dc7cd	-0.16970749
20	0xbd9b84aa	-0.07593663
21	0x3caa7214	0.02080635
22	0xbc20e262	-0.009819599
23	0x3db53e63	0.0884979
24	0x3e63a977	0.22232614
25	0xbdc25749	-0.094893046
26	0x3e9e5bbb	0.3092936
27	0xbdc8d302	-0.098058715
28	0x3ec7352f	0.38907763
29	0x3c3fbdc6	0.01170296
30	0xbe3d166b	-0.18465583
31	0x3e5156f1	0.20443322

LayoutSeq.bias_hh_l0 f4 [32]
0	0xbcbb298e	-0.022846963
1	0xbd991cc6	-0.07476191
2	0x3ea0a153	0.3137308
3	0x3e96c396	0.29446095
4	0xbe4ee283	-0.20203595
5	0xbe82839c	-0.25491035
6	0xbe11ba56	-0.14231238
7	0x3dce1b2e	0.10063778
8	0x3e7b8d28	0.24565566
9	0x3eaf3f6b	0.34228072
10	0xbe41b829	-0.18917908
11	0x3ec3402b	0.38134894
12	0xbe737d18	-0.23778188
13	0xbd585fda	-0.052825786
14	0x3ca52f71	0.020164223
15	0x3dfa0c4c	0.12209377
16	0xbe3af024	-0.18255669
17	0xbe88f40f	-0.26748702
18	0x3e459e30	0.19298625
19	0x3ddc7a1e	0.107654795
20	0xbd070735	-0.032965858
21	0x3d02f08e	0.031967692
22	0x3e96ffbd	0.29491988
23	0xbe01a1d6	-0.12659392
24	0xbaab6be4	-0.0013078419
25	0x3e3b36a4	0.18282562
26	0x3e269d86	0.16271028
27	0x3de01554	0.10941568
28	0xbe37f2b8	-0.17963684
29	0xbdd188d7	-0.10231178
30	0xbdb28ee4	-0.087186605
31	0x3e8c7b2b	0.2743772

mlp.0.weight f4 [32, 8]
0	0x3d89f0ee	0.06735407
1	0xbe621739	-0.22079171
2	0x3d4dbe56	0.050230347
3	0x3e231b8a	0.15928474
4	0x3e08c875	0.13357718
5	0x3dc17a0d	0.094471075
6	0xbdc34bd0	-0.095359445
7	0x3e019fa3	0.12658553
8	0xbe4f9f30	-0.20275569
9	0x3dac5cca	0.084161356
10	0xbd756aa1	-0.059916142
11	0x3cdc80f9	0.026916968
12	0x3d3c593a	0.04598353
13	0x3d1b8989	0.03797296
14	0xbe5d931b	-0.21638148
15	0xbdca876b	-0.0988911
16	0x3cf5cd26	0.030005049
17	0xbe1be436	-0.15223774
18	0x3e6f4a31	0.23368146
19	0x3d866713	0.065626286
20	0xbe66317b	-0.22479813
21	0xbd8f24a3	-0.0698941
22	0xbc7aa00f	-0.01529695
23	0xbe2aedb3	-0.16692238
24	0x3ecb6d9a	0.39732057
25	0xbce3650f	-0.02775815
26	0x3eca2999	0.39484861
27	0x3ca343c9	0.019929783
28	0x3db5f12d	0.08883891
29	0x3e421e0d	0.18956776
30	0x3d2caa83	0.0421548
31	0x3e015b07	0.1263238
32	0x3da3dca3	0.080010675
33	0xbe70cb72	-0.23515108
34	0xbc9063e0	-0.01762575
35	0xbe4ba493	-0.19886999
36	0xbe969e58	-0.29417682
37	0x3adac1e5	0.0016689865
38	0x3e0d9d0c	0.1382944
39	0xbe85ed0c	-0.26157415
40	0xbcfcd7be	-0.030864593
41	0x3e01c4d9	0.12672748
42	0xbd7c0ce9	-0.06153575
43	0x3dc89696	0.09794347
44	0x3e34511d	0.17609067
45	0x3d2b00ad	0.04174869
46	0xbe97fb15	-0.29683748
47	0x3e6104eb	0.21974532
48	0xbda5a8ee	-0.080888614
49	0xbeedd3bc	-0.46450603
50	0x3d0da476	0.03458067
51	0xbd83a2bd	-0.06427524
52	0x3d8d4848	0.06898552
53	0x3e0bd31f	0.13654755
54	0xbe4b4764	-0.19851452
55	0xbe17b91e	-0.1481671
56	0x3e0327a4	0.1280809
57	0x3e2d8031	0.16943432
58	0xbe631745	-0.22176845
59	0xbe4eeb45	-0.20206936
60	0xbda490f6	-0.080354616
61	0xbeac2f7f	-0.33629987
62	0xbd3f5862	-0.046715148
63	0xbdc5c91b	-0.096574984
64	0xbd9b1b96	-0.07573621
65	0xbea623a7	-0.32449076
66	0x3e066d6e	0.13127682
67	0xbe95e253	-0.29274234
68	0xbe2cdbac	-0.16880673
69	0xbe71ddb3	-0.23619728
70	0x3e5e77eb	0.21725433
71	0xbeca1c44	-0.3947469
72	0xbec550c8	-0.38538194
73	0x3d2dd05a	0.042435028
74	0xbd6b02fb	-0.05737589
75	0x3d97334d	0.07382832
76	0xbe80ab2d	-0.25130597
77	0x3e393ba3	0.18089156
78	0xbd8f14ee	-0.06986414
79	0x3f139ccf	0.57661146
80	0xbe5224a4	-0.2052179
81	0xbe7f21e5	-0.24915273
82	0x3d795de8	0.06088057
83	0x3e169e59	0.14708842
84	0xbc17e796	-0.009271523
85	0xbdd475ff	-0.103740685
86	0x3b553497	0.0032532567
87	0xbe6a1644	-0.22860056
88	0x3da3c48d	0.079964735
89	0x3dab5bf3	0.08367147
90	0x3e14dfaa	0.14538446
91	0xbe756cfa	-0.23967353
92	0xbd78a5af	-0.060704883
93	0xbc6fda63	-0.01463947
94	0xbecc402f	-0.39892718
95	0x3eb79641	0.35856822
96	0xbe805ba6	-0.25069922
97	0x3e83e8b9	0.2576349
98	0x3e1b7b3d	0.1518373
99	0x3d71cd02	0.0590334
100	0xbee66a87	-0.4500315
101	0x3e95f4b8	0.29288268
102	0xbdcb0421	-0.09912897
103	0x3f63a26b	0.88919705
104	0x3e17b490	0.14814973
105	0xbe136dc1	-0.14397337
106	0x3e4da73a	0.20083323
107	0xbd853140	-0.06503534
108	0x3d9a92e8	0.075475514
109	0x3e551ae4	0.20811039
110	0xbe3e52e1	-0.18586303
111	0x3e051741	0.12997152
112	0x3e2e69fd	0.17032619
113	0xbd38a887	-0.045082595
114	0x3d6afde2	0.057371028
115	0xbe0cfae0	-0.13767576
116	0x3c6970bb	0.014248068
117	0xbd61f941	-0.055169348
118	0x3d839810	0.06425488
119	0x3c98966a	0.01862641
120	0xbe000323	-0.12501197
121	0x3cc5e2a2	0.024155919
122	0x3dcd387f	0.100205414
123	0xbad88596	-0.0016519304
124	0x3e40c75e	0.18826053
125	0x3dabeb53	0.08394494
126	0xbd8717e7	-0.06596356
127	0x3d9fcda7	0.07802897
128	0x3e3c7ff1	0.18408181
129	0xbe5a3bf9	-0.2131194
130	0x3cab55d6	0.020914953
131	0xbe3b5f46	-0.18298063
132	0x3e4f8c09	0.20268263
133	0xbe3cfc87	-0.18455707
134	0xbdff827e	-0.12476061
135	0xbce15a71	-0.027508946
136	0xbe2c159b	-0.16805117
137	0xbdc4c5fa	-0.096080735
138	0xbd82d2ed	-0.06387887
139	0x3c8630e6	0.016380738
140	0xbe14d3bc	-0.14533895
141	0xbe6b22f5	-0.22962554
142	0xbe12c02a	-0.14331117
143	0x3e0782e9	0.13233532
144	0xbe0ce3df	-0.13758801
145	0xbe60eef5	-0.21966155
146	0x3ecc9135	0.39954534
147	0x3d6df814	0.058097914
148	0xbdb5bdde	-0.08874105
149	0x3daf7756	0.085676834
150	0x3c0b2161	0.008491845
151	0xbdc136d3	-0.09434285
152	0x3e0588ed	0.13040514
153	0x3d614f9c	0.055007562
154	0x3dec6214	0.115421444
155	0x3e0df519	0.13863029
156	0xbc863501	-0.016382696
157	0xbd45bc03	-0.048275005
158	0x3dacaae2	0.08431031
159	0x3d4534d9	0.048146103
160	0xbe958217	-0.29200813
161	0x3de620f4	0.11236754
162	0x3d57c5ff	0.05267906
163	0x3bca5748	0.0061749555
164	0xbd584064	-0.052795783
165	0xbd0e3e64	-0.03472747
166	0x3d53c931	0.051705543
167	0x3dee4ff2	0.11636342
168	0xbe958e98	-0.29210353
169	0xbdba69a5	-0.09102181
170	0xbe30593a	-0.17221537
171	0xbdf27c99	-0.11840171
172	0xbe160bd8	-0.14652956
173	0x3d0dc5a6	0.03461232
174	0xbe2df042	-0.16986182
175	0x3f0252f5	0.5090783
176	0xbec17e8d	-0.37791863
177	0xbe114d6e	-0.14189693
178	0xbddba26d	-0.1072434
179	0x3e4fe40d	0.20301838
180	0x3e8714af	0.26382968
181	0x3b699026	0.0035638898
182	0xbd4e29a6	-0.050332688
183	0x3de59266	0.11209564
184	0xbd486195	-0.048921186
185	0xbe6a02d8	-0.22852647
186	0xbe3df3de	-0.18550059
187	0xbc97e54a	-0.01854195
188	0x3e9d6497	0.30740806
189	0xbe85c4fb	-0.26126847
190	0xbd07e406	-0.033176444
191	0xbdbbea35	-0.09175531
192	0xbdbb5df6	-0.09148781
193	0xbe0bacf3	-0.13640194
194	0xbeabbd2c	-0.33542764
195	0x3e7cfcf3	0.24705867
196	0x3daaaeb6	0.08334105
197	0xbd571e9d	-0.05251943
198	0xbe2eb60c	-0.17061633
199	0x3dd8b3f4	0.10581198
200	0xbe97388a	-0.29535323
201	0xbe45e62d	-0.19326086
202	0x3dd56393	0.10419383
203	0xbd38a294	-0.04507692
204	0xbd139cb1	-0.036038104
205	0x3c9dbe50	0.019255787
206	0x3ded7071	0.11593712
207	0x3ea22281	0.3166695
208	0x3da764a5	0.08173493
209	0xbe9f9069	-0.31164864
210	0xbe137916	-0.1440166
211	0xbcd3bccb	-0.02584686
212	0x3dae239a	0.08502884
213	0x3e9e65ff	0.30937192
214	0x3dfbf8bc	0.12303302
215	0xbd20125b	-0.039080005
216	0x3e77ce67	0.2419983
217	0xbd1e551c	-0.038655385
218	0xbb48f8a6	-0.0030665784
219	0x3d26a72d	0.040686775
220	0x3dbc4bc8	0.091941416
221	0xbe6f1e8e	-0.233515
222	0x3e440056	0.19140753
223	0xbe2bca4e	-0.16776392
224	0x3d808712	0.062757626
225	0xbe7f81fa	-0.24951926
226	0x3eccb699	0.3998306
227	0x3e9498b3	0.2902275
228	0xbdaa7e9b	-0.08324929
229	0xbd18c6cb	-0.03729896
230	0x3e021e42	0.12706855
231	0x3c2c6067	0.010521031
232	0x3e6b4dd8	0.22978914
233	0x3dd6c60b	0.104869924
234	0xbd5a6465	-0.0533184
235	0xbe3372f5	-0.17524321
236	0xbe77d957	-0.24204002
237	0x3dc01533	0.093790434
238	0x3e0590b1	0.13043477
239	0xbe0e5f86	-0.13903627
240	0xbde44a45	-0.11146978
241	0xbcd039ed	-0.025418246
242	0xbcf8822a	-0.030335505
243	0xbcd85fd7	-0.026412887
244	0xbde641b0	-0.11242998
245	0xbe7425c3	-0.2384253
246	0x3e5c4547	0.21510802
247	0xbb89309e	-0.004186704
248	0x3e3a70a9	0.18207039
249	0xbe47c683	-0.1950932
250	0x3c245164	0.010029171
251	0x3dc87f49	0.09789903
252	0xbe00ecef	-0.12590383
253	0x3c875def	0.016524283
254	0xbd3a2128	-0.045441777
255	0xbe192d2f	-0.14958642

mlp.0.bias f4 [32]
0	0x364b72fe	3.0316291e-06
1	0x37637c38	1.3559176e-05
2	0xb788c5e0	-1.6304606e-05
3	0x377a1b9e	1.4907591e-05
4	0x34ac0000	3.2037497e-07
5	0x381a594d	3.679963e-05
6	0x384d8e28	4.9008202e-05
7	0x38def11c	0.00010630695
8	0xb83ec076	-4.5478773e-05
9	0xb87ea1ec	-6.070912e-05
10	0xb88f5a42	-6.835583e-05
11	0xb70e9a66	-8.499808e-06
12	0x391d0945	0.0001497614
13	0x3795d09a	1.7859322e-05
14	0xb76f4a78	-1.4262849e-05
15	0x35e82924	1.729732e-06
16	0xb6afe3dc	-5.2419327e-06
17	0x37050188	7.927774e-06
18	0x37aaf286	2.0378513e-05
19	0xb722196d	-9.661872e-06
20	0x37850580	1.5857397e-05
21	0x35b701c0	1.3635072e-06
22	0xb8901b1f	-6.871507e-05
23	0x37a33049	1.9453599e-05
24	0x36aa0c70	5.0678427e-06
25	0xb73ef96c	-1.1382956e-05
26	0xb6998450	-4.5751585e-06
27	0xb6002570	-1.9095278e-06
28	0xb71f1137	-9.481147e-06
29	0xb7e40b7c	-2.7185066e-05
30	0xb76dc072	-1.4171108e-05
31	0x37feffc5	3.0398262e-05

mlp.1.weight f4 [32]
0	0x3f2e6be0	0.68133354
1	0x3f0a2a96	0.5397123
2	0x3f3bd400	0.7337036
3	0x3f200eb1	0.6252242
4	0x3f3f53a7	0.7473702
5	0x3f52b685	0.8230975
6	0x3f5b7689	0.85727745
7	0x3f4c3417	0.7976698
8	0x3f4f29de	0.8092326
9	0x3f403ff9	0.75097615
10	0x3f51df75	0.81981593
11	0x3f4125a5	0.75448066
12	0x3f808a51	1.0042211
13	0x3f24b5b3	0.6433975
14	0x3f1bfe48	0.6093488
15	0x3f1745ed	0.59091073
16	0x3f4f5dd9	0.81002575
17	0x3f544a67	0.8292603
18	0x3f6f209e	0.93409145
19	0x3f366660	0.7124996
20	0x3f41bcfa	0.7567898
21	0x3f5c9f94	0.86180997
22	0x3f54cede	0.83128154
23	0x3f52fb46	0.8241466
24	0x3f2cd92e	0.6751889
25	0x3f3da545	0.74080306
26	0x3f4e2b50	0.8053484
27	0x3f3999fa	0.72500575
28	0x3f41a63f	0.75644296
29	0x3f3a5f9b	0.7280213
30	0x3f58fe17	0.8476271
31	0x3f2178c4	0.630749

mlp.1.bias f4 [32]
0	0x3c46229f	0.012093215
1	0x3e7d5dc3	0.24742799
2	0x3de40788	0.11134249
3	0xbeb75275	-0.35805097
4	0x3c8f029e	0.017457303
5	0x3d322c96	0.04349955
6	0xbdd25e93	-0.10271945
7	0xbd3e59e9	-0.046472464
8	0xbd32f97b	-0.043694954
9	0x3d2e233f	0.042514082
10	0x3d19cf8a	0.03755144
11	0xbddf9ff0	-0.109191775
12	0xbd74c0c9	-0.059754167
13	0x3d907022	0.07052638
14	0xbd8d5eb4	-0.06902829
15	0x3d5142d2	0.051089115
16	0xbb2d4a46	-0.0026441975
17	0xbd92eedf	-0.07174467
18	0xbca26fdb	-0.019828727
19	0xbe01541f	-0.12629746
20	0xbcb6b8ee	-0.022304978
21	0x3dab459d	0.08362887
22	0x3e435149	0.19073977
23	0x3b58f5b9	0.0033105446
24	0x3ce26246	0.027634751
25	0x3d964fb6	0.073394224
26	0xbd01cb3e	-0.031687967
27	0x3e312a72	0.17301348
28	0x3e22e788	0.15908635
29	0xbde3a4d0	-0.1111542
30	0xbca26ded	-0.019827807
31	0x3da5aa88	0.08089167

mlp.1.running_mean f4 [32]
0	0x3d04d1c8	0.032426625
1	0xbdd5c58c	-0.1043807
2	0x3d3860ca	0.04501418
3	0x3e0abd53	0.13548784
4	0x3df45caf	0.119317405
5	0xbdbb89b5	-0.09157125
6	0x3dbded88	0.09273821
7	0xbdcfc393	-0.10144725
8	0x3e0635af	0.13106416
9	0x3e114a2d	0.14188452
10	0xbd07b77c	-0.03313397
11	0x3dcebcd3	0.10094609
12	0x3e79ba6e	0.24387524
13	0x3df377cd	0.118880846
14	0x3d8fc8b3	0.07020702
15	0x3c19dc78	0.009390943
16	0x3d084d22	0.033276685
17	0xb996ef44	-0.00028788496
18	0x3e01165b	0.12606184
19	0xbc431c99	-0.011908674
20	0x3c8e3148	0.017357484
21	0x3e1201f3	0.14258556
22	0xbd75455c	-0.0598806
23	0xbd9febb7	-0.07808631
24	0xbe02f70e	-0.12789556
25	0x3e431f46	0.19054899
26	0x3de0fb86	0.10985474
27	0xbd68858b	-0.05676798
28	0x3dbb30d0	0.091401696
29	0x3d467691	0.048452917
30	0x3cc410fa	0.023933876
31	0x39ed3cee	0.0004524956

mlp.1.running_var f4 [32]
0	0x398e00f3	0.00027085058
1	0x39b5357a	0.00034562853
2	0x39acb003	0.00032937535
3	0x39987620	0.0002907971
4	0x398c5a3c	0.0002677011
5	0x3974e1df	0.00023353797
6	0x3a577014	0.00082183
7	0x390ba4ad	0.0001331742
8	0x3924107e	0.00015646403
9	0x38db7480	0.000104644336
10	0x39d7a76b	0.00041132732
11	0x3a932cf1	0.0011228604
12	0x39148aa9	0.00014166035
13	0x3a47caf1	0.0007621488
14	0x3966c67e	0.00022008453
15	0x396f5eb8	0.00022828102
16	0x3a6d8f64	0.00090621994
17	0x370cafb3	8.385558e-06
18	0x3a2e0269	0.00066379324
19	0x3943ced6	0.00018673702
20	0x39d9c3d1	0.0004153536
21	0x3a8fc2aa	0.0010968049
22	0x3949653b	0.00019206565
23	0x39822d74	0.00024829397
24	0x39b200c5	0.0003395138
25	0x3965d495	0.00021918335
26	0x3a99f825	0.0011746926
27	0x3945b1e4	0.00018853653
28	0x3a350536	0.00069053785
29	0x399a0dec	0.00029383542
30	0x398823e3	0.0002596668
31	0x3911d3e8	0.00013907219

mlp.3.weight f4 [1, 32]
0	0x3ddd9e78	0.10821241
1	0xbd774439	-0.060367797
2	0xbdbc2392	-0.09186472
3	0xbe1bc5b7	-0.15212141
4	0x3e105c1c	0.14097637
5	0x3e4029fc	0.18766016
6	0xbec6c07b	-0.38818726
7	0xbe5f4323	-0.21802954
8	0xbe36b32e	-0.17841789
9	0x3e3d6fd7	0.18499695
10	0xbe78f132	-0.24310759
11	0xbe1dc344	-0.15406519
12	0x3ee29c0f	0.44259688
13	0x3dca236b	0.09870037
14	0xbd9dcebd	-0.07705448
15	0xbbed70bc	-0.007246105
16	0x3e44fdea	0.19237486
17	0xbe68f693	-0.2275031
18	0x3eb5e289	0.35524395
19	0x3de39409	0.1111222
20	0x3dfd6b0d	0.12373934
21	0x3e6972c5	0.22797687
22	0xbe828f72	-0.25500065
23	0xbe7c48b8	-0.24637115
24	0x3db3a607	0.087719016
25	0x3e07cb97	0.13261257
26	0xbe4a7b53	-0.19773607
27	0xbe18ca41	-0.14920904
28	0xbdf4d931	-0.119554885
29	0xbe11d0b0	-0.14239764
30	0x3e3ed8b2	0.1863735
31	0x3dc8d25b	0.09805747
