output_bbox_gcn/EVALUATOR_layout_MultiLayer_2023_09_21_16_51_13/Model/evaluator_910.pth (torch, 9127 bytes, 11 tensors)

LayoutSeq.weight_ih_l0 f4 [32, 4]
000000 a2 2a ad 3d 8c c5 0a be b1 05 9e bd 27 ff a1 3d
       0.08455397 -0.1355192 -0.07715929 0.079099946
000010 ee bd 06 3e fc 2c 40 be ae 1e 0b bd c3 32 ac 3d
       0.1315839 -0.1876716 -0.033964805 0.084081195
000020 af 0c 30 3e f1 b8 11 3e 89 89 44 3e 59 e6 99 3e
       0.17192338 0.14230706 0.1919309 0.30058554
000030 f3 57 8d be f1 d1 ef 3d df b1 26 3e 11 81 6b 3d
       -0.27606162 0.11709965 0.1627879 0.057496134
000040 50 a7 a5 be 3c bf 99 3e 09 4a d3 3d e4 21 48 3e
       -0.32354212 0.30028713 0.103168555 0.19544178
000050 8a 22 82 be 4b 1c 5d 3d 27 13 0b 3e 44 15 23 3e
       -0.25416976 0.05398206 0.13581525 0.15926081
000060 dd c1 3f 3e ca ec d6 3d cd 70 5d be 82 46 05 be
       0.18726297 0.10494383 -0.21625061 -0.13015178
000070 c4 cb b3 bd df d1 46 3e f1 c9 15 bd fd b8 af 3e
       -0.087790996 0.19415997 -0.03656954 0.34320822
000080 02 d1 39 3e 25 55 9a 3e b9 45 5a 3e 8d 26 90 3b
       0.18146136 0.30143085 0.2131566 0.004399127
000090 87 09 9e 3e 66 55 e3 bc e3 be d2 bd 2e 6e c6 3c
       0.30866644 -0.027750682 -0.10290315 0.02422246
0000a0 d2 14 93 be d8 34 ab 3d bf 26 5d be 0d 99 35 be
       -0.28726822 0.083596885 -0.21596812 -0.17734165
0000b0 78 2d b5 bd 2d 0d 2e 3d c1 f1 39 be 33 6f 37 be
       -0.08846563 0.042493034 -0.18158628 -0.17913513
0000c0 32 bf 63 be f5 74 1f bd ff 83 9c 3e 73 26 3c bd
       -0.22240904 -0.0389299 0.30569455 -0.045935106
0000d0 0d 60 a5 bc 26 11 43 3e 67 b9 8f 3e b4 cc ce 3e
       -0.020187402 0.1904951 0.28071138 0.4039055
0000e0 ad 48 49 be 11 e0 df bd e3 d4 5c be f9 c9 05 3a
       -0.1965663 -0.10931409 -0.21565585 0.00051036436
0000f0 df bc 01 3e 22 6e 99 3e 8f 6b 85 3e 94 d3 ef bc
       0.12669705 0.29966837 0.26058623 -0.029275693
000100 aa a7 17 3e 68 8c ca 3d 12 51 92 3e 06 df 9a 3c
       0.14810053 0.098900616 0.28577477 0.018905174
000110 d9 0e 67 bd 0a fa 82 be 68 1b 32 be ee af 16 be
       -0.056410644 -0.2558139 -0.17393267 -0.1471555
000120 b9 b3 8f bd 14 86 e2 3e fc c4 a7 be 55 73 09 bd
       -0.07016701 0.44242918 -0.32767475 -0.033557255
000130 90 fb 08 be ef e0 66 be 76 63 c5 3d 4f 9d bf be
       -0.13377213 -0.22546743 0.09638111 -0.37424704
000140 2e 0c ab be 17 97 a0 3e 48 de 9d bd 5f b0 9a 3e
       -0.3340773 0.31365272 -0.077084124 0.30212685
000150 03 c8 a5 3e ab 4b a7 be d6 bb 75 3d b1 96 b3 3d
       0.3237916 -0.32674918 0.059993587 0.087689765
000160 69 bb 8a be 05 91 12 3e f4 5f a2 3e 09 14 81 be
       -0.27096108 0.14313133 0.3171383 -0.25210598
000170 33 49 14 be ab e1 2d 3e c2 b8 ea 3d 89 db de 3d
       -0.14481048 0.16980617 0.11461021 0.10881717
000180 b3 d0 19 3d e0 90 18 be 7c 16 90 3e a9 a8 17 be
       0.037552547 -0.14899015 0.28142154 -0.14810432
000190 d3 6f 36 3d 7a df a9 3e ac 7b 27 3e 17 b9 5e 3d
       0.044540238 0.33178312 0.16355771 0.054375734
0001a0 b4 62 02 bd 2f f9 06 be c7 5f 61 3d e8 df 48 3d
       -0.031832412 -0.13180993 0.05502298 0.04904166
0001b0 17 fb d7 bd b8 2a e8 bd d3 67 9c 3e ba a4 46 3d
       -0.105459385 -0.11336273 0.30547962 0.04849694
0001c0 5c 57 20 3d af c4 fd bd 01 24 d1 bd 53 6f 10 3e
       0.039145812 -0.1239103 -0.10211945 0.14104967
0001d0 5b 2a 44 be a9 9a 90 3e 38 c5 a7 bd 32 2c 20 be
       -0.19156782 0.28242996 -0.08191913 -0.15641859
0001e0 b7 8e db 3c 88 d0 85 3e 20 89 53 be 0b f3 86 be
       0.02680145 0.2613566 -0.20657778 -0.26357302
0001f0 93 23 65 3e cb 2b fb 3d ab 3f 91 3d c6 af 8d bd
       0.22376852 0.12264212 0.07092222 -0.06918292

LayoutSeq.weight_hh_l0 f4 [32, 8]
000000 01 bc 11 3e 83 2b 7e be a1 d0 12 3e f9 a1 64 be
       0.14231874 -0.24821286 0.14337398 -0.22327413
000010 01 02 d2 3c 0e cf cf 3d 32 f0 45 bb 9f dc 4d 3e
       0.025635721 0.101469144 -0.0030202982 0.20103692
000020 6b ea 6c 3e f7 1c e2 3d e5 4e 08 3e 1c 59 49 be
       0.23136298 0.11040681 0.13311346 -0.19662899
000030 2d 09 8d 3d a7 15 06 3d 33 f5 a3 3d ad fb 2d 3e
       0.06886516 0.032735493 0.080057524 0.16990538
000040 65 d1 21 be 5c b6 1a 3e e4 8f 9e bd 7b f5 8c bd
       -0.15802534 0.15108627 -0.07742289 -0.06882759
000050 6f f0 03 3d 0f e2 66 3d dc f4 53 3e 39 bc 04 be
       0.032211717 0.05636793 0.20698875 -0.12962426
000060 38 f5 c6 3d 99 bc e4 3c 73 74 cc 3d 44 de f4 bc
       0.097147405 0.027921962 0.099831484 -0.02989114
000070 55 3b 7b 3d 1f 72 06 bc 17 98 ac 3c 01 35 11 3e
       0.06133588 -0.0082059195 0.021068616 0.14180376
000080 6b 0c 56 3e 0a 80 71 be 7b d9 2f be 9a 25 99 be
       0.20903175 -0.23584 -0.17172806 -0.299115
000090 bd 55 6e 3c 5d a3 5f bd b5 32 1d 3e f5 57 b2 3c
       0.014546809 -0.054599155 0.15351374 0.021770457
0000a0 fc 8e 1b be 07 41 81 bb 11 8f ac be c8 8f 56 be
       -0.15191263 -0.0039445194 -0.337029 -0.20953286
0000b0 d4 2e 89 be ed 3c 50 bd ed 14 de bd ce be 5f 3e
       -0.2679354 -0.050839353 -0.10843835 0.2185013
0000c0 c5 50 1f be 02 e4 59 bd 38 da 55 3d 3e 6e bb bd
       -0.15558155 -0.05319596 0.052210063 -0.091518864
0000d0 b7 e8 24 be 24 f7 a2 bc 77 84 00 bd 8d 0f 93 3d
       -0.16104399 -0.019893236 -0.03137633 0.071807005
0000e0 aa f6 47 be ed 3b 89 3e 67 99 ba 3c f4 7e 00 bd
       -0.19527689 0.26803532 0.022778226 -0.031371072
0000f0 a6 d2 6a 3d 69 26 9e 3d fc 6e 74 be 9e ea c5 3d
       0.057329796 0.0772217 -0.23870462 0.0966389
000100 a2 ef e0 bd 5e 4e 7f be 16 6b 68 be 93 3a a7 3d
       -0.10983206 -0.24932238 -0.226971 0.08165469
000110 4b e7 f7 3c 8e 1f 18 bd 66 af 46 3e f1 2c b6 bd
       0.030261656 -0.037139468 0.19402847 -0.08895291
000120 49 52 cf bd 72 8c 41 3d 3c f9 f4 3d 27 00 7b be
       -0.101231165 0.04725308 0.119616 -0.24511777
000130 68 56 3a 3e 4d 1f 19 3e e8 cd c0 3d 29 12 81 bd
       0.18197024 0.14953347 0.094142735 -0.06302292
000140 7b 84 23 be 4e 96 0b be 81 8f fd bd d3 52 0f bd
       -0.15968506 -0.13631555 -0.12380887 -0.034991097
000150 46 b4 53 bd 47 ea b3 3c ec 63 7c be d9 4a a8 3d
       -0.051685594 0.021962298 -0.24647492 0.08217401
000160 fb b0 8f bc 70 7d 88 bd 75 58 24 be 46 d3 84 be
       -0.017540446 -0.0666455 -0.16049369 -0.2594244
000170 07 a7 67 3d fd 4f 55 3e c3 45 45 3e d8 aa ff 3d
       0.056555774 0.20831294 0.19264893 0.12483758
000180 7f 11 2a be 37 79 76 3d c3 1a a6 3e 85 8f 48 be
       -0.16608237 0.060174193 0.32442293 -0.19585998
000190 6b 9b 3b 3e 17 22 f5 3d 79 a3 f0 bb 1d 40 45 3e
       0.18321006 0.11969393 -0.007343706 0.19262739
0001a0 55 a9 65 3d b4 c1 0c be e5 c2 a1 3e ef 41 4c 3e
       0.05606969 -0.13745767 0.31594005 0.19947027
0001b0 2f 1a 0d 3e c7 00 7a 3e bf 2e a7 bc 67 e0 a5 3e
       0.1377952 0.24414359 -0.020408032 0.32397768
0001c0 cc be 25 be 9b bf fe bd e4 04 72 bd be e0 3b be
       -0.16186064 -0.124388896 -0.059086695 -0.18347451
0001d0 4e 61 b0 bd a5 80 cd 3d 14 b4 9a 3d e1 f1 96 3a
       -0.086123094 0.100343026 0.075538784 0.0011516177
0001e0 85 6b 95 3d 45 a8 ae bd d8 f9 ee 3d 86 5a bd be
       0.07295898 -0.085281886 0.11668748 -0.36983126
0001f0 bb 45 1a be 76 62 04 3e 18 ee 13 3e ac ad 31 3e
       -0.15065663 0.12928185 0.14446294 0.17351407
000200 d3 01 70 be e5 9a d6 bd 34 45 0c 3e c9 25 12 3e
       -0.23438196 -0.104787625 0.13698274 0.14272226
000210 5b d0 61 3e 30 cd e8 bc 97 c6 a1 be 36 3d 54 3e
       0.22052138 -0.028418154 -0.31596825 0.20726475
000220 2e ad 2b bd 32 b3 23 be 35 5f 9b 3e 54 af 2e 3e
       -0.041913204 -0.15986326 0.30346075 0.1705907
000230 dd e3 98 3d 99 4d 9a 3e 49 86 8e 3e 1a 71 20 3e
       0.074653365 0.30137327 0.27836826 0.15668145
000240 7d e3 3a 3d 12 ae d0 3e b3 6a 3d 3e fb be 48 bd
       0.045627106 0.40757805 0.18497734 -0.04901026
000250 05 49 b3 be 8a bf 4a be 0a f8 86 3e f3 58 83 3d
       -0.35016647 -0.19799629 0.26361114 0.0641345
000260 fb 9a 82 be fd 6a eb 3d 65 53 bb 3e 47 7c c1 3e
       -0.25508866 0.11495016 0.36587062 0.3779013
000270 fc e4 8d 3d 26 ba 03 3e 7a a2 2a be 6e 53 d3 bd
       0.06928441 0.12863979 -0.16663542 -0.10318647
000280 4d 89 ea 3d d2 b8 96 3e f4 96 8d be 23 47 7a 3e
       0.11451969 0.29437882 -0.2765423 0.24441199
000290 a2 20 0d 3e ce 84 a7 be c3 12 82 be 0c 6c a5 3d
       0.1378198 -0.3271851 -0.2540494 0.08077249
0002a0 5a 46 4d be 35 28 9d 3d 5a a2 68 3e d9 c3 1c 3d
       -0.20046368 0.076736845 0.22718182 0.038272712
0002b0 47 d5 5d be 08 be da bd 44 b5 0d be bb 97 ca 3e
       -0.2166339 -0.10680777 -0.13838679 0.39568886
0002c0 89 73 56 3e 90 1e 37 3c 2b b0 8e 3e fb 5e a2 be
       0.2094251 0.01117672 0.2786878 -0.3171309
0002d0 0f 87 7b be 6a 4e b9 bd 63 33 70 3e bc 51 0e be
       -0.2456324 -0.090481594 0.23457102 -0.13898367
0002e0 7a b3 92 be a4 ae 6e be 22 1e 27 bd 3d 22 7c bc
       -0.28652555 -0.23308808 -0.04080022 -0.015389022
0002f0 fb 33 a8 be 2b a8 be 3e c8 33 50 3e 18 06 31 bd
       -0.32852158 0.37237677 0.20332253 -0.043218702
000300 d8 c0 f7 bc 23 69 03 3e 05 f7 2b 3d db 64 a8 be
       -0.030243322 0.12833075 0.041983623 -0.32889447
000310 06 4d f3 3b ff 95 bc 3c 59 9b 9a 3d 7c 16 92 3e
       0.0074249534 0.023020742 0.075491615 0.2853278
000320 1d b3 81 3e 0f 8d 6c be ad cb 1d be 53 b1 e5 3d
       0.25331965 -0.23100685 -0.15409727 0.112154625
000330 1d a3 ba 3d a4 73 30 3e 88 4e 58 3e 6a df 63 3e
       0.09113143 0.17231613 0.21123707 0.22253194
000340 da 8c 3e be 1d 9d 41 3e ef ff 41 3e 1d 47 5b 3e
       -0.18608418 0.1890759 0.18945287 0.21413846
000350 4a 78 10 be 83 03 83 bc 45 e9 52 3e 42 12 55 3e
       -0.14108387 -0.015992885 0.20596798 0.20807746
000360 98 6e 21 3e 8c 5f a7 bd 41 26 0d be 22 c8 99 be
       0.15764844 -0.08172521 -0.13784124 -0.30035502
000370 2e 65 37 bc e1 4f e0 bb 0f 61 98 3d 80 19 a5 3c
       -0.011193557 -0.00684546 0.074403875 0.02015376
000380 53 1a 13 3c 82 fb d5 3d 83 97 9f 3e cf d7 d2 3d
       0.008978444 0.10448362 0.31170282 0.102950685
000390 53 1f 03 be 32 38 3d 3c b2 56 56 be 75 76 6c bd
       -0.12804918 0.011549043 -0.20931509 -0.057730157
0003a0 08 44 53 be b9 89 59 bd cf 3d a0 bc 7e ff 55 be
       -0.2063142 -0.05310986 -0.019560723 -0.20898244
0003b0 43 f8 02 be 9e d8 eb 3b 8f 2b d1 bd c3 b9 ea 3d
       -0.12790017 0.0071974536 -0.10213386 0.114612125
0003c0 c5 15 65 be 91 d1 cb bd 9e 91 a5 3e 82 29 53 be
       -0.22371586 -0.09952081 0.3233766 -0.20621303
0003d0 72 26 f1 3d 36 39 11 bd 22 6c e5 bd a8 ae f7 bc
       0.11774911 -0.03545495 -0.11202265 -0.03023465
0003e0 ce 86 be 3d 67 f0 69 3d f0 98 b6 bd ab 73 05 bd
       0.09303056 0.05711403 -0.08915889 -0.032581013
0003f0 d5 5f d6 bd 57 2d 0a bc a2 23 24 3c c6 5a 0c 3e
       -0.10467497 -0.008433661 0.010018261 0.13706502

LayoutSeq.bias_ih_l0 f4 [32]
000000 ea 5b bd 3d a0 5d 82 3e 86 3d 10 3e 8d 2b c6 3d
       0.09246047 0.25462055 0.1408597 0.096762754
000010 e3 e3 16 3d da 49 8b 3e 22 20 8a 3e a8 27 0a be
       0.036838423 0.27204782 0.2697764 -0.1349169
000020 6d 64 3c bd da 04 6a 3e 31 56 f0 bb f9 51 0b 3e
       -0.04599421 0.22853413 -0.0073344936 0.13605489
000030 40 e3 6e be 80 fc f1 3d f7 26 61 3e 11 d4 18 3c
       -0.23328876 0.11815739 0.2198752 0.009327904
000040 70 fc 96 bd 07 36 e5 3d ac e9 01 3e 17 67 2e be
       -0.073723674 0.111919455 0.12686795 -0.17031513
000050 de 21 9b bd 41 34 9c 3c a4 a7 d7 bb 97 1d b7 3d
       -0.07574819 0.019067885 -0.0065812636 0.08941191
000060 5d c5 64 3e 50 05 cc bd 4a 2f 9e 3e 2e 35 cc bd
       0.22340913 -0.09961951 0.30895454 -0.09971081
000070 ca f6 c6 3e c1 51 1e 3c 99 a3 3f be 82 d4 4e 3e
       0.3886016 0.009663046 -0.18714751 0.20198253

LayoutSeq.bias_hh_l0 f4 [32]
000000 01 59 af bc 72 d2 a4 bd 83 52 a2 3e fe 51 9a 3e
       -0.021404745 -0.08047952 0.31703576 0.3014068
000010 d9 71 51 be 4a e1 82 be 0a 45 13 be d2 f6 cd 3d
       -0.20453586 -0.25562507 -0.14381805 0.10056843
000020 d9 97 80 3e ac 3b b3 3e 90 c8 40 be a6 f3 c2 3e
       0.2511585 0.35006464 -0.18826509 0.38076514
000030 93 08 7b be c2 3c 59 bd 38 31 97 3c a5 e0 f4 3d
       -0.2451499 -0.05303646 0.018456087 0.1195691
000040 a0 df 3c be 0a e7 8a be 6a a7 47 3e 29 cc dc 3d
       -0.18444681 -0.27129394 0.19497457 0.10781128
000050 55 04 06 bd 14 ce f7 3c a7 2d 99 3e da 38 01 be
       -0.032718975 0.030249633 0.29917642 -0.12619343
000060 43 6f 08 bb 28 0a 3b 3e 68 2e 25 3e a1 8b e4 3d
       -0.002081827 0.18265593 0.16130984 0.111594446
000070 60 37 3b be 9f 17 d7 bd b1 53 b4 bd 37 6b 8b 3e
       -0.18282843 -0.10502552 -0.08805025 0.27230236

mlp.0.weight f4 [32, 8]
000000 18 9e 8c 3d 33 0b 64 be 20 60 4f 3d 47 4f 28 3e
       0.068660915 -0.22269897 0.05062878 0.16436492
000010 2e 3e 12 3e 9d 27 d7 3d e8 6a c3 bd 4c 78 04 3e
       0.14281532 0.105056025 -0.09541875 0.12936515
000020 97 81 59 be e5 15 b1 3d 93 cb 73 bd ae 27 c8 3c
       -0.21240841 0.08646754 -0.059520315 0.024432983
000030 7e b4 4c 3d 52 c5 2b 3d 2e c4 67 be 7c d6 c8 bd
       0.04997682 0.041936226 -0.2263343 -0.09806535
000040 d2 ef 05 3d bd fc 24 be e8 99 69 3e ea 65 94 3d
       0.032699414 -0.16112037 0.22812617 0.07246001
000050 7d 91 74 be 71 19 5d bd 66 4f bb bc 89 3d 34 be
       -0.23883624 -0.05397934 -0.022865009 -0.17601599
000060 a7 d2 cd 3e 6e be a5 bc 17 ad cc 3e 44 bb cb 3c
       0.40199777 -0.020232406 0.39975807 0.024869569
000070 23 d8 d3 3d c1 02 3b 3e 4f 13 32 3d 30 29 ff 3d
       0.10343959 0.1826277 0.043475445 0.12459028
000080 cc ee ab 3d 33 ba 75 be e4 e5 02 bd f5 16 4f be
       0.08395156 -0.2399681 -0.031957522 -0.20223601
000090 04 c4 98 be c0 98 07 3a f4 ad 15 3e 20 37 86 be
       -0.29837048 0.0005172603 0.14617139 -0.26213932
0000a0 fd 8d fb bc f6 d3 04 3e 6c bd 6e bd fc 52 ca 3d
       -0.030707354 0.12971482 -0.058286116 0.09879109
0000b0 5a 58 36 3e 28 f3 34 3d ee 02 a1 be 77 d6 5f 3e
       0.17807141 0.044177204 -0.31447548 0.21859156
0000c0 d5 8c a8 bd 18 c0 f0 be 18 7f 1a 3d 9c 3b 85 bd
       -0.082299866 -0.47021556 0.037718862 -0.0650551
0000d0 33 a3 7d 3d 3b 3e 09 3e ed 31 4a be df 1c 1e be
       0.061923217 0.13402645 -0.19745608 -0.15440701
0000e0 9f 31 05 3e f6 77 2d 3e 0f 7f 5e be 4f eb 4f be
       0.1300721 0.16940293 -0.21728157 -0.20304607
0000f0 c3 89 a6 bd 91 94 af be 14 33 39 bd 53 c2 c8 bd
       -0.08131745 -0.34293035 -0.045214728 -0.098026894
000100 b0 a6 9f bd 6a 79 a9 be 1e 40 07 3e 7f ba 96 be
       -0.07795465 -0.33100444 0.13208053 -0.2943916
000110 0d 97 2b be 27 04 7d be ca 09 66 3e 5e 43 c7 be
       -0.1675684 -0.24708615 0.22464672 -0.38918585
000120 ca 9f c6 be 66 1b 1a 3d 7e 4b 77 bd 3a dc 93 3d
       -0.38793784 0.037623785 -0.06037473 0.07219739
000130 ee 19 84 be 87 ed 3f 3e f4 25 b4 bd a9 9e 13 3f
       -0.25801033 0.18742953 -0.087963015 0.5766397
000140 a9 97 52 be ab 4e 83 be a1 a1 6d 3d 16 e1 1a 3e
       -0.20565666 -0.25645956 0.05801547 0.15124926
000150 8b 16 36 bc f1 c8 db bd d6 26 ac ba 5b d7 62 be
       -0.011113773 -0.10731686 -0.0013134133 -0.22152464
000160 5c c2 9f 3d 8f ec b8 3d d8 9f 17 3e 6a cd 80 be
       0.07800743 0.09029495 0.1480707 -0.25156718
000170 45 64 8f bd c6 dc 45 bc 39 94 d8 be 81 4c b9 3e
       -0.07001547 -0.012076562 -0.42300585 0.3619118
000180 e7 03 82 be ba ec 81 3e 73 9d 1e 3e 3d e0 61 3d
       -0.25393602 0.2537592 0.1548975 0.05514549
000190 61 8f e6 be 0f 31 93 3e 50 03 cd bd b3 8b 64 3f
       -0.45031264 0.28748366 -0.100103974 0.89275664
0001a0 47 7f 1b 3e 4f f0 17 be 84 99 50 3e e7 a1 6f bd
       0.15185271 -0.14837764 0.20371062 -0.05850401
0001b0 44 2b c0 3d ab c1 64 3e ee 58 4e be 0c cd 0d 3e
       0.09383252 0.22339503 -0.20151111 0.1384775
0001c0 96 dc 33 3e 06 fc 5f bd 8d dd 6e 3d 9a 79 0e be
       0.17564616 -0.054683708 0.058316756 -0.13913575
0001d0 80 df 2d 3c a5 05 73 bd 2d 06 85 3d 09 7a 54 3c
       0.010612369 -0.059331555 0.064953186 0.012968549
0001e0 66 20 20 be 9b c6 15 3d f2 d4 fb 3d bf 5c fd 3b
       -0.15637359 0.036566358 0.122964755 0.0077320035
0001f0 2f 20 64 3e 31 a8 c0 3d b5 da 8d bd a4 f5 af 3d
       0.22277902 0.0940708 -0.06926481 0.08591774
000200 7a da 42 3e 95 25 5a be d8 4a c6 3c 82 57 3c be
       0.19028655 -0.21303399 0.02420561 -0.18392757
000210 d0 df 57 3e 8e c5 49 be e6 76 fc bd 2d 39 ad bc
       0.21081471 -0.19704267 -0.123273656 -0.021145428
000220 fb 22 28 be b8 70 b9 bd a2 fb 87 bd 3e 23 97 3c
       -0.16419594 -0.090547025 -0.06639792 0.018449422
000230 85 5f 0b be f3 5b 74 be 2b 9c 13 be 60 3d 05 3e
       -0.13610657 -0.23863201 -0.14415042 0.13011694
000240 07 d3 10 be 4f 9b 62 be cb 04 d0 3e 93 94 3d 3d
       -0.14143 -0.22129558 0.40628657 0.04628427
000250 43 43 c5 bd fe 24 bb 3d 14 ee 58 3b 14 94 d2 bd
       -0.0963197 0.09137915 0.003310089 -0.1028215
000260 9d 4a 08 3e 2e 66 70 3d bc ef f1 3d 6b 37 10 3e
       0.13309713 0.058691196 0.11813304 0.1408364
000270 23 a5 9c bc b0 e2 69 bd ae d2 bb 3d aa 4b 47 3d
       -0.019121712 -0.05710095 0.09171043 0.048656143
000280 95 2f 99 be 42 d7 08 3e 96 2e 5c 3d c4 2b fa 3a
       -0.29919115 0.13363364 0.053755365 0.001908653
000290 1f f6 4e bd 59 f7 5a bd d5 37 70 3d 32 d8 f2 3d
       -0.050527688 -0.053458545 0.058646996 0.11857642
0002a0 dd ae 97 be d3 a6 bb bd 02 ff 31 be dc 7d 02 be
       -0.29625598 -0.091626786 -0.17382434 -0.12743324
0002b0 6c 5e 19 be 51 4d 5f 3d 7b 5d 3d be 00 66 04 3f
       -0.14977425 0.054517094 -0.18492691 0.5171814
0002c0 18 31 c3 be 3e 99 0d be e1 85 d9 bd 13 c2 50 3e
       -0.38123393 -0.13827989 -0.106212385 0.20386533
0002d0 92 27 89 3e f7 20 b3 ba 4d 5d 67 bd ef 32 eb 3d
       0.26788002 -0.001366644 -0.056485463 0.11484324
0002e0 2f 94 53 bd 68 81 6b be f7 c9 42 be 70 95 30 bc
       -0.05165499 -0.22998583 -0.19022356 -0.010777816
0002f0 05 c8 99 3e 58 e0 8b be c3 69 0a bd 87 2f c8 bd
       0.30035415 -0.27319598 -0.03379227 -0.0977469
000300 3c ba d6 bd 4e c0 10 be 41 12 b8 be 61 7a 82 3e
       -0.1048474 -0.14135858 -0.35951427 0.25483993
000310 94 f3 ae 3d 36 c3 3c bd d0 fd 29 be 0f db db 3d
       0.085425526 -0.046084605 -0.16600728 0.107351415
000320 6c a6 9f be 5c b0 45 be 0d c2 cf 3d 72 24 3e bd
       -0.31181657 -0.19305557 0.10144434 -0.046421476
000330 2e 2f a4 bc e2 af eb 3c d6 eb d7 3d 3b 15 a0 3e
       -0.020042028 0.02877039 0.10543029 0.31266198
000340 06 1f ad 3d 61 21 a8 be a5 e7 16 be a7 18 09 bd
       0.08453183 -0.32837966 -0.14736803 -0.033470776
000350 4f c2 b4 3d 4d 0d a3 3e 0a 79 0e 3e 02 43 e7 bc
       0.08826124 0.31846085 0.1391336 -0.028230194
000360 db 0e 77 3e 75 a7 1c bd 23 9a 31 bc f7 e9 16 3d
       0.2412676 -0.038245637 -0.010839972 0.03684422
000370 61 45 ce 3d 59 ee 72 be 42 f2 48 3e 33 36 2d be
       0.10071827 -0.23723735 0.19623664 -0.16915207
000380 b9 ed 77 3d b4 40 81 be d5 16 cf 3e 6e d1 9f 3e
       0.060529444 -0.25244677 0.40447107 0.3121447
000390 f7 2d c0 bd 81 c7 63 bd 15 6c 0b 3e 20 60 cc 3b
       -0.09383767 -0.055610184 0.13615449 0.006237045
0003a0 b4 2f 67 3e d7 27 e6 3d 7e 33 62 bd 6f db 33 be
       0.22576791 0.112380676 -0.055224888 -0.17564176
0003b0 1e ab 7e be af 84 db 3d 47 f0 ed 3d 41 ce 18 be
       -0.24869964 0.10718667 0.11618095 -0.1492243
0003c0 79 52 d8 bd 66 a5 bd bc 62 53 f5 bc 8e bb 3d bc
       -0.105626054 -0.023150157 -0.029946987 -0.011580361
0003d0 65 97 e5 bd 19 cf 7b be e5 b5 7c 3e 72 7b 21 bc
       -0.11210517 -0.2459072 0.24678762 -0.009856092
0003e0 b0 5f 39 3e c3 4f 4c be 69 15 62 3c eb 38 c8 3d
       0.18102908 -0.19952302 0.01379905 0.09776481
0003f0 b3 1e ff bd c3 10 ac 3c 34 4e 3e bd c3 6c 21 be
       -0.12457027 0.021004086 -0.0464613 -0.15764146

mlp.0.bias f4 [32]
000000 24 5d 7d b7 14 87 69 36 b6 fb 2b b7 b0 b8 c9 b7
       -1.5101661e-05 3.4798331e-06 -1.0251e-05 -2.4047069e-05
000010 50 0e 79 b7 02 d1 50 b8 66 f6 83 b7 64 a8 0c 38
       -1.4844889e-05 -4.9785718e-05 -1.5731155e-05 3.3535427e-05
000020 d8 af 32 b8 3a a5 95 38 40 c3 7e b8 40 3a 0f b4
       -4.2602274e-05 7.1356495e-05 -6.074016e-05 -1.3339104e-07
000030 3c f4 00 b9 c9 ac 2c b7 b8 17 14 b6 98 56 65 b6
       -0.00012298016 -1.0292229e-05 -2.2067525e-06 -3.4174063e-06
000040 c4 82 18 37 71 84 1a 38 9e 4f 93 b7 47 89 15 b7
       9.090352e-06 3.6839807e-05 -1.756084e-05 -8.913054e-06
000050 a6 02 1a 37 78 47 a8 35 64 e7 f2 36 19 96 42 b7
       9.179732e-06 1.2537776e-06 7.2390994e-06 -1.1598248e-05
000060 bd d5 1e 38 ca 08 5e b8 2c f7 e1 b7 e2 55 8e 38
       3.7869195e-05 -5.293711e-05 -2.6937189e-05 6.7870846e-05
000070 02 5b 52 b7 05 9c 0a 38 cc 3d 08 b8 fc bb 31 b7
       -1.2538165e-05 3.304707e-05 -3.248248e-05 -1.0593791e-05

mlp.1.weight f4 [32]
000000 c5 07 36 3f 0a b3 13 3f 32 df 42 3f 28 3a 27 3f
       0.71105605 0.57695067 0.7612182 0.65323114
000010 d2 61 44 3f 22 98 57 3f 91 7c 5f 3f a6 52 51 3f
       0.7671176 0.8421651 0.8729945 0.81766737
000020 e8 46 54 3f 38 41 43 3f 6b ac 55 3f 1e cb 47 3f
       0.82920694 0.7627139 0.83466214 0.7804431
000030 29 e8 82 3f 10 8d 2b 3f 05 bc 23 3f dd c5 25 3f
       1.02271 0.6701212 0.6395877 0.6475504
000040 62 5c 53 3f cb 5d 57 3f 3a 08 72 3f ea 90 3c 3f
       0.8256284 0.8412749 0.945438 0.7365862
000050 40 37 47 3f 87 5f 61 3f 4f 8b 59 3f 76 1c 58 3f
       0.7781868 0.8803639 0.84978193 0.8441843
000060 5e 8b 34 3f 19 49 43 3f 81 30 52 3f dc 52 3e 3f
       0.7052516 0.76283413 0.8210526 0.74345183
000070 19 06 48 3f e8 1a 40 3f 01 df 5c 3f dc 00 28 3f
       0.78134304 0.75041056 0.86277777 0.6562631

mlp.1.bias f4 [32]
000000 e9 44 d9 3c e6 bb 78 3e 5f 32 de 3d a4 1f ad be
       0.026522117 0.24290428 0.10849451 -0.33813202
000010 bd b6 00 3d 01 98 45 3d 3a 66 d6 bd ef 44 0c bd
       0.031424273 0.048240665 -0.10468717 -0.034245428
000020 07 05 06 bd 93 fd 73 3d 20 62 36 3d 74 60 d9 bd
       -0.03271964 0.059568 0.044527173 -0.106141
000030 c5 e2 36 bd 73 25 a9 3d 96 42 a0 bd ad eb 97 3d
       -0.044649858 0.08259096 -0.078252 0.074179985
000040 ba 44 71 3c 8c 7d 7d bd 46 30 ae bc 75 62 ee bd
       0.014725858 -0.06188731 -0.021263253 -0.11639873
000050 1c 5c 0a bd 5f 0b b1 3d 53 1e 37 3e f8 8b 76 ba
       -0.03377925 0.08644747 0.17882662 -0.0009405012
000060 9d a4 f1 3c 00 59 a1 3d 85 68 1d bd 3c 8f 28 3e
       0.029497439 0.078783035 -0.038429756 0.1646089
000070 62 c7 04 3e b7 63 e4 bd 5a 94 12 bd cc be a5 3d
       0.12966684 -0.111518316 -0.03578601 0.08093032

mlp.1.running_mean f4 [32]
000000 00 2f 1b 3d e4 7d e8 bd b4 2c 23 3d b2 d8 07 3e
       0.03788662 -0.11352137 0.039837554 0.13266256
000010 5f 35 03 3e ca c7 c5 bd 19 14 d2 3d 72 9e cc bd
       0.12813328 -0.09657247 0.102577396 -0.099911585
000020 91 c3 0b 3e 16 4b 18 3e aa 8e 1f bd bc 3a e0 3d
       0.13648821 0.14872393 -0.038954414 0.10948703
000030 2c 20 82 3e d6 66 00 3e 65 1b a0 3d 12 b7 18 3b
       0.2541517 0.12539229 0.07817725 0.0023302478
000040 3e de 2d 3d cc b3 99 bb 71 d8 fd 3d a1 d6 84 bc
       0.042448275 -0.004690623 0.123947985 -0.016215624
000050 d2 36 ae 3b cd 0f 27 3e e5 f9 85 bd c2 07 a2 bd
       0.0053165937 0.16314621 -0.06541804 -0.07911636
000060 3a 7a 02 be 55 b0 46 3e b2 e8 0c 3e 43 bb 72 bd
       -0.12741938 0.19403203 0.13760641 -0.059260618
000070 bf 63 a2 3d 9d e7 43 3d cc 86 ac 3c e7 9f 48 3b
       0.07929181 0.047828306 0.02106037 0.0030612887

mlp.1.running_var f4 [32]
000000 a6 38 ac 39 10 e7 c4 39 ef d1 ce 39 e5 f3 91 39
       0.00032848603 0.00037556188 0.00039447795 0.0002783827
000010 1f 05 ad 39 64 2b 7b 39 c9 41 5d 3a 50 21 16 39
       0.00033000947 0.0002395339 0.0008440284 0.00014317525
000020 c9 e2 0b 39 ae b0 13 39 85 7f f8 39 29 6d a6 3a
       0.00013340557 0.00014084831 0.00047397256 0.0012697327
000030 db 68 1e 39 f1 6a 68 3a 6d 5a 89 39 36 db af 39
       0.00015107116 0.0008866033 0.0002619805 0.00033541926
000040 a5 01 8b 3a 5c 03 3d 37 28 f7 4c 3a 9f 52 6f 39
       0.0010605349 1.126606e-05 0.00078188116 0.00022823595
000050 92 3d 1a 3a 0a d2 bc 3a 00 5c 7f 39 7b b5 8e 39
       0.00058838085 0.0014405858 0.00024352968 0.00027219564
000060 9b 1d d3 39 31 bd 60 39 1b 1e ca 3a 1c 74 3c 39
       0.00040267114 0.00021432784 0.0015420349 0.00017972331
000070 70 f2 76 3a a7 2f 9b 39 e0 9a a7 39 88 40 1e 39
       0.0009420281 0.00029599408 0.00031968113 0.00015092094

mlp.3.weight f4 [1, 32]
000000 93 08 e0 3d dd d9 72 bd bb 34 bf bd 6e cb 15 be
       0.109391354 -0.059289802 -0.093362294 -0.14628384
000010 48 0e 0d 3e 52 8a 41 3e e6 1b cb be 76 8c 66 be
       0.13774979 0.18900421 -0.39669722 -0.22514519
000020 74 7a 3c be e9 82 34 3e 67 8f 7c be bd 65 22 be
       -0.18406087 0.17628063 -0.24664079 -0.15859123
000030 c1 c8 e2 3e d2 e9 c3 3d 76 54 91 bd ce 44 fe bb
       0.44293788 0.09566082 -0.07096188 -0.007759667
000040 a7 0c 41 3e 32 a2 5c be a6 11 b7 3e 48 a4 e1 3d
       0.18852483 -0.21546248 0.35755652 0.11017662
000050 71 3a fc 3d df bc 6b 3e c5 a0 84 be ee 64 82 be
       0.12315834 0.23021267 -0.25903907 -0.25467628
000060 ed 64 b8 3d a3 41 06 3e be bb 49 be 39 ec 15 be
       0.09003625 0.13110976 -0.19700524 -0.14640893
000070 c6 c4 ed bd 60 50 13 be 90 bb 3f 3e c3 ce c0 3d
       -0.11609797 -0.1438613 0.18723893 0.09414437
