output_bbox_gcn/EVALUATOR_layout_MultiLayer_2023_09_21_16_51_13/Model/evaluator_800.pth (torch, 9127 bytes, 11 tensors)

LayoutSeq.weight_ih_l0 f4 [32, 4]
00000000: b74b cf3d c241 0dbe 70ec 7fbd 14fc b13d
00000010: 4fb6 133e 1c9d 4dbe 3e5b 15bd 1ebd a93d
00000020: b0e3 413e 60c7 223e 01e2 423e 7774 973e
00000030: 8a17 8fbe 5f19 083e 83a6 273e b3f5 5c3d
00000040: 0064 9ebe 34ed 9b3e c462 cc3d ab56 4a3e
00000050: 80a8 7dbe a1e5 993c cc50 0a3e 201f 243e
00000060: 5d4d 493e c9fd e63d 5f92 61be 25fa 09be
00000070: abc1 d9bd ed58 4d3e 728c f7bc 38ec af3e
00000080: b690 3d3e ed60 963e f4f2 5a3e 26f9 ca3b
00000090: 4e05 a13e 7a9b 10bd 179b ccbd 948d 803c
000000a0: f1f7 91be 954d 9f3d 7084 4dbe 0106 3abe
000000b0: b8b3 a9bd b769 1d3d 4e64 3fbe 206a 38be
000000c0: 97e9 6dbe 1ef2 1ebd f136 9e3e 8556 6bbd
000000d0: a941 3abc 9a74 5b3e 81b3 913e c36f ce3e
000000e0: 62eb 50be f5d8 dabd 0573 61be 218d 88bb
000000f0: 5fd3 053e b929 9d3e b8a4 883e 0d79 f1bc
00000100: f31b 143e 5abe c83d 86c9 923e 9797 9d3c
00000110: 4b38 7bbd 6f52 81be 72fb 31be 368a 18be
00000120: 457b 9fbd 1eb0 d83e eeb8 a9be 5f09 f1bc
00000130: 8db9 0ebe 2a81 63be 7213 b93d bad3 bfbe
00000140: f16a a7be 6d09 a13e 7ac1 a0bd c4b3 9a3e
00000150: 4039 a73e 6216 a6be 6fdb 7e3d 4d53 b13d
00000160: fc11 87be 4ddd 1b3e 44be a33e 1631 83be
00000170: fa02 12be 521f 2f3e 21e3 e73d 03e9 df3d
00000180: b07c 1f3d 7087 2abe 8f1c 963e ec4d 1abe
00000190: a5eb 2b3d 9141 a93e 4a38 273e 6f4d 623d
000001a0: 57a3 bbbc 101c 0bbe 499c 903d 42d5 273d
000001b0: b069 ccbd d0f1 d2bd f454 9d3e 7adb 4c3d
000001c0: 42be 3d3d c96c f3bd db63 d2bd 5c32 0c3e
000001d0: 201d 45be de59 903e f354 a5bd 137c 1fbe
000001e0: 4b85 8c3c c1ba 8b3e 92f1 58be 3129 87be
000001f0: 47f2 6b3e d082 f63d a7bd 933d 36c4 91bd
0.10121863 -0.13794616 -0.062481344 0.08690658 0.14425014 -0.20079464 -0.03646397 0.08288024
0.18934512 0.15896368 0.19031526 0.29581043 -0.27947646 0.13290928 0.16372113 0.053945255
-0.3093567 0.3045441 0.099797755 0.19759624 -0.24771309 0.018786253 0.13507384 0.16027498
0.19658418 0.112788744 -0.22028492 -0.13474329 -0.10632642 0.20053454 -0.030218337 0.34359908
0.18512234 0.29370824 0.21381742 0.0061942516 0.3144936 -0.035304524 -0.099905185 0.01569251
-0.28509477 0.077784695 -0.20070052 -0.18166353 -0.08286232 0.038430896 -0.18690607 -0.18009233
-0.23233639 -0.03880512 0.30901292 -0.05745556 -0.011368194 0.21431199 0.28457263 0.40319642
-0.20402291 -0.106859125 -0.22016533 -0.0041672145 0.13068913 0.30695894 0.2668817 -0.029476667
0.14463787 0.09801932 0.28669375 0.019237323 -0.061332982 -0.25258204 -0.17381075 -0.14896473
-0.07787184 0.42321867 -0.33148903 -0.029423414 -0.1393797 -0.22217241 0.09036912 -0.37466222
-0.32698777 0.31452504 -0.07849403 0.30215275 0.32660866 -0.32438952 0.062220987 0.086584665
-0.26380908 0.15221138 0.319811 -0.25623387 -0.14258948 0.17101792 0.11322618 0.10933115
0.03893727 -0.16653228 0.29318663 -0.15068787 0.041972775 0.33057836 0.16330066 0.055249628
-0.022905035 -0.13584924 0.07061059 0.040974863 -0.09981096 -0.10300028 0.30728877 0.050013997
0.046324022 -0.118859835 -0.10272952 0.13691086 -0.19249392 0.28193563 -0.080728434 -0.15574674
0.017153403 0.2729092 -0.21185902 -0.26398614 0.2304164 0.12036669 0.07213908 -0.071175024

LayoutSeq.weight_hh_l0 f4 [32, 8]
00000000: 091a 163e 6912 7ebe ac9c 113e 8cd7 5ebe
00000010: 64d1 7f3c cf9e c43d fa41 84bb b630 443e
00000020: f15e 743e 3196 f23d 4843 153e e687 4fbe
00000030: 0957 ba3d d9b1 053d b913 943d f093 333e
00000040: dee5 22be b286 1b3e 87b4 b7bd 9db4 9bbd
00000050: 23e6 253d 5711 4e3d cdbb 5a3e ac3c 0cbe
00000060: 8326 db3d b1e4 193d d469 e03d 7c29 a8bc
00000070: 6ef5 903d 96a0 debc cf3a e43c 8547 193e
00000080: 4c62 593e 2fe9 72be 664a 30be 314d 9cbe
00000090: f431 823c 4666 8cbd 8be4 203e 08e9 923c
000000a0: 56a4 29be de27 68bb 8ed9 adbe 06b2 59be
000000b0: dc51 8bbe 160b 8abd e827 ebbd b4b8 613e
000000c0: efdc 31be 6f3c 91bd 076d 5e3d 5935 ddbd
000000d0: 5c4b 2fbe 5f95 9bbc 6424 15bd be3f be3d
000000e0: 57a6 4abe 1c9a 8a3e 8349 9c3c abce 0ebd
000000f0: 06c0 683d 174b a13d 0cdd 75be cf3b cc3d
00000100: 8bf9 f6bd 86d7 86be b573 77be e0f5 a83d
00000110: 391f f53c a815 0ebd 3342 4f3e d470 cabd
00000120: b2ac ddbd 9170 4c3d 5f09 023e 19a9 7ebe
00000130: a26f 423e ff9b 2e3e 08e6 bf3d ee0e 8abd
00000140: f02a 2ebe c474 1dbe 11fe f1bd 2d52 35bd
00000150: 25c1 64bd 325e 653c 8b5d 7dbe c101 bf3d
00000160: 7426 cbbc 74e3 61bd f538 29be 21d8 7ebe
00000170: 4c8f 903d 073c 543e d7a1 523e f3f1 eb3d
00000180: 3e81 34be ac7d 8c3d 3346 a73e d155 45be
00000190: 9fa2 423e b07f ee3d a801 5abc 1c42 413e
000001a0: 4638 543d e1b1 0abe 5607 9f3e cd0b 533e
000001b0: 461b 1c3e 2074 7a3e 9b66 06bd 7049 a53e
000001c0: 5294 30be 0423 12be 9ff6 96bd 685f 4cbe
000001d0: 4820 b3bd 733c d93d db84 a23d 8d5b 39bb
000001e0: 08ef ba3d 9366 c1bd fdff c93d e034 c3be
000001f0: e70e 0ebe ffbc ed3d 19a2 173e e317 3c3e
00000200: 10c3 71be ce16 cebd 7e71 143e ad24 1c3e
00000210: 7fab 633e 4f21 f6bc d108 a3be 1240 563e
00000220: 902c 3cbd ff3e 22be 41ea 9d3e c5ba 313e
00000230: dc43 9b3d 2fda 903e 9020 923e a5e4 1b3e
00000240: f733 2f3d 2c35 d03e 4b4e 433e 35d7 6abd
00000250: 058c afbe a888 56be d7b1 8a3e 34e6 913d
00000260: 16b4 8bbe a1f8 f63d 29c8 be3e b9e9 c03e
00000270: ded7 8c3d bbee 0d3e 4562 2dbe 266f d8bd
00000280: c54a d63d 631c 9a3e b61e 89be e414 7e3e
00000290: 6837 073e b64b a5be 43d4 7ebe 577b a63d
000002a0: d72b 4dbe ba77 953d e349 5f3e c4e6 053d
000002b0: eb79 5fbe ef54 e3bd 20c1 10be dbe4 cb3e
000002c0: 4113 5b3e cac5 253c 3cd6 8e3e 2e90 a4be
000002d0: 5529 80be 1625 cebd 29c3 743e d535 1abe
000002e0: 77bc 91be 5ca4 75be 71fc 41bd 08c9 90bc
000002f0: ebee a7be 1cf4 ba3e a51f 4c3e 18ab 53bd
00000300: e4fe 49bd 43c8 0d3e 2a1e 1c3d 9181 a7be
00000310: 6ceb de3b b138 663c 37bd 953d e8e8 8f3e
00000320: 6b75 863e 649a 72be f5ec 23be 4a0b 023e
00000330: 86ac bc3d 06b0 3c3e 1fd2 643e d939 683e
00000340: 59c8 41be dbc0 473e 7435 3f3e c128 623e
00000350: ba61 10be 4e95 0cbd 3548 563e 7475 573e
00000360: 2d34 243e 7595 b0bd dae2 07be f609 9fbe
00000370: 404a 3c3b fd62 b1bc aede 8e3d ad55 a73c
00000380: ef70 c53a 402d e23d e981 a33e 4aff d53d
00000390: 7588 03be e3a5 30ba 53e0 5cbe 3d88 80bd
000003a0: 0b93 55be 4aee 54bd b3d2 d4bc 98a0 55be
000003b0: 284f 02be d052 0ebb bfd6 dabd ce9f e03d
000003c0: ffba 69be 7470 edbd e7f4 a73e 89d0 5fbe
000003d0: 92dc 003e 9395 0bbd 6625 eabd 5c49 bbbc
000003e0: ff41 cd3d cb7f 6e3d 3eba c9bd 69e3 18bd
000003f0: 4a35 d5bd 6a02 aabc c542 5f3c 44f0 0e3e
0.14658369 -0.2481171 0.14219922 -0.21761912 0.015613887 0.09600603 -0.0040361853 0.19159207
0.23864342 0.11845053 0.14576447 -0.20266685 0.09098632 0.032640312 0.07230324 0.17536902
-0.15908 0.15188101 -0.0896998 -0.076028086 0.04050268 0.050309505 0.21360703 -0.1369502
0.10700705 0.037571613 0.10957685 -0.020527594 0.07078062 -0.027176183 0.027860073 0.14968689
0.21228904 -0.23721765 -0.17215881 -0.30527642 0.01589296 -0.068554446 0.15712182 0.017933384
-0.16566595 -0.0035424153 -0.33955044 -0.21259317 -0.2721089 -0.06740396 -0.11482221 0.22043115
-0.17369436 -0.07091605 0.054303195 -0.10801191 -0.17118591 -0.018992124 -0.036411658 0.092895016
-0.19790016 0.270707 0.019078022 -0.034865063 0.056823753 0.078756504 -0.24010104 0.09972345
-0.12059315 -0.26336306 -0.24165232 0.08250022 0.029922115 -0.03468862 0.20240097 -0.098848015
-0.10823955 0.04991204 0.12698887 -0.24869193 0.18987897 0.17051695 0.09370047 -0.06741129
-0.17008567 -0.15376574 -0.118160374 -0.044267822 -0.05584826 0.013999509 -0.24742715 0.093265064
-0.02479861 -0.055148557 -0.16525634 -0.24887134 0.07058582 0.20726024 0.2056955 0.115207575
-0.17627427 0.068599075 0.32670745 -0.19271018 0.19007348 0.11645448 -0.013306059 0.18872875
0.05181148 -0.13544418 0.31060284 0.2060997 0.15244779 0.2445836 -0.032812696 0.3228259
-0.1724408 -0.1427117 -0.07371258 -0.1995827 -0.087463915 0.10607233 0.079354964 -0.0028283328
0.09127623 -0.094433926 0.09863279 -0.38126278 -0.13872872 0.11608314 0.14807929 0.18368487
-0.23609567 -0.100629434 0.14496419 0.15248366 0.2223339 -0.03004518 -0.31842664 0.20922878
-0.045940936 -0.15844344 0.30842784 0.17356403 0.075813025 0.2829146 0.28540468 0.1522394
0.042774167 0.40665567 0.19072835 -0.057334144 -0.34286514 -0.20950568 0.27088806 0.07123986
-0.27285832 0.12059141 0.37262085 0.37678316 0.06877111 0.138606 -0.16932018 -0.10568075
0.1046348 0.30099782 -0.26781243 0.24812657 0.1320473 -0.32284325 -0.24885659 0.08128994
-0.20036255 0.07298227 0.2180553 0.03269078 -0.21823852 -0.11100184 -0.14136171 0.3982304
0.21394064 0.010117957 0.27897823 -0.3214125 -0.25031534 -0.10065667 0.23902573 -0.15059598
-0.284641 -0.2398848 -0.047359888 -0.017673984 -0.32799467 0.36514366 0.19933946 -0.05167684
-0.04931535 0.13845925 0.038114704 -0.3271604 0.006802967 0.014051602 0.073114805 0.2810738
0.26261458 -0.23691708 -0.1600836 0.12699619 0.09212594 0.18426523 0.2234578 0.22678317
-0.18924083 0.19507162 0.18672734 0.22085859 -0.1409978 -0.034322076 0.20925982 0.21040899
0.16035528 -0.08622257 -0.13270131 -0.31062287 0.002873078 -0.021653647 0.069760665 0.020426596
0.0015063564 0.11043787 0.3193505 0.10449083 -0.12845023 -0.0006738586 -0.21569948 -0.062759854
-0.20856874 -0.051985063 -0.025979375 -0.20862043 -0.12725508 -0.002171684 -0.10685491 0.1096798
-0.2282524 -0.11593714 0.32804033 -0.21856894 0.12584141 -0.034078192 -0.114329144 -0.022862129
0.100223534 0.05822734 -0.09849976 -0.03732625 -0.10410555 -0.020753104 0.013626759 0.13958842

LayoutSeq.bias_ih_l0 f4 [32]
00000000: 5fa0 c23d a8a1 823e 5b92 103e 7958 c73d
00000010: 3997 0d3d 3398 8d3e 45fd 8e3e c463 0bbe
00000020: 1725 38bd 0214 713e fecb 46bb 4e6d 023e
00000030: fc74 76be 7978 f03d bf8b 653e 1ca8 973b
00000040: 44f5 99bd a4e6 de3d 3c6c 043e 0bbd 2ebe
00000050: bb93 9abd 8121 833c 5c33 aabb 2807 b83d
00000060: 481c 663e 72c6 d5bd 52f0 9c3e 4f4c cfbd
00000070: 0350 c63e 4b52 0c3c 08f4 41be 3313 4d3e
0.095032446 0.2551396 0.1411833 0.09733672 0.034568045 0.2765518 0.27927604 -0.13612276
-0.044957247 0.23542789 -0.003033399 0.12737009 -0.24068063 0.11741728 0.2241659 0.0046281945
-0.07517484 0.10883835 0.12931913 -0.17064302 -0.075477086 0.016007187 -0.005194111 0.0898574
0.22471726 -0.10438241 0.306521 -0.101219766 0.3873292 0.008564542 -0.18940747 0.20026855

LayoutSeq.bias_hh_l0 f4 [32]
00000000: dcda a1bc 7af1 aebd 687a a33e 9e4f 9e3e
00000010: 580d 55be c868 83be f846 15be 71d1 ce3d
00000020: 2fe0 823e 70c6 b73e d24e 3ebe c133 c13e
00000030: f35b 81be 97f8 63bd 9663 933c 1db2 ec3d
00000040: 13ba 3ebe 3f48 8dbe cc5c 4a3e 3cad dd3d
00000050: 44a3 04bd bbe8 de3c bb6e 9a3e b050 01be
00000060: 8f37 2dbb 2e36 3b3e 288e 213e cc70 e93d
00000070: 595b 3fbe e4c1 dabd c28e b5bd 6cbf 8a3e
-0.01975768 -0.08542152 0.31929326 0.30920118 -0.20805871 -0.2566588 -0.14577854 0.100985415
0.25561664 0.35893583 -0.18584755 0.37734798 -0.25265464 -0.055656996 0.017991822 0.1155741
-0.18625669 -0.27594182 0.19761962 0.108240575 -0.032382265 0.027210584 0.30162606 -0.12628436
-0.002643082 0.18282387 0.15776885 0.113984674 -0.1868719 -0.10681513 -0.088651195 0.27099168

mlp.0.weight f4 [32, 8]
00000000: 6fa6 8e3d 070e 64be 30c1 3d3d 470c 303e
00000010: a056 193e afdb ff3d 98f0 cdbd 76b5 023e
00000020: 7d6a 62be 104b b63d 4e5d 78bd a257 b73c
00000030: f720 543d a8b0 3b3d 090b 71be a207 c9bd
00000040: 5409 1a3d 0db5 27be b9f6 5a3e 8e29 b63d
00000050: 8339 86be 49cd 1cbd 39e7 c8bc e57a 40be
00000060: 78d9 d13e c6d0 8abc 2400 cd3e 9235 d33c
00000070: f4e7 e63d 9c64 383e efdc 453d 4ba3 023e
00000080: fb09 bc3d f8ba 7dbe 8aae 3fbd d58e 4fbe
00000090: 7bf4 9abe 13e9 f939 ea1b 1f3e 183e 85be
000000a0: f45c fdbc f9de 063e 23a4 61bd b62a c73d
000000b0: 68be 383e 6478 3c3d fc8a acbe 6022 5f3e
000000c0: 53bb abbd 8b36 f3be 44b5 203d 3409 8bbd
000000d0: b029 6d3d 2079 093e 7ef4 4abe 6d7d 22be
000000e0: c483 053e 7991 2e3e 3c55 59be 9e66 51be
000000f0: 4cfc a5bd 2dfa b2be dd92 34bd 63fa c9bd
00000100: ee11 a5bd a5cf abbe a350 083e af65 97be
00000110: 8348 29be b135 84be 05e7 6e3e 1b25 c5be
00000120: 23e6 c7be 12f7 073d f786 70bd 5fae 943d
00000130: 78d1 87be 1f26 3e3e d3d1 c1bd aac1 143f
00000140: f4ab 50be cffe 85be 5c73 5b3d a4ad 1f3e
00000150: c717 5dbc 6fc2 e2bd 8ffb aebb 8894 60be
00000160: 274e 963d ba16 cc3d 49a4 1c3e 378f 85be
00000170: 4569 9ebd aa20 28bc 10a8 e5be c816 ba3e
00000180: a891 83be e027 803e e0b6 203e a3fe 523d
00000190: 3c20 e6be 7476 913e 5ee1 cebd c892 653f
000001a0: eced 1c3e f9bb 19be e787 573e a93e 51bd
000001b0: 6e9f e33d 4778 733e c85b 62be 6869 113e
000001c0: c040 383e a680 80bd a838 763d 01f6 12be
000001d0: 7a9a b63b b1a3 86bd 76ed 863d 28fd 053c
000001e0: 12d3 3bbe b842 443d d051 0f3e 90be 823c
000001f0: 4fe8 803e 00f8 d63d 4a20 97bd 5b5d ba3d
00000200: 86e5 493e 41eb 5dbe 5df7 e73c c7e5 3dbe
00000210: b20c 5d3e ed21 53be 6e42 fbbd b8e3 a5bc
00000220: b443 24be de97 aebd 83b1 8ebd 3e5f bd3c
00000230: 26b6 00be 3720 7bbe 0a12 15be 9980 023e
00000240: a3e7 18be e84a 62be 18d3 d03e beb5 153d
00000250: f162 d6bd 7bce c83d b115 71ba 4d3e e4bd
00000260: 8956 0b3e daa3 803d 19ab f43d 6665 143e
00000270: 9977 c8bc de32 7bbd 899d ce3d 011a 443d
00000280: a0be 9ebe 237d 183e e50d 693d b7f2 e5bb
00000290: 7a7d 3abd 8d35 87bd 3028 7a3d 4c84 003e
000002a0: d801 99be 7697 c8bd 2711 34be 435c 09be
000002b0: 5e87 1abe 0233 9a3d 7ffc 4dbe 5b28 073f
000002c0: 9c9d c5be a999 0abe 1041 d0bd d74e 4f3e
000002d0: 1617 8c3e 5f03 f3bb c74e 81bd e6f5 f03d
000002e0: 85ec 5bbd e07c 6ebe 0c00 45be 6313 02bc
000002f0: 3017 973e 8c07 92be c95c 06bd 5492 cdbd
00000300: 193d efbd 92a5 16be e22c c1be 61fc 863e
00000310: 0d4c b43d 4c42 14bd 59db 28be 0e30 db3d
00000320: 8626 a6be fc10 46be 2429 c33d 97b1 3fbd
00000330: f9df bfbb 6425 0c3d 84ce ca3d 2b93 9f3e
00000340: fc0f aa3d f7d2 b0be 3fb8 1abe 0d3a 36bd
00000350: 36b5 b43d a291 a93e 4d71 1f3e b743 96bc
00000360: 944c 753e 8b77 1bbd 7753 61bc dbcd 033d
00000370: 2432 f03d a39e 79be 7317 473e 481e 2ebe
00000380: 5de5 6a3d 5cd6 82be 1285 d23e 565d ad3e
00000390: 2d81 d3bd 62f0 80bd 4d2a 0e3e 9beb 82bb
000003a0: f035 623e 8cbd ef3d 6cea 61bd 961b 37be
000003b0: 6f91 81be a0d1 fd3d 6687 c73d 407b 22be
000003c0: 4b93 cdbd 450c abbc d7ed d8bc fcde cd3b
000003d0: 68ba d7bd 5c25 84be c0b0 8c3e 29d6 7bbc
000003e0: b88c 383e ce3a 52be 9123 9a3c 081a c63d
000003f0: d2b7 f5bd d0b5 d43c 4410 41bd 4b4a 29be
0.069653384 -0.22270976 0.046326816 0.17192183 0.14974451 0.12493073 -0.10055655 0.12764534
-0.22110935 0.08901036 -0.060635857 0.022380654 0.05178925 0.04582277 -0.23539366 -0.09815909
0.037606552 -0.16377659 0.2138318 0.08894645 -0.26215753 -0.038281713 -0.024524318 -0.1879688
0.40986228 -0.016945254 0.4003917 0.02578238 0.1127471 0.1800713 0.0483064 0.12757604
0.09181591 -0.24778354 -0.046797313 -0.2026933 -0.3026465 0.00047666635 0.15537992 -0.26023936
-0.030928113 0.13170995 -0.055088174 0.09724943 0.18041384 0.04601325 -0.33699787 0.21790457
-0.08385339 -0.4750255 0.03923537 -0.06788865 0.057901084 0.13425112 -0.19819829 -0.15868159
0.13038546 0.17047681 -0.2122392 -0.20449302 -0.081047624 -0.34956494 -0.044085372 -0.098622106
-0.080600604 -0.33556858 0.1331201 -0.29569766 -0.16531567 -0.25822213 0.23330314 -0.38504872
-0.39042768 0.03319461 -0.058722463 0.07259821 -0.26527 0.1856923 -0.09463849 0.5810801
-0.20378095 -0.26170966 0.053576812 0.15593582 -0.0134944385 -0.110722415 -0.0053400467 -0.2193166
0.07339125 0.09965272 0.15297045 -0.26085827 -0.07734922 -0.010261694 -0.44854784 0.36345506
-0.25697064 0.25030422 0.15694761 0.05151237 -0.44946468 0.28410685 -0.10101579 0.89677095
0.15325135 -0.15013112 0.21047936 -0.051085148 0.11114393 0.23776351 -0.22105324 0.14200366
0.1799345 -0.06274538 0.060112625 -0.14351656 0.0055726143 -0.065741904 0.06588261 0.008178033
-0.18342236 0.04791519 0.13996053 0.015960008 0.25177237 0.10496521 -0.073792055 0.090998374
0.19716462 -0.21671773 0.028316194 -0.18544684 0.21586874 -0.2061841 -0.1226853 -0.020250186
-0.16041452 -0.0852506 -0.069674514 0.023116704 -0.12569484 -0.24524008 -0.14557663 0.12744369
-0.14932112 -0.22098887 0.40786052 0.036550276 -0.1046809 0.09805008 -0.00091966527 -0.111446954
0.1360723 0.06281252 0.11946697 0.14491805 -0.024471091 -0.061327808 0.10088641 0.04787636
-0.3100481 0.14891486 0.056898016 -0.0070174593 -0.04552982 -0.06602011 0.061073482 0.12550467
-0.2988422 -0.09794514 -0.17584668 -0.13414101 -0.15090701 0.0752926 -0.20115851 0.5279595
-0.3859681 -0.13535179 -0.1016866 0.20244919 0.27361363 -0.0074161734 -0.06313854 0.117656514
-0.05369236 -0.23289824 -0.19238299 -0.0079391925 0.29509878 -0.28521383 -0.03280333 -0.100376755
-0.11681575 -0.14711598 -0.37729555 0.26364425 0.08803568 -0.036196038 -0.16489924 0.10702525
-0.32451266 -0.19342417 0.09529331 -0.046800222 -0.005855557 0.034215346 0.09902671 0.31166968
0.0830383 -0.34535953 -0.15109347 -0.044488955 0.08823626 0.33118922 0.15570565 -0.018342836
0.23954993 -0.037955802 -0.01375281 0.03217874 0.117283136 -0.24376921 0.19442539 -0.17003739
0.057347644 -0.25554168 0.4111715 0.33860272 -0.10327373 -0.062958494 0.13883324 -0.0039953715
0.22090888 0.11706075 -0.055155203 -0.17881617 -0.2530627 0.123934984 0.09742622 -0.15867329
-0.100378595 -0.020879874 -0.026480598 0.0062826853 -0.10533601 -0.25809753 0.274786 -0.015370884
0.1802243 -0.20530245 0.018815788 0.09672934 -0.119979516 0.025965601 -0.047134653 -0.16532247

mlp.0.bias f4 [32]
00000000: deb6 0237 adaf 5ab6 8ad9 d437 c4cb 2338
00000010: 94ba fcb6 f089 4638 3e87 feb7 17a3 4238
00000020: 7df6 6238 7004 05b9 a71c 57b8 a452 f7b5
00000030: a8be 35b7 2482 b436 3c65 e8b7 e590 35b5
00000040: 42c0 36b7 f918 8eb8 3787 a4b7 2f06 82b7
00000050: 1cc2 b5b7 9acf 82b6 5549 ebb8 5a8b 5838
00000060: 809b beb5 1efa d637 52b2 ccb6 ee39 5a38
00000070: 2988 aab7 606a 3a37 faf9 87b7 24e1 5837
7.791181e-06 -3.2586788e-06 2.5373669e-05 3.9052e-05 -7.531906e-06 4.7335343e-05 -3.0342137e-05 4.6405094e-05
5.411216e-05 -0.00012685522 -5.128668e-05 -1.8426986e-06 -1.0832831e-05 5.3795684e-06 -2.7703696e-05 -6.7638604e-07
-1.0892809e-05 -6.775739e-05 -1.9613288e-05 -1.5500087e-05 -2.166727e-05 -3.89847e-06 -0.000112193324 5.1628194e-05
-1.420136e-06 2.5627258e-05 -6.100433e-06 5.20292e-05 -2.0328984e-05 1.1111231e-05 -1.6209658e-05 1.2927023e-05

mlp.1.weight f4 [32]
00000000: ced9 3d3f b61f 1d3f cac8 493f 3209 2e3f
00000010: 87d1 493f f727 5c3f 3609 633f 3594 563f
00000020: f7d1 583f 6d13 463f 94cd 593f 5b16 4e3f
00000030: 77b6 853f 250f 333f dd50 2c3f 96b6 323f
00000040: 9071 573f 2cac 593f 62aa 743f 64f0 423f
00000050: 790e 4d3f eac6 653f 2000 5e3f fe54 5d3f
00000060: e480 3c3f 23f3 493f 0a38 563f 0edb 423f
00000070: 8235 4e3f 90c7 453f c20b 613f 0584 2f3f
0.7416047 0.6137651 0.78822005 0.6798278 0.7883534 0.8599848 0.8868593 0.83819896
0.8469538 0.7737339 0.8507931 0.8050286 1.0446309 0.69944984 0.6731089 0.69809854
0.8415766 0.8502834 0.95572484 0.76148057 0.8010021 0.89756644 0.8671894 0.8645781
0.7363417 0.7888662 0.8367926 0.761155 0.80550396 0.77257633 0.87908566 0.6856082

mlp.1.bias f4 [32]
00000000: 8316 1c3d eb42 723e 67f8 d73d c7c2 a4be
00000010: 831b 2e3d a915 493d 4f71 d9bd 91f6 d3bc
00000020: a1ca 98bc 34e5 993d 3fb6 563d 437a d5bd
00000030: 724b 99bc 80a2 b03d f092 b7bd bcef b83d
00000040: 3752 0a3d b3e1 35bd 6278 c8bc ed13 dbbd
00000050: 3aff 2ebd b58e b83d c75b 273e 6430 56bb
00000060: 6cb4 083d 9d0b 9f3d a005 4bbd ce0f 203e
00000070: b720 d43d 831b e5bd 7fcf 3ebd 7c95 9d3d
0.038107406 0.2365834 0.10545426 -0.32179853 0.042506706 0.049092922 -0.10617315 -0.025874408
-0.018651308 0.0751442 0.052419897 -0.1042371 -0.018712733 0.086247444 -0.08963573 0.09030101
0.033769812 -0.044404697 -0.024471465 -0.1069716 -0.04272387 0.09011594 0.16343604 -0.0032682652
0.03337519 0.07765887 -0.04956591 0.15631029 0.10357802 -0.11186888 -0.046584602 0.076945275

mlp.1.running_mean f4 [32]
00000000: 7381 0d3d 1a7e e4bd 7092 1a3d 1bdf 033e
00000010: a8a7 013e b530 d0bd 3c79 d63d 837e d1bd
00000020: 6add 133e 8ba1 133e 5818 01bd fbf3 ca3d
00000030: af4e 7a3e 242f f13d 9ce4 9f3d 378b 1b3b
00000040: dd3d 2c3d d843 38bc 871c 083e 2016 80bc
00000050: d4ac 053c af84 243e 5ac5 75bd d5e4 9cbd
00000060: 5249 07be cfe1 433e ca0a 163e 0c8e 72bd
00000070: 9c41 a03d 2ce3 1a3d 1650 a23c 4819 273b
0.03454728 -0.111568645 0.03773731 0.12878077 0.12661612 -0.1016554 0.10472342 -0.10229208
0.14439932 0.14417093 -0.031517357 0.09909817 0.24444078 0.117765695 0.07807276 0.0023734102
0.042051185 -0.011246644 0.13292132 -0.01563555 0.008158881 0.1606624 -0.060002662 -0.07660834
-0.13211563 0.19129108 0.14652553 -0.059217498 0.07825014 0.037814304 0.019813579 0.0025497247

mlp.1.running_var f4 [32]
00000000: 1ea5 b139 89ec b039 fc6f dd39 a840 6439
00000010: 6f3f ed39 9b38 a939 540a 713a a3ef 2e39
00000020: 3f65 3639 df0c 1c39 6c79 ed39 4fc8 ae3a
00000030: 4c8f 2339 77dd 7b3a 65b0 6f39 225f 0e3a
00000040: 5122 883a 7f7b 2237 1d78 773a 1dce 9739
00000050: 0ab3 343a fae2 d63a 85d5 8c39 2713 8939
00000060: 2f25 0f3a 8dac 7339 e6f1 ea3a cd4b 3239
00000070: 405d ac3a 5076 bc39 8f8c 033a f2a3 2039
0.00033883093 0.00033745568 0.0004223584 0.00021767861 0.00045251424 0.00032276366 0.00091949594 0.00016683205
0.0001739459 0.00014882114 0.0004529463 0.0013334843 0.00015598274 0.0009607891 0.00022858528 0.0005431046
0.0010386204 9.684706e-06 0.00094402005 0.0002895453 0.0006893134 0.0016394549 0.00026861965 0.00026144946
0.0005460558 0.00023238566 0.0017924875 0.00017003641 0.0013150349 0.00035946304 0.0005018198 0.00015319863

mlp.3.weight f4 [1, 32]
00000000: a4cd e23d 3df0 6abd 0abc c5bd 2554 10be
00000010: dc96 0a3e d718 413e b965 cebe cca0 6ebe
00000020: f07b 40be 60b1 283e e2dd 80be fb08 26be
00000030: 7be1 e43e 3925 bf3d 3ad6 85bd d849 3abc
00000040: d0e0 3c3e 421f 4cbe 408c b73e 4058 e23d
00000050: 79f9 fb3d f010 6c3e 774e 86be 9def 86be
00000060: bc3f be3d 20ec 083e 5293 48be b041 12be
00000070: 0447 e8bd e5c4 15be 40ee 413e dd02 bc3d
0.11074379 -0.057358015 -0.09655006 -0.14094599 0.13534111 0.18857132 -0.40311983 -0.23303527
-0.18797278 0.16473913 -0.25169283 -0.16214363 0.44703278 0.093332715 -0.06535001 -0.011370145
0.18445134 -0.19933799 0.3584919 0.110519886 0.123034425 0.23053336 -0.2623174 -0.26354685
0.092895 0.13371325 -0.19587448 -0.1428287 -0.1134167 -0.1462589 0.18938541 0.09180234
