output_bbox_gcn/EVALUATOR_layout_MultiLayer_2023_09_21_16_51_13/Model/evaluator_900.pth (torch, 9127 bytes, 11 tensors)

LayoutSeq.weight_ih_l0 f4 [32, 4]
00000000: 67c2 af3d 552f 0bbe c2db 9bbd d435 a33d
00000010: 73c8 073e 247b 41be 8395 0cbd 2709 ac3d
00000020: 2766 313e 5721 133e 0467 443e 19b4 993e
00000030: eb63 8dbe 4b7f f23d 3cce 263e 585c 6a3d
00000040: 02fa a4be 2bfa 993e 0696 d23d e271 483e
00000050: f5c8 81be 84be 503d 0a0d 0b3e 3c5c 233e
00000060: b47e 403e 39b4 d73d c3c1 5dbe b6b0 05be
00000070: f3f3 b6bd 6b7d 473e 4959 13bd fac2 af3e
00000080: 3801 3a3e e204 9a3e 366c 5a3e 149d 9a3b
00000090: 4152 9e3e e991 e7bc 5955 d2bd 4136 c03c
000000a0: 7112 93be d6d9 a93d 88eb 5bbe f5f1 35be
000000b0: 2d63 b3bd bf52 2d3d b14f 3abe 0c7b 37be
000000c0: bf90 64be 4f3c 1fbd d29a 9c3e bbaa 3fbd
000000d0: 0ba6 9ebc e54b 453e c0f3 8f3e 24cd ce3e
000000e0: d415 4abe a14f e0bd ee34 5dbe 31b4 5639
000000f0: 8715 023e f7bf 993e e0bc 853e fde3 efbc
00000100: 9e34 173e 8a53 ca3d 635e 923e d0c3 9a3c
00000110: e415 69bd e1e0 82be 41ff 31be 4cd8 16be
00000120: 97ef 90bd e2ab e13e 73ee a7be bac1 07bd
00000130: 1290 09be c08f 66be 4b48 c43d bda9 bfbe
00000140: 73c1 aabe 8a9a a03e 0016 9ebd dcb0 9a3e
00000150: 35f4 a53e 6b30 a7be fba6 763d e984 b33d
00000160: 3867 8abe ea1d 133e 3089 a23e e432 81be
00000170: e306 14be 8ffa 2d3e 4683 ea3d 5a08 df3d
00000180: 5dbe 193d 952f 1abe f7a1 903e 14fb 17be
00000190: dec9 353d 3de1 a93e b662 273e 00bd 5e3d
000001a0: f3cc febc bb40 07be 36c4 663d 7d3b 463d
000001b0: f2f1 d6bd e964 e6bd c683 9c3e 83c9 463d
000001c0: e71d 233d f1ae fcbd 3862 d1bd cb3a 103e
000001d0: 1b1c 44be 5da7 903e a88b a7bd 53f1 1fbe
000001e0: 464a d43c 6635 863e 2609 54be 4901 87be
000001f0: 21c6 653e 70bf fa3d 3a8e 913d 86f3 8dbd
0.08582001 -0.13592274 -0.07610275 0.07969251 0.13260059 -0.1889463 -0.034322273 0.08400183
0.17324124 0.14368187 0.19179922 0.30020216 -0.27615294 0.118406855 0.1628961 0.057216972
-0.3222199 0.30073676 0.10282521 0.19574693 -0.2534863 0.05096294 0.13579193 0.15953153
0.18798333 0.105324216 -0.21655945 -0.13055691 -0.08933248 0.19481437 -0.03597382 0.34328443
0.18164527 0.3008185 0.21330342 0.004718432 0.3092213 -0.028267818 -0.10270185 0.02346337
-0.28725007 0.08293502 -0.21476567 -0.1776808 -0.08759151 0.04231524 -0.18194462 -0.17918032
-0.22320841 -0.038875874 0.3058687 -0.04679368 -0.019366285 0.19267233 0.28115654 0.40390885
-0.1973489 -0.10952688 -0.21602222 0.00020475757 0.12703525 0.3002927 0.26120663 -0.029283518
0.14766166 0.09879215 0.28587636 0.018892199 -0.056905642 -0.25562194 -0.17382528 -0.14730948
-0.07076948 0.4407645 -0.3279911 -0.033143736 -0.13433865 -0.22515774 0.09584101 -0.37434188
-0.33350715 0.31367904 -0.0771904 0.30213058 0.32412878 -0.32654127 0.06021784 0.08765585
-0.27031875 0.1436688 0.3174529 -0.2523414 -0.14455752 0.16990112 0.1145082 0.10890265
0.03753506 -0.15057214 0.2824857 -0.14841872 0.04438197 0.33179656 0.16346249 0.054379463
-0.031103587 -0.13208286 0.056339465 0.048396576 -0.10495366 -0.11249716 0.30569285 0.04853202
0.03982344 -0.12338055 -0.10223812 0.14084928 -0.19151346 0.28252688 -0.08180934 -0.15619402
0.025914323 0.26212615 -0.20706615 -0.26368168 0.22438861 0.12243545 0.07107206 -0.06931214

LayoutSeq.weight_hh_l0 f4 [32, 8]
00000000: ef45 123e 522c 7ebe 959b 123e 2518 64be
00000010: 2178 ca3c 04dd ce3d c609 4abb 29ff 4c3e
00000020: ed9f 6d3e 9b83 e33d c035 093e 02d8 49be
00000030: 4a02 913d f675 053d 5f8a a23d 7472 2e3e
00000040: d0d1 21be 63c5 1a3e b2ec a0bd fe6a 8ebd
00000050: dc03 073d bf1b 653d c76e 543e a155 05be
00000060: 5e76 c83d f3b6 ea3c 4414 ce3d f6f2 efbc
00000070: 6df9 7d3d 6c3e 1bbc c4d9 af3c b4da 113e
00000080: 5f8d 563e ffca 71be 3cfc 2fbe cb8b 99be
00000090: ad6e 713c 6ef8 63bd 3970 1d3e 8f7d b03c
000000a0: d1b5 1cbe 1ae4 82bb e3aa acbe 68e4 56be
000000b0: 096d 89be 2ecd 55bd 771e dfbd d1e9 5f3e
000000c0: 68e1 20be 4fb8 5fbd bb5e 553d 5959 bebd
000000d0: 9db4 25be 784d a1bc 2341 03bd fe95 963d
000000e0: 8e2a 48be 9c4e 893e 81f0 b73c d37f 02bd
000000f0: c2a5 6a3d e3c7 9e3d ae9b 74be 74b1 c63d
00000100: 603b e3bd 7643 80be 949c 69be d53f a73d
00000110: 21df f83c f67a 17bd e85d 473e d4ea b7bd
00000120: bd7c d0bd 9b34 423d 3d34 f63d da68 7bbe
00000130: 11fe 3a3e 17ef 1a3e 73f9 c03d 4ba9 81bd
00000140: 9c4e 24be 75f2 0cbe 1c16 fdbd 567f 12bd
00000150: 614e 54bd 403a ae3c 87ba 7cbe ecf5 a93d
00000160: 5b67 95bc 5e1d 87bd a3bd 24be 2c8a 84be
00000170: 808e 6b3d b8c4 553e e55b 463e ac5d fe3d
00000180: 16ba 2abe 25d6 783d a319 a63e 119d 48be
00000190: 923b 3c3e a1dd f43d 9f6c 02bc 29ff 443e
000001a0: 2586 643d 15aa 0cbe 797d a13e a6c2 4c3e
000001b0: 4e49 0e3e b11b 7a3e 3eec aebc b1de a53e
000001c0: bdc8 26be 2aea 00be afea 77bd c658 3dbe
000001d0: a85a b0bd 287d ce3d 94f3 9a3d 8be0 293a
000001e0: abe5 983d 7888 b0bd 9e8e eb3d 33eb bdbe
000001f0: c041 19be c171 033e 4d43 143e 01ae 323e
00000200: 3e2b 70be 62e2 d5bd 68f8 0c3e d918 133e
00000210: 720a 623e 776a eabc 9fdf a1be d36c 543e
00000220: 7656 2dbd 7474 23be d79a 9b3e f612 2f3e
00000230: 4813 993d bc7f 993e f3cd 8e3e dee8 1f3e
00000240: 6efd 393d 889c d03e b5c7 3d3e 6428 4cbd
00000250: 11fc b2be 4294 4bbe 8b4c 873e 5dbf 843d
00000260: 7f67 83be a3ba ec3d e2a8 bb3e bb87 c13e
00000270: 05c3 8d3d 8a6a 043e cdc2 2abe 79b0 d3bd
00000280: c4de e83d 0309 973e 8834 8dbe 12bc 7a3e
00000290: 49a7 0c3e 5568 a7be 8fce 81be 4663 a53d
000002a0: 2a32 4dbe 6a7e 9c3d 8db8 673e 2c81 1a3d
000002b0: f610 5ebe 2f36 dbbd bbf8 0dbe 1bbf ca3e
000002c0: d5c2 563e dd3d 353c 6ca7 8e3e 9c99 a2be
000002d0: d6e5 7bbe 48ff babd a684 703e 6e71 0fbe
000002e0: 0b96 92be 856a 6fbe 56a2 29bd d339 81bc
000002f0: 052c a8be d467 be3e d8bb 4f3e 33ba 33bd
00000300: cb90 02bd 7056 043e 4552 2a3d 5e4d a8be
00000310: a603 f03b 4b72 b63c 8719 9a3d b2df 913e
00000320: 4d14 823e c400 6dbe 166b 1ebe 8736 e83d
00000330: 2e04 bb3d ae68 313e d24d 593e 823c 643e
00000340: 6bd2 3ebe ed2b 423e dca7 413e c6cf 5b3e
00000350: f172 10be 374d 8fbc 1925 533e 0c40 553e
00000360: baac 213e c661 a8bd fad3 0cbe 3a4e 9abe
00000370: a1b9 25bc 2e95 00bc f540 973d af2b a53c
00000380: 78b2 0a3c fcd8 d63d a7e4 9f3e 4bc1 d23d
00000390: 6f1e 03be f33a 2d3c 73ed 56be e70b 6ebd
000003a0: 7259 53be 28b6 59bd feae a4bc 340c 56be
000003b0: 61fd 02be adc7 d33b e2cd d1bd 840f ea3d
000003c0: 3360 65be 5ab1 cebd 9a95 a53e 8858 54be
000003d0: 4c94 f23d 1de3 0fbd 9950 e6bd de11 f2bc
000003e0: 4ac9 bf3d 2411 6a3d 620e b8bd e06a 07bd
000003f0: 6554 d6bd 162c 1abc 20fe 2a3c 98a1 0c3e
0.1428449 -0.24821594 0.14317162 -0.22274835 0.024715485 0.10100749 -0.003082858 0.20019211
0.23205538 0.11109086 0.1339941 -0.19711307 0.07080515 0.0325832 0.079365484 0.17035848
-0.15802693 0.1511436 -0.07857646 -0.06954001 0.032962665 0.055934664 0.20745383 -0.13020946
0.09788202 0.02865169 0.10062459 -0.029290657 0.06200545 -0.009475332 0.021466143 0.14243585
0.20952366 -0.23612593 -0.17186064 -0.29989466 0.01473586 -0.055656843 0.15374841 0.021544246
-0.15303732 -0.003994477 -0.33724126 -0.20985568 -0.26841 -0.052197628 -0.108944826 0.21866538
-0.15710986 -0.05461913 0.052092295 -0.092943855 -0.1618218 -0.01969026 -0.03204454 0.073528275
-0.19547483 0.26817787 0.022453548 -0.031860184 0.057286985 0.07752969 -0.23887512 0.09701815
-0.11095309 -0.2505147 -0.22813636 0.08166472 0.030379834 -0.0369825 0.19469416 -0.08980337
-0.10180042 0.04741345 0.120216824 -0.24551716 0.18260981 0.15130268 0.09422579 -0.06331118
-0.16045612 -0.13764365 -0.12357733 -0.03576597 -0.05183256 0.02126801 -0.2468053 0.08298859
-0.01823776 -0.06597398 -0.16087966 -0.25886667 0.057508945 0.20875823 0.19370992 0.1242021
-0.16672549 0.0607511 0.32441434 -0.19591166 0.183821 0.11956335 -0.007960468 0.19237961
0.055791993 -0.13736756 0.3154104 0.19996127 0.13895151 0.24424626 -0.021352883 0.32396463
-0.16287513 -0.12589327 -0.060526546 -0.18490896 -0.08611041 0.100824654 0.0756599 0.0006480298
0.07465681 -0.08619779 0.115018114 -0.37093505 -0.14966488 0.12836362 0.14478798 0.1744919
-0.23453996 -0.1044357 0.13766634 0.14364947 0.22074297 -0.02861522 -0.31615922 0.20744638
-0.042318784 -0.15962392 0.3039157 0.17097077 0.07474381 0.29980266 0.27891502 0.15616176
0.045407705 0.40744424 0.18533213 -0.049843207 -0.34957936 -0.19880775 0.26425585 0.06481812
-0.256649 0.11559036 0.36652285 0.37798867 0.06921963 0.12931266 -0.16675873 -0.10336394
0.11370614 0.29499063 -0.2757914 0.24485806 0.13735689 -0.32696787 -0.25352904 0.080755755
-0.20038667 0.07641299 0.22628994 0.037720844 -0.21686158 -0.10703694 -0.13864414 0.39598927
0.2097276 0.011062113 0.27862108 -0.3175782 -0.24599394 -0.09130722 0.23488101 -0.14008114
-0.286301 -0.23380478 -0.04141458 -0.015774643 -0.32846084 0.3718859 0.202865 -0.043878745
-0.031876367 0.12923598 0.041582365 -0.32871526 0.0073246537 0.022271296 0.075244 0.28490978
0.25406113 -0.23144823 -0.15470538 0.11338525 0.091316566 0.17325088 0.21221092 0.22288707
-0.18634956 0.18962069 0.1891169 0.21465978 -0.14106347 -0.017492874 0.2061962 0.20825213
0.15788546 -0.08221774 -0.13752738 -0.30137807 -0.010115058 -0.007848067 0.073854364 0.020162432
0.008465402 0.10490605 0.31229135 0.10290774 -0.12804578 0.010573137 -0.20989017 -0.05811682
-0.2063959 -0.053152233 -0.020102974 -0.20903093 -0.12791969 0.006463012 -0.10244347 0.114287406
-0.22399978 -0.10092421 0.323407 -0.20736897 0.11844692 -0.0351287 -0.112458415 -0.029549535
0.09364565 0.057145253 -0.08987118 -0.03306091 -0.10465316 -0.009409925 0.010436565 0.13733518

LayoutSeq.bias_ih_l0 f4 [32]
00000000: adc9 bd3d d853 823e 5537 103e 8c9c c63d
00000010: c62e 163d 358d 8b3e 4f7b 8a3e c437 0abe
00000020: 8bfa 3bbd 2aba 6a3e 84a3 eabb 13e4 0a3e
00000030: 6594 6fbe 7d0a f23d 9a78 613e 305e 133c
00000040: c93a 97bd a698 e43d f62a 023e aa7b 2ebe
00000050: d51f 9bbd db13 9a3c b1a6 d1bb 8434 b73d
00000060: 2add 643e 0d02 cdbd 8010 9e3e 095b ccbd
00000070: 93ea c63e 106e 1e3c 82f6 3fbe 8bbc 4e3e
0.09266982 0.25454593 0.14083607 0.09697828 0.0366657 0.2725617 0.27047202 -0.13497835
-0.045893233 0.22922578 -0.007160606 0.13563566 -0.23396452 0.11818407 0.22018662 0.008994624
-0.07384259 0.11161928 0.12711701 -0.17039362 -0.07574431 0.018808296 -0.006398045 0.089455634
0.22349992 -0.10010157 0.30871964 -0.09978301 0.3885084 0.009669796 -0.18746379 0.20189111

LayoutSeq.bias_hh_l0 f4 [32]
00000000: 4f49 aebc 57e8 a5bd b964 a23e babc 9a3e
00000010: d5bb 51be 5ade 82be b38f 13be 961f ce3d
00000020: c2cb 803e 02ad b33e 0dc5 40be a8f8 c23e
00000030: 47bc 7bbe e1d1 59bd b651 963c d450 f43d
00000040: 3807 3dbe f820 8bbe d9ec 473e d2c5 dc3d
00000050: 8bfa 05bd 9db1 f53c 8251 993e 5b39 01be
00000060: dd27 0dbb 7ef8 3a3e 10d8 243e b61a e53d
00000070: 608f 3bbe 8e33 d7bd 03ae b4bd b463 8b3e
-0.02127519 -0.08100956 0.3171747 0.30222112 -0.20481808 -0.25560266 -0.14410286 0.10064618
0.25155455 0.35092932 -0.18825169 0.38080335 -0.24583541 -0.05317867 0.01834951 0.11929479
-0.18459785 -0.2717359 0.19523944 0.10779919 -0.03270964 0.02999192 0.29944998 -0.12619536
-0.0021538653 0.18258855 0.16098046 0.11186735 -0.18316412 -0.1050788 -0.088222526 0.27224505

mlp.0.weight f4 [32, 8]
00000000: 0400 8d3d dd38 64be edec 4d3d 47df 283e
00000010: 8ce2 123e 936a da3d d917 c4bd 3468 043e
00000020: d039 5abe a696 b13d 1133 74bd ec12 c73c
00000030: 19eb 4d3d 9913 2d3d 14aa 68be 96cc c8bd
00000040: d449 063d ec43 25be f5eb 683e 22ab 963d
00000050: 71fc 75be 09eb 57bd fdf9 bebc 2f6a 35be
00000060: 8e3e ce3e 1010 a4bc 38aa cc3e 3771 cb3c
00000070: 076a d53d 0dad 3a3e e2ce 333d b903 003e
00000080: fddd ac3d 1471 76be 6c70 08bd 8a63 4fbe
00000090: ece4 98be 4938 2f3a da52 163e 7627 86be
000000a0: 1bc8 f9bc efca 043e 5164 6ebd b5df c93d
000000b0: e848 363e 4443 373d f117 a2be d3dc 5f3e
000000c0: 59cf a8bd b609 f1be 00c4 1b3d aabd 85bd
000000d0: e1e0 7b3d b70c 093e 55f2 49be 7b6a 1ebe
000000e0: e132 053e eca1 2d3e e8ee 5dbe 99ee 4fbe
000000f0: 20c1 a6bd 67ed afbe 4292 38bd dc2d c9bd
00000100: 2cfa 9fbd 6bad a9be 823b 073e fcb5 96be
00000110: 50aa 2bbe d12f 7ebe 90fc 663e a114 c7be
00000120: 10ac c6be 2665 173d 415c 77bd 4d9a 933d
00000130: 0585 84be a132 403e 9032 b6bd a5af 133f
00000140: ab75 52be d5a5 83be aa37 6d3d c831 1b3e
00000150: 22e2 36bc 54ba dcbd ec5e dcba 423f 62be
00000160: dbd9 9e3d 6bc9 ba3d 5716 183e 1534 81be
00000170: 2ea6 90bd 1ad0 43bc 6bc0 d9be 6059 b93e
00000180: e622 82be 6aba 813e 08cb 1e3e 0c15 603d
00000190: 5187 e6be d0ff 923e 480e cdbd 96a7 643f
000001a0: 82a8 1b3e 1c40 18be 3003 513e 040c 6ebd
000001b0: 392a c33d c544 663e ab0d 50be c542 0e3e
000001c0: 7a1a 343e 499e 62bd fc37 703d ffaa 0ebe
000001d0: d046 293c de87 75bd 5168 853d 72f9 4f3c
000001e0: 2b43 23be 311b 1c3d 6059 003e 2dcf 133c
000001f0: 518c 663e 276e c13d 7eab 8dbd 25f9 af3d
00000200: e76f 433e 6d4e 5abe 9749 c83c 1c71 3cbe
00000210: b26f 583e 388e 4abe 62c8 fcbd 2cb5 acbc
00000220: bef4 27be ad37 b8bd 9d25 88bd d934 9a3c
00000230: b77c 0abe a838 75be 6293 13be 95e9 043e
00000240: c8ab 11be 179c 62be c60b d03e f5a4 393d
00000250: 3ece c6bd 9e8e bc3d ec0d 3a3b a245 d4bd
00000260: 25ab 083e 64cf 713d 54de f13d fbb1 103e
00000270: a308 a2bc 75fa 6abd 283e bd3d 73ff 463d
00000280: a0b0 99be 2e7e 0a3e 6cd7 5c3d 8ab8 b23a
00000290: f29f 4dbd 4cdd 5ebd 4742 713d 4350 f33d
000002a0: a9c7 97be 0066 bcbd f350 32be aa10 03be
000002b0: 6696 19be 3884 673d b2e1 3ebe f897 043f
000002c0: 1463 c3be 6d37 0dbe f50d d9bd d6cc 503e
000002d0: f15d 893e 5cef 00bb 6251 69bd 6a97 eb3d
000002e0: 37ea 54bd a48c 6bbe e2f0 42be e62a 2cbc
000002f0: 0b91 993e 3793 8cbe 34fb 08bd 3094 c8bd
00000300: 3f24 d9bd 622a 11be a904 b9be bcdc 823e
00000310: 0b2e af3d b614 39bd cadb 29be b79e db3d
00000320: ce5c a0be a7a3 45be edf4 ce3d 264d 3ebd
00000330: 5846 98bc 5263 f13c 1b30 d63d 89ed 9f3e
00000340: 0322 ad3d 83ee a8be d90a 17be a59d 0cbd
00000350: 7d43 b53d b586 a33e 6106 103e 0c9f ddbc
00000360: 9ee4 763e 9964 1cbd f3f5 39bc c903 153d
00000370: aec1 d03d b97c 73be 5b41 493e fd3c 2dbe
00000380: f36a 753d 212f 81be 5e69 cf3e 77fd a03e
00000390: 2126 c2bd 027c 6abd 3c10 0c3e d0d3 ac3b
000003a0: 1ba3 663e 558b e73d 6688 61bd 07e3 33be
000003b0: 4e56 7fbe 0ad6 dd3d db68 eb3d 02cb 19be
000003c0: 8225 d7bd 10bb bbbc 1c97 f5bc 484a 21bc
000003d0: 0581 e5bd 335f 7cbe 0a75 7f3e 86d2 2bbc
000003e0: d922 393e 21ca 4cbe dbb6 683c ed00 c83d
000003f0: a548 febd 0553 b13c a252 40bd bf42 22be
0.068847686 -0.22287317 0.05027478 0.16491424 0.14344233 0.10664859 -0.09574861 0.12930375
-0.21311116 0.08671312 -0.059619013 0.024301015 0.050273035 0.042255018 -0.2272113 -0.09804647
0.03278525 -0.16139191 0.2274626 0.0735686 -0.2402208 -0.05271438 -0.023312563 -0.17716287
0.402821 -0.02002719 0.39973617 0.024834258 0.10420614 0.18230076 0.04389847 0.1250142
0.084407784 -0.24066573 -0.03331034 -0.20252815 -0.29862154 0.00066841074 0.14680043 -0.2620198
-0.030490926 0.12968038 -0.058201138 0.09857122 0.17801249 0.044741884 -0.3165889 0.21861582
-0.082426734 -0.4707772 0.038028717 -0.06530316 0.061493758 0.13383757 -0.19721349 -0.15470307
0.1300769 0.169563 -0.21673167 -0.20305862 -0.081423044 -0.3436081 -0.045061357 -0.098232
-0.078113884 -0.3314012 0.13206294 -0.29435718 -0.16764188 -0.24822928 0.22557282 -0.38882926
-0.38803148 0.036961697 -0.060390715 0.07207165 -0.25882736 0.18769313 -0.08896363 0.5768989
-0.205527 -0.25712457 0.057914414 0.15155709 -0.011162313 -0.10777727 -0.0016812957 -0.22094443
0.077563964 0.09120449 0.14852272 -0.25235048 -0.07062946 -0.011951471 -0.42529616 0.36201
-0.2541725 0.25337535 0.15507138 0.054707572 -0.45025113 0.28710794 -0.100124896 0.89318216
0.15201 -0.14868206 0.20411372 -0.058116928 0.09529538 0.22487171 -0.20317714 0.13892658
0.17588225 -0.055326734 0.05864714 -0.13932417 0.010331824 -0.059944026 0.065140374 0.01269375
-0.15943591 0.03811187 0.12534094 0.0090215625 0.22514464 0.09444838 -0.06917475 0.085924424
0.19085656 -0.2131898 0.024449153 -0.18402523 0.21136358 -0.19780815 -0.123429075 -0.021082483
-0.16401955 -0.08994994 -0.06647799 0.018824028 -0.13524137 -0.23947394 -0.14411691 0.1297973
-0.14225686 -0.22129856 0.40633982 0.04532333 -0.09707306 0.092068896 0.0028389646 -0.10364844
0.13346536 0.059035674 0.11809984 0.14130394 -0.019779509 -0.05736776 0.09240371 0.04858346
-0.30017567 0.13524696 0.05391638 0.0013635319 -0.050201364 -0.054410264 0.058901098 0.11880543
-0.29644516 -0.091991425 -0.17413692 -0.12799326 -0.14998779 0.056522578 -0.18640783 0.51794386
-0.38161528 -0.13790675 -0.10598365 0.20390639 0.26829484 -0.001967392 -0.05696238 0.11503489
-0.051981177 -0.23002869 -0.19037202 -0.010508275 0.29993472 -0.27456066 -0.03344269 -0.097938895
-0.106026165 -0.14176324 -0.36136368 0.25559032 0.08553704 -0.045185767 -0.16587749 0.10723632
-0.31320804 -0.1930071 0.1010531 -0.046460293 -0.01858823 0.029466305 0.10458394 0.31235912
0.08453753 -0.3299447 -0.14750232 -0.03433003 0.08850763 0.3193871 0.14064933 -0.027053379
0.24110648 -0.038181875 -0.011350143 0.036380563 0.101931915 -0.23778047 0.19653837 -0.16917796
0.059916448 -0.2523127 0.40510076 0.31443378 -0.09479929 -0.05724717 0.13678068 0.0052742735
0.22523157 0.11305872 -0.05506172 -0.17567073 -0.24935266 0.1083184 0.11494609 -0.15018848
-0.10505201 -0.022916347 -0.029979281 -0.00984437 -0.11206249 -0.2464569 0.2494699 -0.010487204
0.180797 -0.19998981 0.014203752 0.097658016 -0.124161996 0.021646032 -0.046953805 -0.15845774

mlp.0.bias f4 [32]
00000000: 2f70 cd36 fe6a dc37 0439 8bb7 4f29 47b8
00000010: db02 5a38 00c7 7634 b86a f3b7 7cda 87b8
00000020: c048 bbb6 fbc4 2038 1270 16b8 a294 4837
00000030: 6787 b2b7 caed dfb7 70d6 03b7 5042 8cb5
00000040: a9ff 5037 e6a1 9ab8 80b6 3836 c07b 9037
00000050: 377f 40b7 ee64 2bb8 216e 00b8 7684 9037
00000060: 6fca 5937 24c8 ba37 1dd6 a237 f97e 4bb8
00000070: 82cb 49b7 11e3 1138 b2d1 c437 5441 fc36
6.122536e-06 2.6275866e-05 -1.6596641e-05 -4.748377e-05 5.197791e-05 2.2982931e-07 -2.9017552e-05 -6.4779975e-05
-5.5815035e-06 3.8330425e-05 -3.586716e-05 1.1955535e-05 -2.1282305e-05 -2.66944e-05 -7.858136e-06 -1.0450112e-06
1.2457292e-05 -7.373448e-05 2.7524366e-06 1.7223763e-05 -1.1473711e-05 -4.0863575e-05 -3.0620144e-05 1.722782e-05
1.2981341e-05 2.2266126e-05 1.941161e-05 -4.8517224e-05 -1.20279165e-05 3.4782166e-05 2.3462668e-05 7.5177904e-06

mlp.1.weight f4 [32]
00000000: f7ba 363f 5f87 143f 9f7d 433f fdd3 273f
00000010: d2e0 443f 000a 583f cec4 5f3f 03c1 513f
00000020: bebe 543f 0288 433f 6f0a 563f 9055 483f
00000030: 2e23 833f 3b37 2c3f 5770 243f 33f6 263f
00000040: 35bf 533f 8997 573f 0f41 723f fb17 3d3f
00000050: 46b1 473f 47cf 613f baf1 593f ea8b 583f
00000060: b646 353f cfd3 433f 037f 523f 4ac5 3e3f
00000070: 9d9d 483f 8990 403f 1c2f 5d3f b1ab 283f
0.71379036 0.5801906 0.7636356 0.65557843 0.7690555 0.8439026 0.87409675 0.8193514
0.8310355 0.76379406 0.8360967 0.7825556 1.0245111 0.67271775 0.64233917 0.6521942
0.82713634 0.842156 0.9463052 0.73864716 0.7800487 0.88206905 0.8513447 0.8458849
0.7081102 0.7649507 0.82225055 0.7451979 0.783655 0.75220543 0.8640001 0.6588698

mlp.1.bias f4 [32]
00000000: c8bf e13c 673e 783e 40f6 dd3d bf71 acbe
00000010: 3975 063d a7bc 463d dc47 d7bd 85ec 07bd
00000020: 5646 00bd 8ebe 7b3d 51c9 393d f60a d9bd
00000030: de05 2ebd 35dd aa3d 9335 a2bd ce44 9c3d
00000040: 6417 873c a870 78bd 7129 b0bc 23f3 ecbd
00000050: ae05 0dbd c1ed b13d ea0e 363e 6237 b5ba
00000060: cd6f f53c 7196 a13d 9d0b 21bd a0e7 273e
00000070: 0f26 023e 0f15 e5bd e1a3 17bd 3161 a53d
0.027557269 0.24242555 0.10837984 -0.3368053 0.032826636 0.048519757 -0.10511753 -0.033184547
-0.031317078 0.061461024 0.045358006 -0.10597794 -0.042486064 0.08342973 -0.07920375 0.07630311
0.016490646 -0.060654312 -0.021504136 -0.11569812 -0.034429245 0.08687926 0.17779127 -0.001382571
0.029960537 0.078900225 -0.039317716 0.16396952 0.1270983 -0.11185657 -0.03702152 0.080751784

mlp.1.running_mean f4 [32]
00000000: dac0 173d 1a5c e0bd 500c 283d 28ed 063e
00000010: b18f 003e 347c c3bd f013 d63d 892d d0bd
00000020: 8aaf 0d3e 7e1b 153e bdc3 0fbd 8a96 de3d
00000030: 62a1 7e3e 5920 003e f6d6 9c3d fe54 ad3b
00000040: be9d 2c3d 684b babb 7ea5 033e ff5f 8abc
00000050: 4383 e93b ca3c 233e a0db 7fbd 8e4f a0bd
00000060: 2f05 05be 05a9 453e e90f 0a3e a787 77bd
00000070: 5594 a33d ed23 343d 8899 a03c d43e da3a
0.037049152 -0.10955067 0.041027367 0.13176405 0.12554814 -0.09545174 0.104530215 -0.10164935
0.13836494 0.14561269 -0.03509878 0.10868557 0.2486625 0.1251234 0.07658188 0.005289673
0.042142622 -0.0056852587 0.12856099 -0.016891478 0.0071262433 0.15941158 -0.06246531 -0.07827674
-0.12990259 0.19302757 0.13482632 -0.060432103 0.079872765 0.043979574 0.01960446 0.0016650804

mlp.1.running_var f4 [32]
00000000: 0037 aa39 9093 d939 c666 cf39 781e 8f39
00000010: d27f c739 d00f 8639 feb8 6c3a 5502 3439
00000020: 6bde 3139 d1c3 0939 4ca3 063a 3f92 a53a
00000030: 0edf 1439 a2a7 6d3a c126 8e39 cc17 ca39
00000040: c909 8a3a 8cb1 3037 b48b 783a ac70 7939
00000050: d11e 2c3a f5b9 bc3a edb3 8139 31b5 8539
00000060: 83d3 003a 29c2 4539 1c37 e03a c2c4 4b39
00000070: b044 8b3a de16 b239 9d54 c439 ac66 1639
0.00032465905 0.00041499408 0.0003955869 0.00027297786 0.0003805147 0.00025570253 0.00090302515 0.00017167006
0.00016962893 0.00013138285 0.00051360275 0.0012632086 0.00014197474 0.0009065812 0.00027113224 0.00038546172
0.0010531481 1.0531756e-05 0.00094812666 0.00023788464 0.00065658713 0.0014398681 0.00024738853 0.00025502735
0.000491433 0.00018859714 0.0017106268 0.00019432887 0.0010625329 0.00033967843 0.00037447075 0.00014343363

mlp.3.weight f4 [1, 32]
00000000: ee6c e03d e74c 72bd 0daf bfbd c468 15be
00000010: adf6 0c3e e7ae 413e 4159 cbbe 211e 67be
00000020: 5515 3dbe 9ab7 333e 8406 7dbe 9da0 22be
00000030: c7e3 e23e a8af c33d 7924 90bd 6cbf 02bc
00000040: b3cd 403e 1355 5bbe 3f1a b73e cc64 e13d
00000050: edf8 fb3d 0dfe 6b3e 0acc 84be 1abd 82be
00000060: 7247 b93d 274d 063e d476 49be bacb 15be
00000070: 0878 edbd 0b57 13be aeb3 3f3e 6fac c03d
0.10958277 -0.05915537 -0.0935956 -0.14590746 0.13765974 0.18914376 -0.39716533 -0.22570087
-0.18465169 0.17550507 -0.24709517 -0.15881582 0.44314405 0.09554988 -0.070382066 -0.007980209
0.18828468 -0.21419172 0.35762212 0.110055536 0.12303338 0.23046131 -0.2593692 -0.25534898
0.0904683 0.13115369 -0.19674236 -0.14628497 -0.1159516 -0.14388673 0.18720886 0.09407889
