output_bbox_gcn/EVALUATOR_layout_MultiLayer_2023_09_21_16_51_13/Model/evaluator_730.pth (torch, 9127 bytes, 11 tensors)

LayoutSeq.weight_ih_l0 f4 [32, 4]
0	0x3de7ab45	0.11311964
1	0xbe0dd531	-0.13850857
2	0xbd56d111	-0.052445475
3	0x3dba3781	0.09092618
4	0x3e1dd4c8	0.15413201
5	0xbe55e6c1	-0.20888807
6	0xbd18a76b	-0.037269037
7	0x3da74415	0.081672825
8	0x3e50046b	0.20314185
9	0x3e2dfd48	0.1699115
10	0x3e400f3a	0.18755808
11	0x3e95d7a0	0.2926607
12	0xbe902493	-0.28152904
13	0x3e14e43d	0.14540191
14	0x3e28e3d4	0.1649316
15	0x3d54e717	0.051978197
16	0xbe9993e0	-0.29995632
17	0x3e9cd3fb	0.30630478
18	0x3dc6a662	0.09699704
19	0x3e4b18fc	0.1983375
20	0xbe7904d5	-0.2431825
21	0xbb86db0f	-0.0041154693
22	0x3e0a55a0	0.13509226
23	0x3e23d0e5	0.15997656
24	0x3e52a388	0.20570195
25	0x3df0b5a7	0.117533974
26	0xbe6538c0	-0.2238493
27	0xbe0b8528	-0.13625014
28	0xbdf2f114	-0.11862388
29	0x3e520191	0.2050841
30	0xbcd2315b	-0.0256583
31	0x3eb004a6	0.34378546
32	0x3e4120bb	0.18860142
33	0x3e938362	0.28811175
34	0x3e5a8bdc	0.21342415
35	0x3c0e94f3	0.008702504
36	0x3ea2ede3	0.31822118
37	0xbd2dce31	-0.042432968
38	0xbdc844b4	-0.09778729
39	0x3c1b7454	0.009488184
40	0xbe90d3e0	-0.28286648
41	0x3d96f4ca	0.073709086
42	0xbe43e55e	-0.19130465
43	0xbe3c97ca	-0.18417278
44	0xbd9fb284	-0.07797721
45	0x3d155d91	0.036466185
46	0xbe427a62	-0.18991998
47	0xbe3927a0	-0.18081522
48	0xbe753367	-0.2394539
49	0xbd1cc0b4	-0.038269714
50	0x3e9f478c	0.31109273
51	0xbd8c0b77	-0.06838124
52	0xbbbc8ae2	-0.005753861
53	0x3e6a0b7d	0.22855945
54	0x3e92544d	0.2857994
55	0x3ece9394	0.40346968
56	0xbe5427ef	-0.20718358
57	0xbdd791ed	-0.1052588
58	0xbe6425ca	-0.2228004
59	0xbc02995c	-0.007971134
60	0x3e08aef6	0.13347992
61	0x3e9fa112	0.31177574
62	0x3e8a7afc	0.27046955
63	0xbcf53cfc	-0.029936306
64	0x3e11ee62	0.14251092
65	0x3dc6a453	0.09699311
66	0x3e92d522	0.28678232
67	0x3ca081ac	0.019593082
68	0xbd83b8bb	-0.06431719
69	0xbe7f5272	-0.24933794
70	0xbe329fb9	-0.17443742
71	0xbe1aa74a	-0.15102878
72	0xbdaa1bbf	-0.083060734
73	0x3ed19d7a	0.40940458
74	0xbeab3867	-0.3344147
75	0xbcd931b9	-0.026512967
76	0xbe12e545	-0.14345272
77	0xbe60863e	-0.2192621
78	0x3db14ba7	0.08657008
79	0xbec01352	-0.3751474
80	0xbea489b8	-0.3213632
81	0x3ea199b3	0.31562576
82	0xbda35327	-0.079748444
83	0x3e9aa450	0.30203485
84	0x3ea86487	0.32889196
85	0xbea577b6	-0.32317895
86	0x3d81abf0	0.063316226
87	0x3db18dff	0.08669662
88	0xbe8441ef	-0.25831553
89	0x3e239163	0.1597343
90	0x3ea4f812	0.32220513
91	0xbe84e105	-0.25952926
92	0xbe104629	-0.14089264
93	0x3e30c01b	0.17260782
94	0x3de70f1b	0.11282178
95	0x3ddfcfea	0.10928328
96	0x3d276739	0.040869925
97	0xbe367162	-0.1781669
98	0x3e9a130c	0.30092657
99	0xbe1be555	-0.15224202
100	0x3d24b62d	0.0402128
101	0x3ea8c78c	0.32964742
102	0x3e269bc0	0.16270351
103	0x3d5ffbde	0.05468356
104	0xbc82524e	-0.015908387
105	0xbe0f7dff	-0.14012907
106	0x3da53c5e	0.08068155
107	0x3d127bb6	0.03576251
108	0xbdc278df	-0.094957106
109	0xbdc87fd5	-0.09790007
110	0x3e9ddca5	0.308324
111	0x3d514c71	0.05109829
112	0x3d51150b	0.05104546
113	0xbdee1864	-0.11625746
114	0xbdd422d1	-0.10358203
115	0x3e078638	0.13234794
116	0xbe45f4e9	-0.19331707
117	0x3e8fd58c	0.2809261
118	0xbda07b85	-0.078360595
119	0xbe1f0e4b	-0.15532796
120	0x3c6d0a7c	0.014467832
121	0x3e8e61af	0.27808902
122	0xbe5cb91a	-0.21554986
123	0xbe874e69	-0.2642701
124	0x3e6fab11	0.234051
125	0x3df5801f	0.11987328
126	0x3d95925a	0.07303305
127	0xbd932220	-0.07184243

LayoutSeq.weight_hh_l0 f4 [32, 8]
0	0x3e19e128	0.15027297
1	0xbe7d58dd	-0.2474093
2	0x3e0fc7e4	0.14041096
3	0xbe5a7064	-0.21331936
4	0x3c0260a8	0.007957615
5	0x3dbcb97b	0.09215065
6	0xbbac121f	-0.0052511836
7	0x3e3d2710	0.18471932
8	0x3e77d1ad	0.24201079
9	0x3e0035c7	0.12520514
10	0x3e20a830	0.15689158
11	0xbe53e3bb	-0.20692341
12	0x3dd8289f	0.10554623
13	0x3d0e939d	0.034808744
14	0x3d88c2e0	0.066777945
15	0x3e37f046	0.17962751
16	0xbe23205c	-0.15930313
17	0x3e1c59b9	0.15268601
18	0xbdca8ef3	-0.09890547
19	0xbda57626	-0.08079176
20	0x3d414d77	0.047193017
21	0x3d3a2dc4	0.0454538
22	0x3e5fa042	0.21838477
23	0xbe116145	-0.14197262
24	0x3dec03b2	0.11524142
25	0x3d330cee	0.043713503
26	0x3df3a8d5	0.118974365
27	0xbc6c3a5e	-0.014418213
28	0x3da03b6f	0.07823836
29	0xbd2c700f	-0.042099055
30	0x3d0f609a	0.035004236
31	0x3e2161e6	0.15760002
32	0x3e5cea67	0.21573792
33	0xbe7360b2	-0.23767355
34	0xbe31e827	-0.17373715
35	0xbe9def60	-0.3084669
36	0x3c7d88e3	0.015474531
37	0xbda04332	-0.078253165
38	0x3e24acea	0.16081586
39	0x3c7ac037	0.015304617
40	0xbe34d8d5	-0.1766084
41	0xbb850a06	-0.004060033
42	0xbeadbd5a	-0.33933526
43	0xbe5dac55	-0.2164777
44	0xbe8bf89b	-0.27338108
45	0xbda135b8	-0.07871574
46	0xbdf25ea4	-0.118344575
47	0x3e6527ff	0.22378539
48	0xbe3bac1f	-0.18327378
49	0xbdae221b	-0.08502599
50	0x3d62c426	0.055362843
51	0xbdf69efd	-0.12042043
52	0xbe353948	-0.17697632
53	0xbca3d874	-0.020000674
54	0xbd230b63	-0.03980578
55	0x3ddf393a	0.10899587
56	0xbe4c199f	-0.19931649
57	0x3e8b3d23	0.2719508
58	0x3c863ce5	0.016386459
59	0xbd1911dd	-0.03737055
60	0x3d67ee94	0.05662401
61	0x3da261d1	0.07928813
62	0xbe7654df	-0.24055813
63	0x3dcecf09	0.100980826
64	0xbe03b767	-0.12862931
65	0xbe8b85ae	-0.27250427
66	0xbe815f5c	-0.25268066
67	0x3dac211e	0.08404754
68	0x3cf782c3	0.03021372
69	0xbd05fdb7	-0.032712664
70	0x3e5454af	0.20735429
71	0xbddac8b1	-0.1068281
72	0xbdeaf929	-0.11473305
73	0x3d5baee8	0.0536336
74	0x3e088932	0.13333586
75	0xbe7f2bed	-0.249191
76	0x3e490725	0.19631632
77	0x3e3d2914	0.18472701
78	0x3db99e34	0.09063378
79	0xbd9470d1	-0.072480805
80	0xbe34c1c8	-0.17652047
81	0xbe2a240c	-0.16615313
82	0xbdea7e36	-0.11449854
83	0xbd4d5bc2	-0.050136335
84	0xbd6ccbc6	-0.05781152
85	0x3bcd5e55	0.006267349
86	0xbe7da9d5	-0.24771817
87	0x3dcefa76	0.101063654
88	0xbcf163de	-0.029466566
89	0xbd41b64f	-0.047293004
90	0xbe28ecd6	-0.16496596
91	0xbe777df3	-0.2416914
92	0x3da49d06	0.08037762
93	0x3e51c63f	0.20485781
94	0x3e5e7742	0.21725181
95	0x3de0d344	0.10977796
96	0xbe3bc4e5	-0.18336828
97	0x3d98be9a	0.07458229
98	0x3ea7e0e7	0.32788774
99	0xbe431407	-0.19050609
100	0x3e475468	0.19465792
101	0x3deaa243	0.1145673
102	0xbc892db8	-0.016745433
103	0x3e3ecd6b	0.18633048
104	0x3d47a0b8	0.048737258
105	0xbe07fdb3	-0.13280372
106	0x3e9d0d4f	0.30674216
107	0x3e58ce16	0.21172366
108	0x3e29572f	0.16537164
109	0x3e79ebec	0.24406403
110	0xbd31f898	-0.043449968
111	0x3ea44e6c	0.3209108
112	0xbe355c6a	-0.17711034
113	0xbe20f69b	-0.15719073
114	0xbdab0228	-0.08350021
115	0xbe59c751	-0.2126744
116	0xbdb12f79	-0.08651633
117	0x3de1b2f9	0.110204645
118	0x3da7aa6d	0.08186803
119	0xbb6eb9b7	-0.0036426613
120	0x3dd5233f	0.10407113
121	0xbdcc9fd6	-0.09991424
122	0x3daf0de6	0.08547573
123	0xbec70e96	-0.38878316
124	0xbe065be3	-0.1312099
125	0x3ddb6109	0.10711867
126	0x3e1a796b	0.1508538
127	0x3e423c52	0.18968323
128	0xbe7359c5	-0.23764713
129	0xbdc98f84	-0.098418266
130	0x3e1b3360	0.15156317
131	0x3e21b783	0.1579266
132	0x3e64bc0a	0.22337356
133	0xbd018f80	-0.031630993
134	0xbea38da8	-0.31944013
135	0x3e59baaa	0.21262613
136	0xbd41fd68	-0.047360808
137	0xbe231fe2	-0.15930131
138	0x3e9efa87	0.31050512
139	0x3e32149a	0.17390671
140	0x3d9c94a4	0.076455384
141	0x3e8a8a7c	0.2705878
142	0x3e9590ca	0.29212028
143	0x3e1b8a1c	0.15189403
144	0x3d2da45e	0.04239308
145	0x3ecf2cc3	0.40463838
146	0x3e462c4a	0.19352832
147	0xbd835785	-0.064131774
148	0xbeac7a25	-0.3368694
149	0xbe5f12de	-0.21784541
150	0x3e8d213d	0.2756442
151	0x3d9d228a	0.076726034
152	0xbe92c453	-0.28665408
153	0x3dfeec06	0.12447362
154	0x3ec0f866	0.37689513
155	0x3ec0ff0f	0.37694594
156	0x3d8b785b	0.06810065
157	0x3e14d159	0.14532985
158	0xbe2f4dcb	-0.1711952
159	0xbde02e23	-0.109463
160	0x3dc6d7d4	0.09709135
161	0x3e9c8f1f	0.30577943
162	0xbe85a508	-0.2610247
163	0x3e808833	0.25103912
164	0x3e01b7b1	0.12667729
165	0xbea39fd8	-0.3195789
166	0xbe7a39f4	-0.2443617
167	0x3da805bf	0.08204221
168	0xbe4d70e8	-0.20062602
169	0x3d907583	0.070536636
170	0x3e59cbd5	0.21269162
171	0x3cedafa7	0.029014422
172	0xbe5cd2bc	-0.21564764
173	0xbdecfbae	-0.115714416
174	0xbe14137d	-0.14460559
175	0x3ecc3e88	0.39891458
176	0x3e5f5608	0.21810162
177	0x3c0fac64	0.0087691285
178	0x3e8fa613	0.28056392
179	0xbea67605	-0.32511917
180	0xbe80b012	-0.2513433
181	0xbdddc016	-0.10827653
182	0x3e77efc7	0.24212562
183	0xbe20bcd8	-0.15697038
184	0xbe90e167	-0.28296968
185	0xbe7a9220	-0.24469805
186	0xbd5744b5	-0.05255576
187	0xbc9ed8b1	-0.019390436
188	0xbea7d3be	-0.32778734
189	0x3eb8cd2d	0.36094037
190	0x3e4a4b4f	0.1975529
191	0xbd6abbc0	-0.05730796
192	0xbd7e9356	-0.06215223
193	0x3e155c31	0.1458595
194	0x3d0def76	0.034652196
195	0xbea6dab5	-0.32588735
196	0x3bdb476b	0.0066918633
197	0x3bee05ea	0.0072638886
198	0x3d91cda9	0.07119305
199	0x3e8e87ac	0.27837884
200	0x3e8a8357	0.2705333
201	0xbe782205	-0.24231727
202	0xbe28fb6a	-0.16502157
203	0x3e0c8894	0.13723975
204	0x3dbc234c	0.0918642
205	0x3e47a04c	0.19494742
206	0x3e6ca273	0.23108844
207	0x3e6c5061	0.23077537
208	0xbe44436d	-0.19166346
209	0x3e4c0bcf	0.1992638
210	0x3e3d8f2e	0.1851165
211	0x3e66d72e	0.22543022
212	0xbe0f2332	-0.1397827
213	0xbd431d5d	-0.047635425
214	0x3e582627	0.21108304
215	0x3e599dc1	0.21251585
216	0x3e27eda7	0.16399251
217	0xbdb80531	-0.08985365
218	0xbe02e70d	-0.12783451
219	0xbea2c479	-0.31790522
220	0x3c570ffe	0.013126371
221	0xbd09d32f	-0.033648666
222	0x3d8b7d6e	0.06811033
223	0x3cb380e9	0.021912055
224	0xbb89e534	-0.0042082313
225	0x3deb0e28	0.114773095
226	0x3ea61354	0.3243662
227	0x3dd99d18	0.106256664
228	0xbe05129b	-0.12995379
229	0xbc143c41	-0.009047569
230	0xbe603f56	-0.2189916
231	0xbd87f409	-0.06638343
232	0xbe5a1d05	-0.21300133
233	0xbd508b21	-0.050913934
234	0xbcdfc448	-0.027315274
235	0xbe56852c	-0.20949239
236	0xbe006418	-0.12538183
237	0xbc06b7fd	-0.008222577
238	0xbde0acc0	-0.109704494
239	0x3dd9b993	0.106310986
240	0xbe6a2aa6	-0.22867832
241	0xbe03a92e	-0.12857506
242	0x3ea9a720	0.3313532
243	0xbe69883c	-0.22805876
244	0x3e089f89	0.13342108
245	0xbd0dfadf	-0.034663077
246	0xbdebd50e	-0.11515246
247	0xbc8e47d7	-0.01736824
248	0x3dd62b49	0.10457475
249	0x3d745cae	0.0596587
250	0xbdd63a24	-0.10460308
251	0xbd240ca7	-0.04005113
252	0xbdd5e3e9	-0.10443861
253	0xbcf2ef3a	-0.029655088
254	0x3c8a32fe	0.016870018
255	0x3e0f6991	0.14005114

LayoutSeq.bias_ih_l0 f4 [32]
0	0x3dc542e7	0.09631901
1	0x3e839a52	0.25703675
2	0x3e10593f	0.14096545
3	0x3dc969aa	0.09834607
4	0x3d068eb6	0.032850944
5	0x3e8f6aba	0.28011113
6	0x3e926db8	0.28599334
7	0xbe0b9cb0	-0.1363399
8	0xbd36f473	-0.04466672
9	0x3e73d4c1	0.23811628
10	0xba559715	-0.0008147818
11	0x3df9cc87	0.121972136
12	0xbe7b9dee	-0.24571964
13	0x3deb77a7	0.11497431
14	0x3e680f33	0.22662048
15	0x3abd8376	0.0014458734
16	0xbd9b8eb7	-0.0759558
17	0x3ddb1013	0.10696425
18	0x3e060936	0.13089451
19	0xbe2e5e48	-0.17028153
20	0xbd99852c	-0.07496104
21	0x3c520b4d	0.012820077
22	0xbb8da8c5	-0.0043230974
23	0x3db93939	0.090441175
24	0x3e669a46	0.22519788
25	0xbdda7ca7	-0.10668307
26	0x3e9bd8ac	0.30438745
27	0xbdd08b60	-0.10182834
28	0x3ec5d95f	0.38642403
29	0x3c0b22d5	0.008492191
30	0xbe435f61	-0.19079353
31	0x3e4c4712	0.19948986

LayoutSeq.bias_hh_l0 f4 [32]
0	0xbc9cb9fa	-0.01913165
1	0xbdb35fab	-0.087584816
2	0x3ea411a8	0.3204472
3	0x3ea18216	0.3154456
4	0xbe57aaaf	-0.21061204
5	0xbe83815d	-0.25684634
6	0xbe169acd	-0.1470749
7	0x3dd0c2ca	0.10193403
8	0x3e843271	0.25819734
9	0x3eb9d63c	0.3629626
10	0xbe3d57c3	-0.1849051
11	0x3ec03cc2	0.37546355
12	0xbe83fa6f	-0.25777003
13	0xbd7300bd	-0.059326876
14	0x3c8d9da4	0.017287083
15	0x3de7255d	0.11286423
16	0xbe3fc4c6	-0.18727407
17	0xbe8ec316	-0.27883214
18	0x3e4c1e6f	0.19933484
19	0x3ddf7300	0.109106064
20	0xbd025501	-0.031819347
21	0x3cc4ecf1	0.024038764
22	0x3e9b40d1	0.30322888
23	0xbe011a30	-0.12607646
24	0xbb63acd9	-0.0034740476
25	0x3e3c7dad	0.18407317
26	0x3e1e93bf	0.15486048
27	0x3dedb9a4	0.11607674
28	0xbe422eab	-0.18963115
29	0xbddbe365	-0.107367314
30	0xbdb615e4	-0.08890894
31	0x3e8a7ee0	0.27049923

mlp.0.weight f4 [32, 8]
0	0x3d8ad2a2	0.06778456
1	0xbe6269ae	-0.22110626
2	0x3d3d7ff0	0.04626459
3	0x3e38bb43	0.18040185
4	0x3e1ee7cd	0.15518112
5	0x3e0c29cc	0.13687819
6	0xbdd2e747	-0.10298019
7	0x3dfcb3a5	0.12338952
8	0xbe63f77c	-0.22262377
9	0x3db47389	0.08811099
10	0xbd876beb	-0.066123806
11	0x3ca11057	0.019661112
12	0x3d510cd9	0.051037643
13	0x3d51297f	0.051064964
14	0xbe7a45f4	-0.24440747
15	0xbdc5c1cb	-0.09656104
16	0x3d28a67c	0.041174397
17	0xbe2c4ef8	-0.16826999
18	0x3e51c81b	0.2048649
19	0x3dc324fa	0.09528537
20	0xbe8d76a4	-0.27629578
21	0xbcd4b704	-0.025966175
22	0xbcdd0c1b	-0.026983311
23	0xbe452a93	-0.19254522
24	0x3ed35a43	0.41279802
25	0xbc7516be	-0.014959035
26	0x3ece448a	0.40286666
27	0x3cdd39f2	0.02700517
28	0x3deed878	0.11662382
29	0x3e391148	0.18072999
30	0x3d51a775	0.05118509
31	0x3e034190	0.12817979
32	0x3dc5cecc	0.09658584
33	0xbe813ae2	-0.25240237
34	0xbd58cc20	-0.052929044
35	0xbe4e8884	-0.20169264
36	0xbe9c9d06	-0.3058855
37	0xbb5c239b	-0.0033590558
38	0x3e28b372	0.16474703
39	0xbe84741e	-0.2586984
40	0xbd02cf1d	-0.0319358
41	0x3e08f115	0.13373215
42	0xbd5c19fa	-0.05373571
43	0x3dc60f55	0.09670893
44	0x3e39afa6	0.18133411
45	0x3d3ffe05	0.04687311
46	0xbeb42db3	-0.35191116
47	0x3e5e7fe4	0.21728474
48	0xbdad09f7	-0.08449166
49	0xbef48062	-0.47754198
50	0x3d1d0953	0.03833897
51	0xbd93c12b	-0.07214578
52	0x3d6c66ab	0.0577151
53	0x3e0ce560	0.13759375
54	0xbe4deafb	-0.20109169
55	0xbe23f6ca	-0.16012111
56	0x3e05e841	0.13076879
57	0x3e2ef4af	0.17085527
58	0xbe54ab4d	-0.20768471
59	0xbe521efc	-0.20519632
60	0xbda5632c	-0.08075556
61	0xbeb66225	-0.35621753
62	0xbd288a63	-0.0411476
63	0xbdc73724	-0.09727314
64	0xbda9314f	-0.08261358
65	0xbeacee61	-0.3377562
66	0x3e0757ee	0.13217136
67	0xbe97de88	-0.29661965
68	0xbe29f8f2	-0.16598871
69	0xbe869c75	-0.26291242
70	0x3e74e536	0.23915562
71	0xbec460bb	-0.3835505
72	0xbec78aa0	-0.3897295
73	0x3cd2ea22	0.025746409
74	0xbd65659d	-0.05600511
75	0x3d93e511	0.07221425
76	0xbe89ec1c	-0.2693795
77	0x3e3ab2a3	0.18232207
78	0xbdc4bbd3	-0.09606137
79	0x3f16ff6c	0.5898349
80	0xbe5015a9	-0.20320763
81	0xbe87b633	-0.26506194
82	0x3d49e341	0.04928899
83	0x3e21c41d	0.15797468
84	0xbc777506	-0.015103584
85	0xbde32f35	-0.110929884
86	0xbc12fa14	-0.008970756
87	0xbe6140ab	-0.21997325
88	0x3d93d0d6	0.07217567
89	0x3dd68038	0.104736745
90	0x3e1eec95	0.15519936
91	0xbe893ee7	-0.26805803
92	0xbdaaef7a	-0.08346458
93	0xbc015ea1	-0.007896096
94	0xbeee02d8	-0.46486545
95	0x3ebb7776	0.3661458
96	0xbe84efef	-0.25964305
97	0x3e7e4d75	0.24834235
98	0x3e21b936	0.15793309
99	0x3d47aaed	0.048746992
100	0xbee5f6af	-0.44914767
101	0x3e9071d1	0.28211835
102	0xbdd12683	-0.10212424
103	0x3f662629	0.8990198
104	0x3e1fac4c	0.1559307
105	0xbe1cc9a5	-0.15311296
106	0x3e5cbf7c	0.2155742
107	0xbd392256	-0.04519876
108	0x3df88e17	0.121364765
109	0x3e7d70b4	0.24750024
110	0xbe6d7c45	-0.23191936
111	0x3e14a23d	0.14515014
112	0x3e3e7c6f	0.18602155
113	0xbd8f6eb2	-0.07003535
114	0x3d6e8525	0.058232445
115	0xbe19a8bd	-0.15005775
116	0x3b701246	0.0036631986
117	0xbd8be232	-0.06830253
118	0x3d80dda0	0.062922716
119	0x3bd6df82	0.006557406
120	0xbe4a32ee	-0.1974599
121	0x3d591e83	0.053007614
122	0x3e171c79	0.14756955
123	0x3c99d5c0	0.018778682
124	0x3e8a8d9d	0.27061167
125	0x3de71b2e	0.11284481
126	0xbd9e96f7	-0.07743638
127	0x3dc477e4	0.0959318
128	0x3e4eb8bc	0.20187658
129	0xbe63a8aa	-0.22232309
130	0x3cfe3ad3	0.031033909
131	0xbe4086f9	-0.18801488
132	0x3e5f066b	0.21779792
133	0xbe57bd87	-0.21068393
134	0xbdf9bb2d	-0.12193904
135	0xbca3b947	-0.019985808
136	0xbe2215bc	-0.15828604
137	0xbda64ca5	-0.081200875
138	0xbd94bc46	-0.07262473
139	0x3cdce759	0.026965784
140	0xbdf1f0b1	-0.11813486
141	0xbe7f8632	-0.24953535
142	0xbe14863d	-0.14504333
143	0x3e00e0fd	0.12585826
144	0xbe1b121f	-0.15143631
145	0xbe6288aa	-0.22122446
146	0x3ed11a3c	0.40840328
147	0x3d008da2	0.03138507
148	0xbde17cfc	-0.11010167
149	0x3dd26f88	0.10275179
150	0xbb334055	-0.0027351577
151	0xbdeebf26	-0.116575524
152	0x3e0b68c6	0.13614187
153	0x3d8a8562	0.06763722
154	0x3df60dbe	0.1201434
155	0x3e185bf5	0.14878829
156	0xbccdf5a1	-0.025141539
157	0xbd8893ba	-0.066688016
158	0x3de09bd4	0.10967222
159	0x3d3f71a7	0.046739247
160	0xbea2e059	-0.3181179
161	0x3e23eb08	0.16007626
162	0x3d7015fb	0.058614712
163	0xbc441eb6	-0.011970213
164	0xbd2d4f34	-0.042311862
165	0xbd98b8f9	-0.07457156
166	0x3d7d2e94	0.061812
167	0x3e046fd0	0.12933278
168	0xbe9a7823	-0.30169782
169	0xbdd58e2e	-0.10427509
170	0xbe341fdd	-0.1759028
171	0xbe0d5b56	-0.13804373
172	0xbe1b0ed4	-0.15142375
173	0x3db51f4a	0.088438585
174	0xbe587b96	-0.21140894
175	0x3f097fa4	0.5371039
176	0xbec70c11	-0.38876393
177	0xbe09cecb	-0.13457792
178	0xbdc5074a	-0.09620531
179	0x3e4d6373	0.20057468
180	0x3e8efaca	0.27925712
181	0xbc4cfeee	-0.012511952
182	0xbd89f99d	-0.06737063
183	0x3df60ee6	0.120145604
184	0xbd56e6eb	-0.052466314
185	0xbe72c03a	-0.23706141
186	0xbe46af89	-0.19402899
187	0xbba2e650	-0.004971303
188	0x3e952c0e	0.29135174
189	0xbe94e432	-0.2908035
190	0xbd0de1d9	-0.034639213
191	0xbdd13914	-0.10215965
192	0xbe00461c	-0.12526745
193	0xbe1a0a27	-0.15042935
194	0xbec63ad6	-0.38716763
195	0x3e8a41f1	0.27003434
196	0x3db8eabc	0.09029147
197	0xbcf36dfa	-0.029715527
198	0xbe2754fe	-0.16341016
199	0x3dd9c257	0.106327705
200	0xbea9e232	-0.33180386
201	0xbe46fc5a	-0.19432202
202	0x3dbcecd0	0.09224856
203	0xbd3f370a	-0.04668335
204	0x3b051c4e	0.002031106
205	0x3d148d1e	0.036267392
206	0x3dc2f58d	0.09519491
207	0x3e9f2bc0	0.31088066
208	0x3dac6f8c	0.084197134
209	0xbeb4ab70	-0.35287046
210	0xbe2441ac	-0.16040677
211	0xbd48b791	-0.049003188
212	0x3dad2370	0.08454025
213	0x3eadec80	0.33969498
214	0x3e2c0152	0.16797379
215	0xbc7438dd	-0.014906135
216	0x3e73d0a6	0.23810062
217	0xbd1d0f23	-0.038344514
218	0xbc7642a1	-0.015030534
219	0x3ceb8419	0.028749513
220	0x3dff5b7a	0.1246862
221	0xbe7e9976	-0.24863228
222	0x3e461517	0.19343983
223	0xbe2f844c	-0.17140311
224	0x3d72ffea	0.05932609
225	0xbe86217e	-0.26197428
226	0x3ed4c31f	0.41555116
227	0x3eb5c594	0.35502303
228	0xbddca603	-0.10773852
229	0xbd8ef844	-0.06980947
230	0x3e0e2dd1	0.13884665
231	0xbbdb7b43	-0.0066980436
232	0x3e5e63b1	0.21717717
233	0x3df47c8e	0.119378194
234	0xbd5c53d4	-0.053790882
235	0xbe3a5ca6	-0.18199405
236	0xbe82399a	-0.25434572
237	0x3e0b3e4d	0.13597985
238	0x3da9d195	0.08291928
239	0xbe286403	-0.16444401
240	0xbdc5759e	-0.09641574
241	0xbca7466f	-0.020419328
242	0xbcd1cd80	-0.025610685
243	0x3c8b81f0	0.017029732
244	0xbdcd42e4	-0.10022524
245	0xbe884013	-0.26611385
246	0x3e95c616	0.2925269
247	0xbc911088	-0.017708078
248	0x3e383331	0.17988278
249	0xbe55ac47	-0.208665
250	0x3cb58530	0.022158235
251	0x3dc5ad90	0.09652245
252	0xbdf0c2db	-0.11755916
253	0x3ce59baf	0.028028337
254	0xbd3966ce	-0.045264058
255	0xbe2ef68e	-0.1708624

mlp.0.bias f4 [32]
0	0x373d5a48	1.1286298e-05
1	0xb6c0af3d	-5.7424463e-06
2	0xb5f0b3f2	-1.7933764e-06
3	0xb70b5179	-8.304015e-06
4	0x37b515be	2.1587006e-05
5	0xb33f6d00	-4.4569788e-08
6	0xb483fd80	-2.4585097e-07
7	0xb83bb29f	-4.4750628e-05
8	0xb60b18e0	-2.0727093e-06
9	0xb8404237	-4.5838035e-05
10	0xb8014cfc	-3.0827694e-05
11	0x37f1ac30	2.880962e-05
12	0xb8a96c72	-8.0787475e-05
13	0xb7868b14	-1.6038808e-05
14	0x370c8c84	8.377367e-06
15	0x348d0e18	2.627355e-07
16	0xb78946d3	-1.6364653e-05
17	0xb7c8474d	-2.387506e-05
18	0x37db42dc	2.6137968e-05
19	0xb63be738	-2.7999758e-06
20	0xb790b23e	-1.7249138e-05
21	0xb7faffb2	-2.992139e-05
22	0x368133d9	3.8505354e-06
23	0xb79e29a2	-1.8854455e-05
24	0x373f6663	1.1408326e-05
25	0xb7a977c8	-2.0202147e-05
26	0x3765092e	1.3651601e-05
27	0x37eebe2f	2.8460372e-05
28	0xb7bff553	-2.2883212e-05
29	0x38086b20	3.2524695e-05
30	0xb75ef1c6	-1.3288523e-05
31	0x3699e00e	4.5858387e-06

mlp.1.weight f4 [32]
0	0x3f432962	0.7623502
1	0x3f240900	0.6407623
2	0x3f4e618b	0.8061759
3	0x3f33454f	0.7002763
4	0x3f4db186	0.80349004
5	0x3f5eaf33	0.8698608
6	0x3f655e0d	0.89596635
7	0x3f5a2bdf	0.8522319
8	0x3f5bd2b0	0.8586836
9	0x3f485df6	0.78268373
10	0x3f5c9f57	0.86180633
11	0x3f525e91	0.82175547
12	0x3f87a9d7	1.0598706
13	0x3f382259	0.7192741
14	0x3f3275bf	0.69710916
15	0x3f3ac743	0.729603
16	0x3f59fbd7	0.851499
17	0x3f5b13eb	0.8557727
18	0x3f762c86	0.9616169
19	0x3f475a95	0.7787259
20	0x3f510a4c	0.81656337
21	0x3f6863d8	0.9077735
22	0x3f6127e5	0.879515
23	0x3f60ff92	0.8788997
24	0x3f41c15e	0.7568568
25	0x3f4ebe02	0.8075868
26	0x3f591d99	0.8481079
27	0x3f45feb5	0.7734178
28	0x3f52195d	0.8206995
29	0x3f49cd21	0.78828627
30	0x3f63f345	0.89043075
31	0x3f34e6de	0.70664775

mlp.1.bias f4 [32]
0	0x3d3d627d	0.046236504
1	0x3e654d6b	0.22392814
2	0x3dd1c7b8	0.102431715
3	0xbe9bf29d	-0.30458537
4	0x3d4a11d3	0.049333405
5	0x3d4a3610	0.049367964
6	0xbdd970ae	-0.10617195
7	0xbc995401	-0.018716814
8	0xbba496ca	-0.0050228583
9	0x3da706f6	0.081556246
10	0x3d65535a	0.055987693
11	0xbdcf3088	-0.101166785
12	0xb9925f7c	-0.0002791843
13	0x3db09b25	0.086233415
14	0xbdccb440	-0.099953175
15	0x3dc4e1ab	0.09613355
16	0x3d3b2bbe	0.045696013
17	0xbd037fc4	-0.03210427
18	0xbceddd9f	-0.029036341
19	0xbdc71551	-0.09720863
20	0xbd4479e5	-0.04796781
21	0x3dbe07ea	0.09278853
22	0x3e19cad9	0.15018786
23	0x390886ac	0.0001302014
24	0x3d1a3262	0.037645705
25	0x3d984857	0.07435673
26	0xbd6b4a09	-0.057443652
27	0x3e17f6c3	0.14840226
28	0x3db9c7cf	0.090713136
29	0xbdddf89c	-0.10838434
30	0xbd4939c4	-0.049127355
31	0x3d99e0b2	0.0751356

mlp.1.running_mean f4 [32]
0	0x3cf53ba7	0.029935671
1	0xbde7c084	-0.11316016
2	0x3d0d1068	0.034439474
3	0x3dfe2026	0.124084756
4	0x3e074699	0.13210525
5	0xbddc542a	-0.107582405
6	0x3de0e8cf	0.10981905
7	0xbdccdd8a	-0.10003193
8	0x3e1cc380	0.15308952
9	0x3e1b1c0b	0.15147416
10	0xbd02c942	-0.031930216
11	0x3dca67bc	0.09883067
12	0x3e7b373b	0.24532788
13	0x3dec5963	0.11540487
14	0x3da91e17	0.08257692
15	0x3a8c431c	0.0010701152
16	0x3d43736f	0.047717508
17	0xbc668bdd	-0.014071432
18	0x3e08fe35	0.13378222
19	0xbca86516	-0.020556014
20	0x3bff53a8	0.007791955
21	0x3e306165	0.17224653
22	0xbd6b174b	-0.05739526
23	0xbd95e5fc	-0.07319257
24	0xbe08fbae	-0.13377258
25	0x3e48325d	0.19550462
26	0x3e216b54	0.15763599
27	0xbd775e49	-0.06039265
28	0x3d90b635	0.07066003
29	0x3d0f77e9	0.035026465
30	0x3ca7c402	0.020479206
31	0x3a93a907	0.0011265584

mlp.1.running_var f4 [32]
0	0x3983389a	0.00025028439
1	0x39ac0889	0.00032812756
2	0x39b20119	0.00033951623
3	0x39807ef4	0.0002450865
4	0x39c2459e	0.00037054432
5	0x39b37a82	0.00034232816
6	0x3a4be8d4	0.00077785295
7	0x390f8ed3	0.00013690749
8	0x395d9010	0.0002112987
9	0x3938a275	0.00017608127
10	0x39ade650	0.00033168728
11	0x3a9be69f	0.0011894292
12	0x39371908	0.00017461565
13	0x3a565778	0.0008176486
14	0x395d0406	0.00021077701
15	0x3a025bcf	0.0004972787
16	0x3a57dc14	0.00082343933
17	0x371d79a1	9.386248e-06
18	0x3a49a88b	0.00076926564
19	0x39995ca6	0.00029251463
20	0x3a0c3224	0.00053480477
21	0x3abef760	0.0014569573
22	0x39729e9d	0.00023138007
23	0x39528220	0.00020075636
24	0x39ff9432	0.00048747804
25	0x39849b1e	0.00025292573
26	0x3ab905e9	0.0014116141
27	0x394b7cd3	0.00019406089
28	0x3a9cfb11	0.0011976679
29	0x39856065	0.00025439556
30	0x3a024cda	0.0004970558
31	0x38f6c304	0.000117665186

mlp.3.weight f4 [1, 32]
0	0x3de4308a	0.111420706
1	0xbd674081	-0.056458
2	0xbdccbd18	-0.09997004
3	0xbe0c058d	-0.13673992
4	0x3e09138d	0.13386364
5	0x3e3e8455	0.18605168
6	0xbed07c37	-0.40719768
7	0xbe74155b	-0.23836271
8	0xbe4368bf	-0.19082926
9	0x3e209fc1	0.15685941
10	0xbe82c1e1	-0.25538543
11	0xbe28e1fe	-0.16492459
12	0x3ee68ec8	0.45030808
13	0x3dbb13bd	0.09134624
14	0xbd7c6510	-0.06161982
15	0xbc7d8a60	-0.015474886
16	0x3e393237	0.18085562
17	0xbe3fdda6	-0.18736896
18	0x3eb7449b	0.3579453
19	0x3de335d5	0.11094252
20	0x3dfb045b	0.1225669
21	0x3e6acbc0	0.22929287
22	0xbe87cb1f	-0.26522157
23	0xbe8a745a	-0.27041894
24	0x3dc0eed4	0.09420553
25	0x3e0c0d6c	0.13676995
26	0xbe4834c2	-0.19551376
27	0xbe0fd8b7	-0.14047514
28	0xbde4c49d	-0.111703135
29	0xbe187279	-0.14887418
30	0x3e439e06	0.1910325
31	0x3db7e414	0.08979049
