output_bbox_gcn/EVALUATOR_layout_MultiLayer_2023_09_21_16_51_13/Model/evaluator_140.pth (torch, 9127 bytes, 11 tensors)

LayoutSeq.weight_ih_l0 f4 [32, 4]
000000 38 57 51 3e 48 d4 ab bd 45 15 a6 3d 31 2a 33 3e
       0.20443428 -0.08390099 0.081095256 0.17496563
000010 8a 2a 4e 3e fd 04 95 be b7 2e 66 bd 84 7e 1b 3c
       0.20133415 -0.29105368 -0.056196894 0.009490613
000020 63 55 af 3e f4 ef 8c 3e ae 3e 0b 3e fc b9 87 3e
       0.34244832 0.2752682 0.13598129 0.26509082
000030 a9 82 83 be 44 cf 81 3e ef e6 1c 3e 7c 2d 34 3c
       -0.25685623 0.25353444 0.15322469 0.010997172
000040 73 6d 19 be b6 e7 6f 3e 5e 59 ce 3d 01 8f 05 3e
       -0.14983158 0.23428234 0.10075639 0.13042833
000050 b6 c1 7c be ec e0 86 be de 5b 28 3e 9a b8 89 3d
       -0.2468327 -0.26343477 0.16441295 0.06724663
000060 bb 3d 97 3e 8b 7c 9a 3d 57 4f 83 be d1 e7 36 be
       0.29539284 0.07543286 -0.2564647 -0.17861868
000070 9c 88 7a be d8 de 8d 3e 32 37 b5 bc 8a 57 b1 3e
       -0.24466175 0.2770908 -0.022121046 0.346371
000080 93 fc 2f 3e 58 af 88 3e a9 17 10 3e 60 d4 58 bd
       0.17186193 0.26696277 0.14071526 -0.05293691
000090 9a 7c 86 3e a4 ca e9 bd f2 dd e6 bd 14 51 f8 bc
       0.26266938 -0.11415604 -0.112728015 -0.030312099
0000a0 90 c1 9f be 18 5a 08 3d c1 64 2e be a3 87 38 be
       -0.31202364 0.033289045 -0.17030622 -0.18020491
0000b0 60 1b 9a bc 39 a1 7e bd 15 24 6b be 7e 2f 6c be
       -0.018811882 -0.062165473 -0.22962983 -0.23064992
0000c0 ca 74 92 be 44 23 d8 bc 42 0b aa 3e 89 15 8c be
       -0.28604728 -0.026384003 0.33211714 -0.2736018
0000d0 42 55 28 3d 26 c9 93 3e 5a 49 92 3e b6 45 bf 3e
       0.041096933 0.28864402 0.28571588 0.37357873
0000e0 45 4b 9b be c4 c1 39 be 79 95 9b be a1 75 99 bd
       -0.30330864 -0.18140322 -0.30387476 -0.07493139
0000f0 67 4c 25 3e 6b 73 94 3e 8c 12 af 3e 88 01 aa bc
       0.16142426 0.28994307 0.34193838 -0.020752683
000100 34 0f fb 3d 7c b9 a5 3d 56 35 91 3e 5a 58 94 3c
       0.12258759 0.08092019 0.28361005 0.018108536
000110 60 54 c5 bc 50 f2 69 be 39 94 40 be cc 16 44 be
       -0.024088085 -0.22846341 -0.18806542 -0.19149321
000120 16 56 29 be 60 25 91 3e 66 07 bb be d0 9d ed 3b
       -0.16536745 0.28348827 -0.36529082 0.0072514787
000130 a7 79 85 be 35 52 56 be 9f 38 58 3d 03 ed b2 be
       -0.26069376 -0.20929797 0.052788373 -0.3494645
000140 11 75 9d be e1 57 8c 3e 69 e4 a1 bd db b7 95 3e
       -0.30753377 0.27410796 -0.07904894 0.29241833
000150 17 0b a5 3e 42 a1 a0 be 0e c4 9f 3d 99 f9 c7 3d
       0.32235023 -0.3137303 0.07801066 0.09764404
000160 af 40 6c be 70 d1 47 3e 9f b2 b3 3e a1 48 83 be
       -0.2307155 0.19513488 0.35097215 -0.2564135
000170 87 e3 b9 bd 6c 6b 71 3e 4a fa d7 3d e2 f3 d5 3d
       -0.090766005 0.23576134 0.10545786 0.104469076
000180 33 cd 40 3d 28 da 65 be 6a f4 a7 3e 77 86 45 be
       0.047070693 -0.22446501 0.3280366 -0.19289576
000190 96 74 d5 3b 56 7c aa 3e 3b ec 12 3e d1 f6 8e 3d
       0.0065141423 0.33297986 0.14347927 0.0698067
0001a0 49 f2 41 3d ed 81 56 be 67 4e 3b 3e a8 b8 20 bc
       0.0473502 -0.20948 0.18291627 -0.0098096505
0001b0 d4 c2 49 3c ee 48 a0 bd 97 5d a5 3e ff ef a0 3d
       0.012314517 -0.0782641 0.32297966 0.078582756
0001c0 f6 c8 16 3e 52 b8 44 be fc 1c f4 bd ce fa d6 3c
       0.14725098 -0.19210938 -0.11919591 0.02624264
0001d0 70 2f 84 be d6 84 35 3e 7d c1 4f bd d7 58 52 be
       -0.25817442 0.17726454 -0.050721634 -0.20541702
0001e0 1f cd 89 bc 35 e0 8e 3e e2 4c 85 be 06 50 8b be
       -0.016821442 0.2790543 -0.2603522 -0.2720949
0001f0 9a 9a 70 3e ad 0c de 3d 84 b1 01 3e 54 8e 65 bd
       0.23496476 0.108422615 0.12665373 -0.056043938

LayoutSeq.weight_hh_l0 f4 [32, 8]
000000 3d b6 00 3e 15 7a 36 be 72 5f f8 3d a2 fd eb bd
       0.12569518 -0.17820008 0.1212758 -0.11522986
000010 c4 10 d0 bd f5 cc 4d 3d 99 98 b8 bd 00 44 3f 3d
       -0.10159448 0.05024429 -0.09013481 0.04669571
000020 51 91 7d 3e c7 47 6f 3e ce fd 93 3e 14 e4 6c be
       0.24762465 0.23367225 0.28904575 -0.2313388
000030 c1 37 8b 3e a8 1a 8a 3d 51 86 b2 bc 4d dc 57 3e
       0.27190974 0.067433655 -0.021792563 0.21080132
000040 2e 6e 4a be 97 a7 56 3e b6 5d 61 be 13 72 e6 bd
       -0.19768593 0.20962368 -0.22008404 -0.11252227
000050 0d 94 69 3e 37 3f 91 bd 52 6e a1 3e 60 0c 80 be
       0.22810383 -0.070921354 0.3152948 -0.2500944
000060 d2 dc 1b 3e 75 72 37 3e 60 5b 8a 3e bc d6 07 3e
       0.15220955 0.17914756 0.2702284 0.13265508
000070 4d 7a 3f 3e de a3 7b be 8c d8 39 3e 5e a7 0f 3e
       0.18698998 -0.24574229 0.18149012 0.1402869
000080 c1 01 a6 3e 52 e4 69 be 31 9a 86 be e2 30 98 be
       0.32423213 -0.22841004 -0.26289514 -0.29724795
000090 5f 24 e8 bd 93 08 4c be 30 76 6c 3e e7 94 6c bd
       -0.11335062 -0.19925146 0.2309196 -0.05775919
0000a0 6d ca 88 be b8 09 ee bc 7a 30 c1 be 60 61 9b be
       -0.2671694 -0.029057369 -0.37732297 -0.3034773
0000b0 a7 cb 29 be 76 8c 69 be 31 79 85 be ad 9c a9 3e
       -0.16581593 -0.22807488 -0.26069024 0.33127347
0000c0 9f 5b 98 be 43 bf 55 be 32 c6 8a 3b 8c b9 80 be
       -0.297574 -0.20873742 0.0042350525 -0.2514156
0000d0 e9 26 8c be 90 74 95 bd 39 2e 4f be 52 e3 89 3e
       -0.27373436 -0.07297623 -0.20232476 0.26931244
0000e0 0c b5 1f be 71 86 87 3e 29 87 63 bd 3e bf a0 bc
       -0.15596408 0.26469758 -0.05554882 -0.019622441
0000f0 7a bd ac 3d 28 be 96 3d 76 cc 8b be d2 0d c9 3d
       0.08434577 0.07360488 -0.2730443 0.09817089
000100 37 59 66 be 2f 0d 9a be 9e d1 b7 be 49 03 13 3e
       -0.2249497 -0.30088183 -0.35902113 0.14356722
000110 73 60 31 3e ce a0 81 bd 65 5d 50 3e ce c3 4c be
       0.17321949 -0.06329499 0.20348127 -0.19996569
000120 98 55 6e be e7 81 1d 3e ce 0d 8c 3e 65 71 4f be
       -0.23274839 0.15381585 0.27354282 -0.202581
000130 f0 7f a0 3e a2 15 8e 3e 8f 8c 07 3d d5 3e 25 be
       0.3134761 0.2775088 0.03309303 -0.1613725
000140 f3 2e 8a be d3 32 69 be 32 3f ac bd 89 75 8e bd
       -0.26988944 -0.22773294 -0.08410491 -0.06956012
000150 6d bf 8a 3d cd 2c 69 be 4f b7 a1 be 80 99 26 3e
       0.06774793 -0.22770996 -0.31585166 0.16269493
000160 13 b6 20 be ad 70 21 3e 0f dc 07 be 74 8e 33 bd
       -0.15694456 0.15765639 -0.1326754 -0.043837026
000170 00 d9 81 3e 1e 01 4d 3d 23 42 a4 3e d4 ce 91 bd
       0.2536087 0.050049894 0.32081708 -0.071195275
000180 c9 53 8f be 62 12 20 3e 64 5f 90 3e 24 0d fb bd
       -0.2799361 0.15632012 0.28197777 -0.12258366
000190 60 b9 37 3e 55 42 45 3e 92 af 37 bd fd 0e 08 3e
       0.17941809 0.19263585 -0.04484517 0.13286968
0001a0 aa d9 5b 3d 3c 57 da bd 00 cb 6a 3e d7 31 9c 3e
       0.053674378 -0.1066117 0.22929001 0.30506775
0001b0 66 43 92 3e f1 d6 a0 3e 71 16 40 be 9a 48 98 3e
       0.28567046 0.31413987 -0.1875856 0.2974289
0001c0 77 88 8a be c6 53 80 be 42 d3 88 be 20 4d a1 be
       -0.2705724 -0.25063914 -0.26723677 -0.31504154
0001d0 3c 79 b4 bd 54 48 8c 3e e1 68 e6 3c 43 4e c6 bd
       -0.08812186 0.27398932 0.028126182 -0.09682896
0001e0 78 0a 66 3e 57 c4 d5 bd 95 58 ac bd 33 3a c9 be
       0.22464931 -0.104378395 -0.08415333 -0.39302215
0001f0 c9 88 2a 3c 4d 0b de 3c 2d 58 88 3d f0 fc 3b 3e
       0.010408589 0.027104998 0.06657443 0.18358207
000200 ca bb 91 be d3 fb 1d bd ba 21 61 3e 6f 02 42 3e
       -0.28463584 -0.038570236 0.21985522 0.18946241
000210 39 0e 35 3e d1 1a a5 bd f2 f6 7f be 99 9a 62 3e
       0.17681207 -0.080617554 -0.24996546 0.22129287
000220 49 58 fb 3b 09 34 76 be d2 84 6d 3e 6e ec 15 3e
       0.0076704365 -0.24043287 0.23195198 0.14640972
000230 77 00 d6 3d 22 88 87 3e 74 7d a2 3e 4e 30 40 3e
       0.104493074 0.2647105 0.31736338 0.18768427
000240 71 79 e9 3d c8 af 9f 3e 37 27 22 3e 43 d5 52 be
       0.11400116 0.31188798 0.15835272 -0.20589165
000250 94 7b 89 be 30 af 84 be 7c 00 a2 3e 77 1b 49 3e
       -0.26852095 -0.25914907 0.31640995 0.19639383
000260 19 de b5 be e1 0f ad 3d 7e e3 c6 3e eb 28 9d 3e
       -0.3552101 0.08450294 0.38845438 0.3069528
000270 3f 8b 09 3e bd 39 7a 3e 47 83 56 be c8 b7 8a bd
       0.13432024 0.24436088 -0.20948516 -0.06773335
000280 ad 4e 15 3c 0a 88 b1 3e 44 38 41 be ea fd 79 3e
       0.009112996 0.34674102 -0.1886912 0.24413267
000290 de 88 3e 3d df af 98 be c5 6b 19 be d9 3e d7 3d
       0.046517245 -0.2982168 -0.14982517 0.10510034
0002a0 77 71 4a be 48 94 58 3d be 6f 2d 3e 04 c5 f5 3c
       -0.19769846 0.052875787 0.16937158 0.030001171
0002b0 22 47 14 be f1 e6 38 be df 84 61 be 7c ec c4 3e
       -0.1448026 -0.18056847 -0.22023343 0.38461673
0002c0 9b 35 72 3e 2e b4 08 3d e0 00 9c 3e 8e bd ad be
       0.23653261 0.033374958 0.30469418 -0.3393368
0002d0 6b f2 85 be 2f 54 56 be db fb 65 3e 86 7e 78 be
       -0.26161513 -0.20930551 0.22459356 -0.24267015
0002e0 18 63 79 be 83 04 8e be 06 7a 01 be 2c 22 ad 3c
       -0.24354208 -0.27737817 -0.12644204 0.021134458
0002f0 8e 04 94 be aa 87 ad 3e 5b 59 fe 3d 21 b8 de bd
       -0.28909725 0.33892566 0.12419387 -0.108749636
000300 45 2a 7a be dc e3 89 3e c0 25 90 3c be 98 8e be
       -0.24430187 0.26931655 0.017596126 -0.27850908
000310 ad 03 de 3d a2 bb 12 be ef 28 ae ba 80 a8 4a 3e
       0.10840545 -0.14329389 -0.0013287346 0.1979084
000320 d2 7b b7 3e 14 42 8a be 9e 7f 5e be 66 5c 81 3e
       0.35836655 -0.2700354 -0.2172837 0.25265807
000330 1e e7 83 3d 16 53 a1 3e a6 55 75 3e 36 de 7a 3e
       0.064405665 0.31508702 0.23958454 0.24498829
000340 8d 27 7c be 52 c2 8e 3e 49 80 4b 3e 5d a2 9c 3e
       -0.24624462 0.2788263 0.19873156 0.30592623
000350 7c f1 87 bd b1 e3 87 be e1 15 81 3e 14 1a 7e 3e
       -0.06637856 -0.26540902 0.25212005 0.24814636
000360 18 92 5d 3e 67 8e fc bc 18 4d d0 bd d8 61 9d be
       0.21637762 -0.030829621 -0.101709545 -0.3073871
000370 8d dc 30 3e 9b 73 64 be db 5f 67 bb d8 d1 7f bd
       0.17271633 -0.22309725 -0.0035304937 -0.062455982
000380 e1 6d 16 bd bf 4d 41 3e 77 8a a5 3e c6 f2 4c 3e
       -0.036725882 0.18877314 0.32332203 0.20014486
000390 5c ab 8e be 7b a8 ab bd 42 9e 8e be af 51 29 be
       -0.27865112 -0.083817445 -0.27855116 -0.16535066
0003a0 0b 7a 8f be 76 94 4f bd e0 89 63 bd ee b3 7b be
       -0.280228 -0.050678693 -0.05555141 -0.24580356
0003b0 14 3c d2 bd c3 6d 82 bd 3b b9 17 be 44 ae c3 3d
       -0.10265365 -0.06368592 -0.14816754 0.09554723
0003c0 0c 5a 2a be 36 ea 6e be a3 fb 8b 3e 6a ef 9c be
       -0.16635913 -0.23331532 0.2734042 -0.30651408
0003d0 13 75 7d 3e 4d a5 c5 bc 18 26 71 be c7 f7 9d bc
       0.24751692 -0.024126673 -0.23549688 -0.019283189
0003e0 09 c8 4e 3e 2a 36 b0 3c 58 27 54 be 7e 51 c4 bd
       0.20193495 0.021510202 -0.20718133 -0.09585856
0003f0 09 74 c7 bd 98 60 c9 bd 06 ab ce 3d 41 40 3c 3e
       -0.09738929 -0.09832877 0.10091214 0.18383886

LayoutSeq.bias_ih_l0 f4 [32]
000000 6d d2 b4 3d 2d da 87 3e ae 55 0a 3e 2e dc 8e 3d
       0.08829198 0.26533642 0.13509247 0.0697559
000010 b9 ed 8e 3b d4 44 93 3e 6f 13 9a 3e b6 7f 1e be
       0.004361835 0.2876345 0.30092952 -0.15478405
000020 93 d1 8f bd 71 19 41 3e 66 b6 a1 bc bb 87 0e bd
       -0.07022395 0.18857361 -0.019740295 -0.03479741
000030 90 8e 9a be ba 73 c0 3d 94 41 35 3e cf 98 49 bd
       -0.30186892 0.09397073 0.17700797 -0.049217995
000040 5b f4 a1 bd 9d dd 9d 3d 48 df fd 3d ae 8d 21 be
       -0.07907935 0.07708285 0.12396103 -0.15776703
000050 93 59 12 ba 24 e2 39 bc 5c d0 f0 bc 0c 8c 99 3d
       -0.00055828056 -0.01134542 -0.029396228 0.07497415
000060 e0 e6 63 3e 4b 8c 1e be 55 86 90 3e f6 28 44 be
       0.2225604 -0.15483205 0.28227487 -0.1915625
000070 f6 47 b7 3e da c1 ad bb 24 3d 84 be f5 2e 55 3e
       0.3579709 -0.00530265 -0.25827897 0.20818694

LayoutSeq.bias_hh_l0 f4 [32]
000000 fd 5d 0e bd 5b 71 02 be b6 d6 a9 3e 52 09 b1 3e
       -0.034757603 -0.12738554 0.33171624 0.34577423
000010 f1 11 80 be af e2 95 be 8a 13 5a be 91 3d c1 3d
       -0.25013688 -0.29274508 -0.21296516 0.09435571
000020 3d 8b 7c 3e d6 28 a7 3e 4d 5a 5d be ce ad 7c 3e
       0.2466249 0.32648343 -0.21616478 0.24675676
000030 00 2b a1 be 49 7f bc bd 60 39 85 bd be 72 85 3d
       -0.3147812 -0.09203965 -0.06505084 0.06516026
000040 43 4f 45 be e2 42 a3 be 9e dd 46 3e 27 36 03 3e
       -0.19268517 -0.31886965 0.19420478 0.12813626
000050 bf 9e 31 3d e4 25 4e 38 04 86 92 3e 83 3e 14 be
       0.043364283 4.9149516e-05 0.2861787 -0.14476971
000060 3d f0 a5 bc bd ce 34 3e e4 ac fd 3d 63 d2 5d 3d
       -0.020256156 0.1765699 0.12386492 0.05415572
000070 bc 41 78 be 3a fd 02 be 31 89 14 be d9 d1 90 3e
       -0.24243826 -0.12791911 -0.1450546 0.282851

mlp.0.weight f4 [32, 8]
000000 49 e0 c1 3d 0f f9 c9 be 2b 02 7a 3c 0d e1 73 3e
       0.09466607 -0.3944783 0.015259306 0.23816319
000010 2c 06 14 3e f7 06 81 3e be c2 4c bd 24 2e 2f 3e
       0.1445548 0.25200626 -0.049990408 0.17107445
000020 e9 13 80 be 24 7f db 3d 41 65 72 bd 27 e9 8f 3d
       -0.2501519 0.107176095 -0.059178594 0.07026892
000030 ec 54 ef 3c b9 f6 a9 3d 01 95 ad be 10 88 02 be
       0.029215299 0.08299012 -0.33902743 -0.12747216
000040 d5 63 b9 3d 9a 94 4e be 96 5e 44 3e 72 1d f1 3d
       0.090522446 -0.20173874 0.19176707 0.117731944
000050 81 c3 a7 be 17 d5 b9 3c c4 25 e5 bc 19 86 3b be
       -0.32766345 0.022684617 -0.02797211 -0.18312873
000060 ea 6a d3 3e e9 66 3e bd ff 66 f6 3e cd ee 05 3c
       0.41292506 -0.04648486 0.48125455 0.00817461
000070 8c 58 4c 3e d5 aa 85 3e a2 3e e5 3c 64 76 45 3e
       0.19955653 0.26106897 0.027983967 0.19283444
000080 c3 d8 20 3d ab c9 86 be 1e 0b b8 bd c9 a0 52 be
       0.03926922 -0.26325735 -0.089864954 -0.20569147
000090 2e a1 b2 be 20 4a 86 bd 6e de 80 3e e5 34 89 be
       -0.34888595 -0.06557107 0.251697 -0.26798168
0000a0 11 17 89 bd 91 0c 34 3e 01 b8 10 bd 27 02 5e 3d
       -0.06693853 0.17582919 -0.03533173 0.05420127
0000b0 d1 93 0b 3e eb be e7 3c 3c 6c 0c bf 07 a5 56 3e
       0.13630606 0.028289279 -0.5485265 0.2096139
0000c0 a8 21 63 bd 0c 1f 00 bf 11 82 5f 3c 0c 43 4d bd
       -0.05545202 -0.50047374 0.01364185 -0.05011277
0000d0 8a f7 09 3e 7b 66 44 3e f1 05 7f be df f2 1b be
       0.13473335 0.19179718 -0.2490461 -0.15229367
0000e0 1e 1e 50 3e 09 f4 2b 3e d9 d5 48 be b2 54 26 be
       0.20323989 0.16792311 -0.19612826 -0.16243246
0000f0 59 65 ad bd 37 a1 c4 be 5e 2d 6b bd aa 2d f4 bd
       -0.08466596 -0.38404247 -0.057416312 -0.11922772
000100 1d 81 09 be fd 1d 97 be 28 19 24 3e 90 db 8f be
       -0.13428159 -0.29515067 0.16025221 -0.280972
000110 48 45 53 be b2 8a 52 be e5 16 8a 3e a4 2e e9 be
       -0.20631897 -0.2056072 0.26970592 -0.45543396
000120 1a 70 b5 be d7 97 68 bd ef 21 9c bd 84 01 ec 3d
       -0.3543709 -0.05678543 -0.0762366 0.115237266
000130 61 00 9e be c8 29 fe 3d e7 34 cf bd cc 9f 37 3f
       -0.30859664 0.12410313 -0.10117512 0.71728206
000140 4c 27 33 be 52 33 91 be 91 bc d7 3d 48 07 36 3e
       -0.1749546 -0.28359467 0.10534013 0.17776215
000150 34 58 c7 ba 02 1a 06 be 45 e2 52 bb e6 5a 54 be
       -0.0015208782 -0.13095859 -0.0032178324 -0.207378
000160 cb be 11 3e bf b0 61 3d 93 0e cb 3d 5a e7 c1 be
       0.14232938 0.0551002 0.09914889 -0.3787182
000170 c5 c7 0c be 49 7d f2 3d 5a 46 13 bf e0 8b f8 3e
       -0.13748081 0.118403025 -0.5752922 0.48544216
000180 84 ab 8c be 4d 25 60 3e 97 b9 39 3e de 13 a3 3c
       -0.27474606 0.21889229 0.18137203 0.019906934
000190 61 d6 db be 79 2b 90 3e ba 97 1d be 46 5a 6b 3f
       -0.42936996 0.28158167 -0.1538991 0.9193462
0001a0 12 8a 25 3e d0 67 3e be 92 44 a0 3e 74 29 ab bd
       0.16165951 -0.18594289 0.31302315 -0.08357516
0001b0 42 a4 6d 3e 8f a9 9d 3e ec f8 ba be ee 0b 34 3e
       0.2320719 0.30793425 -0.36518037 0.17582676
0001c0 e2 24 e3 3e ee 3a 64 be fc c0 ad bd 04 5f 2a be
       0.44364077 -0.22288105 -0.084840745 -0.16637808
0001d0 fe 71 1f bd 41 69 8e bd 55 3b b9 3b ba 45 04 bd
       -0.03892707 -0.06953669 0.005652825 -0.03229306
0001e0 55 14 a9 be f2 f9 db 3d 67 99 8e 3e 9d 69 8b 3d
       -0.33023325 0.10741033 0.27851412 0.068072535
0001f0 1b 23 bd 3e 5c 43 ee 3d 8e 38 09 bd ae cf 13 3e
       0.36940846 0.116339415 -0.0335012 0.14434692
000200 dd a0 4c 3e ad 10 5c be 89 a5 9b 3d 27 92 8f be
       0.1998324 -0.21490736 0.07599933 -0.28041193
000210 df 6a 6d 3e 43 1a 92 be 9a 41 e3 bd e6 36 3d bd
       0.231853 -0.2853566 -0.11096497 -0.046194933
000220 01 75 01 be ae 71 8d bd 0b a9 94 bd 36 a2 dd 3d
       -0.1264229 -0.06906448 -0.07258805 0.10821955
000230 38 6a 10 3d c7 f4 78 be d1 73 37 be 2d 7d 04 3e
       0.035257548 -0.24312125 -0.17915274 0.12938376
000240 a8 a7 2d be 2a 01 7e be db 8e b6 3e 10 59 78 bb
       -0.16958487 -0.24805132 0.35655865 -0.0037894882
000250 e0 09 27 be af 9b 33 3e 69 06 4d bd b7 02 28 be
       -0.16312361 0.17539857 -0.05005494 -0.16407286
000260 e4 37 37 3e b9 35 8b 3d c2 5e 84 3d 9b 29 2f 3e
       0.17892414 0.06797356 0.06463386 0.17105715
000270 a9 f2 90 bc 7a 33 e3 bd e3 22 6f 3e 68 7d bf 3d
       -0.017693834 -0.11093803 0.23353152 0.09350091
000280 2d f7 cc be 57 e3 ce 3e d8 a9 dc bc 25 10 86 3c
       -0.4003233 0.40407822 -0.026936457 0.01636512
000290 30 b4 b2 bd 49 5c 3c be d8 5f 88 3d 7d 01 1d 3e
       -0.08725774 -0.18394579 0.06658906 0.15332599
0002a0 ac 18 91 be 78 57 3c be 8e f0 83 be 68 a3 4f be
       -0.28339136 -0.18392742 -0.25769466 -0.20277178
0002b0 c7 78 44 be 86 5d 11 3e ed 0a 6e be 54 f2 32 3f
       -0.19186698 0.14195833 -0.23246355 0.69901013
0002c0 05 6f bc be 1b 98 32 be a0 b8 b4 bd 95 1c 4a 3e
       -0.3680345 -0.17440836 -0.08824277 0.19737466
0002d0 81 05 a8 3e 1c b4 e3 bc ce 13 97 bd f9 3c 2e 3e
       0.328167 -0.027795844 -0.07376824 0.17015447
0002e0 b9 0a 3d bd 11 91 6c be bb 80 48 be aa 93 af 3d
       -0.046152804 -0.23102213 -0.19580357 0.085730866
0002f0 4e 7c 94 3e d8 e8 9d be 5f d2 3e bd a7 b3 09 be
       0.29001087 -0.30841708 -0.046587344 -0.13447438
000300 b3 c8 59 be 7f d5 15 be f6 f6 d3 be 50 53 93 3e
       -0.21267967 -0.14632224 -0.41399354 0.287745
000310 ef 26 16 3e c4 8c 7e 3a 55 01 50 be b7 f4 bd 3d
       0.1466329 0.0009710307 -0.20313008 0.09275191
000320 7c bb a3 be 79 35 8c be 69 1a a2 3d ba 4f b9 bd
       -0.31978977 -0.27384546 0.079151936 -0.0904841
000330 ce a2 c7 3d 37 92 42 b9 3b f0 49 3d 51 48 b0 3e
       0.097478494 -0.00018555751 0.049301367 0.34430173
000340 17 91 31 3e 90 9b d0 be c5 ce 9e be 39 3c d4 3b
       0.17340504 -0.40743685 -0.31017128 0.0064769057
000350 64 37 8c 3b a0 82 f0 3e c9 6c 68 3e ce 19 0f bd
       0.004279064 0.4697466 0.22697748 -0.03493672
000360 49 e5 83 3e 98 22 89 bd 16 29 e0 bc 39 0f 34 3c
       0.25760868 -0.06696051 -0.027363341 0.0109899575
000370 f1 ff 17 3e a4 ed 7d be c8 ed 0e 3e 55 b4 44 be
       0.14843728 -0.24797684 0.13957894 -0.19209416
000380 ef f4 de 3d 40 4f ad be df 39 e0 3e 24 5d 04 3f
       0.10886561 -0.33849525 0.43794152 0.5170462
000390 ba 55 0f be 8c 29 ab bd eb 93 19 3e 94 f6 81 bb
       -0.13997546 -0.08357534 0.14997832 -0.003966162
0003a0 94 56 80 3e 5f 49 f9 3d ed d8 60 3c 1c a0 33 be
       0.25066054 0.121721976 0.013723594 -0.17541546
0003b0 19 5c 87 be b2 bf 0e 3e 58 ad 86 3d 5c 54 30 be
       -0.26437452 0.13940313 0.065760314 -0.1721968
0003c0 13 be 98 bd ec 23 09 bd 2c 1d 95 bd d8 65 a3 3d
       -0.07458129 -0.033481523 -0.07280955 0.079784095
0003d0 bf 9e 22 bd af f2 ab be 15 07 d8 3e d6 e7 51 bc
       -0.039702173 -0.3358359 0.42192903 -0.012811622
0003e0 21 58 8c 3e d5 d9 da be 8b b8 8f 39 57 55 5f bd
       0.27410987 -0.42744318 0.0002741258 -0.054524746
0003f0 90 b1 85 bd 08 f5 f3 3d 41 c9 6f bd d1 e3 07 be
       -0.06528008 0.119119704 -0.05854154 -0.13270499

mlp.0.bias f4 [32]
000000 27 db 85 36 b8 4d ea b6 1c 70 ab 37 80 d6 89 35
       3.9892216e-06 -6.982791e-06 2.0436994e-05 1.0269723e-06
000010 58 fd 3c b7 6c bf 07 37 e6 ff 1e b7 5b d7 8d 38
       -1.1264659e-05 8.091196e-06 -9.477115e-06 6.763517e-05
000020 b9 b8 b3 b7 3c 86 1c 37 d0 f5 91 37 54 9c f2 36
       -2.1424481e-05 9.3295785e-06 1.7399812e-05 7.230361e-06
000030 42 92 9f 38 f8 5b 5b b6 90 3a 80 36 d9 99 0f b7
       7.6089535e-05 -3.2687076e-06 3.821515e-06 -8.559285e-06
000040 90 5a b5 37 22 b5 11 b8 f0 d2 68 b6 16 68 d5 b6
       2.1619053e-05 -3.4739387e-05 -3.4693476e-06 -6.360012e-06
000050 e4 e2 d1 b6 ff 39 fb 36 8c b3 d9 36 d4 d3 cc b7
       -6.255099e-06 7.4871346e-06 6.488006e-06 -2.4417335e-05
000060 cb 53 2b 37 cc 91 88 35 10 e9 b6 35 90 79 12 37
       1.0211904e-05 1.0175222e-06 1.3627887e-06 8.730582e-06
000070 0a 9b f9 36 c0 e4 a7 b6 2e 34 69 b7 ef 92 e0 36
       7.438827e-06 -5.003618e-06 -1.3900031e-05 6.6928255e-06

mlp.1.weight f4 [32]
000000 32 13 76 3f 83 0f 6d 3f 81 93 7c 3f 86 a3 6b 3f
       0.9612304 0.92601794 0.98662573 0.9204639
000010 cd c6 74 3f c1 bd 76 3f 7e eb 7c 3f 53 65 7a 3f
       0.95615846 0.9638329 0.9879683 0.9781086
000020 2f 78 7c 3f f4 db 73 3f c7 2d 7c 3f fe d6 75 3f
       0.98620886 0.95257497 0.9850735 0.9603118
000030 5a 54 85 3f f0 94 71 3f 45 f9 73 3f 47 e4 7b 3f
       1.0416367 0.94367886 0.9530223 0.983952
000040 a5 51 79 3f a1 00 7b 3f 29 df 77 3f 49 b4 73 3f
       0.97390205 0.98047835 0.9682489 0.9519697
000050 8b c5 78 3f b4 1a 82 3f ad c9 82 3f db 56 82 3f
       0.97176427 1.0164399 1.0217797 1.0182756
000060 d5 79 71 3f cf 6f 74 3f df 11 7a 3f 29 ed 76 3f
       0.94326526 0.95483106 0.9768352 0.9645563
000070 de 0a 79 3f 85 59 77 3f 2c 33 7a 3f b0 88 72 3f
       0.97282207 0.9662097 0.9773433 0.9473982

mlp.1.bias f4 [32]
000000 e1 bc c3 3c 95 d6 81 3d 15 ff 00 3d ea 98 72 bd
       0.023893775 0.063397564 0.031493265 -0.05922786
000010 fd 66 c6 bc fe d9 24 3d d7 eb a8 bc c3 4a f6 bb
       -0.02421903 0.040246956 -0.02062027 -0.0075162365
000020 a4 54 16 3d 29 18 43 3d e2 12 24 3d 91 a5 ff bc
       0.036701813 0.047630463 0.04005707 -0.031206878
000030 3b 87 27 3d 64 1d 28 3d ff 4d ee bc 01 82 11 3d
       0.04090045 0.041043654 -0.029089926 0.035524372
000040 b6 1c d0 3c 86 fc 0c bc 81 a1 07 bd cf 34 2a bc
       0.025404315 -0.008605128 -0.033113007 -0.010388567
000050 36 32 d6 bc 00 58 f2 3c 8b 19 8d ba c4 a9 67 3c
       -0.02614699 0.029582977 -0.0010765059 0.014139596
000060 67 b6 d7 3c 64 3d f7 3c d0 80 df bc 7e 2c f5 3c
       0.026332093 0.03018064 -0.027283102 0.029928442
000070 2d bc e5 3c ef e6 14 bd d3 15 13 bd 24 83 d6 3c
       0.02804383 -0.036353048 -0.035909485 0.02618558

mlp.1.running_mean f4 [32]
000000 42 98 d2 3d 01 78 f1 bd 50 e7 cf 3c 77 a6 f5 3d
       0.10282947 -0.11790467 0.025378853 0.11994641
000010 4f 7f db 3d f5 3d d2 bd 3b 5b f3 3d 91 ec b1 bd
       0.107176416 -0.102657236 0.11882635 -0.086876996
000020 07 9a f2 3d 16 0b e8 3d c2 97 c5 3b 90 83 f0 3d
       0.11845785 0.113302395 0.006030054 0.117438436
000030 fc f3 00 3e c0 d8 ee 3d f9 c4 bb 3d a9 f2 61 3b
       0.12593073 0.116624355 0.09168429 0.0034476912
000040 f7 f9 c6 3d 3d f6 ff bc d9 c1 c4 3d ec f6 8d bc
       0.09715646 -0.031245345 0.09607286 -0.017329656
000050 e7 b6 d9 bd 58 41 43 3e e6 6c d3 3b 72 a6 00 bd
       -0.10630589 0.19067895 0.0064521907 -0.031408735
000060 d9 1b af bd c2 26 3a 3e 30 96 13 3e 12 f2 bf bc
       -0.085502334 0.18178847 0.1441276 -0.023430858
000070 07 57 1c 3d 0d 79 86 3a 98 a0 18 3c 76 39 fc 3d
       0.038168933 0.0010259465 0.009315632 0.12315647

mlp.1.running_var f4 [32]
000000 48 32 5c 3a 63 72 fd 39 9b 70 b3 39 6f 62 1a 3a
       0.00083998265 0.00048341145 0.00034225438 0.00058893015
000010 98 1a d0 39 5a d1 21 3a 9b a8 7b 3a f6 87 42 39
       0.00039692665 0.00061728584 0.00096000143 0.00018551931
000020 1d ba 3f 3a ca ff 2f 3a 64 25 10 3a a3 6e 49 3b
       0.0007313805 0.0006713836 0.00054987357 0.003073611
000030 f8 96 11 3a 94 d3 e9 3a 12 31 c7 3a 42 99 ba 3a
       0.0005553807 0.0017839544 0.0015197119 0.0014236348
000040 9d 01 5d 3a ea af 05 38 ce c5 51 3a 71 ef a2 39
       0.00084307214 3.1873504e-05 0.00080021925 0.00031077446
000050 31 df 96 3a 4f 52 72 3b 06 a4 83 39 ca 60 e5 38
       0.0011510608 0.003697533 0.00025108474 0.00010937599
000060 2a d1 0d 3a 4c 69 18 3a 80 7c 3e 3b d0 ca e0 38
       0.0005409891 0.00058140303 0.0029065907 0.00010718929
000070 fd 87 b4 3a d4 8e 4d 39 83 ab 3e 3a c6 6e 68 3a
       0.0013773438 0.00019603531 0.0007273482 0.0008866604

mlp.3.weight f4 [1, 32]
000000 6b a0 90 3d ec b5 1b bd 6b 4a 3a be ce 43 eb bc
       0.07061847 -0.03801529 -0.1819245 -0.028718855
000010 ac 96 e2 3d 63 e7 0f 3e 2c 13 e2 be 2c 41 8f be
       0.11063895 0.14053111 -0.44155252 -0.2797941
000020 eb 5d 7a be 5c 99 70 3d 16 0d a4 be bb 2a 31 be
       -0.2444989 0.058740005 -0.32041234 -0.17301457
000030 23 f6 ba 3e 65 ec 85 3d 03 9d 42 bd 86 49 a3 bd
       0.36515912 0.06539229 -0.04751302 -0.07973008
000040 ed f5 2b 3e c1 1a db bd f3 83 9c 3e e8 2d 6f 3d
       0.16793032 -0.10698462 0.3056942 0.05839339
000050 d2 35 9c 3d e5 ca 59 3e 8c af ac be b2 70 b1 be
       0.07627453 0.21268804 -0.33727682 -0.34656292
000060 de 07 ac 3d db 61 f7 3d 21 f3 58 be 5c b6 6c be
       0.08399938 0.12079211 -0.21186496 -0.2311644
000070 8c 3a 22 be 0c eb 73 be ec 2c 21 3e 89 cc 1a 3d
       -0.15842646 -0.23820132 0.15739793 0.037792716
