output_bbox_gcn/EVALUATOR_layout_MultiLayer_2023_09_21_16_51_13/Model/evaluator_190.pth (torch, 9127 bytes, 11 tensors)

LayoutSeq.weight_ih_l0 f4 [32, 4]
00000000: 5aae 4e3e 251a b4bd ba47 973d 891f 2b3e
00000010: 67ac 513e aab6 92be c38c 54bd c7d2 9f3c
00000020: 38bd aa3e 370c 8a3e c144 053e 3928 843e
00000030: aef2 86be 2f2c 803e 0758 283e 6639 dc3c
00000040: ab82 26be 3581 7d3e 71a2 ba3d 0dc2 163e
00000050: 70a0 7dbe 0cf4 76be 07cb 293e 4ae6 a03d
00000060: aad9 953e 8592 c13d ebc6 82be 9f5c 2abe
00000070: af4f 77be 3772 853e 879a 94bc dc7e b13e
00000080: ac1e 313e 0e7e 883e 661d 163e dd36 69bd
00000090: 4955 8e3e 966e dbbd c004 d9bd f803 cdbc
000000a0: e826 9dbe c23c 0a3d f2cd 2cbe 3d64 3cbe
000000b0: e298 efbc 8fb6 3bbd 5c22 63be 6f7b 5abe
000000c0: 8597 93be 94c4 02bd 810b ab3e 43f6 84be
000000d0: 31b8 163d 715c 933e 8954 923e 72b3 c23e
000000e0: 25fe 93be 8c0e 24be 8512 98be e049 83bd
000000f0: 8585 273e b826 963e 9ebe ab3e 4d86 8cbc
00000100: b3c3 ee3d 092d b23d 5430 923e 23f2 a63c
00000110: 950b 08bd d267 5cbe 2268 42be c915 45be
00000120: 269c 1abe 0197 933e fd96 babe a68b 943b
00000130: 620a 78be de3d 53be 37c7 563d 2a32 bbbe
00000140: 6e35 9bbe 6336 923e 0713 a5bd 4646 963e
00000150: 7fb2 a23e 4ef0 a0be 87dd 9b3d b91e c63d
00000160: dd04 69be d0d3 543e a47c b33e 1f9d 84be
00000170: d1fa d1bd 743c 643e d236 d83d 60e6 d13d
00000180: 1d77 3d3d c5ec 65be 2ac3 aa3e 0a84 48be
00000190: 58f8 78ba fcd8 a23e 969a 0a3e 11fd 783d
000001a0: 6bac 3b3d fcfb 50be 5101 323e 6d41 20bc
000001b0: 1862 41b9 5fc1 98bd 1ec8 a83e 3c17 b03d
000001c0: 04be 0e3e 6100 38be fc02 f5bd 00fb 333d
000001d0: dda0 7cbe a47a 443e 0a34 47bd 5f82 48be
000001e0: 2ea7 abbc b346 943e bc5d 8bbe d595 8fbe
000001f0: 95c3 7a3e fc0d ce3d 232f 013e 2fe0 57bd
0.20183697 -0.08794049 0.07386728 0.16711248 0.20475923 -0.28654987 -0.051892053 0.019509686
0.33347487 0.26962444 0.13014509 0.25811937 -0.26357025 0.2503371 0.1643983 0.026882838
-0.16260783 0.2475632 0.091130145 0.14722462 -0.24768233 -0.24116534 0.16581355 0.07856424
0.29267627 0.094517745 -0.25542387 -0.16636895 -0.2415149 0.26063702 -0.01814009 0.346671
0.17296857 0.26658672 0.14659652 -0.056937087 0.27799442 -0.10714452 -0.10596609 -0.025026307
-0.30693746 0.03374935 -0.16875437 -0.18397613 -0.029247705 -0.0458284 -0.22181076 -0.21336149
-0.28826538 -0.031925753 0.33407214 -0.25969133 0.036796752 0.28781465 0.2858012 0.3802753
-0.28904834 -0.16021174 -0.2970163 -0.06410575 0.16359527 0.29326415 0.33543867 -0.017153883
0.116584204 0.08699996 0.28552496 0.020379132 -0.03321417 -0.2152398 -0.18985036 -0.19246592
-0.15098628 0.28826144 -0.3644332 0.004533249 -0.2422271 -0.20629069 0.05243608 -0.3656171
-0.303142 0.2855712 -0.0806027 0.2935049 0.31776807 -0.31433338 0.07610612 0.09673829
-0.22755761 0.20783925 0.3505603 -0.25901124 -0.102529176 0.22288686 0.10557331 0.10249019
0.046256173 -0.22453602 0.33352023 -0.19581619 -0.00094974553 0.3180617 0.13535532 0.060788218
0.045818727 -0.20408624 0.17383315 -0.009781224 -0.00018442457 -0.074587576 0.32965177 0.085981816
0.13939673 -0.17968895 -0.1196346 0.043940544 -0.2467074 0.19187409 -0.048633613 -0.19580983
-0.02095374 0.2896019 -0.2721995 -0.28044 0.24488671 0.10061261 0.12615637 -0.052704033

LayoutSeq.weight_hh_l0 f4 [32, 8]
00000000: c0f3 0a3e b2d0 42be 4808 fd3d e623 07be
00000010: f6b2 a1bd 4cbf 623d d68f afbd 0501 863d
00000020: a8eb 833e 2b46 5d3e 84fe 8a3e 3937 76be
00000030: bc0e 843e 3743 993d 83f9 b7bc 60bc 5c3e
00000040: 6162 47be 7d55 4d3e afe7 57be 4679 e9bd
00000050: 68c3 4f3e 2c01 68bd 2e27 9b3e cf79 74be
00000060: d94f 1d3e 1412 253e 4771 843e 6463 e23d
00000070: f4d1 353e fde1 65be aaaa 2f3e be7e 1c3e
00000080: 513f a13e c531 6ebe 0e1b 7fbe de4e 9abe
00000090: d645 b3bd 950e 3fbe 8b25 683e f088 3abd
000000a0: 6dcb 83be 072c c9bc 1486 c3be c729 96be
000000b0: 5899 36be 1644 5bbe e1ae 75be 949d a53e
000000c0: 6785 8fbe c807 60be 52d6 153c 997c 86be
000000d0: f23a 83be 5e9e 53bd 6a22 31be eff0 8b3e
000000e0: 112c 24be ca15 8a3e 2b95 55bd 4647 a6bc
000000f0: d03c b13d b67c 953d cd16 8abe 3f50 c93d
00000100: f77e 5fbe f623 99be 96e4 b5be 1109 123e
00000110: 8ff2 1d3e b3b7 80bd 4e3c 513e 4973 4abe
00000120: 7b18 5abe bee3 083e eb45 813e d433 60be
00000130: 3b35 993e 3bc5 903e 4755 093d 5c55 16be
00000140: c9d3 86be 41e2 67be 2c5e b2bd c612 8ebd
00000150: 0743 313d 2f30 4ebe 2311 99be 0d1f 243e
00000160: 3da8 11be 642f 083e 6aa8 0dbe 38cb 8ebd
00000170: 7328 763e 1cf9 8e3d 8825 9e3e 3b62 47bd
00000180: 098d 89be d85a 1e3e 9632 943e 8caa fabd
00000190: 5e7a 4d3e be65 363e 7d24 4dbd b7dd 073e
000001a0: d7b5 6a3d 7779 dfbd 61cb 653e ee67 973e
000001b0: e389 923e e16f 9d3e 4e5e 37be f685 9a3e
000001c0: 8834 82be a79a 87be 4c90 7cbe 36a8 aabe
000001d0: df07 97bd 955c 833e b936 093d 764f 8fbd
000001e0: 5304 623e 297e e0bd e849 93bd efc6 ccbe
000001f0: 48a7 833b 2787 0a3d 77ed a73d 3a69 423e
00000200: 9ff0 90be cd28 32bd 4eca 5e3e c535 403e
00000210: c247 3a3e 2d5b 9abd af10 86be 04ee 613e
00000220: 2b55 37bc 9385 60be a8d3 813e 0e0e 273e
00000230: ec87 c43d 22e5 7a3e 4f70 ab3e 9fb9 323e
00000240: 6422 da3d 8634 a23e 725d 253e fa50 4abe
00000250: f822 8cbe 9fff 83be b161 a43e 0803 433e
00000260: 3eed b7be 8b92 be3d 1999 c93e 288e a43e
00000270: 31af f03d 6a3f 6b3e 75b5 4dbe 66fc a4bd
00000280: 45f0 153c ff3e b43e 5523 3fbe a2e6 813e
00000290: 63fe 393d 6443 9cbe 1885 23be abac c53d
000002a0: 87e4 49be 1169 5c3d 67f1 2c3e 7bc9 d63c
000002b0: 4acf 14be 6876 35be 581b 57be 05af c63e
000002c0: 8bf1 743e e719 453c ae79 9b3e f171 b8be
000002d0: 1bad 81be 93fa 42be 2269 6f3e 4e6a 65be
000002e0: 2485 7cbe 4135 8dbe b51e f8bd 6921 7a3c
000002f0: b182 93be f4be ad3e 1c75 0f3e a3ff d2bd
00000300: ec0f 63be 61e0 823e a49c 7c3c e11e 92be
00000310: a8e8 d13d 2b65 ffbd 1aa0 ad3b 3959 573e
00000320: 9d39 be3e ff4a 93be 1e62 6abe f5eb 6b3e
00000330: eb4e 983d c8bd a53e e376 6e3e c70a 863e
00000340: 2a6c 7ebe c05a 8c3e 7d0c 4a3e 0a53 9a3e
00000350: 7afd a3bd 1416 7cbe a720 7d3e c940 723e
00000360: 2187 5e3e 4e8c 47bd e43e d7bd 8ae1 a4be
00000370: aa9a 283e 4591 4dbe 70ba bf3b 4d1a 32bd
00000380: b18c 12bd 62ea 363e ab1d a93e e961 3e3e
00000390: 921f 7fbe 147b a3bd e1b2 85be 81cf 1abe
000003a0: 0fbb 8cbe 2dd1 47bd f27d 65bd 9a3d 77be
000003b0: 9e33 d0bd 2ba2 76bd 05a4 0fbe a58c c73d
000003c0: 6101 1ebe b256 7bbe cf21 893e a9b8 a4be
000003d0: b2d0 7a3e 55a1 c2bb c5ca 5dbe 8e3e da3a
000003e0: 5d44 383e 69af 1c3d c396 40be cca3 a0bd
000003f0: 2049 d3bd 11d5 d3bd d1de c23d f50c 2d3e
0.13569546 -0.19024923 0.12355095 -0.13197288 -0.07895462 0.055358216 -0.085723564 0.06543163
0.2576573 0.21608798 0.27147305 -0.24044503 0.2579249 0.07483523 -0.022457844 0.21556234
-0.19471122 0.20052142 -0.21084474 -0.11400084 0.20289385 -0.056641743 0.3030333 -0.23874591
0.1536249 0.16120178 0.25867674 0.110541135 0.17755872 -0.22449489 0.17154947 0.15282723
0.3149362 -0.23261173 -0.24912664 -0.30138296 -0.087535545 -0.18657906 0.22670572 -0.04554075
-0.2574114 -0.024557127 -0.3818823 -0.2932875 -0.17831933 -0.21412691 -0.23992492 0.32346785
-0.28031465 -0.21877968 0.009145336 -0.26266935 -0.2563091 -0.051664703 -0.17298284 0.27332255
-0.16032435 0.2696975 -0.05214421 -0.020297658 0.08654177 0.07299177 -0.2697052 0.09829759
-0.21825777 -0.2991025 -0.3552596 0.14261271 0.1542456 -0.06285038 0.2043316 -0.1977054
-0.21298401 0.13368127 0.25248656 -0.21894771 0.29923424 0.28275475 0.033528592 -0.14681
-0.26333454 -0.22644903 -0.08709368 -0.069371745 0.043276813 -0.20135568 -0.29895887 0.1602747
-0.14224334 0.13299328 -0.13833776 -0.06972355 0.24038868 0.069811076 0.3088801 -0.048677664
-0.26865414 0.15464342 0.28944844 -0.122395605 0.2006621 0.17812249 -0.050083626 0.13268171
0.057302322 -0.109118395 0.22440864 0.2957148 0.28620824 0.3074942 -0.17907068 0.3018033
-0.25430703 -0.26485178 -0.2466442 -0.3333146 -0.07374548 0.25656572 0.033499453 -0.06997578
0.22071962 -0.10961563 -0.07191831 -0.39995524 0.004017744 0.033820298 0.0819959 0.18985453
-0.2830858 -0.043495942 0.2175686 0.18770511 0.18191436 -0.07536922 -0.26184604 0.22063452
-0.011189739 -0.21925955 0.25356793 0.16313955 0.095962375 0.2450147 0.33484122 0.17453621
0.10651091 0.31680697 0.16148928 -0.19757453 -0.2737043 -0.2578096 0.32105783 0.19044125
-0.3592319 0.093052946 0.39374617 0.32139707 0.11752165 0.2297341 -0.20088752 -0.08055954
0.009151523 0.35204312 -0.18665822 0.2537127 0.045408618 -0.30520165 -0.1596874 0.096520744
-0.19716083 0.053811137 0.16888963 0.02621912 -0.145322 -0.1772095 -0.21006525 0.38805404
0.23920266 0.012030101 0.30366272 -0.3602443 -0.25327381 -0.19040899 0.23379949 -0.22403833
-0.24660164 -0.27579692 -0.12115232 0.015266755 -0.28810647 0.33934748 0.14009517 -0.10302665
-0.22174042 0.25561813 0.015418205 -0.28539184 0.10249454 -0.12470468 0.0052986266 0.2103013
0.3715333 -0.28768155 -0.22888991 0.23039229 0.074369274 0.32371354 0.23287539 0.26180097
-0.24845949 0.27412987 0.19731326 0.3014148 -0.08007331 -0.24617797 0.24719487 0.23657526
0.21731235 -0.04871779 -0.10510042 -0.32203323 0.1646525 -0.20074947 0.0058510825 -0.043482114
-0.035778705 0.17862847 0.33030447 0.18592037 -0.24914387 -0.0798246 -0.26113036 -0.15118219
-0.27486464 -0.04878347 -0.056028314 -0.24144593 -0.10166095 -0.06021325 -0.14027412 0.09743623
-0.15430214 -0.2454479 0.26783606 -0.32172135 0.24493673 -0.0059396424 -0.21659382 0.0016650723
0.17994829 0.03825322 -0.18807511 -0.07843742 -0.10316682 -0.103433736 0.09515155 0.16899474

LayoutSeq.bias_ih_l0 f4 [32]
00000000: 2cc7 bb3d 17f1 893e 8336 0d3e ae05 ac3d
00000010: e503 293c eae1 903e 82bf a13e 6f33 23be
00000020: 9c06 8fbd 0e7f 533e 6179 8cbc f6fd 5cbc
00000030: 70c1 9abe e1d0 bf3d 98d2 443e e790 2dbd
00000040: 2ef5 9bbd 2319 b43d 1219 063e df45 20be
00000050: 5766 5ebc da84 58bc f718 77bc c681 9b3d
00000060: 88c3 643e 2559 10be e948 913e cf20 2cbe
00000070: 8353 ba3e 9c33 c8bb 2c5a 77be 9725 4c3e
0.091688484 0.2694175 0.13790326 0.08399521 0.01031587 0.2829736 0.3159142 -0.15937589
-0.069836825 0.20653936 -0.017147722 -0.013488283 -0.30225706 0.09366012 0.1922096 -0.042374518
-0.07615124 0.08793857 0.13095501 -0.15651654 -0.013574204 -0.013215268 -0.015081636 0.07593112
0.22340214 -0.14096506 0.2837594 -0.1680939 0.3639184 -0.006109668 -0.24155492 0.19936214

LayoutSeq.bias_hh_l0 f4 [32]
00000000: 292d fcbc 9316 f5bd 6ba2 aa3e abbd b63e
00000010: 15d8 78be c867 96be 6e13 45be 1322 b63d
00000020: 3569 7c3e 0de3 af3e 8cdf 59be fe45 883e
00000030: ee54 a1be f4b8 bbbd 78ca 3ebd a23f 933d
00000040: a120 42be ba4a 9dbe cddc 4d3e 6fc6 033e
00000050: d710 f83c bd3a f0ba 6f8b 993e bd16 13be
00000060: 224b 96bc 1e8d 403e ae08 013e b076 9b3d
00000070: a8a5 6fbe 3d31 03be 1268 04be 0c1f 8c3e
-0.030783253 -0.11967196 0.3332704 0.3569158 -0.24301179 -0.29376054 -0.19245693 0.08893218
0.24649508 0.34352913 -0.21276683 0.266159 -0.3151011 -0.091661364 -0.046579808 0.07189871
-0.1895776 -0.30721074 0.2010376 0.12868665 0.030281467 -0.0018328052 0.29989192 -0.14364143
-0.018346373 0.18803832 0.12600967 0.07590997 -0.23403037 -0.12811752 -0.12930325 0.27367437

mlp.0.weight f4 [32, 8]
00000000: 60cc bc3d 0a4c c1be 6bbd 803c a23a 6f3e
00000010: 37a1 0b3e 1a16 803e 7f29 5fbd 3671 2d3e
00000020: ca33 6ebe f03a c03d 5577 a6bd 9a7f 6f3d
00000030: df1d 933c c663 c63d 7043 a6be 0ef0 f8bd
00000040: 8451 a53d 4bd7 50be 6b0d 3b3e b1ac e43d
00000050: cf30 aabe fcb1 0d3d 7149 03bd 1efc 44be
00000060: d5ab d63e 6ce4 44bd 9aeb eb3e 2c8f 663c
00000070: 9693 2f3e 38bf 733e 6303 503d 17f8 403e
00000080: 78ea 483d 9736 89be 5bd9 b5bd bff9 58be
00000090: 7bea afbe 3feb 82bd 7371 753e 8a5d 85be
000000a0: ed92 80bd 06e2 2c3e b16e 16bd e73e 4f3d
000000b0: 89c0 153e 35b8 ea3c 8b93 07bf 0294 5d3e
000000c0: 0341 64bd c163 ffbe 4f17 553c f71d 54bd
000000d0: 05ae ff3d 72f6 433e babb 7dbe e7e3 1dbe
000000e0: ba48 4c3e 3987 2b3e 63fe 4fbe 8ad5 29be
000000f0: db23 a7bd e33f c1be e565 62bd 53f8 eebd
00000100: c2fe fdbd 5220 a3be 1a04 0d3e c789 97be
00000110: 63df 5cbe ce1e 43be 4795 8a3e f69d debe
00000120: 8bf6 c1be 8727 eebc 06f5 4fbd 6bed f63d
00000130: af34 a1be 2c2b 033e f959 debd deb8 2e3f
00000140: 0b56 3cbe e675 90be d26d b43d cbb6 333e
00000150: 22ec 1dbc c11b eebd a159 debb d5ae 61be
00000160: e29d 0d3e 7026 673d 555f d23d db58 bebe
00000170: b907 04be 3281 df3d a7f4 12bf 9f4a f23e
00000180: a9fb 8cbe 1c05 683e 520e 343e 137e be3c
00000190: e3ba e0be 67e8 923e 7230 1abe 2da3 693f
000001a0: 1556 213e 9bf3 35be 3cc2 9f3e 3138 9cbd
000001b0: 3a83 653e e478 973e dde1 b1be c56d 303e
000001c0: 7137 d33e 9323 5dbe e0ef 84bd fba5 30be
000001d0: fc97 9dbc 3625 8fbd 9bcc c63b 5fbf 9ebc
000001e0: 73db a5be f959 cb3d 401e 843e 173d 723d
000001f0: 97d5 bb3e 6d4d fe3d 9479 2cbd 5a04 0d3e
00000200: 6125 483e 585e 58be 5727 9e3d 424d 8dbe
00000210: d9ad 733e 263f 8fbe 87cc f2bd d4c8 3ebd
00000220: aeee 00be bb63 8ebd b27a 9dbd c13c d73d
00000230: f37b a73c 2e42 76be 51ec 39be fac1 013e
00000240: f728 28be d94c 77be a658 bd3e 69cd 273b
00000250: a223 23be 89a4 263e b6c7 2bbd 0927 24be
00000260: 5445 343e 0abb 933d 1bfb 943d 2040 2f3e
00000270: eb5b 90bc 8c16 ecbd 4198 5d3e 14a8 b23d
00000280: 3d3a c7be 8474 c33e 2680 0bbc 2b3c 8c3c
00000290: dba9 95bd 93a9 45be 3a62 843d ee59 1a3e
000002a0: c840 93be 070b 31be d807 7fbe 1b58 42be
000002b0: c99c 4dbe f05e 113e 56da 6abe a5c9 2e3f
000002c0: 6a9e bebe 19b7 2cbe 40d8 b8bd 020b 4e3e
000002d0: 93e9 a33e 0730 d3bc 6902 aabd c0f2 223e
000002e0: 6bc1 39bd 7d78 6ebe d0fa 4abe 2538 a23d
000002f0: bb96 933e 60c2 9cbe 2d3a 36bd 3628 08be
00000300: cd4e 52be e0a4 1cbe 2474 d5be 93e3 903e
00000310: 5957 113e af17 933a e1ea 4abe 18d1 cb3d
00000320: 5c1d a6be b9c4 87be 5e95 a93d 5c92 b1bd
00000330: dd75 c03d 7de9 f43a 03cc 423d f5cf ad3e
00000340: c3bc 253e f314 d1be b20c 96be 3c0e c13a
00000350: ba82 943c 12b8 eb3e 51a2 653e f06e 0cbd
00000360: d28f 813e 0033 7ebd 4e11 c9bc b29d 563c
00000370: 423b 193e 00f1 7fbe f68a 1d3e 5edf 41be
00000380: 041c ce3d cc52 a9be 2aac dd3e 7a91 023f
00000390: a586 15be 6704 a0bd 7b1f 1f3e 4308 e0bb
000003a0: c60b 7b3e 4e35 fa3d 168a 48ba 9ac9 32be
000003b0: 6214 87be 4376 193e e48e 813d 1030 33be
000003c0: 4977 94bd 5769 eebc 3aa3 84bd 5631 a93d
000003d0: 8981 2cbd ad23 afbe c5a2 ce3e 219e 69bc
000003e0: ebc7 873e a6f6 cebe 4df3 18bc c28b 2dbd
000003f0: 997c a1bd 8b52 ec3d 91e4 62bd 3ae8 02be
0.09218669 -0.37753326 0.015715322 0.2336221 0.13635717 0.25016862 -0.054482933 0.16937718
-0.23261943 0.093862414 -0.081282295 0.0584713 0.01795858 0.09686999 -0.32473326 -0.12155162
0.080721885 -0.20394628 0.18266837 0.11165751 -0.33240363 0.034593567 -0.03205246 -0.192368
0.41927972 -0.048069403 0.46078187 0.014072221 0.17146143 0.23803413 0.05078448 0.18844639
0.04905173 -0.2679946 -0.08879348 -0.2118902 -0.34358582 -0.06392526 0.23969059 -0.26047927
-0.06278024 0.16883096 -0.036726657 0.050597098 0.14624228 0.02865229 -0.5295951 0.21638492
-0.055726063 -0.49880794 0.0130060455 -0.05178639 0.124843635 0.1913698 -0.24778643 -0.15418969
0.19949618 0.16750802 -0.20311885 -0.16585365 -0.08161136 -0.37744054 -0.055272955 -0.11668458
-0.12402107 -0.31860596 0.13771096 -0.29597303 -0.2156959 -0.1905472 0.27067015 -0.4347989
-0.3788341 -0.029071582 -0.050770782 0.12057003 -0.31485507 0.12809438 -0.10857005 0.68250835
-0.18392198 -0.2821495 0.08810009 0.17550199 -0.009638818 -0.116263874 -0.006785587 -0.2203935
0.13829759 0.05643314 0.102720894 -0.37177166 -0.12893571 0.10913314 -0.5740456 0.47322556
-0.2753575 0.22658199 0.17583588 0.023253476 -0.43892583 0.28692934 -0.15057543 0.9126461
0.15755494 -0.1776871 0.31202877 -0.07627905 0.2241334 0.2958442 -0.34742633 0.17229374
0.41253236 -0.21595602 -0.06491065 -0.17250817 -0.01923751 -0.06989519 0.0060668713 -0.019378362
-0.3239399 0.0992927 0.2580433 0.05914029 0.36686394 0.124171115 -0.042108133 0.13771191
0.19545509 -0.2112974 0.07722347 -0.27598006 0.23796786 -0.27977866 -0.11855417 -0.046578243
-0.12591049 -0.06952616 -0.07689418 0.10509635 0.020444846 -0.24048683 -0.18156554 0.12671652
-0.16421877 -0.24150409 0.36981696 0.0025604612 -0.15931562 0.16273703 -0.041938506 -0.16030516
0.17604572 0.07213409 0.07274457 0.17114305 -0.017621955 -0.11527738 0.21640112 0.087234646
-0.3891162 0.38174832 -0.00851444 0.017118534 -0.07307788 -0.19302969 0.06464048 0.15073368
-0.28760362 -0.17289363 -0.24905336 -0.18978922 -0.2007934 0.14196372 -0.22934851 0.68276435
-0.37230235 -0.16866721 -0.090256214 0.20121387 0.3201414 -0.025779737 -0.08301241 0.15912914
-0.045350473 -0.2328815 -0.1982224 0.07920865 0.28825936 -0.30617046 -0.044489074 -0.1329659
-0.20537873 -0.1529727 -0.4169017 0.28298625 0.14193477 0.0011222268 -0.19816162 0.09951991
-0.32444274 -0.26517275 0.08280443 -0.08670494 0.09397481 0.0018685308 0.047557842 0.3394772
0.16185288 -0.40836295 -0.2930656 0.0014728974 0.018128742 0.46038872 0.224252 -0.034285486
0.2530504 -0.062060356 -0.024544384 0.013099121 0.14964011 -0.24994278 0.1538504 -0.18932864
0.10063937 -0.33070982 0.43295413 0.5100323 -0.14602144 -0.0781334 0.15539353 -0.0068369224
0.2451621 0.12217198 -0.0007649971 -0.17459717 -0.26382738 0.1498652 0.06326082 -0.17498803
-0.07249314 -0.029102964 -0.064764455 0.08261363 -0.04211572 -0.34206906 0.40358558 -0.014258892
0.26519713 -0.40422553 -0.009335351 -0.04236961 -0.07885093 0.11539181 -0.05539376 -0.127839

mlp.0.bias f4 [32]
00000000: e887 2737 5d70 35b7 84c4 2cb6 ce13 2036
00000010: 8ada 57b7 c30b 0a37 f0de d634 6a96 15b8
00000020: 40fe 7838 c002 df35 782f 6f37 80ed 3036
00000030: e41b e4b7 1886 ae36 f460 9d36 1b69 5f36
00000040: eb33 9bb6 a242 beb8 60f1 c9b7 fab8 c336
00000050: ac7c ad36 02cb 09b6 9e83 b8b7 b1c0 5337
00000060: 68cd 1236 14c6 5236 99f9 3137 46ac a5b7
00000070: a8da 7737 54bb 1c38 46d3 8eb7 1c19 0235
9.985619e-06 -1.0814602e-05 -2.5744384e-06 2.3853386e-06 -1.2865881e-05 8.2281795e-06 4.0022815e-07 -3.5664452e-05
5.9364596e-05 1.6615595e-06 1.4256562e-05 2.6364287e-06 -2.7192706e-05 5.2012147e-06 4.6902514e-06 3.329077e-06
-4.625404e-06 -9.072317e-05 -2.4073466e-05 5.832987e-06 5.1703155e-06 -2.0532757e-06 -2.1995798e-05 1.26214445e-05
2.1875258e-06 3.1407735e-06 1.0608136e-05 -1.9749754e-05 1.4773257e-05 3.736776e-05 -1.7026101e-05 4.846531e-07

mlp.1.weight f4 [32]
00000000: 1091 713f bfe9 663f 6c9f 793f 26a1 643f
00000010: dff0 723f 0d9f 743f be5a 7b3f 1701 763f
00000020: 59f7 7a3f 12d5 703f a6cb 793f 866b 733f
00000030: 4d66 883f 5589 6c3f 46bd 6e3f e3a6 763f
00000040: 3b51 763f 03c8 753f 3c88 773f 0b8a 6f3f
00000050: 3140 753f 0493 813f 3482 813f cbd8 813f
00000060: fcbb 6d3f 5979 723f 8249 773f 63d1 703f
00000070: 10a0 753f ac50 723f e6e6 773f a492 6c3f
0.9436197 0.9020042 0.97508883 0.89308393 0.9489879 0.9555519 0.98185337 0.9609541
0.9803367 0.9407512 0.9757637 0.9508594 1.065622 0.9239705 0.9325756 0.963484
0.962177 0.9600832 0.9669225 0.9357001 0.95801073 1.0122991 1.011786 1.0144285
0.92864966 0.9471641 0.9659654 0.940695 0.9594736 0.94654346 0.968367 0.92411256

mlp.1.bias f4 [32]
00000000: d097 0e3d af01 b23d ba3f 323d b221 9dbd
00000010: 7970 2bbc 3c41 3d3d 85fd 02bd a079 95ba
00000020: 9fc2 2b3d f327 893d 0132 4e3d 371f 1dbd
00000030: 0206 5c3d b24c 483d 4c32 21bd 4893 3f3d
00000040: 7aa9 0c3d cab9 28bc b756 1fbd 3996 57bc
00000050: f3d1 0bbd 3227 1c3d 8ea8 9c3a 2051 873c
00000060: 3374 fd3c 86b6 3c3d 0279 1dbd 7219 193d
00000070: fa60 023d e78c 3cbd 20d8 1cbd 873d 103d
0.03481275 0.08691727 0.043517806 -0.076724425 -0.010463827 0.04620479 -0.031980056 -0.0011404045
0.041933652 0.06697073 0.050340656 -0.038359847 0.053716667 0.048901267 -0.039354607 0.046771318
0.034341313 -0.010298202 -0.038901057 -0.0131583745 -0.03413577 0.038123317 0.0011952089 0.016518176
0.030939197 0.046072505 -0.03844548 0.037377782 0.031830765 -0.046032812 -0.03829205 0.035214927

mlp.1.running_mean f4 [32]
00000000: 146a b63d c0d5 00be 1aad fd3c 20f6 083e
00000010: 58e7 fe3d dcec f1bd a2ea e43d 0076 b8bd
00000020: 0297 223e 46a6 c83d 8ad8 1f3b 592b e33d
00000030: 0c29 063e e2d3 e73d 8c79 c73d 8d3b 123c
00000040: 6127 ce3d f65a 27bd 4931 e13d 9023 84bc
00000050: a8ce c2bd 558c 353e 3e33 3fbc 9ce9 28bd
00000060: 1c4e e5bd 274f 413e 3548 0f3e 53ad adbc
00000070: 9183 443d 0a1a b33b 0fdc 863c d8eb e53d
0.089069515 -0.12581539 0.03096633 0.13375139 0.12446469 -0.118127555 0.11177565 -0.09006882
0.15877917 0.09797339 0.0024390542 0.11092252 0.13101596 0.1131971 0.0973998 0.008925331
0.10066105 -0.04085823 0.109957285 -0.016130239 -0.09512073 0.17729314 -0.011669932 -0.041238412
-0.11196539 0.1887785 0.13992389 -0.021200811 0.047977034 0.0054657506 0.016462354 0.11226624

mlp.1.running_var f4 [32]
00000000: 110d 663a 8129 d539 8b25 9439 4de3 f039
00000010: 006c d139 ca66 293a 88d4 983a 2bea 4539
00000020: 8e18 e039 0b3b 063a dbe3 143a 1aaa 6b3b
00000030: b263 213a 4090 e23a 7e91 d83a d76a b23a
00000040: efb8 773a 15dc ec37 4949 4b3a 75fa bc39
00000050: 1d91 b83a 3239 843b 89e6 7a39 5a46 de38
00000060: 0a88 103a 01a2 1a3a f2b1 453b 20b9 fc38
00000070: 0629 c73a 13bf 5f39 3360 5d3a e04a 8c3a
0.0008775751 0.0004065745 0.00028256731 0.0004594572 0.00039944053 0.0006462155 0.0011660019 0.00018874618
0.00042742904 0.00051204924 0.0005679705 0.0035959543 0.00061565184 0.0017285421 0.0016522852 0.0013612163
0.00094498595 2.8235876e-05 0.0007754756 0.0003604476 0.0014081333 0.0040351385 0.00023927739 0.00010598889
0.00055134355 0.0005898774 0.0030165878 0.000120507786 0.0015194721 0.00021338118 0.0008444816 0.0010703467

mlp.3.weight f4 [1, 32]
00000000: 1634 913d dace 40bd 5ccb 35be e0ed 05bd
00000010: 6e77 ed3d 3a87 113e f416 e1be 090d 89be
00000020: 41bf 79be 3daf 983d 8133 a1be 2758 2fbe
00000030: e98c c73e bc10 8d3d a8ee 3dbd af09 98bd
00000040: 7b0b 293e 4bcc d4bd cca5 9d3e f450 843d
00000050: 7c7d a13d 6ace 5d3e a7e7 a9be c0b1 b1be
00000060: fff1 a43d 67b8 003e c3c0 55be b7aa 5abe
00000070: a579 19be a067 65be 942a 223e f6e4 213d
0.07090013 -0.04707227 -0.17753357 -0.03269756 0.11595045 0.14211741 -0.43962824 -0.26767758
-0.24389364 0.07455299 -0.31484607 -0.17123471 0.38974693 0.068879575 -0.04637018 -0.07423722
0.16508286 -0.10390528 0.30790555 0.06460753 0.07885262 0.21660772 -0.3318455 -0.34705925
0.080539696 0.12570344 -0.20874314 -0.21354185 -0.1498781 -0.22402811 0.15836555 0.039524995
