output_bbox_gcn/EVALUATOR_layout_MultiLayer_2023_09_21_16_51_13/Model/evaluator_1240.pth (torch, 9147 bytes, 11 tensors)

LayoutSeq.weight_ih_l0 f4 [32, 4]
0.055527296 -0.104334794 -0.09827562 0.06015481 0.1097469 -0.14039318 -0.022481719 0.079469256
0.13498421 0.093903944 0.1864913 0.30744362 -0.26317194 0.09702626 0.15495922 0.073175326
-0.3590256 0.28447008 0.11113461 0.18672337 -0.2716217 0.14679651 0.13965148 0.15024787
0.15467674 0.09285776 -0.20090707 -0.13116696 -0.04102069 0.17095336 -0.05384763 0.34409022
0.18726522 0.3109601 0.19822529 -0.004378924 0.2995833 -0.01021415 -0.112627156 0.039610643
-0.28760123 0.09468207 -0.2583862 -0.16940567 -0.11681926 0.06071701 -0.17103177 -0.17874354
-0.1962049 -0.040062133 0.29893482 -0.031545132 -0.04561867 0.12608345 0.27291286 0.40766215
-0.16948424 -0.0938043 -0.19657747 0.018490603 0.11768865 0.28847796 0.2402068 -0.029385747
0.15768574 0.096757464 0.28260162 0.0197189 -0.03446159 -0.26157174 -0.17898087 -0.14331056
-0.05292399 0.48633316 -0.31532055 -0.04174168 -0.11421971 -0.23727888 0.106828816 -0.36882213
-0.35599262 0.31017438 -0.07473296 0.2983846 0.31710446 -0.33622238 0.05542209 0.09395825
-0.29315293 0.12438758 0.30430555 -0.24291447 -0.15038905 0.17307399 0.1182409 0.1058394
0.049655102 -0.09636397 0.24711177 -0.13811985 0.05384543 0.33464378 0.15836926 0.042997293
-0.057869665 -0.14149623 0.005049409 0.06047852 -0.11159274 -0.13150312 0.2992281 0.052279014
0.022298533 -0.14181656 -0.103052914 0.14000064 -0.19130895 0.27517775 -0.078977205 -0.1609676
0.05266318 0.23170672 -0.19448644 -0.26058626 0.19822492 0.13228723 0.0681986 -0.065182075
00000000: 9770 633d 7bad d5bd ba44 c9bd e464 763d
00000010: fcc2 e03d 3bc3 0fbe 952b b8bc c7c0 a23d
00000020: 4d39 0a3e b650 c03d 93f7 3e3e 4069 9d3e
00000030: 79be 86be b4b5 c63d a1ad 1e3e f2dc 953d
00000040: 34d2 b7be 10a6 913e 8b9a e33d 6934 3f3e
00000050: 0012 8bbe d351 163e cc00 0f3e 94da 193e
00000060: 9463 1e3e 362c be3d 95ba 4dbe a250 06be
00000070: 5005 28bd 660e 2f3e 558f 5cbd 982c b03e
00000080: 74c2 3f3e 2a36 9f3e 92fb 4a3e 147d 8fbb
00000090: fb62 993e 4059 27bc 11a9 e6bd c53e 223d
000000a0: 7840 93be ace8 c13d 324b 84be ae78 2dbe
000000b0: f03e efbd 66b2 783d f422 2fbe 8c08 37be
000000c0: f0e9 48be 3118 24bd fc0d 993e 7835 01bd
000000d0: a4da 3abd 051c 013e 3cbb 8b3e 18b9 d03e
000000e0: 478d 2dbe 781c c0bd 9b4b 49be 9b79 973c
000000f0: bf06 f13d 62b3 933e c5f8 753e 61ba f0bc
00000100: 5f78 213e c728 c63d 29b1 903e 8889 a13c
00000110: 9927 0dbd bbec 85be c346 37be 01c0 12be
00000120: d3c6 58bd a900 f93e b271 a1be 53f9 2abd
00000130: 06ec e9bd 3cf9 72be 11c9 da3d 41d6 bcbe
00000140: aa44 b6be 2dcf 9e3e 980d 99bd dec5 983e
00000150: 845b a23e 5725 acbe 4602 633d 2f6d c03d
00000160: 2418 96be eabe fe3d f0cd 9b3e 92be 78be
00000170: 96ff 19be 4f3a 313e 4928 f23d 54c2 d83d
00000180: 2663 4b3d 795a c5bd de0a 7d3e 4a6f 0dbe
00000190: 078d 5c3d 6e56 ab3e 8d2b 223e ee1d 303d
000001a0: be08 6dbd 63e4 10be 8375 a53b 53b8 773d
000001b0: bc8a e4bd c1a8 06be 6d34 993e 8522 563d
000001c0: 6aab b63c 5c38 11be 680d d3bd 545c 0f3e
000001d0: 7ee6 43be 19e4 8c3e cdbe a1bd b1d4 24be
000001e0: 59b5 573d 8744 6d3e 7427 47be 906b 85be
000001f0: 79fb 4a3e 4e76 073e b5ab 8b3d 2e7e 85bd

LayoutSeq.weight_hh_l0 f4 [32, 8]
0.12656884 -0.24347767 0.15459692 -0.23617376 0.049014423 0.111100666 -0.00067333423 0.22722694
0.20799898 0.095804684 0.11782698 -0.1787581 0.011873592 0.038938604 0.10676142 0.16205914
-0.15766656 0.15905672 -0.045439765 -0.03896267 0.015352348 0.05846154 0.19536558 -0.1165823
0.09063613 0.00042980164 0.085849404 -0.045950864 0.049107976 0.017056612 0.019667719 0.14100131
0.18362482 -0.21734762 -0.16293226 -0.2660344 0.004172852 -0.02656944 0.14598252 0.020462954
-0.12155279 -0.00823222 -0.32942486 -0.20814975 -0.25140008 -0.010973989 -0.09032971 0.2211155
-0.11300475 -0.018267462 0.055329766 -0.05124939 -0.14108585 -0.033658206 -0.0076074167 0.027771242
-0.18483523 0.25598046 0.028316466 -0.023956496 0.06170989 0.07277387 -0.24014741 0.08379557
-0.07663178 -0.218271 -0.19987075 0.08148214 0.032812133 -0.037460342 0.16933118 -0.065931
-0.08580668 0.03799464 0.10613165 -0.23845318 0.16008833 0.113211006 0.09239753 -0.048240382
-0.14285283 -0.090394065 -0.12811635 -0.0072730375 -0.051712327 0.038650356 -0.2338284 0.05591892
0.00216168 -0.08925258 -0.1311877 -0.277619 0.036773108 0.19081998 0.172167 0.15102887
-0.15225828 0.047859732 0.32581916 -0.18928653 0.16710806 0.12419423 0.0058479784 0.19420312
0.06560167 -0.1374415 0.33050796 0.1909154 0.11466662 0.23374735 0.00040168437 0.32153264
-0.123992756 -0.0975248 -0.015164172 -0.1498037 -0.090825185 0.096380785 0.08386996 0.03215229
0.027461858 -0.060758647 0.16596963 -0.34117788 -0.1769678 0.14807749 0.13153213 0.14505531
-0.23226833 -0.111209035 0.121782675 0.116040595 0.21705903 -0.03104361 -0.302626 0.20715183
-0.038011625 -0.15314281 0.29697004 0.16720144 0.071797594 0.33553025 0.26643577 0.15803985
0.05968826 0.40450084 0.17274676 -0.031510785 -0.36310583 -0.1757624 0.2429624 0.048860833
-0.20321569 0.09450786 0.33906052 0.3763369 0.067972854 0.11646307 -0.16582173 -0.103066385
0.1292173 0.28462645 -0.29449576 0.23682241 0.14260328 -0.33463684 -0.2567474 0.080658615
-0.19209191 0.07786993 0.24829125 0.05047188 -0.19919088 -0.10412891 -0.13662514 0.39002135
0.21271934 0.014377052 0.28168863 -0.29849517 -0.23107645 -0.06999033 0.2274047 -0.097816765
-0.29359475 -0.21581765 -0.022416629 -0.008950811 -0.33063376 0.39097762 0.21515206 -0.02721269
0.0150256 0.105884716 0.054016653 -0.33073387 0.006546677 0.037969768 0.08817629 0.29815552
0.23126245 -0.21841991 -0.13247001 0.0846798 0.0805804 0.14775783 0.1906217 0.21434717
-0.17343204 0.1829817 0.19533397 0.2079924 -0.13501272 0.014558116 0.19550177 0.20029216
0.15527695 -0.07277208 -0.13299173 -0.26857013 -0.033947095 0.013709931 0.09560206 0.0294758
0.018556712 0.09814498 0.29884282 0.111278705 -0.1312339 0.040676877 -0.19706856 -0.05251735
-0.20275688 -0.05832477 -0.0041969717 -0.21742107 -0.12799862 0.034025997 -0.09248548 0.1294368
-0.19814767 -0.071690395 0.31585777 -0.17313196 0.09795184 -0.049743127 -0.088046074 -0.042459853
0.07978008 0.050413314 -0.07243688 -0.028210288 -0.102538384 0.023395268 -0.011254387 0.1297315
00000000: 439b 013e 3652 79be a84e 1e3e 89d7 71be
00000010: 59c3 483d bf88 e33d b282 30ba 2eae 683e
00000020: affd 543e 3f35 c43d 464f f13d 5d0c 37be
00000030: 7489 423c 167e 1f3d bba5 da3d d5f2 253e
00000040: 5873 21be c4df 223e 0c1f 3abd 5297 1fbd
00000050: 6a88 7b3c 5e75 6f3d ea0d 483e b3c2 eebd
00000060: 6f9f b93d 0057 e139 d0d1 af3d f936 3cbd
00000070: 7225 493d 4fba 8b3c 321e a13c a662 103e
00000080: 2508 3c3e 6090 5ebe b7d7 26be a935 88be
00000090: 6bbc 883b 27a8 d9bc 717c 153e eda1 a73c
000000a0: abf0 f8bd 6fe0 06bc 60aa a8be 3525 55be
000000b0: 83b7 80be 3fcc 33bc c8fe b8bd 1a6c 623e
000000c0: 096f e7bd a5a5 95bc 77a1 623d e1ea 51bd
000000d0: cf78 10be 30dd 09bd a347 f9bb 8480 e33c
000000e0: 7245 3dbe df0f 833e eff7 e73c 6a40 c4bc
000000f0: 82c3 7c3d 770a 953d 34e9 75be 039d ab3d
00000100: 1ff1 9cbd 6f82 5fbe ebaa 4cbe 1ce0 a63d
00000110: 0466 063d 0470 19bd 2765 2d3e d506 87bd
00000120: 6abb afbd 45a0 1b3d 8d5b d93d 122d 74be
00000130: 32ee 233e 2cdb e73d eb3a bd3d b597 45bd
00000140: 0348 12be 8620 b9bd ef30 03be a952 eebb
00000150: 4ed0 53bd d64f 1e3d b670 6fbe 3d0b 653d
00000160: f9aa 0d3b 0fca b6bd 1256 06be 1424 8ebe
00000170: 669f 163d 5066 433e 8c4c 303e 50a7 1a3e
00000180: 98e9 1bbe 9108 443d c5d1 a63e 54d4 41be
00000190: 601e 2b3e 8b59 fe3d 66a0 bf3b 2fdd 463e
000001a0: 2b5a 863d 77bd 0cbe 5738 a93e 547f 433e
000001b0: 55d6 ea3d 775b 6f3e 2a99 d239 ed9f a43e
000001c0: eaef fdbd 15bb c7bd 2673 78bc 2466 19be
000001d0: 8e02 babd 4a63 c53d 03c4 ab3d 1fb2 033d
000001e0: b1f7 e03c 0fde 78bd f1f3 293e deae aebe
000001f0: 0c37 35be a0a1 173e 5cb0 063e 6189 143e
00000200: c0d7 6dbe 90c1 e3bd 3269 f93d b1a6 ed3d
00000210: b944 5e3e 2b4f febc ccf1 9abe 9c1f 543e
00000220: 14b2 1bbd 78d1 1cbe 750c 983e db36 2b3e
00000230: 9e0a 933d 9fca ab3e 456a 883e 33d5 213e
00000240: ad7b 743d bc1a cf3e 87e4 303e 7411 01bd
00000250: 02e9 b9be 0ffb 33be 23cb 783e 4c22 483d
00000260: c617 50be 568d c13d 5799 ad3e 3baf c03e
00000270: 5a35 8b3d 3184 ee3d 2ccd 29be 7814 d3bd
00000280: 8a51 043e 8fba 913e 26c8 96be 9381 723e
00000290: 9806 123e 8555 abbe 6574 83be 5830 a53d
000002a0: beb3 44be 457a 9f3d 1040 7e3e 9abb 4e3d
000002b0: b2f8 4bbe 8a41 d5bd 76e7 0bbe e1b0 c73e
000002c0: 19d3 593e ba8d 6b3c 7e39 903e 5cd4 98be
000002d0: 4e9f 6cbe 1757 8fbd c7dc 683e 2854 c8bd
000002e0: 0d52 96be 4dff 5cbe 14a3 b7bc 6ca6 12bc
000002f0: d448 a9be 382e c83e d250 5c3e 26ed debc
00000300: ef2d 763c 16da d83d 9140 5d3d f355 a9be
00000310: 8285 d63b 3086 1b3d c595 b43d d7a7 983e
00000320: 10d0 6c3e 78a9 5fbe 38a6 07be 9a6c ad3d
00000330: 5607 a53d d44d 173e 5632 433e d37d 5b3e
00000340: 2b98 31be 8e5f 3b3e a105 483e f6fb 543e
00000350: c640 0abe 2a85 6e3c 9e31 483e 6319 4d3e
00000360: ec00 1f3e 8709 95bd fc2e 08be 0682 89be
00000370: 1c0c 0bbd 9e9f 603c 03cb c33d 3c77 f13c
00000380: 3f04 983c 3c00 c93d ed01 993e 17e6 e33d
00000390: 2e62 06be cc9c 263d 57cc 49be 6f1c 57bd
000003a0: 809f 4fbe f4e5 6ebd c086 89bb a1a3 5ebe
000003b0: 1212 03be d85e 0b3d 0769 bdbd 158b 043e
000003c0: 39e7 4abe 6ad2 92bd 1cb8 a13e 8149 31be
000003d0: f99a c83d 73bf 4bbd 8051 b4bd 62ea 2dbd
000003e0: bd63 a33d 317e 4e3d c959 94bd 4319 e7bc
000003f0: a5ff d1bd 6fa7 bf3c 5264 38bc 56d8 043e

LayoutSeq.bias_ih_l0 f4 [32]
0.08559128 0.26056275 0.13694249 0.09223931 0.039166395 0.26183215 0.25060692 -0.13095842
-0.052113216 0.21777791 -0.012860194 0.15070309 -0.21641207 0.110894375 0.22146116 0.015996529
-0.070941545 0.11849244 0.12305233 -0.16770674 -0.07627247 0.023738418 -0.015238726 0.08928982
0.21958494 -0.08542778 0.30822614 -0.09516607 0.38850635 0.01621647 -0.17833324 0.20839602
00000000: 7b4a af3d 7b68 853e a73a 0c3e f7e7 bc3d
00000010: f16c 203d dd0e 863e 8d4f 803e f719 06be
00000020: ab74 55bd 2c01 5f3e 90b3 52bc e951 1a3e
00000030: 209b 5dbe 971c e33d b7c6 623e 270b 833c
00000040: cd49 91bd 2aac f23d dc02 fc3d 51bb 2bbe
00000050: be34 9cbd 1277 c23c d9ab 79bc 95dd b63d
00000060: e0da 603e c3f4 aebd d1cf 9d3e 6ee6 c2bd
00000070: 4eea c63e 67d8 843c fd9c 36be c465 553e

LayoutSeq.bias_hh_l0 f4 [32]
-0.02604591 -0.062558025 0.308523 0.28180176 -0.19915788 -0.2518362 -0.13698326 0.10070445
0.23707491 0.3346169 -0.18899246 0.38262913 -0.22798388 -0.055555634 0.03170397 0.124779314
-0.18067484 -0.26043996 0.19073497 0.108432494 -0.03338554 0.034870524 0.2880055 -0.12504986
-0.0012284309 0.18560734 0.16329372 0.106230974 -0.17613362 -0.09678515 -0.083264865 0.27777153
00000000: 3b5e d5bc 6c1e 80bd baf6 9d3e 5248 903e
00000010: 0bf0 4bbe adf0 80be 5745 0cbe 223e ce3d
00000020: c4c3 723e e852 ab3e 3d87 41be f7e7 c33e
00000030: 9b74 69be 4e8e 63bd 06dc 013d 4c8c ff3d
00000040: d302 39be 6358 85be 0750 433e db11 de3d
00000050: 47bf 08bd 65d4 0e3d 7575 933e 120d 00be
00000060: 4d03 a1ba da0f 3e3e 7836 273e a08f d93d
00000070: 5f5c 34be 4b37 c6bd c586 aabd 1238 8e3e

mlp.0.weight f4 [32, 8]
0.06805045 -0.21795864 0.040346954 0.14878906 0.12470442 0.070506886 -0.08766206 0.13258626
-0.19156678 0.07879652 -0.057134736 0.023843013 0.0453873 0.029630749 -0.20212805 -0.09647564
0.0249419 -0.13275324 0.23506042 0.056501076 -0.2091818 -0.0910317 -0.002669691 -0.15556471
0.3862303 -0.03237763 0.38993198 0.0033196341 0.054054726 0.18608585 0.058784515 0.13483499
0.06549323 -0.22667976 0.0051231924 -0.19878127 -0.28441373 0.0027607924 0.12830782 -0.2578531
-0.03357429 0.11902791 -0.065575 0.087746814 0.1780054 0.03318247 -0.27415374 0.22424917
-0.07918998 -0.4535297 0.032431316 -0.058963686 0.082798876 0.14552163 -0.20000005 -0.13779029
0.120778 0.16970539 -0.22938582 -0.20231675 -0.07633878 -0.32727867 -0.047563437 -0.08840259
-0.07065647 -0.31494778 0.12971221 -0.2894528 -0.172296 -0.22102432 0.212338 -0.39946702
-0.38103998 0.044886813 -0.04820838 0.07607324 -0.24179438 0.16077492 -0.046961445 0.57989675
-0.20038243 -0.24310887 0.07118618 0.13530385 -0.004436319 -0.10118147 0.0063894615 -0.23659804
0.0833048 0.07652737 0.13638 -0.21836852 -0.050697237 -0.008349415 -0.3679248 0.35042477
-0.24802512 0.26627305 0.14717525 0.06429807 -0.44686848 0.30316776 -0.09383338 0.8829264
0.14134617 -0.13638034 0.19575994 -0.07854192 0.04555456 0.18991895 -0.17054912 0.111799106
0.1647779 -0.027969694 0.05533357 -0.13539797 0.021304006 -0.04455947 0.062345505 0.03318038
-0.08198383 0.012538705 0.06809471 -0.013285949 0.12300239 0.064257346 -0.050391544 0.058050547
0.17405938 -0.20797025 0.016853414 -0.17456912 0.19050758 -0.1669181 -0.13161084 -0.05082456
-0.17313866 -0.10636514 -0.058295902 0.0147189135 -0.16028655 -0.21178149 -0.14101158 0.13709556
-0.1350862 -0.2133717 0.38275662 0.078722626 -0.07472688 0.078791775 0.015439673 -0.08177864
0.12365183 0.05179322 0.108763196 0.14297132 -0.01825422 -0.018625062 0.07785972 0.042537123
-0.27886713 0.082660876 0.057484336 0.019327417 -0.0444882 -0.005602688 0.036696408 0.11224862
-0.28314042 -0.09600884 -0.17314018 -0.096452974 -0.1444697 0.0035016474 -0.1465678 0.4954288
-0.37518966 -0.1454419 -0.111492515 0.1987842 0.25634688 0.010349753 -0.04186422 0.10740682
-0.043407533 -0.22679888 -0.17428108 -0.029811436 0.31897792 -0.24749956 -0.022274628 -0.076353475
-0.075287156 -0.12652199 -0.29942688 0.23200203 0.07478658 -0.05102053 -0.18443261 0.09665389
-0.26285595 -0.19600949 0.10773388 -0.031248871 -0.067114696 -0.010389948 0.13672154 0.32239684
0.07351958 -0.27891263 -0.13884255 -0.010339615 0.07797464 0.3073536 0.100641094 -0.057943612
0.24300061 -0.040170923 0.008888903 0.04340948 0.080257565 -0.23081739 0.18060794 -0.16312791
0.050461125 -0.22935738 0.3990038 0.2686818 -0.07371835 -0.023823088 0.109922774 -0.00078174483
0.22709642 0.09690001 -0.049705885 -0.17201217 -0.23424672 0.08086618 0.14654301 -0.12991607
-0.11494566 -0.03358875 -0.027461166 -0.03865674 -0.11329954 -0.22179103 0.17525215 0.0027389808
0.18168564 -0.18833157 0.0008611185 0.09721002 -0.12847938 0.008632382 -0.042050876 -0.13704875
00000000: 095e 8b3d 8d30 5fbe d942 253d 295c 183e
00000010: 0865 ff3d ea65 903d 2b88 b3bd b1c4 073e
00000020: 152a 44be 1260 a13d 1d06 6abd 6c52 c33c
00000030: 09e8 393d 2fbc f23c a8fa 4ebe 0595 c5bd
00000040: f552 cc3c 77f0 07be aeb3 703e ac6d 673d
00000050: c133 56be d46e babd fcf5 2ebb 5b4c 1fbe
00000060: fabf c53e 689e 04bd 2aa5 c73e 388e 593b
00000070: 7d68 5d3d 4a8d 3e3e 08c8 703d 2f12 0a3e
00000080: 5121 863d bd1e 68be 74e0 a73b 518d 4bbe
00000090: ad9e 91be 69ee 343b 2063 033e 5205 84be
000000a0: 3285 09bd e8c4 f33d 304c 86bd 9ab4 b33d
000000b0: 0c47 363e 57ea 073d e15d 8cbe 93a1 653e
000000c0: 5b2e a2bd 0b35 e8be b3d6 043d e883 71bd
000000d0: 7592 a93d 9f03 153e d0cc 4cbe e618 0dbe
000000e0: 755a f73d 40c7 2d3e 1ee4 6abe 1f2c 4fbe
000000f0: 8257 9cbd 1291 a7be e1d1 42bd 6b0c b5bd
00000100: 57b4 90bd d640 a1be 47d3 043e 2833 94be
00000110: 5d6e 30be 3354 62be 226f 593e f186 ccbe
00000120: ac17 c3be 3cdb 373d 2676 45bd 49cc 9b3d
00000130: f298 77be 2ea2 243e a55a 40bd 1d74 143f
00000140: 0d31 4dbe 88f1 78be 0fca 913d 188d 0a3e
00000150: 8b5e 91bb 3b38 cfbd b05e d13b c246 72be
00000160: b59b aa3d 62ba 9c3d 33a7 0b3e ff9b 5fbe
00000170: e8a7 4fbd fccb 08bc a460 bcbe e06a b33e
00000180: 4cfa 7dbe f154 883e 1cb5 163e b5ae 833d
00000190: f2cb e4be ce38 9b3e b72b c0bd 7707 623f
000001a0: 0dbd 103e 4aa7 0bbe 4b75 483e 96da a0bd
000001b0: 6b97 3a3d 1d7a 423e 6ea4 2ebe eef6 e43d
000001c0: 8abb 283e b320 e5bc 74a5 623d c4a5 0abe
000001d0: bd85 ae3c fe83 36bd 005e 7f3d 26e8 073d
000001e0: 23e7 a7bd 246f 4d3c 3d75 8b3d 4fad 59bc
000001f0: ade8 fb3d 5b99 833d 5d67 4ebd 69c6 6d3d
00000200: 9f3c 323e 27f6 54be 2c10 8a3c 3fc2 32be
00000210: 6b14 433e 94ec 2abe fec4 06be 6a2d 50bd
00000220: 434b 31be f7d5 d9bd afc7 6ebd 9927 713c
00000230: 2822 24be 3fdd 58be 5765 10be c762 0c3e
00000240: 0954 0abe 1c7e 5abe adf8 c33e 5439 a13d
00000250: 680a 99bd 955d a13d aff6 7c3c 8f7b a7bd
00000260: 2c3d fd3d 2125 543d 3dbf de3d 1367 123e
00000270: e089 95bc 9693 98bc eb74 9f3d 683b 2e3d
00000280: acc7 8ebe 1b4a a93d b274 6b3d 8854 9e3c
00000290: 4239 36bd c196 b7bb f94e 163d 9be2 e53d
000002a0: c8f7 90be 48a0 c4bd a94b 31be 2389 c5bd
000002b0: ddef 13be e57b 653b df15 16be d8a8 fd3e
000002c0: dc18 c0be b9ee 14be 3056 e4bd 168e 4b3e
000002d0: e63f 833e 0392 293c d179 2bbd 1bf8 db3d
000002e0: 19cc 31bd f73d 68be bd76 32be 1d37 f4bc
000002f0: 1351 a33e 8670 7dbe 4879 b6bc 365f 9cbd
00000300: 2730 9abd fb8e 01be 7b4e 99be f191 6d3e
00000310: b529 993d e7fa 50bd e7db 3cbe 7af2 c53d
00000320: 0e95 86be b6b6 48be 95a3 dc3d a2fd ffbc
00000330: 6e73 89bd 9a3a 2abc bb00 0c3e 3311 a53e
00000340: 6f91 963d a3cd 8ebe be2c 0ebe 7d67 29bc
00000350: 2bb1 9f3d 735d 9d3e eb1c ce3d 4856 6dbd
00000360: 27d5 783e 448a 24bd c3a2 113c 24ce 313d
00000370: 145e a43d 655b 6cbe 4af1 383e 010b 27be
00000380: 53b0 4e3d a9dc 6abe 3a4a cc3e a990 893e
00000390: a5f9 96bd a328 c3bc 311f e13d 02ee 4cba
000003a0: f78b 683e 8373 c63d 6698 4bbd f523 30be
000003b0: 5fde 6fbe 2b9d a53d 5f0f 163e b808 05be
000003c0: a168 ebbd 5b94 09bd 3df6 e0bc 8856 1ebd
000003d0: 9709 e8bd 301d 63be 4d75 333e 7980 333b
000003e0: cd0b 3a3e fed9 40be afbc 613a 0c16 c73d
000003f0: 1990 03be d66e 0d3c 8a3d 2cbd 8256 0cbe

mlp.0.bias f4 [32]
-6.517639e-07 -1.3993422e-05 1.076811e-05 -4.0005794e-05 -1.973364e-05 -2.5547746e-05 1.3662469e-05 3.721513e-05
-1.9170737e-05 0.00018496836 2.4464753e-06 1.0111428e-05 -6.739657e-05 -1.7217364e-05 -7.4925365e-06 -1.2532446e-06
-1.5389782e-05 -3.420319e-05 -2.6956368e-06 6.3097577e-06 2.3200446e-05 4.180527e-06 -3.200826e-05 2.1956748e-05
-3.9360624e-05 0.00015013455 3.3458604e-05 -5.3643826e-06 2.1761447e-05 -6.6807443e-06 1.9329826e-05 2.9904095e-05
00000000: e0f4 2eb5 4ac5 6ab7 aea8 3437 e5cb 27b8
00000010: ab89 a5b7 5e4f d6b7 dc37 6537 7117 1c38
00000020: d8d0 a0b7 11f4 4139 202e 2436 41a4 2937
00000030: 4257 8db8 026e 90b7 6668 fbb6 2835 a8b5
00000040: 4e19 81b7 6575 0fb8 b0e6 34b6 68b8 d336
00000050: 949e c237 7446 8c36 9c40 06b8 c22f b837
00000060: 2617 25b8 706d 1d39 e755 0c38 b2ff b3b6
00000070: 5a8c b637 282b e0b6 7c26 a237 8eda fa37

mlp.1.weight f4 [32]
0.6370726 0.4832972 0.6913568 0.5838921 0.7184327 0.7921059 0.8301055 0.76519656
0.7805407 0.72695965 0.7980393 0.71319145 0.9773237 0.60746765 0.5647547 0.49017948
0.7891849 0.80607146 0.9150193 0.6777175 0.72345114 0.8339631 0.79802835 0.7919877
0.62769073 0.7090708 0.7791684 0.70286196 0.7187666 0.6912406 0.8203474 0.5935203
00000000: 3117 233f bb72 f73e c2fc 303f f479 153f
00000010: 35eb 373f 74c7 4a3f cb81 543f ece3 433f
00000020: 84d1 473f 071a 3a3f 4e4c 4c3f b793 363f
00000030: e331 7a3f 0083 1b3f c493 103f cef8 fa3e
00000040: 0608 4a3f b35a 4e3f b43e 6a3f e57e 2d3f
00000050: 1834 393f 9b7e 553f 964b 4c3f b5bf 4a3f
00000060: 57b0 203f aa85 353f 9577 473f c3ee 333f
00000070: 1701 383f 25f5 303f 4a02 523f f2f0 173f

mlp.1.bias f4 [32]
-0.011848428 0.23691261 0.10759173 -0.40544558 -0.0054239514 0.03378729 -0.09755734 -0.063827835
-0.05422639 0.04098142 0.021909764 -0.0995544 -0.084100515 0.047153875 -0.05174227 0.033450853
-0.02237274 -0.10070258 -0.017105162 -0.13464946 0.0061376616 0.072047226 0.21010296 0.016387517
0.022794057 0.07528154 -0.034961503 0.15648314 0.19076422 -0.11265039 0.0023695093 0.070970826
00000000: e91f 42bc 3899 723e 0e59 dc3d 9096 cfbe
00000010: 67bb b1bb 8b64 0a3d 25cc c7bd 2bb8 82bd
00000020: 7e1c 5ebd 22dc 273d 1b7c b33c 2de3 cbbd
00000030: e43c acbd 6c24 413d b4ef 53bd c303 093d
00000040: 0947 b7bc 273d cebd 2020 8cbc 8ce1 09be
00000050: 701e c93b 7f8d 933d 3b25 573e 1d3f 863c
00000060: 9aba ba3c 352d 9a3d cb33 0fbd 1e3d 203e
00000070: b257 433e 3fb5 e6bd c549 1b3b 2759 913d

mlp.1.running_mean f4 [32]
0.035450973 -0.10138096 0.040933315 0.15681937 0.117120944 -0.07975835 0.08747419 -0.09988595
0.119230494 0.14447026 -0.037407365 0.10524851 0.24779801 0.124218844 0.07008371 0.012667712
0.02710669 0.008974724 0.112886734 -0.009492162 0.018903896 0.13427155 -0.061638124 -0.0707475
-0.12130388 0.18961667 0.08987206 -0.0543926 0.086236656 0.0547537 0.023715165 0.0015691265
00000000: 0a35 113d d2a0 cfbd b1a9 273d 4295 203e
00000010: 1bdd ef3d 5958 a3bd ab25 b33d 0191 ccbd
00000020: 1e2f f43d 03f0 133e 7738 19bd 888c d73d
00000030: c3be 7d3e 7366 fe3d 0c88 8f3d 3c8c 4f3c
00000040: d90e de3c b90a 133c 2931 e73d 0385 1bbc
00000050: 58dc 9a3c 7b7e 093e 4278 7cbd 11e4 90bd
00000060: 2b6e f8bd df2a 423e d80e b83d c6ca 5ebd
00000070: d89c b03d 6a45 603d 4e46 c23c 26ab cd3a

mlp.1.running_var f4 [32]
0.00026930732 0.00025582823 0.0004006866 0.00024030822 0.00019670065 0.00020207492 0.00083390746 0.00015961252
0.00012563376 6.22414e-05 0.00042142012 0.00093158847 6.484597e-05 0.00060192356 0.00018709457 0.00010546359
0.00078919897 1.0403762e-05 0.0007200376 0.00018414448 0.00036599216 0.0009168189 0.00016607046 0.00031120304
0.00031092844 0.00015149756 0.0010094239 0.00018135505 0.00082502386 0.00030288292 0.00016713998 0.00015781593
00000000: d131 8d39 af20 8639 3f13 d239 3ffb 7b39
00000010: 6e41 4e39 13e4 5339 959a 5a3a a95d 2739
00000020: 8ebc 0339 9987 8238 0df2 dc39 d835 743a
00000030: eafd 8738 68ca 1d3a d12e 4439 552c dd38
00000040: 3fe2 4e3a d18b 2e37 e8c0 3c3a e816 4139
00000050: a3e2 bf39 ad56 703a 3323 2e39 f728 a339
00000060: 1c04 a339 51db 1e39 a54e 843a 202a 3e39
00000070: 6a46 583a 42cc 9e39 4c42 2f39 647b 2539

mlp.3.weight f4 [1, 32]
0.10845599 -0.058524195 -0.091580406 -0.17954817 0.1470783 0.18353479 -0.371653 -0.20593962
-0.17330869 0.19267638 -0.23951988 -0.14386095 0.4461524 0.10608895 -0.08376113 -0.00911928
0.2009148 -0.2436571 0.3502395 0.114657365 0.12477574 0.22440945 -0.24575001 -0.23316784
0.08402444 0.13818668 -0.19732957 -0.15311365 -0.12445851 -0.13929792 0.18180895 0.10403434
00000000: 2d1e de3d 11b7 6fbd 828e bbbd 7adb 37be
00000010: b29b 163e 8bf0 3b3e 4d49 bebe d6e1 52be
00000020: d577 31be f54c 453e b344 75be 4950 13be
00000030: 166e e43e 2a45 d93d f58a abbd 0869 15bc
00000040: 9cbc 4d3e 3f81 79be 9752 b33e 7bd1 ea3d
00000050: 6c8a ff3d 97cb 653e e4a5 7bbe 8dc3 6ebe
00000060: 0115 ac3d cf80 0d3e c310 4abe d3c9 1cbe
00000070: 1ae4 febd 1da4 0ebe 202c 3a3e f50f d53d
