output_bbox_gcn/EVALUATOR_layout_MultiLayer_2023_09_21_16_51_13/Model/evaluator_340.pth (torch, 9127 bytes, 11 tensors)

LayoutSeq.weight_ih_l0 f4 [32, 4]
0	0x3e4070fa	0.18793097
1	0xbdd7f1e3	-0.10544183
2	0x3d0b4db6	0.034009658
3	0x3e0f0ebb	0.13970463
4	0x3e4754be	0.1946592
5	0xbe898f6f	-0.26867244
6	0xbd34dc71	-0.04415554
7	0x3d305a62	0.043054946
8	0x3e9879ca	0.29780418
9	0x3e7a3a6f	0.24436353
10	0x3e0ece3c	0.1394586
11	0x3e84673b	0.2586001
12	0xbe92d01f	-0.2867441
13	0x3e5efac2	0.21775344
14	0x3e389883	0.18026929
15	0x3d38d39a	0.045123674
16	0xbe5751ad	-0.2102725
17	0x3e8bb57b	0.27286896
18	0x3d99a5c3	0.0750232
19	0x3e31b154	0.17352802
20	0xbe72428b	-0.23658197
21	0xbe2953bf	-0.16535853
22	0x3e279869	0.16366734
23	0x3de71f35	0.11285249
24	0x3e89576f	0.2682452
25	0x3def17b1	0.11674441
26	0xbe8241f7	-0.25440952
27	0xbe1b48be	-0.15164468
28	0xbe5642fd	-0.20923992
29	0x3e730df1	0.23735787
30	0xbc3ca7e7	-0.01151464
31	0x3eb2e401	0.34939578
32	0x3e3b55cf	0.18294452
33	0x3e89fac9	0.26949146
34	0x3e338ef7	0.17535006
35	0xbd2879e9	-0.041131888
36	0x3e982e95	0.2972304
37	0xbdb1c121	-0.086794145
38	0xbdbae780	-0.09126186
39	0xbca8c828	-0.020603254
40	0xbe964873	-0.2935215
41	0x3d2db70a	0.042410888
42	0xbe212f00	-0.15740585
43	0xbe4a11aa	-0.19733301
44	0xbd76688d	-0.0601583
45	0xbcb1c9f4	-0.021702744
46	0xbe5895ce	-0.21150896
47	0xbe486142	-0.19568351
48	0xbe91fb32	-0.2851196
49	0xbd1bdcf5	-0.038052518
50	0x3ea871f3	0.32899436
51	0xbe4a0512	-0.19728497
52	0x3d0bab17	0.03409871
53	0x3e91e886	0.28497714
54	0x3e92eda8	0.28696942
55	0x3ecba32e	0.39772934
56	0xbe810576	-0.2519948
57	0xbdf6e6e2	-0.12055756
58	0xbe84968a	-0.25896102
59	0xbd40fe0d	-0.04711728
60	0x3e2b5244	0.167306
61	0x3e9dbceb	0.30808195
62	0x3e9d7ad1	0.30757764
63	0xbc814cb3	-0.015783643
64	0x3de5c03c	0.112183064
65	0x3db5b82f	0.08873021
66	0x3e94f830	0.29095602
67	0x3cb38401	0.02191353
68	0xbd25d3db	-0.040485244
69	0xbe5433cc	-0.20722884
70	0xbe41a57d	-0.18910785
71	0xbe3cf4dd	-0.18452783
72	0xbe04816b	-0.12939994
73	0x3ea17bf9	0.31539896
74	0xbeb614f1	-0.35562852
75	0xbbe81687	-0.0070827636
76	0xbe4a546e	-0.1975877
77	0xbe4c721f	-0.19965409
78	0x3d63c8e0	0.05561149
79	0xbec44743	-0.38335618
80	0xbe96950d	-0.29410592
81	0x3e9b6b75	0.3035542
82	0xbda9350a	-0.082620695
83	0x3e969570	0.29410887
84	0x3ea85d9d	0.3288392
85	0xbea2d99f	-0.31806657
86	0x3d97c87a	0.07411285
87	0x3dbf1f42	0.09332134
88	0xbe739745	-0.23788173
89	0x3e52347b	0.20527832
90	0x3eaddf76	0.3395955
91	0xbe8b43c9	-0.27200153
92	0xbdee8732	-0.1164688
93	0x3e515db9	0.20445909
94	0x3dda25c3	0.10651734
95	0x3dd1f786	0.102522895
96	0x3d394a94	0.04523714
97	0xbe652d5c	-0.22380584
98	0x3eafd9b2	0.34345776
99	0xbe4240b6	-0.18969998
100	0xba013854	-0.0004929353
101	0x3e983926	0.297311
102	0x3e0cf732	0.13766173
103	0x3d5b926a	0.05360643
104	0x3cddc90e	0.02707341
105	0xbe3cb36a	-0.18427816
106	0x3e1e54b6	0.15462002
107	0xbc06e287	-0.008232719
108	0xbd39be19	-0.045347307
109	0xbda9ff88	-0.08300692
110	0x3ea4f993	0.3222166
111	0x3da6187c	0.08110139
112	0x3dd7f74c	0.10545215
113	0xbe193690	-0.1496222
114	0xbdf117e5	-0.11772136
115	0x3d9ecb6b	0.07753643
116	0xbe5f1414	-0.21785003
117	0x3e794706	0.243435
118	0xbd4d52fb	-0.050127964
119	0xbe330905	-0.1748391
120	0xbc098f03	-0.008395913
121	0x3e994ee4	0.29943
122	0xbe891099	-0.26770476
123	0xbe8ba405	-0.27273574
124	0x3e8375c8	0.25675797
125	0x3de91212	0.113804
126	0x3de02347	0.109442286
127	0xbd70aef4	-0.0587606

LayoutSeq.weight_hh_l0 f4 [32, 8]
0	0x3e2251ec	0.15851563
1	0xbe63a395	-0.2223037
2	0x3dfd1180	0.123568535
3	0xbe2f888d	-0.17141934
4	0xbd241518	-0.04005918
5	0x3d8a12f9	0.067419
6	0xbd4c8e57	-0.049940433
7	0x3ded8654	0.11597887
8	0x3e884465	0.2661468
9	0x3e372ad0	0.17887425
10	0x3e70b176	0.23505196
11	0xbe787cff	-0.24266432
12	0x3e58bfa1	0.2116685
13	0x3d95af20	0.07308793
14	0x3bef339d	0.007299854
15	0x3e5df12b	0.2167403
16	0xbe411d3a	-0.18858805
17	0x3e3f4435	0.18678363
18	0xbe371770	-0.17880034
19	0xbdcacdfa	-0.09902568
20	0x3e0b08cd	0.13577576
21	0xbcaab464	-0.02083797
22	0x3e870e36	0.2637803
23	0xbe5ab421	-0.21357776
24	0x3e1e3321	0.15449192
25	0x3df2b036	0.11850016
26	0x3e5ce5f9	0.21572103
27	0x3d8380d2	0.06421055
28	0x3e066a80	0.13126564
29	0xbe2aabef	-0.1666715
30	0x3e05070d	0.12990971
31	0x3e307d41	0.1723528
32	0x3e8bf598	0.2733581
33	0xbe6f1abe	-0.23350045
34	0xbe5d9b43	-0.21641259
35	0xbe9d7e6d	-0.30760518
36	0xbca7274f	-0.020404486
37	0xbe1ab59d	-0.15108342
38	0x3e49d1b4	0.19708902
39	0xbca621af	-0.020279733
40	0xbe6da7aa	-0.2320849
41	0xbcc21284	-0.02369047
42	0xbebe0ea2	-0.3712054
43	0xbe8c0390	-0.27346468
44	0xbe68c7fe	-0.22732541
45	0xbe2878b4	-0.16452295
46	0xbe36197f	-0.17783163
47	0x3e982927	0.29718897
48	0xbe766072	-0.24060228
49	0xbe43bf6b	-0.19115989
50	0x3cf83876	0.03030036
51	0xbe65546a	-0.22395483
52	0xbe6efad2	-0.23337868
53	0xbd091ecd	-0.03347664
54	0xbdc07e5d	-0.09399102
55	0x3e6ddbbb	0.23228352
56	0xbe3a2721	-0.18178989
57	0x3e8eb860	0.27875042
58	0xbce1f514	-0.027582683
59	0xbce540ea	-0.027985055
60	0x3da2e68e	0.07954131
61	0x3d931248	0.07181221
62	0xbe845aed	-0.2585062
63	0x3dc51204	0.09622577
64	0xbe47c353	-0.19508104
65	0xbe99ad33	-0.30014953
66	0xbea8c587	-0.329632
67	0x3dff30ee	0.124605045
68	0x3dc25ab5	0.09489957
69	0xbd4f3ae3	-0.050593268
70	0x3e5e4027	0.2170416
71	0xbe343f30	-0.17602229
72	0xbe31b714	-0.17354995
73	0x3dbc7619	0.09202213
74	0x3e5840c8	0.21118462
75	0xbe7b5773	-0.24545078
76	0x3e85694c	0.26056898
77	0x3e8b061c	0.271531
78	0x3d702777	0.058631387
79	0xbde7969c	-0.11308023
80	0xbe79f37d	-0.2440929
81	0xbe5e4074	-0.21704274
82	0xbdb96408	-0.090522826
83	0xbd89c728	-0.06727439
84	0xbc5ba056	-0.013404926
85	0xbdfe6ca8	-0.12423068
86	0xbe877f2f	-0.2646422
87	0x3e0fa8c2	0.1402922
88	0xbdc6efbd	-0.09713695
89	0x3d8ca3ea	0.068672016
90	0xbe1b2b29	-0.15153183
91	0xbe050c03	-0.12992863
92	0x3e325c79	0.17418088
93	0x3df883ae	0.12134491
94	0x3e920d2a	0.28525668
95	0x3c1eb057	0.009685597
96	0xbe6ae1a0	-0.22937632
97	0x3e0a6a1c	0.1351704
98	0x3e99933c	0.29995143
99	0xbe0e47f9	-0.13894643
100	0x3e659e48	0.22423661
101	0x3e10c95f	0.14139317
102	0xbd471844	-0.048607126
103	0x3e156f62	0.1459327
104	0x3d73e80b	0.059547465
105	0xbdf490c0	-0.11941671
106	0x3e6ca630	0.2311027
107	0x3e863532	0.2621246
108	0x3e82a140	0.2551365
109	0x3e90bf30	0.28270864
110	0xbe0a7c0d	-0.13523884
111	0x3e9fca6c	0.31209123
112	0xbe6160bd	-0.22009559
113	0xbe815c5b	-0.25265774
114	0xbe36fc3e	-0.1786966
115	0xbe9ef12b	-0.31043372
116	0xbd9b5309	-0.07584197
117	0x3e3f2e04	0.18669897
118	0x3d9b1879	0.07573027
119	0xbcdca789	-0.026935356
120	0x3e475474	0.1946581
121	0xbdf1fd1d	-0.11815856
122	0xbcc77440	-0.024347425
123	0xbed3921b	-0.41322407
124	0xbd2710ec	-0.040787622
125	0x3d5b848f	0.053593215
126	0x3df8476c	0.12122998
127	0x3e4e8e98	0.20171583
128	0xbe8997dd	-0.26873675
129	0xbd81a817	-0.06330889
130	0x3e4d8910	0.20071816
131	0x3e38c348	0.18043244
132	0x3e4c048c	0.1992361
133	0xbd6aa8d2	-0.057289906
134	0xbe963a11	-0.29341176
135	0x3e6417e0	0.22274733
136	0xbd2a8afd	-0.041636456
137	0xbe35a285	-0.17737778
138	0x3e9427b3	0.28936538
139	0x3e3c5dd7	0.18395172
140	0x3da251b4	0.0792574
141	0x3e6527c6	0.22378454
142	0x3eaea817	0.34112617
143	0x3e1bd23e	0.1521692
144	0x3da16d20	0.07882142
145	0x3eb142a3	0.34621152
146	0x3e3529d4	0.17691737
147	0xbe22ffe4	-0.15917927
148	0xbe93be48	-0.2885611
149	0xbe824282	-0.25441366
150	0x3e9f80b9	0.31152895
151	0x3e20fd43	0.15721612
152	0xbeb8c926	-0.36090964
153	0x3df45565	0.1193035
154	0x3ecbec4c	0.39828718
155	0x3eb4b524	0.3529445
156	0x3dc98d48	0.098414004
157	0x3e422d80	0.1896267
158	0xbe457496	-0.19282755
159	0xbde3fb01	-0.111318596
160	0x3cd2be52	0.025725517
161	0x3eb46218	0.3523109
162	0xbe4b2466	-0.19838104
163	0x3e89d71f	0.26921937
164	0x3d7c4d07	0.061596896
165	0xbea1f42e	-0.31631607
166	0xbe3c2b32	-0.18375853
167	0x3dabdcf7	0.08391755
168	0xbe4ab785	-0.1979657
169	0x3d6e060f	0.058111247
170	0x3e2f1b5f	0.17100285
171	0x3c9cfc72	0.019163344
172	0xbe2dd212	-0.16974667
173	0xbe238ecb	-0.1597244
174	0xbe3bb826	-0.18331966
175	0x3ec8a3f0	0.39187574
176	0x3e735f72	0.23766878
177	0x3b0dcbd2	0.002163638
178	0x3e97859e	0.2959413
179	0xbeb7a690	-0.35869265
180	0xbe80b75e	-0.25139898
181	0xbe2a014a	-0.16602054
182	0x3e817ed3	0.25292072
183	0xbe4d6ad9	-0.2006029
184	0xbe85afd2	-0.26110703
185	0xbe8a270d	-0.26982918
186	0xbdcb208d	-0.09918318
187	0xbb9886a0	-0.0046547204
188	0xbe996234	-0.29957736
189	0x3eaf11b8	0.34193206
190	0x3e2f6286	0.17127427
191	0xbdb78669	-0.089611836
192	0xbe276c02	-0.16349795
193	0x3e5b07a1	0.21389629
194	0x3c61545b	0.013753022
195	0xbe9b91ea	-0.3038476
196	0x3d5a2922	0.053261884
197	0xbd952985	-0.0728331
198	0x3d112c3f	0.035442587
199	0x3e78f839	0.2431344
200	0x3eb80bdf	0.35946557
201	0xbe9671ba	-0.2938364
202	0xbe61e7d0	-0.22061086
203	0x3e4ac188	0.19800389
204	0x3d9fdb7c	0.07805535
205	0x3e959074	0.2921177
206	0x3e820c39	0.2539995
207	0x3e8b3406	0.27188128
208	0xbe75e528	-0.24013197
209	0x3e84b71b	0.25920948
210	0x3e3e485e	0.18582293
211	0x3e925d8e	0.28587002
212	0xbdd2b7f6	-0.10288994
213	0xbe3b58f6	-0.18295655
214	0x3e62be97	0.22143017
215	0x3e55a55a	0.20863858
216	0x3e5bd9fd	0.21469875
217	0xbda58bc4	-0.08083299
218	0xbdf02a52	-0.11726822
219	0xbeab488f	-0.33453795
220	0x3de436c4	0.11143258
221	0xbe11d790	-0.14242387
222	0x3d1f6b38	0.03892061
223	0xbb74c53c	-0.0037349006
224	0xbd2ef5f7	-0.04271504
225	0x3e231cec	0.15929002
226	0x3ead8e69	0.33897713
227	0x3e1c1eb5	0.15246089
228	0xbe333fe4	-0.17504841
229	0xbd85f7a6	-0.06541376
230	0xbe7c5da4	-0.24645096
231	0xbdf55741	-0.11979533
232	0xbe83628c	-0.25661123
233	0xbd556c61	-0.05210531
234	0xbd4612e1	-0.048357848
235	0xbe722db2	-0.23650244
236	0xbddb3a33	-0.1070446
237	0xbd214744	-0.039374605
238	0xbe0075b3	-0.12544899
239	0x3dd4d424	0.10392025
240	0xbe276532	-0.16347197
241	0xbe673cf0	-0.2258184
242	0x3e9327e5	0.28741375
243	0xbe97f09b	-0.29675755
244	0x3e3539a9	0.17697777
245	0xbc601f80	-0.013679385
246	0xbe0e3f01	-0.13891222
247	0x3c96fcdc	0.01843112
248	0x3e086867	0.13321076
249	0x3d814330	0.06311643
250	0xbe15bb5f	-0.14622258
251	0xbd72a40f	-0.05923849
252	0xbdc320a8	-0.09527713
253	0xbdbd088d	-0.092301466
254	0x3d513c56	0.05108293
255	0x3e12477f	0.14285086

LayoutSeq.bias_ih_l0 f4 [32]
0	0x3dcb1a38	0.0991711
1	0x3e8bc8e6	0.2730171
2	0x3e0ca81f	0.13736008
3	0x3dccb373	0.09995165
4	0x3c824841	0.015903594
5	0x3e936560	0.2878828
6	0x3ea6548a	0.32486373
7	0xbe209138	-0.15680397
8	0xbd77fdaf	-0.060544666
9	0x3e760e4d	0.24028893
10	0xbbd3286f	-0.006444029
11	0x3d1100c3	0.035401117
12	0xbe959e91	-0.2922254
13	0x3dcbc58c	0.099497885
14	0x3e67849e	0.22609183
15	0xbcd16c3e	-0.02556431
16	0xbd9ee7a6	-0.07759027
17	0x3dc95ec6	0.0983253
18	0x3e0da0cc	0.1383087
19	0xbe26742d	-0.16255255
20	0xbd407467	-0.04698601
21	0xbc230977	-0.009950987
22	0xbb5d520d	-0.003377083
23	0x3dae553b	0.0851235
24	0x3e66ba60	0.22532034
25	0xbdf68eff	-0.12038993
26	0x3e918a4a	0.2842582
27	0xbe040916	-0.12894091
28	0x3ebd88ec	0.37018526
29	0x3b2837b4	0.0025667967
30	0xbe54c9c9	-0.207801
31	0x3e4524a5	0.1925226

LayoutSeq.bias_hh_l0 f4 [32]
0	0xbcadf571	-0.0212352
1	0xbdd34c8f	-0.10317337
2	0x3ea8008c	0.32812917
3	0x3eb79233	0.3585373
4	0xbe6fa3a9	-0.23402275
5	0xbe8d8118	-0.27637553
6	0xbe27355e	-0.16328952
7	0x3db5cd42	0.088770404
8	0x3e81c0bf	0.25342366
9	0x3ebf8fc1	0.37414363
10	0xbe4bcd05	-0.19902427
11	0x3e9da3f4	0.3078915
12	0xbe9c1178	-0.30482078
13	0xbdaa1ee7	-0.083066754
14	0xbb7f78e3	-0.0038981966
15	0x3db4ad3f	0.088221066
16	0xbe42f6ca	-0.19039455
17	0xbe9688e9	-0.2940133
18	0x3e54dc6e	0.20787212
19	0x3df70541	0.12061549
20	0xbb5d5dd1	-0.0033777843
21	0x3ab599a5	0.0013854994
22	0x3e9e630f	0.3093495
23	0xbe08f96e	-0.133764
24	0xbc4eed5b	-0.012629832
25	0x3e4af2ef	0.19819234
26	0x3e03eb97	0.12882839
27	0x3ddcedd4	0.107875496
28	0xbe61a23b	-0.22034542
29	0xbdf0744d	-0.117409326
30	0xbdc99e30	-0.09844625
31	0x3e880f0e	0.26573986

mlp.0.weight f4 [32, 8]
0	0x3dad2a7f	0.08455371
1	0xbe9dca68	-0.30818486
2	0x3cd1831d	0.025575215
3	0x3e6d3335	0.23164065
4	0x3e0804ad	0.13283034
5	0x3e680ff5	0.22662337
6	0xbd8c272c	-0.06843409
7	0x3e0c5d6f	0.13707517
8	0xbe65fd32	-0.22459868
9	0x3db8d2c7	0.090245776
10	0xbdcd75f5	-0.10032264
11	0x3d3b20d5	0.045685608
12	0x3bba9994	0.0056945775
13	0x3db79290	0.089635015
14	0xbe91a8d4	-0.28449118
15	0xbdf15228	-0.11783248
16	0x3d5ac2d3	0.053408455
17	0xbe432c53	-0.19059877
18	0x3e329fd3	0.1744378
19	0x3de17d5c	0.110102385
20	0xbea5869e	-0.32329267
21	0x3d2c344c	0.04204206
22	0xbd4c675f	-0.04990327
23	0xbe5dcf36	-0.21661076
24	0x3ee01355	0.4376475
25	0xbcbf8b3e	-0.023381826
26	0x3ed5edc1	0.41782954
27	0x3d0ccb3b	0.034373503
28	0x3df66383	0.12030699
29	0x3e3c5939	0.1839341
30	0x3dbc5f09	0.09197814
31	0x3e27bb87	0.1638013
32	0x3d9c48d2	0.07631077
33	0xbe8b1737	-0.2716615
34	0xbda112eb	-0.078649364
35	0xbe5b81c4	-0.2143622
36	0xbeaa0f93	-0.33215007
37	0xbd4f97bd	-0.05068182
38	0x3e5f82ef	0.21827291
39	0xbe7d269c	-0.2472176
40	0xbd603f38	-0.05474779
41	0x3e1a64b5	0.15077479
42	0xbd258878	-0.04041335
43	0x3d5c850e	0.05383783
44	0x3e341376	0.17585549
45	0x3d087d92	0.03332288
46	0xbef1af69	-0.4720414
47	0x3e66bfcd	0.22534104
48	0xbd779934	-0.06044884
49	0xbefda215	-0.4953772
50	0x3c53d00e	0.012928022
51	0xbd8853d6	-0.066566154
52	0x3db7f362	0.089819685
53	0x3e411662	0.18856195
54	0xbe7403a3	-0.23829512
55	0xbe1f72a0	-0.1557107
56	0x3e2e6cbb	0.17033665
57	0x3e2bf790	0.16793656
58	0xbe57ebf4	-0.21086103
59	0xbe3e1bc5	-0.1856528
60	0xbd9e308f	-0.077241056
61	0xbebbda42	-0.36689955
62	0xbd4bc22d	-0.049745727
63	0xbde2961d	-0.11063788
64	0xbddb9cfd	-0.107233025
65	0xbea8ab7d	-0.32943335
66	0x3dfd7661	0.123760946
67	0xbe9827a3	-0.2971774
68	0xbe4e492b	-0.20145099
69	0xbe6faf8f	-0.23406814
70	0x3e8c3c6c	0.27389848
71	0xbeceb62d	-0.40373364
72	0xbec94c5f	-0.3931608
73	0xbbdad78b	-0.0066785268
74	0xbce569b9	-0.028004514
75	0x3dcd10a0	0.100129366
76	0xbe998812	-0.29986626
77	0x3e0f90f1	0.14020135
78	0xbdd1a8f4	-0.102373034
79	0x3f25628d	0.646035
80	0xbe498f83	-0.19683652
81	0xbe94d274	-0.29066813
82	0x3d398465	0.045292277
83	0x3e26279d	0.16226049
84	0xbcb104bd	-0.021608705
85	0xbdb9d9c6	-0.0907474
86	0xbc977439	-0.018488036
87	0xbe6df49f	-0.23237847
88	0x3deeac13	0.11653914
89	0x3da7cccf	0.08193361
90	0x3df6add7	0.12044876
91	0xbeaca088	-0.33716226
92	0xbde7d091	-0.11319078
93	0x3d930380	0.07178402
94	0xbf0f262c	-0.5591762
95	0x3ede0063	0.4335967
96	0xbe8d957a	-0.27653104
97	0x3e6ea4f5	0.23305114
98	0x3e2c5048	0.168275
99	0x3cda6cf5	0.026663283
100	0xbee37671	-0.444263
101	0x3e935647	0.28776762
102	0xbe01cd38	-0.12675941
103	0x3f685b24	0.9076407
104	0x3e1a6169	0.15076222
105	0xbe27b627	-0.1637808
106	0x3e96919b	0.29407963
107	0xbd50c839	-0.050972197
108	0x3e5466cc	0.20742339
109	0x3e8a061b	0.26957783
110	0xbe99574b	-0.29949412
111	0x3e259bb7	0.16172682
112	0x3ea5b991	0.32368138
113	0xbe33a4d9	-0.17543353
114	0xbc652e5d	-0.013988105
115	0xbe486362	-0.19569162
116	0x3c77f1cb	0.0151333315
117	0xbd82a709	-0.06379516
118	0x3bdd99f7	0.006762739
119	0x3becb53a	0.0072237523
120	0xbe940e41	-0.28917125
121	0x3dae831a	0.085210994
122	0x3e56b962	0.20969155
123	0x3d2dfa64	0.04247512
124	0x3eb46c14	0.35238707
125	0x3e062fd0	0.13104177
126	0xbd85b406	-0.06528477
127	0x3dee290d	0.116289236
128	0x3e42b5c8	0.19014657
129	0xbe59c132	-0.21265104
130	0x3d90b46e	0.07065664
131	0xbe7fe03f	-0.24987887
132	0x3e807fa6	0.25097388
133	0xbe834ef3	-0.2564617
134	0xbe09e047	-0.13464461
135	0xbd3781c1	-0.044801477
136	0xbe04f157	-0.12982689
137	0xbd8ee041	-0.06976367
138	0xbda17801	-0.07884217
139	0x3d9f5756	0.0778033
140	0xbca29ba7	-0.019849611
141	0xbe804fba	-0.25060827
142	0xbe2f7613	-0.17134885
143	0x3e0240d0	0.12720037
144	0xbe1f1ccd	-0.1553833
145	0xbe6ca847	-0.23111068
146	0x3ec87f5c	0.39159667
147	0x3c2c007d	0.010498163
148	0xbe1599e9	-0.14609493
149	0x3e11301c	0.14178509
150	0xbcc3042a	-0.023805697
151	0xbe121a78	-0.1426791
152	0x3e25e3f9	0.16200246
153	0x3da9514c	0.08267459
154	0x3dcbff49	0.09960801
155	0x3e2b235b	0.16712706
156	0xbc6a834b	-0.014313529
157	0xbde9c363	-0.1141422
158	0x3e2afe93	0.16698675
159	0x3d88cc4e	0.06679593
160	0xbebbe3db	-0.36697277
161	0x3e996b96	0.29964894
162	0x3cebf9ed	0.028805697
163	0x3b9d4c64	0.0048003662
164	0xbd3335be	-0.043752424
165	0xbe2f9d8f	-0.17149948
166	0x3d71ec0b	0.059063
167	0x3e147d20	0.14500856
168	0xbe98a30f	-0.29811904
169	0xbe1e787c	-0.15475649
170	0xbe5f4b39	-0.21806039
171	0xbe2cbde5	-0.16869314
172	0xbe41f6e1	-0.18941833
173	0x3e0f39f4	0.13986951
174	0xbe6a8183	-0.22900967
175	0x3f228a5a	0.6349236
176	0xbec38b6d	-0.3819231
177	0xbe1cde60	-0.15319204
178	0xbdb7c64f	-0.08973371
179	0x3e4a2940	0.19742298
180	0x3ea00f35	0.31261602
181	0xbcc5574d	-0.02408948
182	0xbdc96f62	-0.09835698
183	0x3e0e78ab	0.13913219
184	0xbd3d5dc2	-0.046231993
185	0xbe72f1c7	-0.23725043
186	0xbe492b3c	-0.19645399
187	0x3d3bc909	0.04584602
188	0x3e93d6c3	0.28874788
189	0xbe9f8cd1	-0.31162122
190	0xbd2968fd	-0.04135989
191	0xbdfb0c1f	-0.12258171
192	0xbe3ab45b	-0.18232863
193	0xbe27e8bd	-0.16397376
194	0xbed48a32	-0.41511685
195	0x3e8f4e58	0.2798946
196	0x3e062f2a	0.13103929
197	0xbc0ec455	-0.008713801
198	0xbe38fa40	-0.18064213
199	0x3de3f6cf	0.111310594
200	0xbeb25519	-0.3483055
201	0xbe657392	-0.22407368
202	0x3dcb3e46	0.09923987
203	0xbd641451	-0.055683438
204	0x3d87f8ff	0.06639289
205	0x3b9f07df	0.004853233
206	0x3d819bba	0.063285306
207	0x3ea116e5	0.3146278
208	0x3e016262	0.12635186
209	0xbecebf18	-0.40380168
210	0xbe7c02c3	-0.24610429
211	0xbcce58a3	-0.02518875
212	0x3d3d280c	0.04618077
213	0x3ed8f9d9	0.4237812
214	0x3e5c8347	0.21534453
215	0xbccc1ae9	-0.024915176
216	0x3e77de3a	0.24205866
217	0xbd54fa85	-0.051996727
218	0xbcb22ed4	-0.021750845
219	0x3c71c602	0.014756681
220	0x3e11d7a9	0.14242424
221	0xbe835075	-0.2564732
222	0x3e3be4d9	0.18349017
223	0xbe392439	-0.18080224
224	0x3da3007a	0.07959075
225	0xbe9c9a74	-0.30586588
226	0x3edc83ae	0.43069214
227	0x3ef240d4	0.47315085
228	0xbe0d5876	-0.13803276
229	0xbdb65201	-0.0890236
230	0x3e1afef5	0.15136321
231	0xbc787af3	-0.015166032
232	0x3e6bd9be	0.23032281
233	0x3df0631e	0.11737655
234	0xbcede299	-0.029038714
235	0xbe3cf6bf	-0.18453501
236	0xbe839766	-0.25701445
237	0x3e2b39fa	0.16721335
238	0x3d489ccd	0.048977662
239	0xbe354126	-0.17700633
240	0xbd97b402	-0.07407381
241	0xbc809e11	-0.015700372
242	0xbd2119ad	-0.039331127
243	0x3dabd8b2	0.08390941
244	0xbd57d95d	-0.05269753
245	0xbeadf5ce	-0.33976597
246	0x3eb96903	0.3621293
247	0xbcbfe083	-0.023422485
248	0x3e793c7f	0.24339484
249	0xbea90095	-0.33008257
250	0xbcdef700	-0.027217388
251	0x3c3077de	0.010770766
252	0xbdc6e24f	-0.09711134
253	0x3db5269c	0.08845255
254	0xbd367b6b	-0.044551294
255	0xbe02ac26	-0.12760982

mlp.0.bias f4 [32]
0	0xb723d668	-9.765477e-06
1	0xb6e8d0fd	-6.9384682e-06
2	0x3709e23a	8.218509e-06
3	0x36b7c2a8	5.476486e-06
4	0x3822cbba	3.8813545e-05
5	0xb6c4891b	-5.8572164e-06
6	0xb7974731	-1.8033754e-05
7	0xb7840672	-1.5738628e-05
8	0xb7499a80	-1.2016506e-05
9	0x36a60196	4.94737e-06
10	0xb7ff6ef7	-3.045004e-05
11	0xb69e62e6	-4.7202802e-06
12	0x37a7c066	1.9997544e-05
13	0xb6afdd19	-5.2411456e-06
14	0xb5e60af8	-1.7139528e-06
15	0x35d6b760	1.5997612e-06
16	0x37d956d5	2.590885e-05
17	0xb7bc85f0	-2.2473716e-05
18	0x3798615a	1.8165145e-05
19	0xb6cb6f70	-6.0628445e-06
20	0xb6594ae0	-3.2379103e-06
21	0x36f8352e	7.397167e-06
22	0xb7f12c48	-2.8750059e-05
23	0x381730f7	3.6046808e-05
24	0xb8105df3	-3.4419772e-05
25	0xb83464db	-4.3009273e-05
26	0x35de3ec8	1.6558561e-06
27	0x37f521b4	2.922197e-05
28	0x37a8c4d0	2.0118809e-05
29	0xb7469bb4	-1.1837972e-05
30	0x37b20832	2.122307e-05
31	0x3754bb6e	1.2679824e-05

mlp.1.weight f4 [32]
0	0x3f641985	0.8910144
1	0x3f539dd9	0.8266273
2	0x3f6e1291	0.9299708
3	0x3f54db60	0.8314724
4	0x3f6a3d81	0.915001
5	0x3f6d7ddf	0.9277019
6	0x3f74f103	0.95680255
7	0x3f6c3c6e	0.9227971
8	0x3f73d943	0.9525339
9	0x3f67d632	0.9056121
10	0x3f72ab42	0.9479257
11	0x3f6b5111	0.9192057
12	0x3f8dcbe7	1.1077851
13	0x3f5cb541	0.8621407
14	0x3f5de578	0.86678267
15	0x3f66a167	0.9009003
16	0x3f6d0d3b	0.92598313
17	0x3f6704cb	0.9024169
18	0x3f77946b	0.9671084
19	0x3f633170	0.8874731
20	0x3f6a0576	0.9141458
21	0x3f7c942e	0.98663604
22	0x3f79093d	0.9727972
23	0x3f7a8597	0.9786009
24	0x3f62b5ec	0.8855884
25	0x3f6c76ca	0.9236876
26	0x3f6e146e	0.92999923
27	0x3f60e200	0.8784485
28	0x3f6b0f73	0.9182045
29	0x3f659c99	0.89692074
30	0x3f71ccc7	0.9445309
31	0x3f5ab9af	0.8543958

mlp.1.bias f4 [32]
0	0x3d868153	0.065676354
1	0x3e170872	0.14749315
2	0x3da2f007	0.07955938
3	0xbe1daf60	-0.15398932
4	0x3ccabdfa	0.024748791
5	0x3d6004c7	0.054692056
6	0xbd87bedd	-0.06628201
7	0x3cbb739b	0.022882273
8	0x3d685ef4	0.05673118
9	0x3dcbdfc0	0.09954786
10	0x3d8fb26e	0.07016455
11	0xbd7f1fd5	-0.062286217
12	0x3da2025b	0.079106055
13	0x3d873248	0.06601387
14	0xbd6d1841	-0.05788446
15	0x3d96b3be	0.07358502
16	0x3d729176	0.059220754
17	0xba8d3104	-0.0010772054
18	0xbd2a9ca0	-0.041653275
19	0xbcb2402e	-0.021759119
20	0xbd5ee39b	-0.05441628
21	0x3d83b554	0.0643107
22	0x3d19628a	0.03744749
23	0x3c9982c6	0.018739115
24	0x3d2b4078	0.04180953
25	0x3d7aae80	0.061201572
26	0xbd86e48d	-0.06586561
27	0x3d8ab151	0.06772102
28	0x3d3580e7	0.044312384
29	0xbd8fac47	-0.07015281
30	0xbd3b8487	-0.045780685
31	0x3d6dbb38	0.058039874

mlp.1.running_mean f4 [32]
0	0x3d5fb33f	0.0546143
1	0xbe05ad8f	-0.13054489
2	0x3cd9835d	0.026551897
3	0x3dfb8369	0.12280924
4	0x3e16f09b	0.14740221
5	0xbe0097a5	-0.12557848
6	0x3dd90d04	0.10598186
7	0xbdbf8fbe	-0.093535885
8	0x3e347d99	0.17626037
9	0x3e00a015	0.12561066
10	0xbc289e0c	-0.010291588
11	0x3dbfc4a5	0.09363679
12	0x3e39c10c	0.18140048
13	0x3dc756f1	0.0973338
14	0x3dd5dd8e	0.10442649
15	0xbbaa6534	-0.0052000526
16	0x3d940ae2	0.07228638
17	0xbd2cf3e2	-0.042224772
18	0x3dfddd7b	0.1239576
19	0xbcbf7f95	-0.023376266
20	0xbd628b63	-0.05530871
21	0x3e3d265f	0.18471669
22	0xbd24aca5	-0.04020371
23	0xbd6f2ef5	-0.05839439
24	0xbdff6d2e	-0.12471996
25	0x3e3a3b29	0.1818663
26	0x3e27963b	0.16365902
27	0xbd00b456	-0.03142198
28	0x3d4f89e1	0.0506686
29	0x3ca373f9	0.019952761
30	0x3c5c0410	0.013428703
31	0x3d928609	0.071544714

mlp.1.running_var f4 [32]
0	0x3a118676	0.0005551347
1	0x39e87aa4	0.00044341863
2	0x39971fd0	0.00028824667
3	0x39915608	0.00027720653
4	0x3a0747fc	0.0005160568
5	0x3a24942b	0.0006278182
6	0x3aadaa3c	0.0013249586
7	0x390eb4b7	0.00013609497
8	0x3985b8cb	0.00025505418
9	0x39c3732b	0.00037279105
10	0x39d7105a	0.00041020178
11	0x3b3a3847	0.0028414892
12	0x3a154aa4	0.0005695021
13	0x3aa19380	0.0012327284
14	0x3ab3bf9f	0.0013713724
15	0x3a83f4f0	0.0010067504
16	0x3a8484d9	0.0010110392
17	0x37ba45f8	2.220551e-05
18	0x3a39eb54	0.00070922566
19	0x39e0e108	0.0004289227
20	0x3aabc322	0.0013104419
21	0x3b646fb6	0.0034856624
22	0x39930638	0.00028042658
23	0x39213706	0.00015374654
24	0x3a179072	0.0005781717
25	0x39b38841	0.00034243058
26	0x3b3c2944	0.002871112
27	0x3921672e	0.00015392594
28	0x3adca5cc	0.0016834079
29	0x3975086b	0.00023368157
30	0x3a7488fa	0.00093282724
31	0x3a56dba6	0.00081961823

mlp.3.weight f4 [1, 32]
0	0x3da91886	0.082566306
1	0xbd83de31	-0.06438864
2	0xbe20d456	-0.15706
3	0xbd9636a3	-0.0733464
4	0x3e0186bb	0.12649052
5	0x3e1a6938	0.150792
6	0xbedbe501	-0.42948154
7	0xbe7e807d	-0.24853702
8	0xbe71470a	-0.23562256
9	0x3ded1fa4	0.115783006
10	0xbe9a29bf	-0.30109975
11	0xbe2ddc03	-0.16978459
12	0x3ee06bd5	0.4383227
13	0x3d9d626b	0.07684787
14	0xbd3ca1c6	-0.046052717
15	0xbd6d9bed	-0.05801003
16	0x3e25378f	0.16134475
17	0xbdcc2c6f	-0.099694125
18	0x3ea4b523	0.32169446
19	0x3dafef14	0.085905224
20	0x3dbb34bd	0.091409184
21	0x3e634cac	0.22197217
22	0xbe9da39d	-0.3078889
23	0xbea7b34e	-0.32753986
24	0x3dafbc27	0.08580809
25	0x3e155be8	0.1458584
26	0xbe4ce0a0	-0.20007563
27	0xbe2c3dd5	-0.16820462
28	0xbe01e2f5	-0.12684233
29	0xbe44eccc	-0.19230956
30	0x3e2cad8b	0.16863076
31	0x3d4fd724	0.050742283
