output_bbox_gcn/EVALUATOR_layout_MultiLayer_2023_09_21_16_51_13/Model/evaluator_1070.pth (torch, 9147 bytes, 11 tensors)

LayoutSeq.weight_ih_l0 f4 [32, 4]
0	0x3d8a1d1c	0.067438334
1	0xbdff9a91	-0.12480653
2	0xbdba9b58	-0.09111661
3	0x3d8c5a35	0.06853143
4	0x3df0a403	0.11750033
5	0xbe2954f0	-0.16536307
6	0xbcf221e7	-0.029557182
7	0x3da69fd0	0.081359506
8	0x3e1b4b83	0.15165524
9	0x3df1d165	0.11807517
10	0x3e43f1bc	0.19135183
11	0x3e9b8407	0.30374166
12	0xbe8ac346	-0.27102107
13	0x3dd048f1	0.101701625
14	0x3e22eeb5	0.15911372
15	0x3d8466a4	0.0646489
16	0xbeaf6fe6	-0.3426506
17	0x3e9594b5	0.29215017
18	0x3ddbd003	0.107330345
19	0x3e452d91	0.19255663
20	0xbe865220	-0.2623453
21	0x3dd2ba03	0.10289385
22	0x3e0c6c8d	0.13713284
23	0x3e1f8947	0.15579711
24	0x3e31da58	0.17368448
25	0x3dca7705	0.098859824
26	0xbe56d8f9	-0.20981206
27	0xbe02e372	-0.12782076
28	0xbd817da4	-0.06322792
29	0x3e3c1284	0.18366438
30	0xbd37aab5	-0.044840533
31	0x3eaff0a1	0.34363273
32	0x3e3a82d5	0.18213971
33	0x3e9dd96c	0.30829942
34	0x3e57c516	0.21071276
35	0x3a6822f5	0.00088553067
36	0x3e9a8566	0.301799
37	0xbc9732c0	-0.018456817
38	0xbddb54c2	-0.10709526
39	0x3d075572	0.03304047
40	0xbe936632	-0.28788906
41	0x3dbac039	0.09118695
42	0xbe72b1f0	-0.2370069
43	0xbe31a884	-0.1734944
44	0xbdd07abe	-0.10179661
45	0x3d449028	0.04798904
46	0xbe344592	-0.17604664
47	0xbe36cf04	-0.17852408
48	0xbe5546de	-0.20827815
49	0xbd29fb5f	-0.04149949
50	0x3e9b0f34	0.30285037
51	0xbd13e6fd	-0.03610896
52	0xbd03e96c	-0.03220503
53	0x3e20947e	0.15681645
54	0x3e8da7b3	0.27667007
55	0x3ed02796	0.40655202
56	0xbe3bb347	-0.18330108
57	0xbdd690e4	-0.104768544
58	0xbe5500df	-0.20801114
59	0x3c03a837	0.008035711
60	0x3dfa4276	0.12219708
61	0x3e95b951	0.29242948
62	0x3e8050b5	0.25061575
63	0xbceca1a8	-0.028885677
64	0x3e1d8280	0.15381813
65	0x3dc9cd52	0.09853615
66	0x3e91f0de	0.2850408
67	0x3c9e79ef	0.019345252
68	0xbd3f584b	-0.046715062
69	0xbe84e61e	-0.25956815
70	0xbe33db6a	-0.17564169
71	0xbe14315b	-0.14471953
72	0xbd764039	-0.06011984
73	0x3eee1817	0.46502754
74	0xbea4bf6b	-0.3217729
75	0xbd1d8958	-0.03846106
76	0xbe0090b0	-0.12555194
77	0xbe6c3b56	-0.2306951
78	0x3dd1deea	0.102475956
79	0xbebeed2c	-0.37290323
80	0xbeb0e52b	-0.3454984
81	0x3ea01c1b	0.31271443
82	0xbd9b711c	-0.07589933
83	0x3e99d116	0.30042332
84	0x3ea410fc	0.32044208
85	0xbea925c0	-0.33036613
86	0x3d6b404a	0.057434358
87	0x3db8899f	0.09010624
88	0xbe90abcc	-0.2825607
89	0x3e080dab	0.13286464
90	0x3e9f6fbd	0.31139937
91	0xbe7d2ae7	-0.24723397
92	0xbe176d59	-0.14787807
93	0x3e2e0ffc	0.16998285
94	0x3deec026	0.11657743
95	0x3ddcdec9	0.107846804
96	0x3d2911b0	0.041276634
97	0xbdfbbedf	-0.12292265
98	0x3e8837e4	0.2660514
99	0xbe12aa03	-0.14322667
100	0x3d4149ed	0.04718964
101	0x3eab0cce	0.33408207
102	0x3e25d304	0.16193777
103	0x3d4957c1	0.049155954
104	0xbd3a5f4e	-0.045501046
105	0xbe094d74	-0.13408452
106	0x3d03f073	0.032211732
107	0x3d63897c	0.055551037
108	0xbde0b31b	-0.10971662
109	0xbe00bb34	-0.12571412
110	0x3e9acb6f	0.30233333
111	0x3d4fd041	0.050735716
112	0x3cf5b152	0.02999178
113	0xbe08cece	-0.1336014
114	0xbdd1036a	-0.10205729
115	0x3e120129	0.14258255
116	0xbe437f8a	-0.19091621
117	0x3e8f905c	0.28039825
118	0xbda4ba02	-0.08043291
119	0xbe21f1ae	-0.1581485
120	0x3d2965bb	0.041356783
121	0x3e7c7f01	0.24657823
122	0xbe4b6574	-0.1986292
123	0xbe8558ac	-0.26044214
124	0x3e58e54d	0.21181221
125	0x3e025b30	0.12730098
126	0x3d8ec54a	0.06971224
127	0xbd8a3ada	-0.06749506

LayoutSeq.weight_hh_l0 f4 [32, 8]
0	0x3e0fdf79	0.14050092
1	0xbe7e028a	-0.24805656
2	0x3e17476b	0.14773338
3	0xbe6c0395	-0.23048241
4	0x3d1af103	0.037827503
5	0x3ddbfcdc	0.107415885
6	0xba19cd54	-0.0005867083
7	0x3e5c3c9f	0.215075
8	0x3e612fae	0.21990845
9	0x3dd0015f	0.101565115
10	0x3dfb88be	0.12281941
11	0xbe417dab	-0.18895595
12	0x3d27f7c9	0.04100779
13	0x3d0fa2b5	0.03506728
14	0x3dbaf4a8	0.09128696
15	0x3e285fc6	0.16442785
16	0xbe227fc8	-0.15869057
17	0x3e1dbe9b	0.15404741
18	0xbd7689a1	-0.060189847
19	0xbd5db994	-0.05413206
20	0x3cc28b38	0.023748025
21	0x3d6bda5c	0.05758129
22	0x3e4c7c3d	0.19969268
23	0xbdfe2a89	-0.12410457
24	0x3db57714	0.08860603
25	0x3c7b8a5a	0.01535281
26	0x3dbde16f	0.09271514
27	0xbd1e4660	-0.038641334
28	0x3d547d2c	0.051877186
29	0x3c00a3e6	0.007851576
30	0x3ca693f2	0.020334218
31	0x3e0d65d7	0.1380838
32	0x3e4ba4d7	0.198871
33	0xbe69b6f6	-0.228237
34	0xbe2d0dbf	-0.16899775
35	0xbe9125d8	-0.28349185
36	0x3c1668c3	0.009180251
37	0xbd2174ab	-0.039417904
38	0x3e199da5	0.15001543
39	0x3cb9f121	0.022697987
40	0xbe0894f6	-0.13338074
41	0xbbd54535	-0.0065084943
42	0xbeaaefdb	-0.3338612
43	0xbe551bbe	-0.20811364
44	0xbe85ba12	-0.26118523
45	0xbcea7091	-0.028618129
46	0xbdcd3e33	-0.10021629
47	0x3e616e7f	0.22014807
48	0xbe0a2cd8	-0.13493669
49	0xbd008d8c	-0.03138499
50	0x3d6130a1	0.054978017
51	0xbd8baf60	-0.068205595
52	0xbe18b700	-0.14913559
53	0xbce2cc4f	-0.027685313
54	0xbcac7462	-0.02105159
55	0x3d3a66cd	0.045508195
56	0xbe4421fc	-0.19153589
57	0x3e86b841	0.2631245
58	0x3cdec9a6	0.027195763
59	0xbcde0cb1	-0.027105661
60	0x3d73153d	0.059346426
61	0x3d99f199	0.07516784
62	0xbe74c763	-0.23904185
63	0x3dba020a	0.0908242
64	0xbdb98051	-0.090576775
65	0xbe6d93d7	-0.23200928
66	0xbe59b7fd	-0.21261592
67	0x3da8b566	0.08237724
68	0x3cfc894a	0.030827183
69	0xbd1f95d7	-0.038961258
70	0x3e3a11fe	0.18170926
71	0xbd9db9f5	-0.07701484
72	0xbdbdea7e	-0.092732415
73	0x3d2fe672	0.04294438
74	0x3de431db	0.11142322
75	0xbe77593c	-0.24155134
76	0x3e30259e	0.1720185
77	0x3e028196	0.12744746
78	0x3dbebf3c	0.09313819
79	0xbd657bc2	-0.056026228
80	0xbe1a287f	-0.1505451
81	0xbde83eab	-0.11340078
82	0xbe011fb4	-0.1260975
83	0xbca704f3	-0.020388102
84	0xbd5097a9	-0.050925884
85	0x3cf0fcb4	0.029417373
86	0xbe7676e7	-0.24068795
87	0x3d8a27f8	0.06745905
88	0xbc175211	-0.009235875
89	0xbd9de322	-0.07709338
90	0xbe17e07e	-0.1483173
91	0xbe899fe0	-0.26879787
92	0x3d30058c	0.04297404
93	0x3e4de637	0.20107351
94	0x3e395b9c	0.18101352
95	0x3e0c17ad	0.13680907
96	0xbe22660c	-0.1585924
97	0x3d5ad2cc	0.053423688
98	0x3ea6b1e2	0.3255759
99	0xbe44eaa9	-0.19230141
100	0x3e31d9a2	0.17368177
101	0x3dfad5d1	0.122478135
102	0x39804637	0.00024466377
103	0x3e46e84c	0.19424552
104	0x3d815deb	0.063167416
105	0xbe0ed2ba	-0.13947573
106	0x3ea53715	0.32268587
107	0x3e456005	0.1927491
108	0x3dfc656f	0.123240344
109	0x3e77a5a4	0.2418428
110	0xbc170a4d	-0.0092187645
111	0x3ea6358a	0.32462722
112	0xbe13bc6a	-0.14427343
113	0xbdd69553	-0.104777
114	0xbd1565cf	-0.036474045
115	0xbe25c6b9	-0.16189088
116	0xbdb28da7	-0.08718424
117	0x3dbf1ed7	0.09332054
118	0x3d9e1ce3	0.077203535
119	0x3c486eb5	0.012233426
120	0x3d4444e7	0.047917273
121	0xbd94c7b4	-0.07264653
122	0x3e125451	0.14289977
123	0xbeb5ac36	-0.3548295
124	0xbe286845	-0.16446026
125	0x3e11953b	0.14217083
126	0x3e0c7a70	0.13718581
127	0x3e227f34	0.15868837
128	0xbe6e9ee8	-0.23302805
129	0xbdddb735	-0.108259596
130	0x3e02c01b	0.12768595
131	0x3e04ae74	0.12957174
132	0x3e5e9ebb	0.21740238
133	0xbceb0604	-0.028689392
134	0xbe9e6664	-0.30937493
135	0x3e52aeed	0.20574541
136	0xbd1d4ae7	-0.03840151
137	0xbe2219d9	-0.15830173
138	0x3e993460	0.2992277
139	0x3e2d2676	0.16909203
140	0x3d942f99	0.07235641
141	0x3ea43953	0.32074985
142	0x3e8b305c	0.27185333
143	0x3e22cfa8	0.15899527
144	0x3d53d5af	0.051717456
145	0x3ed03427	0.4066479
146	0x3e367249	0.17817034
147	0xbd2224c4	-0.039585844
148	0xbeb78250	-0.35841608
149	0xbe3ce65c	-0.1844725
150	0x3e812ebb	0.25230965
151	0x3d65fb06	0.056147598
152	0xbe6bad86	-0.23015413
153	0x3dd78b99	0.10524673
154	0x3eb567a7	0.35430643
155	0x3ec16bcd	0.37777558
156	0x3d8f987b	0.07011505
157	0x3df486af	0.11939751
158	0xbe29e601	-0.16591646
159	0xbdd30980	-0.10304546
160	0x3e0071af	0.12543367
161	0x3e9340a9	0.2876027
162	0xbe9342ac	-0.28761804
163	0x3e751023	0.23931937
164	0x3e10cca8	0.1414057
165	0xbea9aa93	-0.3313795
166	0xbe83436e	-0.25637382
167	0x3da65ebc	0.08123538
168	0xbe4ad409	-0.19807447
169	0x3da148d5	0.0787522
170	0x3e75473a	0.23952952
171	0x3d3a6a7d	0.04551171
172	0xbe5685f5	-0.20949538
173	0xbdd646a5	-0.10462693
174	0xbe0c7d56	-0.13719687
175	0x3ec889e0	0.3916769
176	0x3e55fc94	0.20897132
177	0x3c5eb235	0.013592293
178	0x3e8f519e	0.27991956
179	0xbe9da34d	-0.3078865
180	0xbe73a0a5	-0.2379175
181	0xbda4e84f	-0.08052122
182	0x3e6b974f	0.23006938
183	0xbdf65246	-0.12027411
184	0xbe947c89	-0.29001263
185	0xbe659d38	-0.22423255
186	0xbcfcb4e8	-0.030847982
187	0xbc3dd991	-0.011587516
188	0xbea85c27	-0.32882807
189	0x3ec38549	0.38187626
190	0x3e556847	0.2084056
191	0xbd0b2b9b	-0.033977132
192	0xba958b01	-0.0011409224
193	0x3deb1030	0.11477697
194	0x3d43452f	0.0476734
195	0xbea956af	-0.33073947
196	0x3be8748c	0.0070939716
197	0x3d05a41a	0.032627203
198	0x3da74204	0.08166888
199	0x3e95c09b	0.2924851
200	0x3e77ea36	0.24210438
201	0xbe65a86f	-0.22427534
202	0xbe14060c	-0.14455432
203	0x3dc50f07	0.09622007
204	0x3db2a148	0.08722168
205	0x3e229795	0.15878136
206	0x3e4ab810	0.19796777
207	0x3e5e76eb	0.21725051
208	0xbe39bb65	-0.18137892
209	0x3e3d5286	0.18488511
210	0x3e466a57	0.19376503
211	0x3e57595e	0.21030185
212	0xbe0d2a62	-0.13785699
213	0x39bf145a	0.00036445522
214	0x3e4d34c7	0.20039664
215	0x3e4f8f52	0.20269516
216	0x3e1c9b3d	0.15293594
217	0xbd978245	-0.07397894
218	0xbe0c53b2	-0.13703802
219	0xbe90ff5e	-0.2831983
220	0xbcda47df	-0.026645599
221	0x3b9ad6a8	0.004725296
222	0x3db073be	0.08615826
223	0x3caea63f	0.021319507
224	0x3c80f6df	0.015742717
225	0x3dccce86	0.10000329
226	0x3e9b3792	0.30315834
227	0x3dd94e4d	0.10610638
228	0xbe04a55e	-0.12953708
229	0x3cdc4b4f	0.026891379
230	0xbe4f38b5	-0.20236476
231	0xbd5c20ec	-0.053742334
232	0xbe50f636	-0.20406422
233	0xbd65d404	-0.056110397
234	0xbc314134	-0.010818768
235	0xbe5a0e3b	-0.21294491
236	0xbe035f97	-0.12829433
237	0x3cb2d78b	0.021831295
238	0xbdc82275	-0.09772197
239	0x3dfc0329	0.1230529
240	0xbe5f0874	-0.21780568
241	0xbda24206	-0.07922749
242	0x3ea6000e	0.32421917
243	0xbe3e96ff	-0.18612288
244	0x3ddc8cfc	0.10769078
245	0xbd36c402	-0.04462052
246	0xbdd1f7d4	-0.102523476
247	0xbd290015	-0.041259844
248	0x3dae1da2	0.08501746
249	0x3d5bcb96	0.05366095
250	0xbda25e0c	-0.07928094
251	0xbcf357d3	-0.029704964
252	0xbdd3526f	-0.10318457
253	0x3c14ad1e	0.0090744775
254	0xb88eaeed	-6.80367e-05
255	0x3e099b0c	0.13438052

LayoutSeq.bias_ih_l0 f4 [32]
0	0x3db76a40	0.089558125
1	0x3e835e68	0.25657964
2	0x3e0e4c1c	0.13896221
3	0x3dc414fc	0.09574315
4	0x3d1d4618	0.038396925
5	0x3e881a51	0.26582578
6	0x3e841cda	0.25803262
7	0xbe0859bb	-0.1331548
8	0xbd48a58a	-0.048985995
9	0x3e62fdfa	0.22167197
10	0xbc2ab99d	-0.01042023
11	0x3e138db8	0.1440953
12	0xbe656f45	-0.22405727
13	0x3dec8b4b	0.115500055
14	0x3e5e0146	0.21680173
15	0x3c5bf82c	0.013425868
16	0xbd92a9ce	-0.07161294
17	0x3deb660c	0.11494073
18	0x3dfebddd	0.12438557
19	0xbe2d49a8	-0.16922629
20	0xbd9b9c3c	-0.07598159
21	0x3caf62f8	0.021409497
22	0xbc358704	-0.0110795535
23	0x3db4c66c	0.088269085
24	0x3e6370b3	0.2221096
25	0xbdbe3e4f	-0.09289228
26	0x3e9e55fd	0.3092498
27	0xbdc76348	-0.09735733
28	0x3ec7263b	0.38896355
29	0x3c4c0a08	0.0124535635
30	0xbe3be54d	-0.1834919
31	0x3e51feec	0.20507401

LayoutSeq.bias_hh_l0 f4 [32]
0	0xbcbd755d	-0.023127252
1	0xbd93acdd	-0.072107054
2	0x3ea02237	0.31276104
3	0x3e959ab1	0.29219583
4	0xbe4e371e	-0.20138213
5	0xbe8251c4	-0.25453007
6	0xbe10f093	-0.14154272
7	0x3dcd6ed8	0.100309074
8	0x3e79b3f6	0.24385056
9	0x3eae6bfd	0.34066764
10	0xbe417505	-0.18892296
11	0x3ec39d38	0.38205886
12	0xbe716d88	-0.23576939
13	0xbd59f3d2	-0.05321104
14	0x3cb0db6a	0.021589
15	0x3dfb9750	0.1228472
16	0xbe3a31b0	-0.18183017
17	0xbe883dd3	-0.26609668
18	0x3e44e19b	0.19226687
19	0x3ddcf589	0.107890196
20	0xbd07487c	-0.03302811
21	0x3d05628d	0.03256469
22	0x3e9631d6	0.29334897
23	0xbe01b4c9	-0.1266662
24	0xba762cde	-0.0009390841
25	0x3e3bd687	0.18343554
26	0x3e26e887	0.1629964
27	0x3ddf11cb	0.108920656
28	0xbe3735aa	-0.17891565
29	0xbdcf92b2	-0.10135402
30	0xbdb132ce	-0.08652268
31	0x3e8cc021	0.27490333

mlp.0.weight f4 [32, 8]
0	0x3d8c769d	0.06858561
1	0xbe62e374	-0.22157079
2	0x3d46e1de	0.048555247
3	0x3e21ae9b	0.15789263
4	0x3e04bffd	0.12963863
5	0x3db8972f	0.09013211
6	0xbdbe89a8	-0.093035996
7	0x3e029383	0.12751584
8	0xbe4d030a	-0.2002069
9	0x3daa993a	0.08330007
10	0xbd73a85d	-0.059486736
11	0x3cdc29f0	0.026875466
12	0x3d3aa931	0.04557151
13	0x3d15176b	0.036399286
14	0xbe5a6e4d	-0.21331139
15	0xbdca6136	-0.09881823
16	0x3cec38c3	0.02883566
17	0xbe17c2b7	-0.14820372
18	0x3e70376e	0.23458645
19	0x3d8415f1	0.064494975
20	0xbe627701	-0.22115709
21	0xbd98d501	-0.07462502
22	0xbc534de8	-0.012896992
23	0xbe28c513	-0.16481428
24	0x3eca93cd	0.39565888
25	0xbce932d9	-0.028466629
26	0x3ec9a657	0.3938472
27	0x3c9514f6	0.018198472
28	0x3da7d5e8	0.08195096
29	0x3e40f240	0.18842411
30	0x3d36939e	0.044574372
31	0x3e0264b8	0.12733734
32	0x3da042f6	0.07825272
33	0xbe6fd12d	-0.23419638
34	0xbc5f545e	-0.013630955
35	0xbe4b8de5	-0.19878347
36	0xbe95833c	-0.29201686
37	0x3b0dd218	0.0021640118
38	0x3e0b9511	0.13631083
39	0xbe854c7a	-0.2603491
40	0xbcffc0bb	-0.03121983
41	0x3e004caf	0.12529252
42	0xbd7d6dbb	-0.061872225
43	0x3dc5970a	0.09647949
44	0x3e34aa16	0.17643008
45	0x3d23ec91	0.04002053
46	0xbe959eb6	-0.2922265
47	0x3e61f34b	0.22065465
48	0xbda4bca2	-0.08043791
49	0xbeecd188	-0.4625361
50	0x3d0a3136	0.033738337
51	0xbd81fce2	-0.06347062
52	0x3d9259d1	0.07146037
53	0x3e0d7401	0.13813783
54	0xbe4bb055	-0.19891484
55	0xbe15aa28	-0.1461569
56	0x3e00aa0b	0.12564866
57	0x3e2e3c8a	0.17015281
58	0xbe64c746	-0.22341642
59	0xbe4eeeea	-0.20208326
60	0xbda2b471	-0.07944573
61	0xbeaac8f1	-0.3335643
62	0xbd4749a1	-0.048654202
63	0xbdc5670b	-0.096387945
64	0xbd993a43	-0.07481816
65	0xbea5076f	-0.32232234
66	0x3e05b8ba	0.13058749
67	0xbe959208	-0.29212976
68	0xbe2da76f	-0.16958402
69	0xbe6e6794	-0.232817
70	0x3e5cef56	0.21575674
71	0xbecaec0c	-0.39633214
72	0xbec53ec2	-0.38524443
73	0x3d32dfde	0.043670528
74	0xbd622a11	-0.0552159
75	0x3d955797	0.07292097
76	0xbe7e703e	-0.24847504
77	0x3e357eaf	0.17724107
78	0xbd841e05	-0.06451038
79	0x3f13b2e4	0.5769484
80	0xbe5168c2	-0.20450118
81	0xbe7d7b10	-0.24753976
82	0x3d813182	0.06308271
83	0x3e14b5c2	0.1452246
84	0xbc0165db	-0.007897819
85	0xbdd3e93d	-0.10347221
86	0x3b93cb38	0.0045103095
87	0xbe6b59c8	-0.22983468
88	0x3da5c444	0.08094075
89	0x3da6ca99	0.08144111
90	0x3e1360e3	0.14392428
91	0xbe71851d	-0.23585935
92	0xbd6f5669	-0.058432017
93	0xbc684db6	-0.014178684
94	0xbec880f5	-0.39160886
95	0x3eb71fcd	0.3576645
96	0xbe8004b0	-0.25003576
97	0x3e84dba2	0.25948817
98	0x3e1a37d0	0.15060353
99	0x3d76acf7	0.060223546
100	0xbee645c7	-0.4497511
101	0x3e9721b8	0.29517913
102	0xbdc9b814	-0.09849563
103	0x3f6345b6	0.88778245
104	0x3e164734	0.146756
105	0xbe11c798	-0.14236295
106	0x3e4d245c	0.20033401
107	0xbd8adfe6	-0.067809865
108	0x3d8d5c61	0.069023855
109	0x3e5044a9	0.20338692
110	0xbe39ff4a	-0.18163791
111	0x3e01a0fb	0.12659065
112	0x3e2d694d	0.169347
113	0xbd2d505c	-0.042312965
114	0x3d695130	0.056962192
115	0xbe0c3d81	-0.13695337
116	0x3c75a54f	0.014993026
117	0xbd5ab8e4	-0.05339898
118	0x3d82e717	0.06391733
119	0x3cab64fc	0.020922177
120	0xbdeb95f6	-0.11503212
121	0x3ca66410	0.020311385
122	0x3dbdb88c	0.09263715
123	0xbbaaa3c8	-0.0052075125
124	0x3e34908d	0.17633267
125	0x3da38177	0.07983678
126	0xbd8108f0	-0.06300533
127	0x3d9af68c	0.07566556
128	0x3e3a6d77	0.1820582
129	0xbe59cacd	-0.21268769
130	0x3ca3da42	0.020001534
131	0xbe3aed6a	-0.18254629
132	0x3e4cde0c	0.20006579
133	0xbe390993	-0.18070059
134	0xbe00aad5	-0.12565167
135	0xbcfddf5e	-0.030990299
136	0xbe2d5a83	-0.16929059
137	0xbdc90c80	-0.09816837
138	0xbd811f45	-0.06304792
139	0x3c817915	0.015804807
140	0xbe1807f9	-0.14846791
141	0xbe6760d1	-0.22595526
142	0xbe127c19	-0.14305152
143	0x3e0826f9	0.13296117
144	0xbe0c65e3	-0.13710742
145	0xbe5fa982	-0.21842006
146	0x3ecac3f7	0.39602634
147	0x3d80509e	0.062653765
148	0xbdb10612	-0.08643736
149	0x3daca8bd	0.08430622
150	0x3c216bd0	0.009852365
151	0xbdbd4307	-0.092413
152	0x3e049e69	0.12951054
153	0x3d5e30bd	0.0542457
154	0x3de95204	0.11392596
155	0x3e0f554c	0.13997382
156	0xbc86eb53	-0.016469633
157	0xbd30a199	-0.04312286
158	0x3da73ca7	0.081658654
159	0x3d3f6137	0.04672357
160	0xbe946eb6	-0.28990716
161	0x3dd848ae	0.105607376
162	0x3d570844	0.052498117
163	0x3c033cee	0.008010132
164	0xbd570a1e	-0.052499883
165	0xbce4ebf5	-0.027944544
166	0x3d47f934	0.048821643
167	0x3ded7d51	0.11596168
168	0xbe9454a0	-0.28970814
169	0xbdbd503f	-0.09243821
170	0xbe3088d0	-0.1723969
171	0xbdea6314	-0.11444679
172	0xbe154792	-0.14578083
173	0x3ce32492	0.027727399
174	0xbe2897cb	-0.16464154
175	0x3f01f43f	0.50763315
176	0xbec0fc22	-0.37692362
177	0xbe1263b4	-0.14295846
178	0xbddc8169	-0.107668705
179	0x3e4f762f	0.20259927
180	0x3e866b3c	0.26253688
181	0x3b9f8a0a	0.0048687505
182	0xbd44640e	-0.047946982
183	0x3de41730	0.11137235
184	0xbd421c55	-0.0473903
185	0xbe6a0d72	-0.22856691
186	0xbe3c9c64	-0.18419033
187	0xbcac5b7d	-0.021039719
188	0x3e9e59a0	0.30927753
189	0xbe83d37a	-0.2574728
190	0xbd024241	-0.031801466
191	0xbdb5eeaa	-0.08883412
192	0xbdb31a83	-0.08745291
193	0xbe0a06da	-0.13479176
194	0xbea855d5	-0.32877985
195	0x3e79f037	0.24408041
196	0x3da7c7cd	0.08192406
197	0xbd5a9716	-0.053366743
198	0xbe30753a	-0.17232218
199	0x3dd6defd	0.104917504
200	0xbe944f35	-0.2896668
201	0xbe44dc98	-0.19224775
202	0x3dd8773b	0.105696164
203	0xbd29fc50	-0.04150039
204	0xbd37a91b	-0.044839006
205	0x3c4f142b	0.012639086
206	0x3dfa80aa	0.12231572
207	0x3ea26dae	0.31724304
208	0x3da593ea	0.08084853
209	0xbe9c4fd6	-0.3052966
210	0xbe13279f	-0.14370583
211	0xbcb2fdb1	-0.021849485
212	0x3daa7413	0.08322921
213	0x3e9daf27	0.30797693
214	0x3df1e37a	0.11810966
215	0xbd331040	-0.04371667
216	0x3e7804bb	0.24220555
217	0xbd1f3a06	-0.038873695
218	0xba1d123e	-0.0005991793
219	0x3d29bd7f	0.041440483
220	0x3db96dbc	0.09054133
221	0xbe6eade2	-0.23308519
222	0x3e4167a0	0.18887186
223	0xbe2ad3f2	-0.16682413
224	0x3d79cef4	0.06098838
225	0xbe7b349c	-0.24531788
226	0x3ecc5c77	0.39914295
227	0x3e92cfcc	0.2867416
228	0xbda6523a	-0.08121152
229	0xbd05932c	-0.032611057
230	0x3dfc9c35	0.123344816
231	0x3bfba68b	0.0076797656
232	0x3e6b6cd3	0.22990732
233	0x3dd39160	0.103304625
234	0xbd57c4e9	-0.052678023
235	0xbe32be1b	-0.17455332
236	0xbe7602e1	-0.24024536
237	0x3db922bf	0.090398304
238	0x3e098bc2	0.1343222
239	0xbe0c1982	-0.13681605
240	0xbde6e1f0	-0.11273563
241	0xbcd78d64	-0.026312537
242	0xbcfdb166	-0.03096838
243	0xbcef888e	-0.029239919
244	0xbde81e51	-0.113339074
245	0xbe6fdaf3	-0.23423366
246	0x3e533dbf	0.20629023
247	0xbb4d0ba1	-0.003128745
248	0x3e3bc5bc	0.18337148
249	0xbe4785ea	-0.19484678
250	0x3c097aa2	0.008391054
251	0x3dc69be9	0.09697706
252	0xbe0099b3	-0.12558632
253	0x3c748c35	0.014926006
254	0xbd36b34d	-0.04460459
255	0xbe1559c5	-0.14585026

mlp.0.bias f4 [32]
0	0x3523dbe0	6.104219e-07
1	0x37001e83	7.636499e-06
2	0x377634aa	1.4675004e-05
3	0xb812343c	-3.485776e-05
4	0xb79df8c9	-1.8831708e-05
5	0x38905835	6.882885e-05
6	0xb7f02120	-2.8625655e-05
7	0xb58e2b08	-1.0592348e-06
8	0xb92504ea	-0.00015737457
9	0xb695c9a8	-4.464022e-06
10	0x37e87d75	2.7714976e-05
11	0xb7413785	-1.1516623e-05
12	0x3917dcf8	0.000144828
13	0x3701eef9	7.744639e-06
14	0xb7bd4f96	-2.2567616e-05
15	0xb43a6708	-1.7360082e-07
16	0x379c997e	1.8668125e-05
17	0xb8251ac5	-3.9363997e-05
18	0x382a0bc0	4.05421e-05
19	0xb7282a18	-1.0023381e-05
20	0xb6e56a59	-6.8371123e-06
21	0x3807b5e7	3.2355918e-05
22	0x37560754	1.27571e-05
23	0x36381d48	2.743518e-06
24	0x372b5b6e	1.0213682e-05
25	0xb7b6b828	-2.1781845e-05
26	0xb6f1ccbc	-7.206194e-06
27	0xb8177269	-3.610776e-05
28	0x3767464c	1.378504e-05
29	0xb7ceb776	-2.4642544e-05
30	0xb6de1f7e	-6.6197817e-06
31	0x36d40fb9	6.3199227e-06

mlp.1.weight f4 [32]
0	0x3f2c219f	0.672388
1	0x3f073514	0.52815366
2	0x3f399332	0.7249023
3	0x3f1d6af2	0.6149131
4	0x3f3dcce0	0.7414074
5	0x3f5126ed	0.8170002
6	0x3f5a150e	0.85188377
7	0x3f4a859b	0.79110116
8	0x3f4da75b	0.8033349
9	0x3f3f36e1	0.74693114
10	0x3f50bf65	0.81542045
11	0x3f3ef47e	0.74591815
12	0x3f7fd511	0.9993449
13	0x3f22c947	0.63588375
14	0x3f1985aa	0.5996958
15	0x3f125c19	0.5717178
16	0x3f4e50ab	0.8059184
17	0x3f531c40	0.8246498
18	0x3f6e2946	0.9303173
19	0x3f34925f	0.70535845
20	0x3f400247	0.75003475
21	0x3f5b38a2	0.8563329
22	0x3f532330	0.82475567
23	0x3f514945	0.81752425
24	0x3f2a6cf4	0.665725
25	0x3f3bf011	0.7341319
26	0x3f4cd939	0.80018955
27	0x3f3843f0	0.71978664
28	0x3f3fbafc	0.7489469
29	0x3f389122	0.72096455
30	0x3f57b367	0.8425812
31	0x3f1f79c8	0.622952

mlp.1.bias f4 [32]
0	0x3bc8d53c	0.006128935
1	0x3e7bf1e0	0.24603987
2	0x3de6d1f7	0.11270516
3	0xbebd1954	-0.36933386
4	0x3c6810ff	0.014164208
5	0x3d299c96	0.041409098
6	0xbdd0946d	-0.1018456
7	0xbd54fd9d	-0.051999677
8	0xbd3f21c0	-0.046663046
9	0x3d2d4320	0.042300344
10	0x3d10a6b3	0.035315227
11	0xbddf90af	-0.10916268
12	0xbd84aec7	-0.06478649
13	0x3d878a77	0.06618207
14	0xbd87904d	-0.0661932
15	0x3d38c18b	0.045106452
16	0xbbe6cb75	-0.007043297
17	0xbd9a86fa	-0.07545276
18	0xbca1b4a2	-0.019739453
19	0xbe02bcf3	-0.12767391
20	0xbc7cf8af	-0.01544015
21	0x3daae7f9	0.083450265
22	0x3e478358	0.19483697
23	0x3ba37611	0.00498844
24	0x3cdda7da	0.027057577
25	0x3d97d880	0.07414341
26	0xbcf4049a	-0.02978735
27	0x3e30f5cd	0.17281266
28	0x3e2af680	0.16695595
29	0xbde3f00b	-0.11129769
30	0xbc80fb56	-0.015744846
31	0x3da20a33	0.079121016

mlp.1.running_mean f4 [32]
0	0x3d171d66	0.03689327
1	0xbdd327e3	-0.10310342
2	0x3d2e3c71	0.04253811
3	0x3e0dbeb0	0.13842273
4	0x3df45588	0.11930376
5	0xbdb1cda9	-0.08681805
6	0x3dc7bbc1	0.09752608
7	0xbdcbb26a	-0.09946139
8	0x3e032393	0.12806539
9	0x3e0a5521	0.13509037
10	0xbd078913	-0.03308971
11	0x3dd32640	0.1031003
12	0x3e6cb5de	0.23116252
13	0x3dfaaa58	0.12239522
14	0x3d916787	0.070998244
15	0x3c2abcd5	0.010420998
16	0x3d229912	0.03969676
17	0x3ab4d156	0.0013795297
18	0x3df5e460	0.1200645
19	0xbc5beb69	-0.013422825
20	0x3c59b702	0.013288261
21	0x3e0ea09e	0.13928458
22	0xbd72000d	-0.05908208
23	0xbd8eac85	-0.06966499
24	0xbdf8baa3	-0.12144973
25	0x3e3e1987	0.18564425
26	0x3dde5e17	0.1085779
27	0xbd5de07a	-0.054169156
28	0x3db2a9c2	0.08723785
29	0x3d463d90	0.048398554
30	0x3ca97c9b	0.0206893
31	0x3b93bff8	0.0045089684

mlp.1.running_var f4 [32]
0	0x3997c5fd	0.00028948477
1	0x39adb0c1	0.00033128823
2	0x39f112bc	0.0004598106
3	0x394b0dc2	0.00019364714
4	0x3994b338	0.00028362288
5	0x396308d1	0.00021651691
6	0x3a6cac98	0.0009028404
7	0x3936bdb4	0.00017427542
8	0x390d685f	0.00013485689
9	0x3899815c	7.3197036e-05
10	0x3a09d1f4	0.00052574207
11	0x3a90f0d6	0.0011058103
12	0x389a655b	7.362171e-05
13	0x3a3d17d2	0.00072133273
14	0x39733759	0.00023194904
15	0x39542fd3	0.00020235711
16	0x3a852460	0.0010157935
17	0x37129311	8.73652e-06
18	0x3a70cbaf	0.00091856247
19	0x3968a2a0	0.00022185827
20	0x3a09d8f3	0.0005258463
21	0x3aa202dc	0.0012360471
22	0x39499878	0.00019225653
23	0x39b0f6b6	0.0003375315
24	0x39dd1969	0.00042171337
25	0x391471a2	0.00014156711
26	0x3abf6251	0.0014601444
27	0x393e2c73	0.0001813637
28	0x3a7a8c2e	0.00095576316
29	0x39a9e8b2	0.00032407563
30	0x397d7781	0.00024172479
31	0x39253be6	0.0001575794

mlp.3.weight f4 [1, 32]
0	0x3ddd7286	0.10812859
1	0xbd7649af	-0.060128864
2	0xbdbba12d	-0.09161601
3	0xbe1f3148	-0.15546143
4	0x3e118983	0.14212613
5	0x3e3f90fe	0.18707654
6	0xbec51601	-0.3849335
7	0xbe5cc461	-0.21559288
8	0xbe35749b	-0.17720263
9	0x3e3fea7d	0.18741794
10	0xbe7822bf	-0.24232005
11	0xbe1b98c2	-0.15194991
12	0x3ee32622	0.4436503
13	0x3dcd08c2	0.10011436
14	0xbda02e05	-0.078212775
15	0xbbf37bea	-0.007430543
16	0x3e46d5f8	0.1941756
17	0xbe6bfc1a	-0.23045388
18	0x3eb563da	0.35427743
19	0x3de4a4ed	0.111642696
20	0x3dfd8fff	0.12380981
21	0x3e68f903	0.2275124
22	0xbe81af8b	-0.2532924
23	0xbe7945c7	-0.24343024
24	0x3db20898	0.086930454
25	0x3e08b517	0.1335033
26	0xbe4a5ca0	-0.19761896
27	0xbe199bfb	-0.15000908
28	0xbdf78dbf	-0.12087583
29	0xbe116ef8	-0.14202487
30	0x3e3e57dd	0.18588205
31	0x3dcb0cfa	0.099145845
