output_bbox_gcn/EVALUATOR_layout_MultiLayer_2023_09_21_16_51_13/Model/evaluator_260.pth (torch, 9127 bytes, 11 tensors)

LayoutSeq.weight_ih_l0 f4 [32, 4]
00000000: 77be 483e 09c2 c2bd 7da1 623d 1c70 1e3e
00000010: 4175 4e3e fbd8 8ebe 90f9 42bd 1f52 053d
00000020: 34a5 a23e 968e 843e b898 033e 0e13 813e
00000030: 1a30 8dbe 787c 733e 5d94 323e 10b2 153d
00000040: adf1 3cbe e09c 853e f2c4 a43d 4ff5 263e
00000050: 61d8 77be 334d 52be 4ae4 2b3e 769f c23d
00000060: 8b03 903e 59be da3d 9d0e 83be 8527 22be
00000070: 9228 69be fa73 7c3e 8d92 71bc ab9a b23e
00000080: 672b 353e e6e1 883e 3b86 233e 07ee 57bd
00000090: 2a2d 943e 609f cabd e8fe c8bd 1dca afbc
000000a0: 6cf8 99be 3387 0f3d 522c 28be e847 46be
000000b0: 52a0 3cbd 5d5d 05bd 1244 5dbe f370 50be
000000c0: d8d1 93be e6d1 14bd 375e aa3e 711f 6dbe
000000d0: dfb5 133d d2b2 933e 3778 923e 51ae c73e
000000e0: 9ea3 8abe 06b4 0ebe c2ce 8fbe 1e33 67bd
000000f0: 8270 2b3e a107 9a3e 6b19 a53e f059 69bc
00000100: 3e5b e33d f113 b83d 7609 943e f8d4 a63c
00000110: 34d6 1abd 7b89 51be 1c9d 42be cd94 44be
00000120: 2034 0dbe da83 983e 98ca b8be 7e34 0cbb
00000130: b0fa 61be eb71 52be b420 563d 142c c0be
00000140: a5f1 98be 6118 973e ab37 a6bd e44f 963e
00000150: a6f0 a43e fb6d a1be 209d 983d 2dd1 c43d
00000160: 6795 6cbe 4838 573e 5ff9 b03e c534 88be
00000170: f115 e0bd 84c0 5a3e 8e25 d83d 544e d23d
00000180: fda5 373d fcff 66be 14d9 ad3e 4572 49be
00000190: b1f9 85bb 2e93 9a3e dd74 083e 2b24 663d
000001a0: 9fb8 1e3d f7b9 48be 5ce7 253e 6c23 69bc
000001b0: 1611 b4bc de94 98bd 1ea4 a83e f18e b03d
000001c0: d229 fe3d 27bb 28be 0fae f7bd 58a8 813d
000001d0: 6ad8 6cbe 3fe8 5d3e 846e 43bd 7041 3dbe
000001e0: 775f 9fbc b94d 973e 1aa3 8cbe 153c 8fbe
000001f0: 05ba 823e 93a5 d53d 2484 f33d 589b 5cbd
0.19603907 -0.095096655 0.05532979 0.15472454 0.20161916 -0.27899918 -0.047601283 0.03254902
0.31766665 0.25890034 0.12851226 0.2520985 -0.2757576 0.2377795 0.17439409 0.036546767
-0.18451567 0.2609625 0.08045377 0.16304515 -0.24203636 -0.20537262 0.16786304 0.09503071
0.28127703 0.10680837 -0.25597087 -0.15835388 -0.22769383 0.24653617 -0.014744413 0.34883627
0.17692338 0.26734847 0.15969174 -0.052717235 0.28940707 -0.098936796 -0.098142445 -0.02145868
-0.30072343 0.035041045 -0.16423157 -0.19363368 -0.04605133 -0.03255974 -0.21607998 -0.20355587
-0.28871036 -0.036332987 0.33275005 -0.23156525 0.036062118 0.28847367 0.28607342 0.3900018
-0.27077955 -0.13935861 -0.2808743 -0.056445234 0.16742137 0.30083945 0.32245955 -0.014242634
0.111013874 0.089881785 0.28913468 0.020365223 -0.037801936 -0.20462601 -0.19005245 -0.19197388
-0.13789415 0.29788095 -0.36092067 -0.0021393592 -0.22068286 -0.20551269 0.052277282 -0.3753363
-0.2987186 0.29510787 -0.081160866 0.29357827 0.3221485 -0.3152922 0.07451844 0.096102096
-0.23103867 0.21017563 0.34565255 -0.2660276 -0.10941685 0.21362501 0.10554038 0.10268846
0.044836033 -0.22558588 0.3395468 -0.19672497 -0.0040886034 0.30190414 0.1332583 0.056186836
0.038750287 -0.1960219 0.16201538 -0.014229637 -0.021980803 -0.07450269 0.3293771 0.08621014
0.1241032 -0.16477643 -0.12093746 0.06330937 -0.2312943 0.21670626 -0.047712818 -0.18481994
-0.0194547 0.29551485 -0.27468187 -0.27975526 0.25532547 0.104319714 0.11890438 -0.053859085

LayoutSeq.weight_hh_l0 f4 [32, 8]
00000000: d9d8 193e 2dc8 53be 990a fa3d d0c4 1cbe
00000010: 65ad 6bbd b817 7f3d 5a55 8fbd 46a6 b93d
00000020: 4f87 873e bc67 493e f9bb 813e 05b0 7abe
00000030: 04d9 723e a63e 9c3d 99f6 2abc f4a4 5f3e
00000040: 9642 43be ef9a 453e 97cd 4abe b539 ddbd
00000050: 29a2 2c3e 8d38 1ebd ea59 913e af0a 68be
00000060: 2ce5 1e3e 9ff0 103e a33d 743e 2076 b53d
00000070: f98d 1d3e acec 49be 4eba 1c3e 3d19 273e
00000080: d18a 973e 1458 6fbe f81a 6ebe 51f1 9bbe
00000090: cea4 4ebd e74a 2ebe 11d0 593e 0bd2 05bd
000000a0: 7044 7bbe aea9 c5bc 172e c2be ca95 91be
000000b0: 8ab5 4dbe 53b7 43be 9448 56be 11e5 9f3e
000000c0: 102f 85be 4f11 59be f330 953c d178 80be
000000d0: b0de 79be 98cb 1abd 4aa8 06be 1be9 843e
000000e0: e1ed 2dbe 0591 8c3e f37d 2abd cd03 c2bc
000000f0: 8b43 b23d e9f8 933d 1026 88be 989c c73d
00000100: c283 54be 6f45 99be 48f2 b0be fcf5 0a3e
00000110: 3ad1 023e 985a 6dbd 73a1 553e 2de6 41be
00000120: c688 44be ff06 e43d 4ffd 6c3e c867 70be
00000130: 1dc4 8f3e 8b8b 8f3e c3c0 353d e036 04be
00000140: 93da 81be 6fb1 63be 1a1c babd 9e84 89bd
00000150: de4e 643c d6dd 28be 9f07 90be d9e8 1a3e
00000160: f802 f8bd 53c1 d43d ef01 16be ac7a c6bd
00000170: 14c0 543e f4dc bf3d c607 983e 3bb3 b3bc
00000180: 4177 7fbe 932d 173e bcc9 963e c5ae 02be
00000190: d2ae 5f3e 29b9 233e df8c 54bd 7e36 0c3e
000001a0: fc2b 743d 78f9 eabd 1ff8 663e 980d 8f3e
000001b0: 6b8d 8d3e be2a 983e 788b 23be 7776 9d3e
000001c0: 442d 73be 6d81 87be 09f3 59be cc26 a8be
000001d0: dc89 91bd 9a3e 643e dfba 5d3d 9f2d 3dbd
000001e0: 187d 573e 34a0 ebbd fd2b 4cbd 27d9 d0be
000001f0: 5f31 55bc 73ce 2f3d 4a51 cf3d 10f7 483e
00000200: 8422 8ebe 773d 53bd 8fe8 573e 00dc 3d3e
00000210: f85a 403e e327 8abd 82c9 8cbe 4095 623e
00000220: 39ce f0bc a8df 47be a729 8c3e cead 363e
00000230: 0fc7 af3d aae1 6b3e cc13 b03e 28d0 233e
00000240: 2cf5 c13d 9c26 a83e abf6 2a3e ad44 39be
00000250: 2b1e 90be 76fc 82be 5fbe a33e 887c 353e
00000260: 11c4 b8be 5d0a d83d 18bc ca3e 3e31 ac3e
00000270: 2cde e13d 1ef6 573e a993 4cbe aebc c3bd
00000280: 9490 6f3c 94c1 b53e 0afd 41be 5ed2 863e
00000290: 7842 4e3d fb1b a0be 5e82 2ebe 8c89 b63d
000002a0: 82e3 49be b5a6 5f3d c819 2d3e 2fee a93c
000002b0: 8bad 1cbe 1d4a 2dbe 97f0 4abe 9935 c83e
000002c0: 5834 743e 9351 4a3b d662 9a3e 1cf5 babe
000002d0: 86b9 80be 0f95 34be 4061 7b3e 45f8 57be
000002e0: da77 81be ca76 8cbe 38b8 e3bd c490 9a3b
000002f0: 1175 94be 6472 ae3e 29b6 1f3e a2c3 c4bd
00000300: 8af8 43be f1c4 703e f331 413c 5f46 97be
00000310: 3782 a53d c6fc c9bd 54a5 9b3c 2c44 693e
00000320: d565 be3e ead6 97be 2c17 6abe bd09 583e
00000330: 0295 a23d a7e8 a03e 73d7 753e f33c 8b3e
00000340: 6d3c 7bbe e552 893e 7c03 433e 64a9 973e
00000350: d5a2 c0bd c841 5ebe c3ad 703e f2c6 623e
00000360: 59b3 5f3e c79c 84bd e7ff e6bd 312b a8be
00000370: 962b 0e3e d9d6 30be e5b2 b03c 4095 c2bc
00000380: 2658 1ebd fbee 2c3e a5de ab3e 8cb1 2d3e
00000390: 36e7 56be 8d66 98bd 83b8 80be 1ec2 0abe
000003a0: 0654 88be d9e2 4fbd afdb 5bbd f481 75be
000003b0: 4645 d3bd fd07 4fbd e35e 06be f02d cf3d
000003c0: a6b9 1cbe f3af 77be e2ad 8b3e 0f8d a1be
000003d0: bbcf 573e fce8 28bb 473e 34be a233 6d3c
000003e0: 5949 1f3e 3d25 563d 8485 2abe 28c0 87bd
000003f0: fa6b ccbd 2436 cfbd 7404 983d 173f 1e3e
0.15024127 -0.2068183 0.122090526 -0.15309453 -0.05753841 0.06227848 -0.069987014 0.09064917
0.2647042 0.19668478 0.25338724 -0.24481209 0.23715597 0.07629137 -0.01043477 0.21840268
-0.1906837 0.19297384 -0.19804989 -0.10802022 0.16858734 -0.03862815 0.2838891 -0.22660325
0.1551711 0.1415429 0.23851638 0.08860421 0.1538619 -0.1971919 0.15305445 0.16318221
0.29598096 -0.23373443 -0.23252475 -0.30457547 -0.05045014 -0.1702076 0.21270777 -0.032671016
-0.24537826 -0.024128761 -0.3792579 -0.28434592 -0.20088783 -0.19112901 -0.20926124 0.3122945
-0.26012468 -0.21198009 0.018211817 -0.25092176 -0.24401355 -0.03779182 -0.13150135 0.25959095
-0.16985275 0.2745439 -0.04162402 -0.023683453 0.08704289 0.0722521 -0.2659154 0.09746665
-0.20753387 -0.29935786 -0.34559846 0.13570398 0.12775126 -0.057947725 0.20862369 -0.18935461
-0.191928 0.11134147 0.23143505 -0.2347709 0.2807931 0.2803615 0.044373285 -0.12911558
-0.2536207 -0.22235654 -0.09087391 -0.06714748 0.013934819 -0.16490874 -0.28130814 0.15127887
-0.12109941 0.10388436 -0.14649175 -0.096913666 0.20776397 0.09368315 0.2969343 -0.02193605
-0.24947836 0.14763479 0.29450786 -0.12761982 0.21844032 0.15988602 -0.051892158 0.13692662
0.05961226 -0.11473364 0.22555588 0.2794006 0.27646956 0.2972011 -0.15971172 0.30754444
-0.23747736 -0.26465932 -0.21284117 -0.328421 -0.07106373 0.22289506 0.054133292 -0.046186086
0.21043813 -0.11505166 -0.049846638 -0.40790674 -0.013012259 0.042921495 0.101229265 0.19625497
-0.27760708 -0.05157229 0.21084808 0.18540955 0.18784702 -0.06745889 -0.27497488 0.22127247
-0.02939521 -0.19518912 0.27375528 0.17839739 0.08582889 0.23035303 0.34390104 0.15997374
0.09470591 0.32841957 0.16695659 -0.18092604 -0.28148016 -0.25583237 0.3198118 0.17723286
-0.36087087 0.10548852 0.3959663 0.3363132 0.11028704 0.2108998 -0.19978203 -0.09557472
0.014621872 0.3549925 -0.18944183 0.26332372 0.05035636 -0.31271347 -0.17041919 0.08912954
-0.19715694 0.054602344 0.16904366 0.020743458 -0.15300576 -0.16922803 -0.1981834 0.39103392
0.23848093 0.0030871376 0.3015353 -0.3651513 -0.25141543 -0.17634986 0.24548817 -0.21090801
-0.25286752 -0.2743438 -0.11119121 0.0047169644 -0.28995565 0.34071648 0.15596832 -0.096076265
-0.19137779 0.23512627 0.011791694 -0.29545876 0.08081477 -0.09862666 0.018999733 0.22779912
0.37187067 -0.29656154 -0.22860402 0.21097465 0.07938577 0.314275 0.24007969 0.27194938
-0.2453477 0.26821056 0.19044298 0.29621422 -0.09406058 -0.21704781 0.23503785 0.22146204
0.2184576 -0.064752154 -0.11279278 -0.32845452 0.13883814 -0.17269458 0.021569679 -0.023752809
-0.038658284 0.16888039 0.33568302 0.1696226 -0.20986637 -0.07441435 -0.2514077 -0.13550612
-0.26626605 -0.05075345 -0.053676303 -0.23975354 -0.10315947 -0.050544728 -0.13122134 0.10116184
-0.15305194 -0.24188213 0.272811 -0.31552932 0.21075337 -0.0025773635 -0.17601882 0.014477642
0.15555324 0.052281607 -0.16652495 -0.06628448 -0.099815324 -0.101177484 0.07422724 0.15453754

LayoutSeq.bias_ih_l0 f4 [32]
00000000: d529 c43d eaf5 8b3e 4758 0d3e e0ba bc3d
00000010: c12e 5c3c beb0 913e c40a a63e fddb 23be
00000020: 4e12 88bd dc8f 673e 72d3 5dbc 9937 083c
00000030: 8640 99be 46f7 c53d 821e 583e 6688 0abd
00000040: c6f6 9abd f508 c23d 17d2 0a3e 347d 24be
00000050: 9c2b fdbc 0473 48bc a1e2 c8bb 0cee a53d
00000060: b399 653e 0844 02be db0e 913e 7f19 18be
00000070: f410 bc3e 28e8 06bb 1290 64be a6b0 463e
0.09578291 0.27336055 0.13803206 0.09215331 0.013438881 0.28455156 0.3243009 -0.16001888
-0.06644116 0.22613472 -0.013539182 0.008314037 -0.2993204 0.09666304 0.21105388 -0.033821486
-0.075665995 0.09474365 0.13556705 -0.16063386 -0.030904584 -0.012234453 -0.006130532 0.081020445
0.22421913 -0.12721264 0.28331646 -0.14853476 0.36731684 -0.0020585153 -0.22320583 0.19403324

LayoutSeq.bias_hh_l0 f4 [32]
00000000: 3f1b d3bc a174 e1bd feaa a93e 5acb b73e
00000010: 27ff 73be 1ead 92be a88e 33be 5145 b23d
00000020: bee9 7e3e 6a37 b93e c7d4 54be d3bd 913e
00000030: 64c5 9fbe 8d35 b3bd 4809 c1bc 405e a43d
00000040: 7457 41be 6229 99be 9c57 523e 7b27 fd3d
00000050: 126e 523c d48b 64ba b49f 9d3e 6196 0dbe
00000060: d2b4 81bc 684b 4a3e 8da1 013e 50f9 bc3d
00000070: 999b 68be 3b33 fcbd a1f0 e5bd aa21 893e
-0.025769828 -0.11008573 0.3313827 0.35897332 -0.23827802 -0.28647703 -0.17534888 0.08704627
0.24893853 0.3617509 -0.20784293 0.28465137 -0.31205285 -0.087504484 -0.023563996 0.08025789
-0.18881017 -0.29914385 0.20541233 0.12361046 0.012843626 -0.0008718346 0.30785906 -0.13826896
-0.015833292 0.19755328 0.12659283 0.0922724 -0.22715606 -0.12314459 -0.11227537 0.26783496

mlp.0.weight f4 [32, 8]
00000000: 5ee9 b43d c4eb b1be acb1 943c 7dfb 6e3e
00000010: 3aa2 043e cb05 783e fae1 75bd 072e 1f3e
00000020: e8f2 66be 8460 ba3d d571 bfbd 14ba 573d
00000030: 75b4 2c3c 4671 c43d 5edc 9abe 5492 f8bd
00000040: 974f 863d da91 4bbe a7fd 343e 6d8a e23d
00000050: a380 a8be f823 323d db61 2cbd 1938 54be
00000060: 2c1b e13e ae60 15bd c615 dc3e a23c 133d
00000070: 99e7 003e ac4c 4f3e 6679 ba3d c9db 383e
00000080: ab14 7d3d 34bc 8bbe ff94 acbd c34e 5fbe
00000090: d0d5 abbe 8fe8 69bd e2cc 663e 5256 81be
000000a0: 8bdc 71bd f726 233e ac4a 1cbd ee28 4c3d
000000b0: de28 233e 236f fe3c 22e3 00bf c4ae 633e
000000c0: 1246 64bd 7862 ffbe 6302 373c 9c0d 74bd
000000d0: c292 dc3d a733 443e cecf 78be 889b 1dbe
000000e0: ea0e 423e 03a3 2a3e ec83 55be 5f69 32be
000000f0: 0f14 9ebd 42a1 bebe 5076 58bd bf62 e6bd
00000100: d13b edbd ee49 a6be dd92 003e 802c 98be
00000110: f157 5bbe 8ad8 51be 832e 8c3e 649e d6be
00000120: 5f6d cbbe 2ed9 37bc af06 debc c26e e13d
00000130: bb07 9dbe 3ca6 063e 9b2f debd 182d 283f
00000140: 3958 45be 6d35 92be 00c1 863d 5888 2d3e
00000150: 194c 86bc f4fd cdbd a9d3 4bbc af78 6bbe
00000160: 55ad 063e ece0 833d 83a2 de3d 83e1 b7be
00000170: ddbd f8bd 0bbf be3d a534 11bf edfe e93e
00000180: 2962 8dbe d0b1 6b3e 4ad5 2e3e 2a82 ca3c
00000190: d15e e3be 523d 943e 7bb2 0ebe feb7 683f
000001a0: c36b 1c3e bd82 2dbe bbf7 9c3e 9937 83bd
000001b0: 7952 5c3e 505a 903e 13c4 a5be ead0 2a3e
000001c0: aea2 bc3e b909 4dbe af45 1ebd 665a 3ebe
000001d0: 9ef2 243b 5f40 89bd 6e40 8c3b f321 81bb
000001e0: 5165 9ebe a178 bb3d 0c87 6e3e 8704 4b3d
000001f0: 193b b93e 2032 053e 7863 5dbd b45c 013e
00000200: a28e 433e 73f1 56be 65c3 9c3d 14b4 87be
00000210: 2a9d 7b3e 6466 8abe c78a 02be c1be 3fbd
00000220: ee38 03be a6cd 8abd 9fee 9dbd 1dfc c03d
00000230: 688e cf3b 72f0 79be de48 3abe 7571 fe3d
00000240: 2397 21be b829 71be 33d0 c33e c46d f33b
00000250: 714f 1ebe f801 1a3e 2933 02bd 326e 1bbe
00000260: 8c9e 303e a4d3 9b3d 323c ab3d 761d 2c3e
00000270: 503c 99bc 0b89 edbd 7629 463e 4177 a23d
00000280: 6803 c0be 1fd0 b03e 7d10 253c c3ef 703c
00000290: a0ec 74bd 2e87 43be 4a44 823d 9a5c 183e
000002a0: 291d 96be 699c 27be de84 70be 1ed1 35be
000002b0: 6105 4dbe 0b81 103e 097a 69be 91ed 283f
000002c0: b711 c0be f3b5 27be 821d c0bd 69b5 4a3e
000002d0: abc7 a23e 5af8 b6bc ad34 c5bd 8c02 193e
000002e0: 0418 39bd 42cc 70be 6fc5 4abe 2fed 833d
000002f0: 34d5 933e 40b6 9dbe a487 30bd a5ed 03be
00000300: 45f7 47be fabe 23be adc0 d5be a42b 8f3e
00000310: 18dc 0b3e b8a4 e8ba ea35 43be 6669 d93d
00000320: a01c acbe f4a8 7bbe 9da0 bc3d 1ace 96bd
00000330: 4fd3 a93d 61b4 c33a d979 5b3d 7fc4 a73e
00000340: 0bce 133e 2560 d1be 53be 89be 49e5 31bc
00000350: 96a7 0b3d 9cd2 e33e 9709 613e 9c05 eebc
00000360: 52b8 7c3e 95eb 63bd 1e88 b8bc 6b16 783c
00000370: 8c95 163e c1cc 81be 9866 2e3e 6a42 3ebe
00000380: 36e3 b53d d08c a2be 7fce dc3e 2df3 fd3e
00000390: c70c 14be db72 a4bd bdec 1e3e 22c7 5fbc
000003a0: 872f 753e 95ff f43d 7e94 8ebc 17d8 36be
000003b0: a44b 85be 0458 233e 9b1f 693d 4737 34be
000003c0: 3865 90bd a158 bfbc 41f6 5bbd 1e8a ac3d
000003d0: a252 4ebd 3bb9 afbe 3dce c43e 6037 8fbc
000003e0: c722 823e 1b59 bdbe 7c00 a4bc 2ba6 8cbc
000003f0: 5339 bcbd c5ca d53d 92ac 4bbd 5a1f 02be
0.08833574 -0.34750187 0.018151127 0.23338123 0.1295251 0.2422096 -0.06002996 0.15544902
-0.22553599 0.0910044 -0.093478836 0.052667692 0.010541071 0.09591918 -0.30246252 -0.12137285
0.06558149 -0.19879857 0.17674886 0.11061559 -0.32910642 0.043491334 -0.04208551 -0.20724525
0.43966043 -0.036469154 0.42985362 0.035946496 0.12588347 0.20244092 0.09105186 0.18052591
0.06178729 -0.27292025 -0.08426856 -0.21807389 -0.33561563 -0.05710655 0.22539094 -0.2526117
-0.059048217 0.15932833 -0.03815715 0.04984372 0.15933558 0.031058853 -0.5034658 0.22234637
-0.055730887 -0.49879813 0.011170003 -0.05958329 0.10770179 0.19160329 -0.24298021 -0.15391362
0.18951002 0.16663747 -0.20851105 -0.17423008 -0.077186696 -0.37232405 -0.052847207 -0.11249303
-0.11583675 -0.3247828 0.12556024 -0.2972145 -0.21420266 -0.2049276 0.27379236 -0.41917717
-0.3973188 -0.011221213 -0.027102796 0.110074535 -0.3066996 0.13149351 -0.10848924 0.6569381
-0.19271936 -0.28556386 0.065797806 0.16946542 -0.016393708 -0.10058203 -0.0124406 -0.22995256
0.13152058 0.06439385 0.108708404 -0.3591424 -0.121455885 0.09313782 -0.56720954 0.45702305
-0.27613953 0.23017049 0.17073551 0.02472027 -0.44408277 0.28953034 -0.13935272 0.9090575
0.15275483 -0.16944404 0.30657753 -0.06407089 0.21515836 0.28193903 -0.32376155 0.16681257
0.36842865 -0.2002324 -0.038640674 -0.18589172 0.0025169025 -0.06701731 0.0042801416 -0.0039408146
-0.30936673 0.091538675 0.23293704 0.049564864 0.361779 0.13007402 -0.05404994 0.1263302
0.19097379 -0.20990543 0.07654456 -0.26504576 0.24571672 -0.27031243 -0.12748252 -0.046812776
-0.12814686 -0.067775056 -0.07711529 0.09423087 0.006334115 -0.24408129 -0.18191859 0.12423984
-0.1578031 -0.2355107 0.3824478 0.0074288566 -0.15459992 0.15039814 -0.03178707 -0.15178755
0.17247981 0.076087266 0.08361091 0.16808113 -0.018705517 -0.115984045 0.19351754 0.07932902
-0.375026 0.34533784 0.010074732 0.014705601 -0.059795976 -0.19094536 0.06360681 0.14879075
-0.29319122 -0.1636826 -0.23488185 -0.17755553 -0.20021583 0.14111726 -0.22800459 0.659875
-0.37513515 -0.16378002 -0.09380628 0.19795765 0.3179296 -0.02233522 -0.09629188 0.14942378
-0.04518892 -0.23515418 -0.19801877 0.064417236 0.288736 -0.30803108 -0.043098107 -0.12883623
-0.1952792 -0.1599082 -0.41748562 0.27962983 0.13658178 -0.0017749285 -0.19063535 0.10615806
-0.3361559 -0.24576169 0.09210322 -0.073635295 0.08292257 0.0014931076 0.053583 0.32767102
0.14434068 -0.40893665 -0.26903018 -0.0108578885 0.03409537 0.4449662 0.21976314 -0.02905541
0.24679688 -0.05564459 -0.022525843 0.015142064 0.14705485 -0.25351527 0.17031324 -0.18580022
0.08881228 -0.31748056 0.43126294 0.4959959 -0.14457999 -0.080297194 0.15519996 -0.013658317
0.23943911 0.11962811 -0.017404791 -0.17855869 -0.26034272 0.15951544 0.056914907 -0.17599212
-0.07050556 -0.023357691 -0.053701643 0.08424781 -0.050371774 -0.34321007 0.38438597 -0.01748246
0.25417158 -0.36982045 -0.020019762 -0.017169079 -0.09190621 0.10439066 -0.049725123 -0.12707272

mlp.0.bias f4 [32]
00000000: 6cda 2c36 580a 8d35 b186 69b7 0262 4737
00000010: 0375 e5b7 30e6 7bb7 d8e5 a636 ea34 6238
00000020: bc48 fd38 74e5 1cb7 646d 76b7 8f77 40b7
00000030: b7d7 24b8 6439 85b6 36d0 2fb6 b8cb 68b5
00000040: 38fe 42b6 afcc c236 1025 d137 ee6a 1236
00000050: 98ee 3536 2432 8837 b45c fd37 7370 6438
00000060: 9054 f636 14bd 0db8 474d c6b6 28b7 58b8
00000070: 4270 1eb7 34e7 2237 64d6 b5b6 ac3b ca35
2.5757136e-06 1.0508329e-06 -1.39192425e-05 1.18841435e-05 -2.7353415e-05 -1.50143605e-05 4.973943e-06 5.393188e-05
0.00012077528 -9.351748e-06 -1.4688212e-05 -1.1471929e-05 -3.9301547e-05 -3.97039e-06 -2.6198227e-06 -8.6723185e-07
-2.9056228e-06 5.805479e-06 2.4932e-05 2.1817937e-06 2.7109982e-06 1.6235812e-05 3.0203119e-05 5.4464163e-05
7.3412157e-06 -3.3793112e-05 -5.909856e-06 -5.166899e-05 -9.443671e-06 9.709784e-06 -5.4191787e-06 1.506754e-06

mlp.1.weight f4 [32]
00000000: fa1f 6b3f 446b 5e3f dc72 743f a855 5c3f
00000010: 75b5 6f3f 434f 713f 337e 783f 1ae7 703f
00000020: b634 783f 7b22 6d3f 8ad3 763f b1ee 6f3f
00000030: f788 8b3f 423a 653f 7a35 673f ba64 6f3f
00000040: a2e6 713f 1b98 6e3f b44d 773f 72d5 693f
00000050: 66f6 6f3f 3726 803f ac9d 7e3f 082e 803f
00000060: bc86 683f 1db0 6f3f ae5f 733f 97dd 683f
00000070: 74c3 703f daec 6b3f 0209 753f d016 643f
0.9184567 0.86882424 0.9548776 0.860682 0.93636256 0.9426157 0.97067565 0.94102633
0.9695543 0.9263074 0.96416533 0.9372359 1.0901173 0.8954202 0.90315974 0.9351307
0.9449254 0.93200845 0.9660294 0.91341317 0.9373535 1.0011662 0.9945934 1.0014048
0.9083059 0.936281 0.9506787 0.9096312 0.9404824 0.9215828 0.9571687 0.8909731

mlp.1.bias f4 [32]
00000000: 1045 503d e53e ee3d cb25 7f3d 5aca e2bd
00000010: 2c3d 023c 29ce 4d3d 2f76 49bd 01f2 433c
00000020: 825e 473d 6f3d b43d 6386 743d 52a5 48bd
00000030: a32b 8d3d e18b 693d c21f 42bd b345 743d
00000040: 0268 363d 557e 12bc ad4a 25bd 925a 81bc
00000050: 6bc5 2dbd 4bc8 493d d068 783c 5c08 a83c
00000060: e1ca 0f3d fc8c 7e3d 0160 54bd fe30 4d3d
00000070: 342c 153d 9303 68bd bd61 2bbd 60d2 3e3d
0.050847113 0.1163309 0.0622919 -0.11073752 0.007949155 0.050245438 -0.049184974 0.011959554
0.048674114 0.0880078 0.059698474 -0.048985787 0.06893089 0.057018165 -0.047393568 0.059636783
0.044532783 -0.008941253 -0.04035442 -0.015790258 -0.0424246 0.04926328 0.015161708 0.020511799
0.03510559 0.062146172 -0.05184937 0.05009555 0.03641911 -0.056644034 -0.041841257 0.046587348

mlp.1.running_mean f4 [32]
00000000: 2abb 8a3d ab0c 02be ae6f 043d 9fe5 003e
00000010: 9427 0c3e 8638 00be 3e39 d13d 2591 babd
00000020: 09dd 303e 8b60 d03d 1896 28ba 1378 be3d
00000030: e7bb 153e 1bd8 c83d 9893 c43d 665d 943b
00000040: 56b9 a83d e473 3cbd bbe8 f53d 8e5d 73bc
00000050: 5fa0 92bd 53fe 283e 6612 e2bc 8c1a 52bd
00000060: 14c2 fabd ad5f 383e b306 123e da91 c6bc
00000070: 1456 613d 16df 4d3c b7c5 a93c b5e7 b43d
0.0677398 -0.12700145 0.03233307 0.12587593 0.13686973 -0.12521562 0.10215996 -0.09109715
0.17271818 0.10174664 -0.0006431057 0.09300246 0.1462246 0.09806844 0.09598464 0.0045277355
0.08238475 -0.04600896 0.120072804 -0.014853848 -0.071594946 0.16503267 -0.027596664 -0.05129485
-0.12244049 0.18005247 0.14260368 -0.02423947 0.05501373 0.012565395 0.02072416 0.08833257

mlp.1.running_var f4 [32]
00000000: e86f 4b3a f788 a939 0f53 9b39 544d a139
00000010: d893 be39 45db 263a 529a c63a 8015 4a39
00000020: 97b6 8a39 3853 d139 8beb d239 0c50 6b3b
00000030: 02f3 1c3a c18f d73a 0c35 c53a 37a8 8b3a
00000040: 56f6 953a 71db de37 b440 2a3a 28e1 e739
00000050: f7ac bc3a 68a6 7b3b 0938 8c39 4adb 2739
00000060: c77f 1b3a 07ac 273a 0493 313b 3b36 1c39
00000070: 9120 dd3a da89 5d39 4f4c 743a 626c 813a
0.0007760511 0.0003233624 0.00029625787 0.00030765927 0.00036349776 0.0006365071 0.0015152192 0.0001927223
0.0002645745 0.0003992559 0.00040229814 0.0035905866 0.0005987139 0.001644604 0.0015045716 0.001065499
0.0011441212 2.6566648e-05 0.0006494627 0.00044227508 0.0014394809 0.0038398746 0.0002674463 0.00016008053
0.0005931821 0.00063961785 0.0027095685 0.00014897522 0.0016870667 0.00021127556 0.0009319232 0.000987422

mlp.3.weight f4 [1, 32]
00000000: c673 973d ec6e 6dbd 107e 2cbe 28af 47bd
00000010: 5538 fc3d 7a82 143e 98c1 debe 7ce7 82be
00000020: 0987 77be b732 c43d 525e 9ebe 48b8 2ebe
00000030: 7a14 d53e 98fb 943d 8268 3fbd 03e0 89bd
00000040: ffa2 253e d9ff ccbd e126 a03e 1019 9a3d
00000050: bf21 ab3d 5c39 603e 7a94 a4be 0fd3 aebe
00000060: ae06 a43d a1f3 093e 417f 52be 0a76 42be
00000070: b5ed 0dbe f279 53be 0e89 263e 4e65 303d
0.07395129 -0.05796711 -0.16844964 -0.048751026 0.12315432 0.14502898 -0.43507075 -0.25567234
-0.24172606 0.095799856 -0.30931336 -0.17062485 0.41617185 0.0727455 -0.046730526 -0.0673218
0.1617546 -0.100097366 0.31279662 0.075243115 0.08356046 0.21896881 -0.3214453 -0.341454
0.080090865 0.13471843 -0.20556356 -0.18990341 -0.1386021 -0.20651987 0.1626322 0.04306536
