output_bbox_gcn/EVALUATOR_layout_MultiLayer_2023_09_21_16_51_13/Model/evaluator_1100.pth (torch, 9147 bytes, 11 tensors)

LayoutSeq.weight_ih_l0 f4 [32, 4]
00000000: 481d 853d 3233 f9bd 4125 bebd 7c16 883d
00000010: ed79 ec3d a973 24be 2c47 e7bc c57b a53d
00000020: e2d7 173e facf e83d 1d46 433e edcb 9b3e
00000030: e437 8abe a94e cc3d 80e0 213e cbdf 873d
00000040: 8316 b1be 85e5 943e b4e4 dc3d 7271 443e
00000050: 9d1d 87be a771 e43d 5fea 0c3e c189 1e3e
00000060: 00b8 2e3e 24f6 c83d d835 55be e79f 03be
00000070: 1c48 71bd f8a9 393e 3938 3ebd 5efb af3e
00000080: ae39 3b3e ac24 9e3e 4a74 563e db07 da39
00000090: b21a 9a3e 12d0 89bc f0c8 dcbd b10c 0c3d
000000a0: 152f 93be 0f0b bd3d f2d8 76be 0ae3 30be
000000b0: 581c d6bd d073 4c3d e5fe 32be 5558 36be
000000c0: 63ba 52be 24a8 2abd 02b1 9a3e d17f 0fbd
000000d0: 8dc0 0dbd 81b4 1a3e 3b5f 8d3e 1f5e d03e
000000e0: 20fd 38be c170 d2bd 8503 53be b904 223c
000000f0: 41a5 f83d a753 953e bbac 7e3e 4615 eebc
00000100: c781 1e3e aa7e c93d c2ce 913e 5aef a03c
00000110: c77e 35bd 9a01 85be 8684 34be d8ce 13be
00000120: a46c 6fbd 222e f03e 1707 a4be 4eb5 20bd
00000130: 0b80 fcbd 4073 6dbe 949a d33d ce88 bebe
00000140: 23f9 b1be d1f7 9f3e 00f4 9abd 4ba2 993e
00000150: dcc9 a33e 139b a9be db3a 693d c4cd b93d
00000160: 19ca 91be 6669 063e c5b3 9e3e 6c3a 7cbe
00000170: ae04 18be 707a 2e3e ed80 ef3d 5d04 dc3d
00000180: c48d 2e3d 6aa8 f1bd 2fac 863e e997 11be
00000190: ebf0 443d ae60 ab3e cc3c 253e 719f 433d
000001a0: 33cd 43bd 8659 0abe 9fbb de3c 0dbe 673d
000001b0: 6776 e1bd 4e68 02be 858d 9a3e 772b 533d
000001c0: 1fdb e83c 0f7a 0abe 10b2 d1bd 7ad1 113e
000001d0: e848 43be ac27 8f3e a4da a3bd ce7e 22be
000001e0: 887e 343d 9f9c 793e 136d 4abe 2461 85be
000001f0: 9c30 563e 3200 033e c763 8e3d 7703 8abd
0.064997256 -0.12167968 -0.09284449 0.066449136 0.11546693 -0.16059746 -0.02823218 0.08080248
0.14828447 0.113677934 0.19069715 0.3042902 -0.26995766 0.09975941 0.15808296 0.06634482
-0.34587488 0.2908136 0.10785809 0.19183901 -0.2638978 0.1115449 0.1376128 0.15482236
0.17062378 0.098125726 -0.20821321 -0.12853967 -0.05890666 0.18131244 -0.046440337 0.34371465
0.18283722 0.30887353 0.20942798 0.00041586053 0.30098492 -0.016822848 -0.10780513 0.03419179
-0.28746858 0.09230625 -0.24106196 -0.17274109 -0.10454625 0.049915135 -0.17480047 -0.17807133
-0.20578913 -0.041664258 0.3021317 -0.035034005 -0.03460746 0.1510792 0.27611718 0.4069681
-0.1806531 -0.10275412 -0.20606811 0.009888821 0.12140895 0.29165384 0.24870579 -0.029062878
0.15479194 0.098386124 0.28478056 0.019645382 -0.044310357 -0.25977784 -0.17628679 -0.14434373
-0.058453217 0.46910197 -0.3203666 -0.039235406 -0.1232911 -0.23188496 0.10332218 -0.3721375
-0.3476039 0.31243756 -0.075660706 0.30006632 0.31989944 -0.33126125 0.056940895 0.0907245
-0.284745 0.13126144 0.30996528 -0.24631661 -0.14845535 0.17038894 0.116945125 0.1074302
0.042615667 -0.117997006 0.2630324 -0.14218105 0.04808132 0.33472198 0.16136473 0.047759477
-0.047803115 -0.13510713 0.027189074 0.05657773 -0.110089116 -0.12735102 0.30186096 0.051555123
0.028424798 -0.13523124 -0.10239041 0.14240065 -0.1907078 0.27959955 -0.08000687 -0.15868685
0.044065982 0.24376152 -0.19768171 -0.26050675 0.2091698 0.12793043 0.06952625 -0.06738942

LayoutSeq.weight_hh_l0 f4 [32, 8]
00000000: de54 0e3e 4eb9 7dbe 3485 183e 3e69 6dbe
00000010: 9ba4 233d a9fc dd3d 7c29 aeb9 eaeb 5e3e
00000020: d1e5 5e3e 0c22 cd3d f642 f93d f528 40be
00000030: 0b57 123d 8f3b 123d dd95 c03d 77e3 273e
00000040: 64a9 22be e9e3 1e3e ca9e 69bd ae50 50bd
00000050: ba84 b83c f0c6 693d 187c 4b3e cf89 fcbd
00000060: e07b b63d 1ce3 4a3c 4a49 ba3d b9bd 25bd
00000070: ed12 523d 38ca 253c 9957 a43c f012 0e3e
00000080: 1cd5 483e 99af 67be 3b13 2cbe 646f 8fbe
00000090: a953 043c 796f 17bd 4e02 193e 24f8 b63c
000000a0: 178f 05be f282 e6bb 028a aabe 2cee 54be
000000b0: c9fe 84be c16b cdbc 77e3 c8bd cb00 623e
000000c0: c71e 06be 3ebd e8bc 2baf 643d 08f1 83bd
000000d0: 0f91 16be 658f f2bc 3d0e 97bc 73c7 2a3d
000000e0: 771d 43be d724 863e 11c4 e23c 738d d7bc
000000f0: 4f36 753d e749 993d c122 75be 6e66 b73d
00000100: 5253 b3bd 7fd6 6abe f159 57be 715d a83d
00000110: b5ea fc3c 27b9 1ebd 8fdb 373e 512b 99bd
00000120: 2f51 bbbd f09c 2c3d 1773 e13d 36c6 76be
00000130: 08e7 2d3e 6572 fe3d 81a0 be3d ca2e 60bd
00000140: 5988 18be 8550 e0bd 8339 01be af19 92bc
00000150: ae1e 52bd fb34 fe3c abc7 74be f7fb 853d
00000160: 18d9 e6bb 930f a3bd 68f7 14be a1ba 8abe
00000170: a4a5 293d c783 4c3e 528a 373e 490d 0f3e
00000180: c37e 21be 2a57 573d 21e8 a63e ce9e 43be
00000190: b564 303e 3851 fb3d 6e04 b63a c1a4 463e
000001a0: 60b2 833d efd2 0ebe efec a53e fdc6 443e
000001b0: 3284 f93d d961 763e 7cf7 f7bb 4222 a63e
000001c0: dace 0fbe 5784 d3bd fbd8 02bd fe19 23be
000001d0: fb25 b3bd fe62 be3d 5ef8 a03d ada2 813c
000001e0: 18d8 333d 4c97 90bd 892d 173e 2d6a b4be
000001f0: 48af 2abe 656e 133e 3b3f 0b3e ac0f 203e
00000200: ae44 6ebe be42 dfbd 6c6a 013e a70b 023e
00000210: 7861 5e3e 9533 eebc bbb0 9dbe 19d9 523e
00000220: 6994 1cbd 7752 21be 3124 993e be38 2d3e
00000230: 3c80 933d 21b3 a53e 61c2 8a3e 94b5 223e
00000240: 747f 5a3d 4606 d03e bb89 353e ca98 1abd
00000250: 6908 b8be 1e09 3bbe 7655 803e 5b91 603d
00000260: 85c4 66be f572 d33d d20f b43e a349 c13e
00000270: f5a9 8e3d cf67 f33d a9bd 29be 02ba d2bd
00000280: 70c8 013e 0ad1 923e 461a 94be 3d43 743e
00000290: 8521 113e 7914 aabe cb35 83be 2a7c a63d
000002a0: 7fa7 49be 10f8 a03d 6441 773e 2926 3f3d
000002b0: 6770 54be 4d1b d6bd cf43 0cbe 4f69 c83e
000002c0: 36e3 563e dbd9 5f3c aa8e 8f3e 9eb9 9cbe
000002d0: fec6 71be aaff a1bd bc26 6b3e dcf2 edbd
000002e0: 95da 94be d5ff 63be 13d0 edbc bdfd 31bc
000002f0: 4a79 a8be a86f c43e e898 563e 6c53 05bd
00000300: 4440 3d3b 49c4 e63d 8aaa 473d cf76 a9be
00000310: 7998 dc3b 9b69 0b3d 4217 aa3d e868 963e
00000320: 1e1d 763e 51b6 64be 785b 12be f587 bf3d
00000330: 1083 b03d f873 203e 7402 493e 8603 5e3e
00000340: 4f89 38be 280a 3d3e b92c 473e 8347 573e
00000350: f876 0cbe 408b 293b 895a 4c3e 09a6 4e3e
00000360: 5413 1d3e e7b8 96bd 4758 0cbe 71bb 8fbe
00000370: 062b eabc 1b33 e43b 2e64 b43d eb4c ba3c
00000380: 175e 873c 0de6 cb3d 76a4 9a3e 1f6b db3d
00000390: 900b 05be 4c7d f23c 5720 4ebe a4cb 5abd
000003a0: 016d 50be 068e 68bd 56ba 18bc 51e4 5abe
000003b0: e25b 03be 800b c73c 77f3 c5bd 463a ff3d
000003c0: bcfb 5bbe 4ade 9dbd 03a7 a53e 2976 3bbe
000003d0: 1071 d93d 09a8 3dbd 9e84 ccbd e3ff 2bbd
000003e0: 5aa5 ab3d 4e1f 593d df12 9fbd 72ef efbc
000003f0: a2a2 d2bd 08ba 453c 358b 19bb bacb 083e
0.13899562 -0.2477772 0.14894563 -0.23184678 0.039951902 0.10839207 -0.00033218774 0.21769682
0.21767356 0.100162596 0.12170975 -0.18765624 0.035727542 0.03570133 0.09403584 0.16395365
-0.1588493 0.15516628 -0.0570362 -0.050858192 0.022524226 0.057074487 0.19871557 -0.123309724
0.08910346 0.012383249 0.0909601 -0.040464137 0.05128758 0.0101190135 0.020061301 0.13874412
0.19612545 -0.22625579 -0.16804211 -0.28014672 0.008076587 -0.036971543 0.14942285 0.02233512
-0.13042866 -0.007034653 -0.33308417 -0.2079398 -0.25975636 -0.025075795 -0.098090105 0.22070615
-0.13097678 -0.02841055 0.055831116 -0.064424574 -0.14703773 -0.029609391 -0.018439407 0.041694116
-0.19054209 0.26199982 0.027681382 -0.026312565 0.059866246 0.07484799 -0.23939039 0.08955084
-0.087561265 -0.22933386 -0.21030404 0.082209475 0.030873636 -0.038750794 0.17954849 -0.07478965
-0.09146344 0.042141855 0.1100828 -0.24099049 0.16982663 0.12424163 0.093079574 -0.05473212
-0.14895763 -0.10952858 -0.12619595 -0.017834513 -0.05129879 0.031031122 -0.23904292 0.06542199
-0.0070449226 -0.07961955 -0.14547503 -0.27095512 0.041417733 0.19972144 0.17923859 0.13969912
-0.15771012 0.05257336 0.32598975 -0.19103548 0.17225917 0.122713506 0.0013886818 0.19398786
0.06430507 -0.13947652 0.32407328 0.19216533 0.121834174 0.24060763 -0.0075673442 0.32448012
-0.14043751 -0.10327976 -0.03194521 -0.15927884 -0.087474786 0.09296225 0.07859872 0.01582464
0.043907255 -0.070601076 0.14763464 -0.35237256 -0.16668427 0.14397581 0.1359834 0.15630978
-0.23268387 -0.10901402 0.12638253 0.12699758 0.21716869 -0.02907733 -0.30798897 0.20590629
-0.038227472 -0.15754114 0.29910424 0.16916177 0.07202193 0.32363227 0.27101424 0.15889579
0.053344205 0.40629786 0.17728321 -0.037743367 -0.35943916 -0.18265197 0.25065202 0.05482612
-0.22535904 0.10324661 0.3516832 0.37751493 0.069660105 0.11885034 -0.16576256 -0.102893844
0.12674117 0.2867511 -0.28926295 0.23853774 0.14172943 -0.33218744 -0.25626978 0.08129151
-0.19692801 0.07859814 0.24146038 0.04666725 -0.20746003 -0.10454426 -0.13697742 0.39142844
0.20985112 0.013662781 0.28038532 -0.30610365 -0.23611066 -0.07910092 0.22963995 -0.116185874
-0.29073015 -0.22265561 -0.029029882 -0.010863719 -0.32905036 0.38366437 0.20956767 -0.03255026
0.0028877417 0.11267907 0.048746623 -0.33098456 0.0067320433 0.03403626 0.08305217 0.29376912
0.24034545 -0.22335173 -0.14292705 0.093521036 0.08618748 0.15669239 0.19629842 0.21681032
-0.18021129 0.18460906 0.19450654 0.21023373 -0.13717258 0.0025870353 0.19956411 0.20180525
0.15339404 -0.07359486 -0.1370555 -0.28072694 -0.028584968 0.0069641 0.0880817 0.022741755
0.016524358 0.09955988 0.302036 0.10713791 -0.12992692 0.029600762 -0.20129524 -0.053416863
-0.20354082 -0.05677607 -0.00932177 -0.21376158 -0.1282802 0.024297476 -0.09665578 0.12462287
-0.21482748 -0.07708414 0.32353982 -0.18306793 0.10617268 -0.04630283 -0.09986232 -0.04199208
0.08381148 0.05300837 -0.07767271 -0.029288981 -0.10284926 0.012068279 -0.002342892 0.13358966

LayoutSeq.bias_ih_l0 f4 [32]
00000000: 1a5b b63d b3c5 833e a4ba 0d3e 8ab1 c23d
00000010: 1d26 1e3d e8a4 873e 5453 833e dcfa 07be
00000020: d681 4abd 792f 623e 9bf3 2dbc bd1f 153e
00000030: 5ade 63be 5181 ea3d 2ac2 5e3e 9388 663c
00000040: fa2f 92bd a80a ed3d 22fc fd3d 3eef 2cbe
00000050: 67b7 9bbd 4481 b23c a39f 42bc 86fa b43d
00000060: 4d30 633e ea58 bbbd 053b 9e3e 8881 c6bd
00000070: 4222 c73e cbe5 563c f4f3 3abe 0e92 523e
0.08904095 0.2573677 0.13840729 0.09506519 0.038610566 0.26493 0.25649512 -0.13279289
-0.049440227 0.22088422 -0.010617162 0.14562888 -0.22252789 0.114504464 0.21753755 0.014070648
-0.07138057 0.11574298 0.12401606 -0.16888139 -0.076033406 0.021790154 -0.011878881 0.08836846
0.22186394 -0.091478184 0.30904403 -0.09692675 0.38893324 0.01311631 -0.18257123 0.20563528

LayoutSeq.bias_hh_l0 f4 [32]
00000000: b40d c0bc 6bde 8fbd e1a3 9f3e e693 943e
00000010: 21b7 4dbe 6f21 82be c024 10be 8a78 cd3d
00000020: 697f 783e c8cd ad3e 8037 41be bdcd c33e
00000030: c5d5 6fbe 3041 5cbd 8a48 bf3c 3ba7 fc3d
00000040: eadc 39be aea0 87be dc76 443e 424b dd3d
00000050: 0f8c 07bd 23ed 063d d6ab 953e bf7c 01be
00000060: 69f1 47ba 9d3f 3c3e fbf1 263e 5224 de3d
00000070: b99c 36be 18e8 cdbd 4e0d b0bd 98fe 8c3e
-0.023444034 -0.07024845 0.31179717 0.29019088 -0.2008939 -0.25416133 -0.14076519 0.100327566
0.24267353 0.3394606 -0.18868828 0.38242903 -0.2342139 -0.053773105 0.023350019 0.12336584
-0.18150678 -0.26489776 0.19185966 0.1080537 -0.033092555 0.032940995 0.29232663 -0.12645243
-0.00076272205 0.18383642 0.16303246 0.10846771 -0.17833222 -0.10054034 -0.08596288 0.2753799

mlp.0.weight f4 [32, 8]
00000000: 0ce1 8d3d ce5d 63be facf 3f3d 7e2a 203e
00000010: f660 023e ce31 b23d fb4f bbbd bcbf 033e
00000020: 4467 4bbe fce4 a83d 3498 71bd a198 d63c
00000030: a8e9 3a3d bc53 103d b14e 58be 95a6 c9bd
00000040: a61d e33c a48c 14be 3100 713e 9cf0 813d
00000050: 3f8e 5fbe d1bf 9fbd fb68 38bc ef31 27be
00000060: 650e ca3e 3371 efbc f816 c93e 1a68 803c
00000070: 6c03 9e3d b1d8 3e3e fefc 423d 0972 043e
00000080: 60d5 9b3d 3dd9 6ebe d8a7 24bc 35af 4bbe
00000090: 7aad 94be 6ef1 2c3b eeb0 093e f612 85be
000000a0: 3000 00bd 47c7 fd3d 5919 80bd 0db9 c23d
000000b0: c444 343e ff05 203d 4a27 94be 32d3 623e
000000c0: f363 a4bd 32f8 ebbe 9274 083d ec58 81bd
000000d0: 63f6 963d 9c87 0e3e 2b1a 4cbe 5c1a 14be
000000e0: b1d7 fd3d 8194 2e3e 49dd 65be 2fef 4ebe
000000f0: 81cc a0bd 1532 aabe b63a 49bd 654b c3bd
00000100: 896a 96bd 657e a4be b796 043e 199d 95be
00000110: ee76 2ebe 406f 6bbe 490a 5c3e 2c24 cbbe
00000120: b9b3 c5be 8eec 3c3d 907b 58bd a47c 963d
00000130: a394 7cbe ae8c 303e 856f 76bd be81 133f
00000140: 5dac 50be c31b 7cbe 96c2 843d b54e 133e
00000150: 03c2 e2bb 91f8 d3bd 783b ac3b 7370 6cbe
00000160: 51dc a63d f94e a43d 165b 123e 1270 6ebe
00000170: 69c7 67bd e049 67bc 32de c5be e7ac b63e
00000180: c74f 7fbe 7371 853e 4036 193e 02d9 793d
00000190: 8d26 e6be 9502 983e 955f c8bd b10e 633f
000001a0: 8d42 153e 85b9 10be a56b 4c3e d1df 8fbd
000001b0: 1417 843d ba2b 4d3e 7920 37be 9b85 fe3d
000001c0: 6fca 2c3e 2d57 21bd 18f4 673d 6786 0bbe
000001d0: 9cf2 813c b9f9 56bd 2bc0 823d bc79 ba3c
000001e0: ed49 dabd 3d79 883c 5ade af3d c778 10bc
000001f0: c7ce 2b3e eaca 9f3d 4d1d 7cbd 5faa 983d
00000200: f8da 383e fb3f 59be eca1 9c3c 7399 3abe
00000210: faf8 4a3e f781 35be 6eed 01be 65bf 0bbd
00000220: 2f79 2ebe 5b03 ccbd 0f9f 7ebd c635 7d3c
00000230: 3855 1abe 63aa 64be 6928 12be d7a6 083e
00000240: 31b5 0bbe 03f8 5ebe 5485 c93e 07ce 863d
00000250: 10bc acbd 4ac1 aa3d 52da 2e3c 6d7c b9bd
00000260: f48c 033e 2b06 5d3d 9ef4 e63d 5698 103e
00000270: 3360 8abc 673e 20bd 99bb a43d 4d72 3a3d
00000280: 3869 93be 14e6 ce3d 5968 583d c93e 243c
00000290: 1494 54bd a90c c4bc b570 403d 2d6f ec3d
000002a0: 7a6b 93be 8388 bfbd e6ec 30be daab e2bd
000002b0: f006 15be cfd3 b83c 729a 24be 5ca2 013f
000002c0: a1af c0be e501 13be d5fb ddbd 35c4 4e3e
000002d0: 81fc 853e 22ce c23b 2831 3ebd 5b08 e33d
000002e0: 5db5 3dbd 49d7 69be 7947 3bbe 472b bcbc
000002f0: 492a 9f3e 1aaf 82be fce9 f7bc 861a b1bd
00000300: 7f04 aebd cea3 08be 65b8 a5be feae 773e
00000310: 211c a53d ffc8 59bd 5d5a 32be 8956 d43d
00000320: 0362 91be ca8f 45be 9793 d83d 3582 20bd
00000330: 881e 51bd 0134 0b3c 5da2 013e 7f2d a33e
00000340: b4aa a43d 19d7 99be 22b3 12be a8d8 99bc
00000350: 7ea2 a73d dd10 9d3e 2dd6 eb3d 4326 3fbd
00000360: b9fc 773e 9136 1fbd 44a5 b43a bc0a 2c3d
00000370: 275c b73d fe9d 6ebe 6b8c 3f3e a437 2abe
00000380: 829e 723d 14a5 77be 6f5c cc3e bd40 913e
00000390: a082 a2bd 08c4 fdbc a9c8 f73d 22bb c23b
000003a0: 443b 6b3e 4a47 d13d 9cbe 55bd 4640 32be
000003b0: c6b2 74be 7ed1 b43d c548 0c3e 6e7d 0abe
000003c0: 42a2 e8bd e5cc ddbc 9393 fcbc 3830 fdbc
000003d0: bf0d e8bd e343 6dbe e61e 4d3e 79af 18bb
000003e0: 780e 3c3e 2ca5 46be e46b e73b 0d51 c63d
000003f0: 5df6 00be ecad 5e3c 207e 33bd 4a3a 13be
0.0692769 -0.22203752 0.0468292 0.1564121 0.127323 0.08700906 -0.091461144 0.1286611
-0.19863611 0.082468 -0.058983043 0.026195826 0.04563299 0.035236105 -0.21123768 -0.09846226
0.027724098 -0.14506775 0.2353523 0.06344721 -0.21831606 -0.07800258 -0.011255498 -0.16327642
0.39464107 -0.029228782 0.39275336 0.01567464 0.077154964 0.18637349 0.047604553 0.12934126
0.076090574 -0.23325057 -0.010049783 -0.19891055 -0.29038602 0.002638902 0.134464 -0.2599103
-0.03125018 0.12391525 -0.06254835 0.09507952 0.17604357 0.03906822 -0.28936225 0.22150877
-0.08026876 -0.46087795 0.033314295 -0.063157886 0.07371213 0.13918918 -0.19931857 -0.1446318
0.123946555 0.17048837 -0.22447695 -0.20208429 -0.07851506 -0.33241335 -0.049128257 -0.09535865
-0.07344539 -0.3212768 0.12948118 -0.29221418 -0.17037556 -0.22991657 0.21488298 -0.39676034
-0.3861368 0.046124034 -0.052852213 0.07347992 -0.24666075 0.17241165 -0.060164947 0.57619846
-0.20378251 -0.24619965 0.06482427 0.14385493 -0.0069201007 -0.10350145 0.0052561127 -0.23089771
0.08147491 0.08022875 0.14292559 -0.23284939 -0.056586657 -0.014116734 -0.38646084 0.3567879
-0.24932776 0.26063117 0.14962101 0.06099797 -0.44951287 0.2968947 -0.09783856 0.8869429
0.14576168 -0.1413327 0.19962938 -0.070251115 0.06449714 0.20036212 -0.17883481 0.12427827
0.16874097 -0.039389778 0.05662927 -0.13625489 0.015862755 -0.052484248 0.063843094 0.022763126
-0.106586315 0.016659373 0.08587332 -0.008817858 0.16778098 0.07802375 -0.06155138 0.07454371
0.1805228 -0.21215813 0.01912018 -0.18222599 0.1982154 -0.17725359 -0.12688228 -0.034118075
-0.17038415 -0.099615775 -0.06216341 0.015454715 -0.15071571 -0.22330622 -0.14273228 0.13344894
-0.13643338 -0.21774296 0.39359534 0.06582265 -0.084343076 0.08337648 0.010672169 -0.090569355
0.12846738 0.05396096 0.11277126 0.14120612 -0.016891574 -0.03912201 0.08043594 0.045519162
-0.28791213 0.10102478 0.05283389 0.010024735 -0.05189903 -0.023931818 0.046982486 0.115446426
-0.28792936 -0.093522094 -0.1727787 -0.11067934 -0.14553428 0.022561936 -0.16074541 0.50638366
-0.37633994 -0.14356191 -0.10839049 0.20192035 0.26169208 0.005944983 -0.046433598 0.11085578
-0.04631554 -0.22836031 -0.18288983 -0.022969855 0.3108695 -0.25524217 -0.03026294 -0.08647637
-0.08496951 -0.13343737 -0.32367244 0.24187848 0.08062006 -0.0531702 -0.17417283 0.10368068
-0.2839509 -0.19293132 0.105750255 -0.039186675 -0.051054507 0.008496285 0.12659593 0.31870648
0.080403715 -0.3004692 -0.14326146 -0.018780068 0.0818529 0.30676928 0.1151546 -0.04666735
0.242175 -0.038870398 0.0013782163 0.042002425 0.089531235 -0.23302457 0.18705909 -0.16622788
0.059233196 -0.24184066 0.3991427 0.28369704 -0.07935071 -0.030977264 0.1209882 0.005942718
0.22971827 0.102186754 -0.052183732 -0.17407331 -0.23896322 0.0882902 0.13699634 -0.1352441
-0.11359073 -0.02707524 -0.030832088 -0.030906782 -0.11330747 -0.23170428 0.20031318 -0.002329795
0.18364894 -0.19398946 0.007062422 0.09683428 -0.1259398 0.013591271 -0.043821454 -0.14377704

mlp.0.bias f4 [32]
00000000: e61f d437 8cd8 4637 c25d c0b7 a75a c2b8
00000010: c1e5 78b7 d6e2 94b8 20bb d335 688e b337
00000020: 8296 40b7 a68a 8338 a8de 25b7 1536 5437
00000030: cfa1 57b9 9045 1e36 c533 ad37 c13d 4bb6
00000040: 8a09 e836 d801 d938 6bda 2e38 a06d 8435
00000050: c7a5 84b7 ac64 b5b7 14d5 65b8 a879 0d37
00000060: 761d 9d37 15db a3b7 57d2 9037 2712 e036
00000070: cb5c 0037 7df4 a6b7 e0c7 8337 38c7 02b7
2.5287223e-05 1.1852138e-05 -2.2931843e-05 -9.267526e-05 -1.4835446e-05 -7.0994414e-05 1.5775186e-06 2.1404776e-05
-1.1479135e-05 6.272392e-05 -9.886608e-06 1.2648777e-05 -0.00020564276 2.3584325e-06 2.0647314e-05 -3.0285303e-06
6.9152493e-06 0.0001034771 4.168825e-05 9.866671e-07 -1.5812822e-05 -2.162376e-05 -5.47963e-05 8.43258e-06
1.8729577e-05 -1.9533132e-05 1.7264085e-05 6.6778334e-06 7.651e-06 -1.990259e-05 1.5709491e-05 -7.794988e-06

mlp.1.weight f4 [32]
00000000: 0475 2a3f 120e 053f 53eb 373f 778f 1b3f
00000010: dab4 3c3f 7c03 503f 3a05 593f 3549 493f
00000020: 1195 4c3f 0a56 3e3f efec 4f3f 485d 3d3f
00000030: cacc 7e3f 7766 213f 43c7 173f 47ad 0e3f
00000040: 0588 4d3f 4c49 523f 6676 6d3f c946 333f
00000050: 86b1 3e3f 0237 5a3f 4aee 513f 620b 503f
00000060: 32b1 283f eea9 3a3f fdda 4b3f 8d57 373f
00000070: c956 3e3f 8b2c 373f 0ab9 563f 2413 1e3f
0.665848 0.51974595 0.7184345 0.60765785 0.7371346 0.81255317 0.847736 0.7862733
0.7991496 0.74350035 0.81220907 0.7397046 0.99531233 0.63046974 0.59288424 0.5573315
0.80285674 0.8214309 0.92758787 0.70029885 0.7448963 0.85240185 0.82004225 0.8126737
0.6589538 0.7291554 0.79631025 0.71617967 0.74351174 0.7155234 0.838761 0.61747956

mlp.1.bias f4 [32]
00000000: ccdf b73a 6fcb 7a3e ebf9 e83d 7d5f c1be
00000010: 1df4 3b3c 46a2 253d 78eb cebd 3b8b 60bd
00000020: 5429 47bd 8577 323d 6fb5 083d c670 ddbd
00000030: 6cab 8dbd c541 803d de08 82bd 34cb 293d
00000040: d864 30bc c32c 9fbd a546 a1bc 6283 03be
00000050: ae92 32bc e7b4 a93d 213e 4a3e a96d e03b
00000060: c57a da3c 7a70 9a3d a45a efbc 20f1 2f3e
00000070: 8dc3 2f3e c3ab e5bd a4f8 4fbc aa1e a13d
0.0014028489 0.24491666 0.11375793 -0.37768164 0.011471775 0.04043796 -0.10103506 -0.05482028
-0.048623398 0.043571014 0.033376154 -0.108125255 -0.06917462 0.062625445 -0.063493475 0.041453555
-0.0107662305 -0.077722095 -0.019687006 -0.12843087 -0.010899229 0.082864575 0.19750263 0.00684901
0.02666987 0.075409845 -0.029218026 0.17181826 0.1716444 -0.112144016 -0.012693558 0.07867177

mlp.1.running_mean f4 [32]
00000000: 0fce 163d 4cf0 dfbd ae93 213d 0d47 153e
00000010: 1b92 013e 5c85 b4bd cd6a c63d 4765 c7bd
00000020: 04e3 043e ff19 163e 1d0f 30bd 1eeb ea3d
00000030: fe5a 813e d4a6 033e bc73 9b3d 0804 253c
00000040: a58e 283d 54e9 993b 8b10 ec3d 4f83 80bc
00000050: de2d 5c3c 1947 1c3e eec0 89bd ad73 97bd
00000060: bc58 00be ab5d 473e d9a3 e23d 6b58 6ebd
00000070: ac03 a73d 8ca7 6a3d 72d0 b43c 5c44 783b
0.036817607 -0.10934505 0.03944748 0.14577885 0.12653391 -0.08814499 0.096883394 -0.09736114
0.12977225 0.14658354 -0.042983163 0.11470626 0.25264734 0.12856609 0.07590434 0.010071762
0.04115166 0.0046970043 0.11526593 -0.015687613 0.01343867 0.15261497 -0.067262515 -0.0739511
-0.1253385 0.19469325 0.11066408 -0.05818979 0.08154997 0.05728869 0.02207205 0.0037882542

mlp.1.running_var f4 [32]
00000000: 44f9 8f39 6995 bc39 94a7 cb39 a04a 6e39
00000010: 8b75 9939 1004 4639 d6f4 393a 4b2a 4a39
00000020: 4d3e 0c39 6c91 c838 5cde 013a c380 613a
00000030: dad2 0139 6bdb 193a acda 6539 06c8 3539
00000040: 8d5a 563a 8ea0 5b37 b70a 623a 1e5a 2739
00000050: f678 fc39 5a7a 8a3a 745c 6839 0a2a 8d39
00000060: 1239 c039 47aa 1839 25b7 a03a ebed 2539
00000070: 6e96 4b3a 37b3 b639 02b1 5939 af3f 3639
0.00027460803 0.00035969474 0.00038844033 0.00022725249 0.0002927001 0.00018884265 0.00070936733 0.00019279977
0.0001337465 9.56383e-05 0.00049540936 0.0008602256 0.00012380947 0.00058691826 0.00021920603 0.0001733602
0.0008176945 1.3090799e-05 0.00086228125 0.00015959932 0.00048155308 0.0010565028 0.00022159686 0.00026924937
0.00036663614 0.00014559283 0.0012261613 0.00015824258 0.0007766251 0.0003484727 0.00020760673 0.00017380597

mlp.3.weight f4 [1, 32]
00000000: 3f8e dd3d b1be 75bd b856 bbbd 5a89 22be
00000010: b17b 123e 561c 3f3e 30bf c3be 92e6 5abe
00000020: 5db4 34be f24f 413e 8f95 77be 85f2 19be
00000030: 0760 e33e 1649 cf3d 071b a2bd 5eda 00bc
00000040: 6f2e 483e 7c48 6ebe cb0e b53e 18ac e53d
00000050: 5473 fd3d b8ad 683e ec11 81be ff1d 77be
00000060: d14d b13d 9171 093e 6438 4abe d527 1abe
00000070: eb37 f9bd ec09 11be dbd8 3d3e 093a cd3d
0.10818147 -0.05999631 -0.091474 -0.15872708 0.14304997 0.18663153 -0.38231802 -0.21377018
-0.17646928 0.18878153 -0.24178146 -0.1503392 0.444092 0.10121362 -0.07915311 -0.007864563
0.19548963 -0.23269838 0.3536285 0.11214465 0.12375513 0.22722518 -0.25208986 -0.24132536
0.086574204 0.13422228 -0.19748074 -0.15054257 -0.12168869 -0.14163941 0.18539755 0.10020835
