output_bbox_gcn/EVALUATOR_layout_MultiLayer_2023_09_21_16_51_13/Model/evaluator_240.pth (torch, 9127 bytes, 11 tensors)

LayoutSeq.weight_ih_l0 f4 [32, 4]
0.19760531 -0.092806675 0.06066701 0.15809703 0.20339778 -0.28110263 -0.048480265 0.029064791
0.32241338 0.26214182 0.12746659 0.25320414 -0.27206168 0.24225198 0.17255113 0.03454993
-0.17807318 0.2576939 0.08280115 0.1595551 -0.24393716 -0.21563207 0.16760409 0.090645455
0.28501445 0.10417992 -0.2553903 -0.16003224 -0.2320909 0.24952036 -0.015674802 0.34838232
0.1757561 0.26716074 0.1558384 -0.054547586 0.28681117 -0.10164959 -0.09998528 -0.022243256
-0.30242208 0.03424272 -0.16604975 -0.19076642 -0.04113503 -0.03520501 -0.21667376 -0.2056247
-0.28908685 -0.035737254 0.33337605 -0.23969442 0.035779815 0.28832313 0.2857427 0.38732538
-0.27605557 -0.1449966 -0.2856036 -0.058557533 0.16649462 0.29848737 0.3262226 -0.014757842
0.111616336 0.089489385 0.2881919 0.020463048 -0.037097827 -0.20622474 -0.19051234 -0.19243243
-0.14077787 0.29433373 -0.36223507 2.1655364e-05 -0.22656849 -0.20587307 0.05161469 -0.37339833
-0.299973 0.29297855 -0.0810142 0.2934465 0.3202324 -0.31474918 0.0745725 0.096509695
-0.22957672 0.21032432 0.3475767 -0.26414722 -0.10767745 0.21580988 0.10532442 0.10268658
0.044961587 -0.22533372 0.33800942 -0.19720918 -0.0037641071 0.305608 0.133335 0.057202537
0.041408766 -0.19851516 0.16456355 -0.013039017 -0.0156009765 -0.073876 0.33091715 0.08662486
0.1287368 -0.16877918 -0.12098308 0.058927957 -0.23540336 0.20953396 -0.047782216 -0.18733265
-0.02124349 0.29439372 -0.27482742 -0.28098747 0.25331333 0.102122664 0.12119903 -0.053085085
00000000: 0c59 4a3e 6d11 bebd f87d 783d 30e4 213e
00000010: 8247 503e afec 8fbe 3e93 46bd 4919 ee3c
00000020: 5e13 a53e 7437 863e 9a86 023e f9a3 813e
00000030: ab4b 8bbe e710 783e 3eb1 303e 3a84 0d3d
00000040: d158 36be 74f0 833e a693 a93d 6a62 233e
00000050: aaca 79be a7ce 5cbe 68a0 2b3e 53a4 b93d
00000060: 6aed 913e 485c d53d 84c2 82be 7edf 23be
00000070: 3da9 6dbe 4482 7f3e 7168 80bc 2b5f b23e
00000080: 68f9 333e 4bc9 883e 1a94 1f3e 4a6d 5fbd
00000090: ead8 923e a92d d0bd 15c5 ccbd 7d37 b6bc
000000a0: 11d7 9abe 1842 0c3d f208 2abe 4658 43be
000000b0: 357d 28bd 2133 10bd badf 5dbe 488f 52be
000000c0: 3103 94be 3a61 12bd 44b0 aa3e 7472 75be
000000d0: db8d 123d 179f 933e de4c 923e 834f c63e
000000e0: 2857 8dbe fd79 14be a33a 92be 06da 6fbd
000000f0: 917d 2a3e 56d3 983e a606 a73e e0ca 71bc
00000100: 1b97 e43d 3646 b73d e48d 933e 1fa2 a73c
00000110: e4f3 17bd 942c 53be ab15 43be 020d 45be
00000120: 1328 10be e9b2 963e e076 b9be 8aa8 b537
00000130: 9201 68be 64d0 52be ed69 533d 112e bfbe
00000140: 1096 99be 4901 963e c6ea a5bd 9f3e 963e
00000150: 80f5 a33e ce26 a1be 78b9 983d e0a6 c53d
00000160: 2916 6bbe 425f 573e 93f5 b13e 4e3e 87be
00000170: ff85 dcbd 44fd 5c3e 54b4 d73d 574d d23d
00000180: a429 383d e2bd 66be 920f ad3e 34f1 49be
00000190: 3daf 76bb a778 9c3e f888 083e 354d 6a3d
000001a0: 3d9c 293d 8f47 4bbe 5983 283e 9aa1 55bc
000001b0: 3d9b 7fbc 4d4c 97bd f96d a93e 6068 b13d
000001c0: 94d3 033e 73d4 2cbe fac5 f7bd 715e 713d
000001d0: 940d 71be 1290 563e 49b7 43bd 21d4 3fbe
000001e0: d406 aebc c6ba 963e 2eb6 8cbe 97dd 8fbe
000001f0: 49b2 813e b025 d13d 3237 f83d bf6f 59bd

LayoutSeq.weight_hh_l0 f4 [32, 8]
0.14653914 -0.20223957 0.12257674 -0.14750847 -0.062743075 0.06033148 -0.07503497 0.08358224
0.2633327 0.20169902 0.2582137 -0.24420492 0.24302092 0.07655771 -0.0144808395 0.21799926
-0.1916778 0.19481793 -0.20191509 -0.11021251 0.17805421 -0.043707464 0.28925088 -0.2298893
0.15536039 0.14657848 0.24425016 0.0941567 0.1604891 -0.20475079 0.15905473 0.16102278
0.30206314 -0.23387778 -0.23718803 -0.30412236 -0.05973109 -0.17469727 0.21673991 -0.035801306
-0.2488013 -0.023778705 -0.38061577 -0.2865191 -0.19428009 -0.1981357 -0.2176912 0.31546572
-0.26517656 -0.21628141 0.014969283 -0.25699472 -0.24689865 -0.03965967 -0.14286584 0.26582062
-0.16709737 0.27354306 -0.044881493 -0.022538176 0.08764 0.072320305 -0.2672881 0.09760783
-0.2107956 -0.2992115 -0.3486209 0.13798663 0.13527454 -0.059594445 0.20741445 -0.19209129
-0.19734783 0.11741495 0.23678155 -0.23045295 0.28566605 0.2816084 0.04061725 -0.13413028
-0.25635472 -0.2235694 -0.09005696 -0.06770384 0.022022283 -0.17542773 -0.28608033 0.15405883
-0.12676159 0.11157753 -0.14455853 -0.08996769 0.21725082 0.08731517 0.30046725 -0.02902312
-0.2544814 0.15014835 0.29273927 -0.12566723 0.2151475 0.16493441 -0.052230436 0.13537534
0.05919649 -0.11293931 0.224611 0.28429028 0.28059682 0.30010784 -0.16592158 0.30590773
-0.24142832 -0.26661843 -0.22302656 -0.33203918 -0.07058102 0.2334241 0.047343608 -0.051674213
0.2136881 -0.11365153 -0.056316398 -0.4058699 -0.0071234233 0.04025159 0.09586418 0.19452111
-0.2793244 -0.049212817 0.21291582 0.18613969 0.18603313 -0.069762945 -0.27131045 0.22109245
-0.025062399 -0.20173277 0.26895842 0.1740837 0.08903286 0.23363876 0.3426842 0.16395122
0.09833332 0.32472378 0.16504957 -0.18599552 -0.2793148 -0.25639784 0.32074353 0.1814517
-0.36114058 0.10240472 0.39593405 0.33281785 0.111840986 0.2159044 -0.19987823 -0.09185459
0.012477913 0.3548792 -0.18807554 0.26140907 0.048173748 -0.31099534 -0.16748238 0.09072576
-0.19713451 0.05434315 0.16902138 0.022020923 -0.14988315 -0.17190902 -0.2013796 0.3904006
0.23918447 0.004058905 0.30206564 -0.36563694 -0.2515531 -0.17908242 0.24224651 -0.21366227
-0.2510889 -0.2747688 -0.113981165 0.007536976 -0.28860053 0.34022534 0.1518569 -0.09801139
-0.19960105 0.2410349 0.012446771 -0.29264772 0.087654196 -0.10607068 0.014904273 0.22288597
0.37330776 -0.29544583 -0.22980428 0.21551466 0.078738324 0.31863195 0.23674281 0.2702414
-0.24658586 0.26991305 0.19250196 0.29772645 -0.09071862 -0.22551051 0.23872767 0.22558972
0.21899582 -0.061054323 -0.11104679 -0.32755822 0.14631934 -0.18041797 0.017356018 -0.028628279
-0.037309293 0.17125608 0.3343917 0.17378831 -0.22009408 -0.07595296 -0.25340936 -0.13948773
-0.2688511 -0.0499009 -0.0544911 -0.24000503 -0.102546684 -0.053822353 -0.13314578 0.1000254
-0.15160006 -0.24518009 0.2699527 -0.31989112 0.22093984 -0.00054260157 -0.18761899 0.012659322
0.16185382 0.049125805 -0.17225632 -0.068803065 -0.101203725 -0.102660835 0.080604896 0.15798095
00000000: 5b0e 163e e417 4fbe 8409 fb3d 760c 17be
00000010: 717f 80bd 241e 773d efab 99bd 2a2d ab3d
00000020: 8bd3 863e 308a 4e3e 9634 843e db10 7abe
00000030: 7ada 783e 4aca 9c3d 0b41 6dbc 333b 5f3e
00000040: 2f47 44be 5a7e 473e d4c2 4ebe 19b7 e1bd
00000050: d853 363e 9906 33bd b118 943e 1a68 6bbe
00000060: cb16 1f3e ab18 163e b71c 7a3e 3ad5 c03d
00000070: 4157 243e 31aa 51be 3edf 223e 28e3 243e
00000080: 05a8 9a3e a87d 6fbe 6be1 72be edb5 9bbe
00000090: 96a8 74bd d7e3 32be 11f1 5d3e 64a4 12bd
000000a0: c5c5 7ebe 8fcb c2bc 12e0 c2be a2b2 92be
000000b0: 5cf1 46be 16e4 4abe 71ea 5ebe b984 a13e
000000c0: 39c5 87be e078 5dbe b941 753c d094 83be
000000d0: 00d3 7cbe 2e72 22bd 6c4b 12be a419 883e
000000e0: 931b 2bbe d60d 8c3e a8d5 37bd fba1 b8bc
000000f0: 9a7c b33d ab1c 943d fcd9 88be 9de6 c73d
00000100: cdda 57be 4032 99be 707e b2be 5e4c 0d3e
00000110: 6985 0a3e 4e19 74bd 7464 543e 94b3 44be
00000120: 8d15 4abe 4077 f03d dd76 723e dcfb 6bbe
00000130: d242 923e fa2e 903e 465e 263d 7359 09be
00000140: ed40 83be 60ef 64be c96f b8bd 50a8 8abd
00000150: 1368 b43c 54a3 33be 1f79 92be 99c1 1d3e
00000160: cacd 01be c382 e43d 2707 14be fb40 b8bd
00000170: 0077 5e3e 4cd2 b23d d8d6 993e e5c1 edbc
00000180: 634b 82be 7dc0 193e ece1 953e e9ae 00be
00000190: a04f 5c3e 91e4 283e 95ef 55bd d59f 0a3e
000001a0: 0578 723d ba4c e7bd 6d00 663e 7f8e 913e
000001b0: 63aa 8f3e bca7 993e 59e7 29be f09f 9c3e
000001c0: fc38 77be 3682 88be 1361 64be 0a01 aabe
000001d0: c88c 90bd ba06 6f3e 5feb 413d 57a8 53bd
000001e0: 0ed1 5a3e 22c2 e8bd 06ac 66bd 2ece cfbe
000001f0: 9b6b e9bb dade 243d 7054 c43d 8b30 473e
00000200: 9c03 8fbe 6193 49bd 9b06 5a3e 679b 3e3e
00000210: 787f 3e3e e0df 8ebd 34e9 8abe 0f66 623e
00000220: a94f cdbc 0993 4ebe ebb4 893e ff42 323e
00000230: dc56 b63d 003f 6f3e 4e74 af3e d4e2 273e
00000240: fb62 c93d 3242 a63e c102 293e 9c75 3ebe
00000250: 5902 8fbe 9446 83be 7f38 a43e 79ce 393e
00000260: 6be7 b8be 91b9 d13d deb7 ca3e 1a67 aa3e
00000270: e30c e53d 0b16 5d3e e1ac 4cbe 421e bcbd
00000280: 2970 4c3c bab2 b53e e096 40be 69d7 853e
00000290: d651 453d c83a 9fbe 8080 2bbe 6dce b93d
000002a0: a1dd 49be ec96 5e3d f113 2d3e 3965 b43c
000002b0: f87a 19be eb08 30be 7436 4ebe 96e2 c73e
000002c0: c6ec 743e 9000 853b 59a8 9a3e c434 bbbe
000002d0: 91cb 80be 6261 37be 780f 783e 48ca 5abe
000002e0: b98e 80be 7fae 8cbe f56e e9bd bdf8 f63b
000002f0: 73c3 93be 0432 ae3e 6080 1b3e 32ba c8bd
00000300: 3864 4cbe dad1 763e 8bed 4b3c ecd5 95be
00000310: 0b84 b33d 963b d9bd 0d31 743c 383c 643e
00000320: 3222 bf3e ad44 97be d051 6bbe e0af 5c3e
00000330: 8f41 a13d ba23 a33e b56c 723e 155d 8a3e
00000340: 0181 7cbe 0b32 8a3e 3c1f 453e 9a6f 983e
00000350: afca b9bd 3aec 66be 0775 743e fe00 673e
00000360: 7140 603e 1914 7abd 806c e3bd b6b5 a7be
00000370: bdd4 153e 7dbf 38be 352e 8e3c da85 eabc
00000380: a1d1 18bd c15d 2f3e 6435 ab3e 90f5 313e
00000390: 5860 61be 3a8d 9bbd dfbe 81be dfd5 0ebe
000003a0: daa6 89be e364 4cbd 0f32 5fbd e1c3 75be
000003b0: ff03 d2bd d474 5cbd 5e57 08be 1eda cc3d
000003c0: 0c3d 1bbe 7d10 7bbe 3e37 8a3e c5c8 a3be
000003d0: 0e3e 623e 603d 0eba 311f 40be 0b69 4f3c
000003e0: 02bd 253e 2438 493d f663 30be 9fe8 8cbd
000003f0: e643 cfbd d83f d2bd 2e14 a53d c2c5 213e

LayoutSeq.bias_ih_l0 f4 [32]
0.09470738 0.27298355 0.13811196 0.09077358 0.012804537 0.28352487 0.32315275 -0.1604996
-0.06752297 0.22091322 -0.014828729 0.0027628385 -0.3007437 0.095459364 0.20593849 -0.03620678
-0.075621545 0.09348379 0.13431482 -0.15934609 -0.02629201 -0.012908376 -0.007922675 0.07946779
0.22393535 -0.13010143 0.2834962 -0.15337929 0.36662534 -0.003492961 -0.22773777 0.19476652
00000000: f1f5 c13d 80c4 8b3e 396d 0d3e 80e7 b93d
00000010: 1fca 513c 2c2a 913e 4774 a53e 025a 24be
00000020: 7c49 8abd 1337 623e 33f4 72bc bd10 353b
00000030: 14fb 99be 3380 c33d 8ae1 523e 8f4d 14bd
00000040: 78df 9abd 6e74 bf3d d389 093e 9f2b 23be
00000050: 5762 d7bc a77d 53bc 1cce 01bc 02c0 a23d
00000060: 4f4f 653e 4f39 05be 6a26 913e 760f 1dbe
00000070: 51b6 bb3e 29ea 64bb 1734 69be e070 473e

LayoutSeq.bias_hh_l0 f4 [32]
-0.02711838 -0.11216046 0.33206213 0.35951495 -0.23937288 -0.28917056 -0.17917141 0.08692487
0.24815439 0.3569326 -0.2095306 0.2801114 -0.3135097 -0.08906045 -0.029838126 0.07793354
-0.18884869 -0.30077675 0.20422867 0.12517045 0.01748871 -0.0015397712 0.30636355 -0.13990831
-0.0166204 0.19601391 0.12646993 0.08840729 -0.22885016 -0.12484852 -0.116421334 0.268714
00000000: 5d27 debc 62b4 e5bd 0c04 aa3e 5812 b83e
00000010: 2a1e 75be 2a0e 94be b678 37be ab05 b23d
00000020: 2f1c 7e3e dfbf b63e 318f 56be c36a 8f3e
00000030: 5884 a0be 5365 b6bd 166f f4bc 9f9b 9f3d
00000040: 8d61 41be 69ff 99be 5221 513e af2c 003e
00000050: 7c44 8f3c 26d2 c9ba afdb 9c3e 2044 0fbe
00000060: 8127 88bc dfb7 483e 5581 013e e20e b53d
00000070: b257 6abe 95b0 ffbd 4f6e eebd e294 893e

mlp.0.weight f4 [32, 8]
0.089385234 -0.35662988 0.017177375 0.23319499 0.13085857 0.24504451 -0.05852297 0.15983202
-0.22673136 0.09081143 -0.09071944 0.053699628 0.012871157 0.09748739 -0.3084732 -0.1210141
0.069659606 -0.2006063 0.17789501 0.11078885 -0.3306284 0.04191386 -0.039123602 -0.20343943
0.43360752 -0.04167692 0.4382081 0.027609373 0.13900769 0.21272175 0.0784399 0.18380724
0.05839284 -0.27295533 -0.085876375 -0.21813527 -0.33658406 -0.0585992 0.22813201 -0.25369525
-0.059986744 0.16187473 -0.037768614 0.04957586 0.15522447 0.030431263 -0.5112065 0.22096519
-0.055473726 -0.4987417 0.011662197 -0.05734512 0.11352878 0.19116463 -0.24470532 -0.15402232
0.1928866 0.16684917 -0.20742065 -0.17158806 -0.07807885 -0.37350905 -0.05358055 -0.11365703
-0.11689099 -0.32424232 0.1263347 -0.29694876 -0.21713658 -0.19784915 0.27362186 -0.4231672
-0.39536226 -0.013773192 -0.030467238 0.11441687 -0.30920696 0.12953082 -0.10919079 0.66163975
-0.19061707 -0.28422168 0.07148021 0.17149141 -0.014771906 -0.1042433 -0.010857749 -0.22839208
0.13392347 0.061470732 0.106621355 -0.363089 -0.12333346 0.098018706 -0.56934595 0.46200183
-0.27598396 0.22954392 0.171838 0.024152717 -0.44347098 0.28949794 -0.14289519 0.90950197
0.15384579 -0.17134103 0.30867195 -0.06763982 0.2175047 0.28556263 -0.33065447 0.16816173
0.38109916 -0.20478068 -0.046158485 -0.181612 -0.0030649225 -0.068371385 0.005010137 -0.007930313
-0.3134685 0.09310424 0.23937356 0.05160308 0.36392364 0.12910573 -0.050914858 0.12988383
0.19203913 -0.20994352 0.076977424 -0.26872444 0.24358249 -0.27311957 -0.12527959 -0.04697885
-0.12772426 -0.06832136 -0.076953985 0.097169414 0.011643234 -0.24226819 -0.18344973 0.12452206
-0.15913583 -0.2371678 0.37937877 0.0060523236 -0.15585454 0.15351205 -0.03452041 -0.15416425
0.17391111 0.0746781 0.08019582 0.16877587 -0.01873228 -0.115991876 0.2002913 0.08197671
-0.37834376 0.35590512 0.0052600983 0.015600795 -0.06333247 -0.19340315 0.064213544 0.1500996
-0.2909276 -0.16589814 -0.23994385 -0.17969394 -0.20259106 0.14128499 -0.22706054 0.66661227
-0.374329 -0.16511272 -0.0932673 0.19921327 0.31834605 -0.022949457 -0.09333861 0.15177359
-0.044801544 -0.23459071 -0.19859703 0.069247425 0.28810135 -0.3072182 -0.043129787 -0.13005924
-0.19816676 -0.1583766 -0.41767246 0.28014618 0.13794321 -0.0005151941 -0.19297186 0.10454447
-0.3319111 -0.25256848 0.088659786 -0.07881667 0.08738094 0.002175661 0.05066682 0.33188948
0.14923297 -0.40939382 -0.27497888 -0.007456714 0.030055227 0.4499098 0.22103682 -0.030296685
0.24827284 -0.056982998 -0.022913229 0.014968832 0.14794618 -0.25247085 0.16622137 -0.18715148
0.09170489 -0.3209939 0.4315284 0.50063866 -0.1456945 -0.07857477 0.15572096 -0.012308935
0.24168146 0.11995652 -0.013739355 -0.17764619 -0.26109514 0.15718621 0.0586294 -0.17531122
-0.07059988 -0.02532217 -0.057133947 0.08396463 -0.048439477 -0.3431555 0.3900511 -0.016140442
0.25729385 -0.3796687 -0.017472174 -0.024325361 -0.08917128 0.10788296 -0.051233158 -0.12725994
00000000: 9b0f b73d 3198 b6be 91b7 8c3c abca 6e3e
00000010: caff 053e f3ec 7a3e c8b5 6fbd 01ab 233e
00000020: 442c 68be 58fb b93d 1dcb b9bd 24f4 5b3d
00000030: 8ce1 523c 78a7 c73d 33f0 9dbe 3ed6 f7bd
00000040: b2a9 8e3d bd6b 4dbe 1c2a 363e 44e5 e23d
00000050: 2048 a9be dead 2b3d 1240 20bd 6d52 50be
00000060: ce01 de3e 6bb5 2abd d05c e03e 0d2d e23c
00000070: 0858 0e3e bbd3 593e 19a5 a03d f737 3c3e
00000080: 552d 6f3d cdc0 8bbe f4df afbd da5e 5fbe
00000090: bf54 acbe b705 70bd 709b 693e 58e4 81be
000000a0: a9b4 75bd 7dc2 253e 43b3 1abd 0f10 4b3d
000000b0: 2af3 1e3e fc4a f93c 6ede 02bf b344 623e
000000c0: 6b38 63bd 125b ffbe cd12 3f3c b7e2 6abd
000000d0: c781 e83d a9c0 433e 0894 7abe 07b8 1dbe
000000e0: 1184 453e 82da 2a3e 1466 54be c8b4 2fbe
000000f0: cee7 9fbd 943c bfbe 4777 5bbd 04c5 e8bd
00000100: 8b64 efbd 1703 a6be e25d 013e ab09 98be
00000110: 0d59 5ebe f898 4abe 2a18 8c3e 5fa9 d8be
00000120: ec6c cabe f4a8 61bc 6e96 f9bc 6453 ea3d
00000130: 6050 9ebe baa3 043e 6c9f dfbd 3961 293f
00000140: 1f31 43be 8185 91be 3764 923d 729b 2f3e
00000150: dd05 72bc 837d d5bd b3e4 31bc 9ddf 69be
00000160: 3c23 093e bcc8 7b3d 4c5c da3d cde6 b9be
00000170: 4196 fcbd 08be c83d a8c0 11bf 818b ec3e
00000180: c54d 8dbe 900d 6b3e 4df6 2f3e ebdb c53c
00000190: a10e e3be 1339 943e 1e53 12be 1fd5 683f
000001a0: c089 1d3e 0674 2fbe 400a 9e3e bf86 8abd
000001b0: 8db9 5e3e 4435 923e 8b4b a9be 9732 2c3e
000001c0: 6e1f c33e 07b2 51be ae10 3dbd 7ff8 39be
000001d0: dedc 48bb 4c06 8cbd 132c a43b 25ee 01bc
000001e0: f17e a0be 70ad be3d 581e 753e c05d 533d
000001f0: 3354 ba3e 4b34 043e 198c 50bd 4400 053e
00000200: e8a5 443e 6ffb 56be 57a6 9d3d 4096 89be
00000210: b06d 793e 54d6 8bbe 4b49 00be e56c 40bd
00000220: 26ca 02be 12ec 8bbd 0d9a 9dbd c200 c73d
00000230: 43c3 3e3c 2715 78be 3fda 3bbe 6c05 ff3d
00000240: 81f4 22be 1edc 72be ef3d c23e 9252 c63b
00000250: 5598 1fbe 4332 1d3e 4665 0dbd 3cdd 1dbe
00000260: c115 323e d5f0 983d b53d a43d 95d3 2c3e
00000270: 7074 99bc 268d edbd 2a19 4d3e 68e3 a73d
00000280: 46b6 c1be 3239 b63e e75c ac3b 7a9a 7f3c
00000290: 74b4 81bd 7a0b 46be 6482 833d b6b3 193e
000002a0: 76f4 94be 34e1 29be d7b3 75be b001 38be
000002b0: 0874 4fbe 03ad 103e 8f82 68be 1aa7 2a3f
000002c0: 0da8 bfbe 4f13 29be ed02 bfbd 90fe 4b3e
000002d0: 41fe a23e 8000 bcbc 5028 bfbd 896a 1b3e
000002e0: d381 37bd 8c38 70be 055d 4bbe 98d1 8d3d
000002f0: 0582 933e b44b 9dbe dca8 30bd 402e 05be
00000300: 3aec 4abe 7a2d 22be 2ad9 d5be 526f 8f3e
00000310: fc40 0d3e 170e 07ba 6a9a 45be 691b d63d
00000320: 40f0 a9be a850 81be 4393 b53d a26a a1bd
00000330: c7f4 b23d 8995 0e3b 0388 4f3d 6bed a93e
00000340: 87d0 183e 119c d1be 08ca 8cbe 7357 f4bb
00000350: 6136 f63c 945a e63e 7a57 623e c130 f8bc
00000360: 3c3b 7e3e 0167 69bd 86b4 bbbc d53f 753c
00000370: 347f 173e dc43 81be ef35 2a3e a3a4 3fbe
00000380: c6cf bb3d 5059 a4be 4af1 dc3e db29 003f
00000390: f030 15be cfeb a0bd 5175 1f3e 6aab 49bc
000003a0: 587b 773e c4ab f53d 081b 61bc e2e8 35be
000003b0: 43ae 85be 6cf5 203e 6225 703d c984 33be
000003c0: ab96 90bd 7170 cfbc 4905 6abd a6f5 ab3d
000003d0: 7968 46bd 14b2 afbe c7b4 c73e f638 84bc
000003e0: 05bc 833e f063 c2be ce21 8fbc fb45 c7bc
000003f0: 6f9f b6bd bef1 dc3d dcd9 51bd 6e50 02be

mlp.0.bias f4 [32]
1.04062e-05 2.179723e-06 8.586245e-06 3.003604e-07 -1.1051766e-05 -4.638722e-06 3.8052865e-05 1.9295641e-05
5.5755627e-05 3.6580393e-05 -9.709824e-06 -8.23544e-06 -3.089984e-05 8.90758e-08 1.7658144e-06 3.9202973e-06
3.3171418e-06 7.855623e-06 -1.4745374e-06 -3.4713812e-06 3.545539e-06 9.82605e-06 1.8629034e-05 -6.263682e-05
-8.673844e-06 -3.2605658e-06 -1.4984506e-05 -3.2037256e-05 9.144089e-06 -1.6365117e-05 -2.541485e-05 -9.489187e-06
00000000: 4a96 2e37 5b47 1236 a40d 1037 3841 a134
00000010: f96a 39b7 52a6 9bb6 f49a 1f38 13dd a137
00000020: 26db 6938 e66d 1938 60e7 22b7 f22a 0ab7
00000030: 739a 01b8 f049 bf33 ec00 ed35 198b 8336
00000040: 109c 5e36 a5cb 0337 b8e8 c5b5 e0f5 68b6
00000050: e5ef 6d36 90da 2437 8c45 9c37 e35b 83b8
00000060: e085 11b7 18d0 5ab6 f765 7bb7 be5f 06b8
00000070: 9069 1937 d247 89b7 fa31 d5b7 bf33 1fb7

mlp.1.weight f4 [32]
0.9254513 0.8787447 0.9607884 0.86922073 0.94067657 0.9461292 0.97432786 0.94627917
0.97294503 0.9302244 0.9675277 0.9415031 1.083766 0.9033657 0.9117946 0.94334877
0.94960934 0.9402364 0.96616983 0.92004514 0.94339406 1.0044942 1.0000968 1.0061127
0.91405034 0.93895334 0.95523757 0.91792727 0.9458242 0.9283108 0.9605592 0.9003335
00000000: 60ea 6c3f 6af5 603f 3bf6 753f 4085 5e3f
00000010: 2ed0 703f 8635 723f 8d6d 793f 5a3f 723f
00000020: ed12 793f 3023 6e3f e5af 773f 5906 713f
00000030: d8b8 8a3f f942 673f 5f6b 693f 4e7f 713f
00000040: 9919 733f 55b3 703f e856 773f 1488 6b3f
00000050: 4682 713f 4493 803f 2c03 803f 4dc8 803f
00000060: 34ff 693f 3f5f 703f 738a 743f 48fd 6a3f
00000070: 8921 723f c7a5 6d3f 35e7 753f 427c 663f

mlp.1.bias f4 [32]
0.046340358 0.10818478 0.05677248 -0.098729 0.003375859 0.04896126 -0.04397284 0.008074821
0.046969518 0.08268037 0.05710509 -0.04572885 0.065426774 0.054475386 -0.04517769 0.05639167
0.04136871 -0.010134564 -0.04072675 -0.014341043 -0.04042074 0.045182496 0.011707142 0.020107182
0.033730622 0.058966316 -0.048549294 0.046761 0.03491435 -0.053198624 -0.04023447 0.043498483
00000000: 63cf 3d3d fb8f dd3d 438a 683d 6e32 cabd
00000010: 843d 5d3b 9a8b 483d dd1c 34bd 414c 043c
00000020: 1c63 403d 5354 a93d 07e7 693d 2d4e 3bbd
00000030: 79fe 853d 9521 5f3d 3e0c 39bd f4fa 663d
00000040: 3d72 293d 710b 26bc 18d1 26bd b2f6 6abc
00000050: 3890 25bd 4811 393d 50cf 3f3c d1b7 a43c
00000060: 1f29 0a3d aa86 713d a0db 46bd 7688 3f3d
00000070: 5902 0f3d cde6 59bd e6cc 24bd 772b 323d

mlp.1.running_mean f4 [32]
0.075455725 -0.12502542 0.03080189 0.1259026 0.13691485 -0.1214689 0.10899375 -0.08680146
0.16886206 0.09439386 -0.0015438752 0.10090637 0.13344298 0.10233228 0.10130976 0.0009768945
0.09118198 -0.044653103 0.112452224 -0.017541716 -0.08391131 0.16977121 -0.024345111 -0.04468494
-0.11464562 0.17968386 0.148604 -0.021740701 0.045421913 0.012840995 0.016884932 0.09961721
00000000: 8888 9a3d aa06 00be 3f54 fc3c 9cec 003e
00000010: 6833 0c3e b0c4 f8bd 1d38 df3d f7c4 b1bd
00000020: 2dea 2c3e 9151 c13d db5b caba 00a8 ce3d
00000030: 47a5 083e 9693 d13d 7e7b cf3d 240b 803a
00000040: 9ebd ba3d 2ce6 36bd 5a4d e63d a5b3 8fbc
00000050: b1d9 abbd 81d8 2d3e 666f c7bc 8e07 37bd
00000060: 53cb eabd 0cff 373e a62b 183e 8e19 b2bc
00000070: 540c 3a3d 0963 523c 4552 8a3c 1c04 cc3d

mlp.1.running_var f4 [32]
0.00062539603 0.00032742118 0.00028394832 0.00025829306 0.00047184704 0.0006121878 0.0011648351 0.00020187724
0.00022558731 0.00028688152 0.0003958972 0.0028854222 0.00037157486 0.0014855234 0.0013373666 0.0013478232
0.0009708531 2.7936863e-05 0.00072320504 0.00037556383 0.0011960303 0.0031032558 0.00028794943 0.00013021065
0.0005024125 0.00051648257 0.0025817615 0.0001323548 0.0014157706 0.00025575067 0.00078366033 0.0008740741
00000000: 9ef1 233a baa9 ab39 e6de 9439 826b 8739
00000010: 3d62 f739 3a7b 203a 61ad 983a 02af 5339
00000020: a28b 6c39 9668 9639 6c90 cf39 5a19 3d3b
00000030: efcf c239 e5b5 c23a 944a af3a 71a9 b03a
00000040: d980 7e3a f559 ea37 7895 3d3a 53e7 c439
00000050: 1ec4 9c3a fe5f 4b3b ebf7 9639 2889 0839
00000060: 55b4 033a 8f64 073a c532 293b b9c8 0a39
00000070: 6191 b93a 4616 8639 8e6e 4d3a 1f22 653a

mlp.3.weight f4 [1, 32]
0.07249118 -0.05536253 -0.17106052 -0.043136887 0.12161263 0.14372744 -0.43675134 -0.25849876
-0.2425396 0.08982231 -0.31083304 -0.17100576 0.40917575 0.071304835 -0.046669737 -0.06936648
0.16222562 -0.101352744 0.3112015 0.07253764 0.08214859 0.21824177 -0.32497823 -0.34394664
0.07961525 0.13149703 -0.20655541 -0.19605862 -0.14156969 -0.21097246 0.16147861 0.041729733
00000000: 4176 943d d2c3 62bd 7d2a 2fbe 4eb0 30bd
00000010: 0b10 f93d 492d 133e df9d dfbe f359 84be
00000020: 4d5c 78be c2f4 b73d 8225 9fbe 221c 2fbe
00000030: 7c7f d13e 4508 923d c428 3fbd 0310 8ebd
00000040: 791e 263e 0792 cfbd ce55 9f3e 9d8e 943d
00000050: 853d a83d c57a 5f3e 8c63 a6be c619 b0be
00000060: 520d a33d 28a7 063e 4383 53be 97c3 48be
00000070: a5f7 10be 2a09 58be a65a 253e ccec 2a3d
