output_bbox_gcn/EVALUATOR_layout_MultiLayer_2023_09_21_16_51_13/Model/evaluator_80.pth (torch, 9107 bytes, 11 tensors)

LayoutSeq.weight_ih_l0 f4 [32, 4]
000000 db e2 51 3e 52 2e a5 bd a0 e9 9e 3d 6d ed 3e 3e
       0.20496695 -0.080654755 0.07759404 0.18645258
000010 e7 3a 43 3e d7 6e 98 be b1 e2 7e bd 49 ae 87 bb
       0.19065438 -0.29772064 -0.06222791 -0.0041406495
000020 d5 78 b0 3e f8 01 8d 3e 27 51 1c 3e 01 07 8f 3e
       0.34467188 0.27540565 0.15265332 0.2793503
000030 b4 2a 7c be e6 06 87 3e d9 57 0f 3e ad 51 2f bc
       -0.24625665 0.2637245 0.13998355 -0.010700625
000040 86 40 12 be 91 1b 5a 3e 70 15 e7 3d 65 ba d8 3d
       -0.14282426 0.21299578 0.11283386 0.10582427
000050 2f be 76 be 7e 99 8f be d3 24 22 3e eb c9 5e 3d
       -0.24095987 -0.28046793 0.1583436 0.054391783
000060 51 23 99 3e 77 bb 67 3d 77 fe 82 be 18 b9 45 be
       0.29909757 0.056575265 -0.25584766 -0.19308889
000070 d4 32 78 be 8e 61 9a 3e 93 ec ff bc 4f 3f b1 3e
       -0.2423814 0.30152553 -0.031240737 0.34618613
000080 7c 8f 34 3e a1 88 8b 3e d8 55 11 3e 23 70 14 bd
       0.1763286 0.27252677 0.14192903 -0.036239754
000090 97 60 73 3e 1b e2 03 be 07 3a fa bd 42 9b 3d bd
       0.23767315 -0.12879221 -0.12218099 -0.046290644
0000a0 d7 04 a2 be 97 9b 0e 3d db ca 2a be 73 76 37 be
       -0.31644318 0.03481635 -0.16678946 -0.17916279
0000b0 64 21 bc bb fa f9 a1 bd 9d d4 75 be 16 8f 82 be
       -0.005741285 -0.07909007 -0.24006887 -0.2549979
0000c0 2b d6 8f be d3 06 98 bc fe 9d a8 3e 39 3b 8f be
       -0.28093085 -0.018557942 0.32933038 -0.2797487
0000d0 ab f8 3d 3d e8 cb 94 3e e8 4d 90 3e 31 5b bb 3e
       0.046379726 0.29061818 0.28184438 0.3659301
0000e0 93 da a0 be 27 f6 4b be b8 27 9e be 6b cb b8 bd
       -0.3141676 -0.19918118 -0.30889678 -0.09023174
0000f0 1e fb 1e 3e 32 e3 91 3e df 62 af 3e e8 43 df bc
       0.15525481 0.2849365 0.3425512 -0.02725406
000100 91 38 fa 3d 9d d3 8b 3d df 69 91 3e 6b 32 6a 3c
       0.122178204 0.068274714 0.28401086 0.014294247
000110 34 77 35 bc 17 09 7c be 02 6f 3c be 96 d9 3d be
       -0.0110757835 -0.24612843 -0.18401721 -0.18540034
000120 8a c2 3c be 87 03 95 3e 52 17 b7 be e9 da 2f 3c
       -0.18433586 0.29104254 -0.3575998 0.010733345
000130 f2 e5 90 be 3c 40 59 be bb 8e 5c 3d 87 2a a6 be
       -0.28300434 -0.2121591 0.053847056 -0.3245432
000140 a1 88 a0 be 95 65 83 3e 3c 7d 9c bd d1 1f 93 3e
       -0.3135424 0.25663438 -0.07641074 0.28735211
000150 a0 fb ab 3e 52 f9 9c be 1a d4 9d 3d a8 c8 cc 3d
       0.33590412 -0.30658966 0.07706471 0.0999921
000160 a1 b6 71 be 2a 15 36 3e 0e b2 b2 3e 58 db 84 be
       -0.23604824 0.17781511 0.3490147 -0.25948596
000170 7e cf 93 bd 70 77 84 3e 36 4d d0 3d dc 33 e1 3d
       -0.0721731 0.25872374 0.10170977 0.109962195
000180 c4 ae 40 3d f7 a3 67 be cb ff a4 3e 19 d7 39 be
       0.04704167 -0.22621141 0.32226405 -0.1814846
000190 fe 0c aa 3c a0 e7 b2 3e a4 a1 21 3e 8d 75 ac 3d
       0.020758148 0.3494234 0.15784317 0.084208585
0001a0 1f 9c 2a 3d 02 64 60 be c9 29 49 3e ba 22 17 bc
       0.041652795 -0.2191315 0.19644846 -0.009224588
0001b0 88 d0 f0 3c 70 c7 96 bd d1 92 9f 3e 98 ff 8a 3d
       0.02939631 -0.073622584 0.311667 0.06787032
0001c0 19 a2 19 3e a2 90 58 be 39 40 f2 bd 8c 4b 9d 3b
       0.15003242 -0.21148923 -0.11828656 0.0048002657
0001d0 a1 33 8d be ef fe 28 3e b8 34 7b bd 93 1f 64 be
       -0.27578452 0.165035 -0.061329573 -0.2227767
0001e0 87 7b 4c bc 8b f0 8b 3e 43 f9 7f be f5 72 86 be
       -0.012480623 0.27331957 -0.2499743 -0.2625958
0001f0 84 7c 65 3e 24 2d 03 3e 93 61 ff 3d b6 3e 81 bd
       0.2241078 0.12810189 0.12469783 -0.06310789

LayoutSeq.weight_hh_l0 f4 [32, 8]
000000 9c 66 ef 3d 83 80 28 be c9 09 e9 3d cb b4 c4 bd
       0.11689493 -0.16455273 0.113788195 -0.09604796
000010 ea 3e 0c be 87 35 2e 3d a4 d5 b4 bd ca bd b4 3c
       -0.13695875 0.042531516 -0.08829811 0.022063155
000020 ee 86 6e 3e 43 2e 86 3e 13 92 a1 3e f0 87 57 be
       0.23293659 0.2620717 0.31556758 -0.2104795
000030 24 64 90 3e 32 1d 54 3d d5 1f 41 bc 2e b2 4d 3e
       0.282014 0.051785655 -0.0117873745 0.20087501
000040 b3 e4 4d be 80 1c 68 3e 13 bf 6c be c4 3b d2 bd
       -0.20106773 0.22667122 -0.23119764 -0.10265306
000050 e3 1b 84 3e 60 7b bc bd 0b 96 a7 3e 11 8e 89 be
       0.25802526 -0.092032194 0.3273166 -0.268662
000060 6a 19 1c 3e bb 7c 4a 3e 8c 63 90 3e 9f b4 21 3e
       0.1524407 0.19774143 0.28200948 0.15791558
000070 66 95 40 3e a0 1a 8b be db 5b 48 3e 19 2b ff 3d
       0.18806991 -0.2716875 0.1956629 0.12459392
000080 76 bd a8 3e 3f c5 5e be 66 ab 8d be 79 8e 93 be
       0.32957047 -0.21754931 -0.2766983 -0.28819636
000090 76 8f 09 be 79 10 65 be 3c 88 6a 3e f6 b8 9f bd
       -0.13433632 -0.22369565 0.22903532 -0.077989504
0000a0 d5 73 90 be 54 eb 12 bd f9 2b ba be b0 20 a1 be
       -0.28213373 -0.035868958 -0.36361673 -0.3147025
0000b0 19 40 1f be fa a9 7b be e6 df 93 be 24 67 ab 3e
       -0.15551795 -0.2457656 -0.28881758 0.33477128
0000c0 28 9c a1 be 85 8f 4c be 7a 82 8a 3b 56 c9 76 be
       -0.3156445 -0.19976623 0.00422698 -0.24100241
0000d0 e3 e2 98 be 38 ab cc bd 72 d3 6a be dd ba 87 3e
       -0.298606 -0.09993595 -0.22932222 0.26509753
0000e0 36 a4 23 be a9 d0 85 3e c3 d6 45 bd a1 96 8c bc
       -0.1598061 0.26135758 -0.048300516 -0.01716167
0000f0 1b ab a9 3d 95 e8 8b 3d d7 61 8f be b2 04 be 3d
       0.08284589 0.06831471 -0.28004333 0.09278239
000100 1d a5 6e be c6 39 9e be d9 b5 b6 be 1f c6 0b 3e
       -0.23305173 -0.30903453 -0.35685614 0.13649796
000110 2b de 49 3e 90 46 64 bd 86 b7 54 3e c9 55 46 be
       0.19713657 -0.055731356 0.20773134 -0.19368662
000120 95 16 84 be a4 80 3e 3e 43 87 9b 3e 2e 24 32 be
       -0.2579848 0.1860376 0.30376634 -0.17396614
000130 af 97 a5 3e 26 23 87 3e 9e 34 22 3d bc 30 3b be
       0.32342288 0.26394004 0.03960096 -0.1828031
000140 2a 9c 8d be 89 14 6c be 6a a3 a5 bd 3b 84 91 bd
       -0.27658206 -0.23054709 -0.080878094 -0.07105299
000150 fb ab c6 3d f2 f7 85 be 94 0f ab be be cc 27 3e
       0.097007714 -0.2616573 -0.33410323 0.16386697
000160 5b a6 2e be 7f 41 40 3e 17 1f 01 be 8d 02 34 bc
       -0.17055647 0.18774985 -0.12609516 -0.010986936
000170 97 97 85 3e 63 d4 b9 3c 1b fa ad 3e 2a fd cc bd
       0.26092216 0.022684282 0.33979878 -0.10009225
000180 55 07 94 be 11 e2 1d 3e e5 9b 8a 3e 3e 99 02 be
       -0.28911844 0.15418269 0.27072063 -0.1275377
000190 f6 8e 1b 3e d4 92 57 3e 68 33 09 bd 91 be 0c 3e
       0.15191254 0.21052104 -0.03349629 0.1374457
0001a0 74 d4 34 3d 64 8f d2 bd 1f f7 7b 3e d3 9e a1 3e
       0.044147924 -0.10281256 0.24605988 0.31566486
0001b0 1a e5 90 3e e9 5e a1 3e c7 99 4a be 34 d0 93 3e
       0.2829979 0.31517723 -0.19785224 0.28869784
0001c0 b2 2f 93 be 31 b6 77 be 1b 2b 92 be 7b 1b 9b be
       -0.28747326 -0.24190594 -0.28548512 -0.30294403
0001d0 d0 71 e3 bd 6e c1 98 3e a6 fb 08 3d 03 40 05 be
       -0.111056924 0.29835075 0.033443116 -0.130127
0001e0 7b 2f 61 3e b5 a6 c0 bd eb 53 a9 bd 2a 23 c3 be
       0.21990769 -0.09406797 -0.08267959 -0.38112766
0001f0 9f 3e 69 3c 59 05 5e 3c 84 ba 3b 3d 2c 51 2e 3e
       0.014236121 0.01355108 0.045832172 0.17023152
000200 4a 96 8f be df 6a 0f bd 08 25 5c 3e 22 82 42 3e
       -0.2804435 -0.03501403 0.21498501 0.18994954
000210 0b 99 2e 3e 81 21 a7 bd 5f e9 70 be 87 18 68 3e
       0.17050569 -0.08160687 -0.23526524 0.22665606
000220 33 19 00 3d 09 d2 89 be fa c5 4e 3e 2e 48 f0 3d
       0.03127403 -0.26918057 0.2019271 0.11732517
000230 2c f4 fa 3d 33 0a 97 3e 18 aa 94 3e 81 eb 4f 3e
       0.12253603 0.2949997 0.2903602 0.20304681
000240 52 ea f7 3d 59 5c 9c 3e 6f 79 21 3e d1 8b 5a be
       0.1210524 0.30539206 0.1576898 -0.21342398
000250 33 ac 87 be 63 6b 86 be 9f 71 a1 3e dd 95 4d 3e
       -0.26498565 -0.26253805 0.31532 0.200767
000260 2f 0e b4 be ce eb 93 3d 34 6e c4 3e f1 34 92 3e
       -0.3516707 0.072227105 0.38365328 0.28556016
000270 1f 2c 27 3e a1 c7 87 3e f6 8d 5f be 2a 6b 49 bd
       0.16325425 0.26519492 -0.21831498 -0.049174465
000280 3b 57 5d 3c 5c 10 ae 3e 4a e4 48 be 70 72 6e 3e
       0.013509567 0.33996856 -0.19618335 0.23285842
000290 38 5d 57 3d 0a 6d 92 be 24 52 12 be 4e cd f2 3d
       0.052579135 -0.28598815 -0.14289147 0.11855565
0002a0 f5 9f 4e be dc 93 51 3d 9a fd 32 3e da e4 06 3d
       -0.20178206 0.0511664 0.17479554 0.032933094
0002b0 98 a0 14 be 11 f1 3d be 27 44 70 be 2b 9a c1 3e
       -0.14514387 -0.18548991 -0.23463498 0.37812933
0002c0 4f 6d 6e 3e 3f 42 8b 3d 78 45 9d 3e 72 48 9c be
       0.23283885 0.06799745 0.30717063 -0.3052402
0002d0 37 0f 8e be 34 76 74 be f8 68 61 3e 81 29 8b be
       -0.27745983 -0.23873216 0.22012699 -0.27180102
0002e0 56 c1 7c be ba ed 8d be 84 c2 fc bd 28 10 e1 3c
       -0.24683127 -0.27720433 -0.123417884 0.027473524
0002f0 62 3c 94 be 8f 21 aa 3e cd a4 d7 3d 6f 6e f4 bd
       -0.28952318 0.33228728 0.1052948 -0.11935126
000300 99 2f 89 be 2d 22 90 3e 73 dc 9e 3c 88 e1 8c be
       -0.26794127 0.28151074 0.019392228 -0.27515817
000310 43 2d ea 3d bb bc 27 be 5c 2d f1 bb 40 b2 3f 3e
       0.11434414 -0.16380589 -0.0073601436 0.1872034
000320 96 65 a8 3e 0b 7e 70 be df ce 3e be 2b fb 93 3e
       0.32890004 -0.23485582 -0.18633603 0.28902563
000330 f5 42 41 3d 35 c4 91 3e a8 77 82 3e 20 85 58 3e
       0.047182996 0.28470007 0.25481915 0.21144533
000340 08 76 75 be e9 6e 93 3e f3 2f 47 3e 6d cd a1 3e
       -0.23970807 0.28795555 0.19451885 0.3160204
000350 a6 d6 6a bd 06 2a 93 be c6 2f 83 3e b8 15 85 3e
       -0.05733361 -0.28743 0.25622386 0.25993133
000360 c0 b1 61 3e 7f 8e 9e bc b0 fb cf bd e2 38 99 be
       0.22040462 -0.019355057 -0.101554275 -0.2992621
000370 57 1a 30 3e 66 df 7c be b5 a2 1b bc 70 e7 a5 bd
       0.17197548 -0.24694595 -0.009499242 -0.08100784
000380 bd 6d 28 bd 41 89 52 3e 29 56 a2 3e 13 ed 61 3e
       -0.04112028 0.2056017 0.3170636 0.22063093
000390 ae ff 9e be c5 94 c6 bd ca 17 9e be 17 8a 3f be
       -0.31054443 -0.09696344 -0.30877525 -0.18705021
0003a0 a5 95 92 be e5 0d 5f bd 1c 38 5a bd 00 c8 80 be
       -0.28629795 -0.05445661 -0.053276166 -0.25152588
0003b0 f7 f4 cd bd b8 40 8d bd cc bc 2b be 3c cc ba 3d
       -0.10056489 -0.0689711 -0.16771239 0.09120986
0003c0 ed 33 36 be 6b 6f 65 be 01 80 90 3e 5f 27 96 be
       -0.17793246 -0.22405784 0.2822266 -0.29326913
0003d0 4b e2 75 3e ef 3e 39 bd 90 3d 79 be a0 7c 29 bd
       0.24012105 -0.045226034 -0.2433989 -0.041378617
0003e0 2b 4b 65 3e 24 36 a3 b9 67 62 68 be a0 99 f1 bd
       0.22391956 -0.0003113012 -0.22693788 -0.1179688
0003f0 4d 7b a7 bd 29 4f c0 bd 06 af cd 3d 1e a1 4a 3e
       -0.08177815 -0.093900986 0.10043149 0.19788024

LayoutSeq.bias_ih_l0 f4 [32]
000000 6e 02 ab 3d 31 20 85 3e 28 19 01 3e 16 9d 57 3d
       0.08350073 0.26001123 0.12607253 0.052640043
000010 dd 80 14 bc 6c f4 97 3e d6 1d 94 3e fa 23 18 be
       -0.0090639265 0.29678667 0.28929013 -0.14857474
000020 4b 06 85 bd d8 ef 23 3e f6 5b af bc 5f 97 86 bd
       -0.06495341 0.16009462 -0.021406155 -0.065718405
000030 e1 9f 98 be be d8 bf 3d 7d cc 2c 3e 3d 48 79 bd
       -0.29809478 0.09367512 0.16874881 -0.060859907
000040 1a eb b7 bd 7b 3b 6d 3d fc 12 fa 3d 8f d4 1d be
       -0.08980389 0.057918053 0.12210652 -0.15413116
000050 36 45 51 3c 3d ac e1 bb 7f 73 3f bd 15 49 98 3d
       0.012772849 -0.0068869875 -0.046741005 0.07435814
000060 88 c3 62 3e d3 8b 31 be 12 22 8d 3e bf 59 5d be
       0.22144902 -0.17338495 0.27565056 -0.21616267
000070 77 00 b1 3e 98 a6 a3 bb 2e f6 8a be 05 43 60 3e
       0.34570667 -0.0049942248 -0.27140945 0.21900566

LayoutSeq.bias_hh_l0 f4 [32]
000000 c5 4f 24 bd 30 cb 0b be 14 df a5 3e 3c f0 a9 3e
       -0.040115137 -0.13651729 0.32396758 0.33191097
000010 8a a7 87 be 76 1d 93 be 27 b9 6d be b9 bb cf 3d
       -0.2649501 -0.28733414 -0.23215161 0.10143227
000020 ee 2e 81 3e ec 36 99 3e e7 dc 5f be 63 79 5f 3e
       0.25231117 0.29924715 -0.21861611 0.21823649
000030 a2 44 9f be e8 65 be bd 87 bd 9d bd a2 8f 5b 3d
       -0.3110705 -0.09296781 -0.07702165 0.053603776
000040 93 78 50 be 0b 8b ad be dd 24 45 3e 72 b8 07 3e
       -0.20358495 -0.33895144 0.19252343 0.13253954
000050 29 82 68 3d f9 18 94 3b eb fe 89 3e b0 09 15 be
       0.056764755 0.0045195785 0.269523 -0.14554477
000060 ab 81 b7 bc 9e 22 24 3e a0 b4 ee 3d 3a 06 04 3d
       -0.022400698 0.1602883 0.11655545 0.0322325
000070 79 de 83 be 40 52 03 be 87 aa 20 be e5 8e 96 3e
       -0.2575567 -0.12824345 -0.15690051 0.29405895

mlp.0.weight f4 [32, 8]
000000 4a 9f c9 3d b2 bb d4 be eb 40 83 3c 8e 42 80 3e
       0.09844835 -0.4154945 0.016022166 0.25050777
000010 74 6d 1e 3e ac 4e 79 3e 41 87 1c bd 30 bc 26 3e
       0.1547144 0.24346417 -0.038214926 0.16282725
000020 eb e3 8f be c7 ed 03 3e 81 93 a7 bc a1 97 b8 3d
       -0.28103575 0.12883674 -0.020456078 0.09013296
000030 64 17 4e 3d b8 e3 61 3d 66 1d b1 be ef d5 12 be
       0.050315276 0.05514881 -0.34592742 -0.14339422
000040 9a a4 c7 3d e9 19 48 be 41 25 53 3e 09 e0 08 3e
       0.09748192 -0.19541134 0.2061968 0.13366713
000050 f7 74 9f be 34 09 a0 3a 69 83 b7 bc a6 a6 39 be
       -0.31143925 0.0012209774 -0.022401528 -0.18129978
000060 a0 d9 d3 3e 6f b7 0b bd b0 ea 00 3f fc d1 07 3c
       0.41376972 -0.034110483 0.50358105 0.00828981
000070 ef f8 6d 3e ae 47 92 3e 0b b9 af 3b ad 6f 4b 3e
       0.23239492 0.28570312 0.005362635 0.1986682
000080 90 e9 f4 3c f3 0b 83 be 7d 05 b4 bd 17 ef 48 be
       0.029896528 -0.25595054 -0.08790109 -0.19622456
000090 1e cc b6 be 29 01 88 bd 96 b7 87 3e 24 8f 8e be
       -0.35702604 -0.06640846 0.26507252 -0.27843583
0000a0 01 b9 97 bd ea d3 3b 3e 23 47 00 bd a9 fd 7b 3d
       -0.074083336 0.18342558 -0.03131784 0.061521206
0000b0 60 cc fd 3d b7 55 d1 3c 7e d2 12 bf a3 d4 4a 3e
       0.12392497 0.025553567 -0.57352436 0.19807677
0000c0 2b 94 5b bd 66 ae 00 bf 27 48 5f 3c 1b df 63 bd
       -0.0536081 -0.5026611 0.013628042 -0.05563269
0000d0 db 2b 15 3e ea 3f 47 3e 1b 7f 80 be c4 4d 16 be
       0.14567511 0.19457975 -0.25096974 -0.14678103
0000e0 3f 3e 50 3e 11 8f 2c 3e d6 47 3e be 06 a7 25 be
       0.20336245 0.1685145 -0.1858209 -0.16176996
0000f0 bf f9 af bd 40 75 c9 be a1 9c 7f bd 39 ed f9 bd
       -0.08592557 -0.39347267 -0.062405232 -0.1220345
000100 9e 4d 0c be d8 59 92 be 6a 39 3b 3e b8 c8 88 be
       -0.13701484 -0.2858417 0.1828362 -0.26715636
000110 ce 37 3e be 25 4f 6b be 83 34 8a 3e 08 b3 ef be
       -0.18575975 -0.2297941 0.26993188 -0.46816278
000120 16 c5 ab be c4 10 b5 bd 3d c2 ca bd 64 5a ed 3d
       -0.33548802 -0.088410884 -0.09900329 0.11589506
000130 74 b8 9a be 02 03 ec 3d cd d5 af bd 21 19 42 3f
       -0.30218852 0.11524011 -0.08585701 0.75819594
000140 75 8a 21 be ff 5a 94 be c1 8d e7 3d 58 af 3e 3e
       -0.15775473 -0.28975675 0.11306334 0.18621576
000150 c0 1f 89 3b 02 15 1c be 1d c6 cd 3b 5b d7 40 be
       0.004184693 -0.15242389 0.0062797205 -0.18832152
000160 55 2c 16 3e 52 d7 84 3d 57 24 c1 3d 31 e0 c1 be
       0.14665349 0.064863816 0.094307594 -0.37866357
000170 4c 49 1b be d4 8d 07 3e d8 cf 12 bf 20 e0 ff 3e
       -0.1516468 0.13237697 -0.57348394 0.4997568
000180 16 0d 8d be 99 e6 50 3e d2 84 43 3e 2a ce 0b 3c
       -0.27549046 0.20400466 0.19093636 0.00853304
000190 57 63 d0 be f0 47 8b 3e e8 71 27 be 9b cd 6d 3f
       -0.4070079 0.2720332 -0.16352046 0.92891854
0001a0 ae 53 26 3e 6b 2d 45 be 99 f2 a2 3e a3 5d ae bd
       0.16242859 -0.19255607 0.31825712 -0.085139535
0001b0 62 6b 7e 3e df a5 a0 3e 09 60 c4 be 67 2c 33 3e
       0.24845651 0.3137655 -0.3835452 0.17497407
0001c0 2e fd f4 3e 69 14 66 be 8b c1 d5 bd 7a d8 2c be
       0.4784941 -0.22468723 -0.10437306 -0.16879454
0001d0 91 a2 7c bd 58 de 84 bd 16 6a 65 3a a8 77 3d bd
       -0.061678473 -0.06487721 0.0008751465 -0.04625669
0001e0 ef 38 a9 be 34 0e f1 3d 57 38 9b 3e e1 4b a3 3d
       -0.3305125 0.11770287 0.3031642 0.07973457
0001f0 ce 61 bf 3e af 38 d1 3d f6 03 ab bc 36 05 1a 3e
       0.37379307 0.1021589 -0.020875912 0.1504105
000200 1c 7e 53 3e d8 09 65 be f8 7d 95 3d 70 21 8f be
       0.20653576 -0.22367036 0.07299417 -0.27955198
000210 40 70 62 3e 10 d0 96 be 62 35 c0 bd 7b bd 32 bd
       0.22113132 -0.29455614 -0.09385182 -0.043637734
000220 04 f0 fe bd cb 6e 8e bd 18 23 95 bd 0b ec d6 3d
       -0.12448123 -0.06954726 -0.07282084 0.104942404
000230 32 c6 3e 3d 16 57 76 be 61 70 38 be c0 a5 0c 3e
       0.046575733 -0.24056658 -0.18011619 0.13735104
000240 94 6a 2f be 87 b3 83 be b4 b5 ac 3e f0 59 69 bc
       -0.171305 -0.25722906 0.33732378 -0.014242634
000250 5f 39 2c be b0 b0 46 3e 64 0b 7c bd 98 82 28 be
       -0.1681876 0.19403338 -0.0615343 -0.16456068
000260 39 7c 40 3e b3 5c 6f 3d 70 2b 52 3d d1 51 29 3e
       0.18797387 0.058438014 0.051310956 0.16535117
000270 8d a5 92 bc 9d fa ca bd 50 b2 7e 3e 35 96 d5 3d
       -0.017901206 -0.09911082 0.24872708 0.1042904
000280 56 3c d3 be c6 8c de 3e a4 74 60 bd c7 4a 10 3c
       -0.4125697 0.43466777 -0.054798737 0.008806891
000290 eb 57 dd bd 06 4e 24 be 4c 9b 82 3d b7 4c 1e 3e
       -0.10807785 -0.16045389 0.06377277 0.15458952
0002a0 07 e7 8b be fa 34 52 be 91 09 8c be 7e 88 56 be
       -0.27324697 -0.20528021 -0.2735105 -0.20950505
0002b0 98 05 38 be 4d c3 09 3e b3 08 68 be 0d f1 38 3f
       -0.17970884 0.13453408 -0.22659568 0.72242814
0002c0 01 c6 b9 be 96 63 37 be 74 30 b5 bd 8a 3d 44 3e
       -0.36283877 -0.17909083 -0.08847132 0.191641
0002d0 c1 8c ac 3e c9 95 d0 bc af b8 8a bd c5 0f 3b 3e
       0.33701137 -0.025462048 -0.06773507 0.18267734
0002e0 2d 81 4b bd 10 a7 67 be 54 84 41 be 69 e3 ac 3d
       -0.04968374 -0.22622323 -0.18898135 0.084418125
0002f0 42 01 99 3e 5a 95 9f be b3 b0 6d bd 5e 8b 0e be
       0.29883772 -0.31168634 -0.05802984 -0.13920352
000300 cb 8e 61 be 61 e4 0f be 2b a0 d1 be a0 bb 96 3e
       -0.22027127 -0.14051963 -0.4094251 0.29440022
000310 bb 5d 1b 3e 71 3d 39 bb e3 99 52 be e5 d6 ab 3d
       0.15172474 -0.0028265382 -0.20566516 0.08390597
000320 d8 7b a2 be 7c b0 8f be 28 8c 9e 3d 1c 62 ba bd
       -0.3173511 -0.28064334 0.077415764 -0.09100744
000330 b8 af cb 3d ac fd ca bb fc bb 64 3d f0 68 b1 3e
       0.09945625 -0.006194791 0.05584334 0.34650373
000340 9a e0 3a 3e 44 21 d0 be d0 1e a8 be 0d 01 6e 3b
       0.18249741 -0.4065038 -0.32836008 0.0036316544
000350 74 19 32 bc c5 ad f8 3e 32 c4 65 3e 96 58 fd bc
       -0.010870326 0.48570076 0.22438124 -0.03092603
000360 9b 23 83 3e 4c 0a 85 bd 95 3e ce bc 96 b0 42 3c
       0.25613102 -0.064961046 -0.025176326 0.011882922
000370 46 e7 12 3e 7d 75 82 be 30 6d 03 3e c3 2f 4c be
       0.14346036 -0.2548026 0.1283462 -0.19940095
000380 be 74 e3 3d 30 0a b4 be 8f 43 e7 3e 22 0b 04 3f
       0.11106251 -0.35164022 0.4516873 0.5157949
000390 c4 1e f5 bd 69 36 c5 bd ca be 0b 3e a4 d5 43 bb
       -0.11968759 -0.096295185 0.13646999 -0.0029881978
0003a0 d4 68 85 3e 59 76 e9 3d 88 51 b4 3c 09 ff 3b be
       0.2605654 0.11399526 0.022011533 -0.18359007
0003b0 87 e3 85 be 82 3b 0b 3e 63 98 81 3d d5 4a 26 be
       -0.26150152 0.13596919 0.063278936 -0.16239484
0003c0 5c 67 92 bd ba 52 29 bd 3c 91 af bd 44 55 99 3d
       -0.071486205 -0.04133866 -0.08572623 0.07486966
0003d0 9f 78 36 bd ce 03 a5 be 38 7b e6 3e 97 4f fc bb
       -0.044548627 -0.32229465 0.45015883 -0.0076999175
0003e0 62 96 93 3e a6 6c e8 be ef d8 40 3c e7 dd 5f bd
       0.2882567 -0.45395392 0.011770471 -0.054654982
0003f0 6d 82 5a bd 50 5e e7 3d 42 32 5e bd dc ef 14 be
       -0.05334704 0.112972856 -0.05424715 -0.14544624

mlp.0.bias f4 [32]
000000 9f e6 cd b6 f8 c7 97 35 59 6e 04 b8 85 ea 9e b5
       -6.136324e-06 1.1308575e-06 -3.157402e-05 -1.1840172e-06
000010 35 5f 85 37 02 38 e2 b6 50 d7 bf b6 78 94 e1 b8
       1.589917e-05 -6.741845e-06 -5.7173093e-06 -0.000107564905
000020 07 b9 e0 b5 58 a6 fc b5 b8 71 81 b7 52 4a a6 36
       -1.6743151e-06 -1.8823876e-06 -1.5430953e-05 4.9558375e-06
000030 0e 2c 52 b8 f4 87 c7 b5 b4 38 95 35 0b 98 39 b7
       -5.010893e-05 -1.4866223e-06 1.1117868e-06 -1.106226e-05
000040 06 51 33 37 ec e3 5b 37 d9 d7 0b 37 3a ee 85 b6
       1.0688096e-05 1.3106484e-05 8.335302e-06 -3.991442e-06
000050 a8 3e 1b b7 8a 00 a3 36 75 ab 18 37 ca 8f d9 38
       -9.253308e-06 4.8578413e-06 9.0998265e-06 0.00010374149
000060 cb ed b8 b6 3a b3 df 37 c7 e5 1b b7 8a 66 9c b7
       -5.51131e-06 2.666713e-05 -9.292219e-06 -1.8644398e-05
000070 a6 9a c6 36 f2 14 f8 b7 f0 f0 c2 36 fb e0 b7 b6
       5.9188633e-06 -2.9573657e-05 5.8096994e-06 -5.480016e-06

mlp.1.weight f4 [32]
000000 03 8c 7b 3f 4a 10 75 3f 33 3f 7f 3f cc cc 74 3f
       0.98260516 0.9572798 0.9970581 0.95624995
000010 8a b0 77 3f bb 9a 78 3f 6d d4 7e 3f 50 56 7e 3f
       0.9675375 0.971111 0.99542886 0.9935045
000020 56 f2 7e 3f d6 e3 78 3f 79 5d 7f 3f b8 72 79 3f
       0.99588525 0.9722265 0.99752 0.9744067
000030 85 3a 81 3f dd bd 76 3f 03 2f 79 3f 63 bb 80 3f
       1.0095984 0.9638346 0.9733736 1.0057186
000040 f6 8e 7c 3f 38 5b 80 3f ea ff 78 3f e4 cc 78 3f
       0.9865564 1.0027838 0.97265494 0.9718764
000050 c3 70 7c 3f 62 27 82 3f 43 bf 83 3f ff 01 82 3f
       0.9860956 1.0168269 1.0292743 1.0156859
000060 31 17 76 3f b4 c2 76 3f ea 13 7c 3f 44 e2 7b 3f
       0.9612914 0.96390843 0.98467886 0.9839213
000070 02 55 7d 3f 40 73 7b 3f fa 93 7c 3f b3 df 79 3f
       0.98957837 0.9822273 0.98663294 0.9760696

mlp.1.bias f4 [32]
000000 c1 47 6e 3c 85 ba 0f 3d 01 7b 9f 3c 09 14 06 bd
       0.014543475 0.03508999 0.019467833 -0.03273395
000010 55 1e 6d bc b8 f1 cc 3c d5 60 00 bc 30 ea 55 bc
       -0.014472564 0.025017604 -0.007835587 -0.013056323
000020 01 f5 d2 3c 42 c7 d3 3c 2b 51 d8 3c 53 26 a2 bc
       0.025751593 0.02585185 0.026405891 -0.019793665
000030 90 b8 c0 3c 44 e1 ad 3c 1f 88 92 bc 0f 6a b8 3c
       0.023525506 0.02122558 -0.017887173 0.02251151
000040 67 f6 4d 3c 8c d5 60 ba 2f ed c0 bc b2 46 36 3b
       0.012570954 -0.0008576743 -0.023550598 0.0027813134
000050 b7 7b 83 bc db a0 9e 3c eb 5c d8 3a e4 c6 d3 3b
       -0.016050203 0.019363811 0.0016507184 0.0064629186
000060 d7 af 8e 3c 30 38 19 3c af c4 84 bc 74 94 a0 3c
       0.017417831 0.009351775 -0.016207067 0.019602038
000070 d9 1e b1 3c 17 5d e7 bc fc 4d b3 bc fd a1 85 3c
       0.021621155 -0.02824263 -0.021887772 0.016312594

mlp.1.running_mean f4 [32]
000000 75 b0 f1 3d 68 4e e3 bd c3 c2 78 3c b0 24 f8 3d
       0.11801235 -0.11098939 0.015183154 0.121163726
000010 48 dd 94 3d 3c b4 a1 bd 14 0c 01 3e 02 9b cd bd
       0.072687685 -0.07895705 0.12602264 -0.10039331
000020 8b 41 98 3d 90 4e 1b 3e 77 fb 10 3c 70 7d 09 3e
       0.07434376 0.15166688 0.008849016 0.13426757
000030 06 77 25 3e 25 5e 09 3e f7 ce 92 3d d7 78 93 3c
       0.16158685 0.1341482 0.07168382 0.018001957
000040 09 c1 b1 3d e0 34 94 bc 03 90 c7 3d b0 d6 75 bc
       0.08679397 -0.018091619 0.09744265 -0.015004799
000050 34 85 dc bd 91 7e 5e 3e 31 48 fd 3c 86 63 0d bd
       -0.10767594 0.21727969 0.030918213 -0.03451874
000060 e4 c2 88 bd 6e 29 3f 3e b7 18 0c 3e 38 23 29 bd
       -0.066777974 0.18668148 0.13681303 -0.041293353
000070 68 58 37 3d f7 34 e6 bb 4d 91 1c bb bc bc f5 3d
       0.044762045 -0.007025357 -0.0023890317 0.11998889

mlp.1.running_var f4 [32]
000000 96 e7 61 3a 8f 73 61 3a ba c8 d4 39 c2 e0 41 3a
       0.0008617578 0.00086002884 0.00040585344 0.0007395857
000010 ad 9d de 39 67 1e 2f 3a df c5 57 3a 40 98 09 39
       0.00042460617 0.00066802505 0.0008231084 0.00013122056
000020 4a 9e 95 3a 86 f4 8c 3a 29 c1 18 3a 4d 09 4a 3b
       0.0011414972 0.0010754026 0.0005827123 0.0030828298
000030 d4 71 71 3a cd 23 e2 3a ff cd ce 3a 35 72 b2 3a
       0.0009210382 0.0017253101 0.0015777944 0.0013614359
000040 a1 ca 28 3a 07 f6 37 38 5e 40 31 3a 0c d3 9e 39
       0.00064388855 4.385973e-05 0.00067616056 0.0003029335
000050 53 7f 84 3a 48 5a 85 3b c4 db 7f 39 52 58 cd 38
       0.0010108746 0.0040696003 0.00024400564 9.791613e-05
000060 c4 51 ff 39 a3 e3 0d 3a 25 a9 4c 3b 84 75 f3 38
       0.0004869831 0.00054126437 0.0031228748 0.00011609032
000070 93 01 b0 3a d3 d9 3b 39 e9 0b 41 3a 7b 21 4f 3a
       0.0013428204 0.00017914856 0.00073641405 0.00079014123

mlp.3.weight f4 [1, 32]
000000 1e 0e 97 3d 5d db dc bc 2a c2 3d be 68 6b df bc
       0.073757395 -0.02696007 -0.18531099 -0.027272895
000010 2a c8 e3 3d d9 17 0d 3e 8b b1 e3 be 71 f6 93 be
       0.11122163 0.13778628 -0.44471392 -0.28898957
000020 2c 05 7f be 4a 16 31 3d 35 8b a8 be be ae 38 be
       -0.24904317 0.043234147 -0.32918707 -0.18035409
000030 1f a3 a9 3e ac 37 6f 3d 56 49 40 bd d5 b4 ac bd
       0.33132264 0.058402702 -0.04694494 -0.084329285
000040 c3 bb 2f 3e 5d 5d de bd 5f 2b 9d 3e 56 24 62 3d
       0.17161469 -0.108576514 0.30697152 0.055210434
000050 4f c7 97 3d 84 74 52 3e 24 28 ae be df 2d ae be
       0.07411062 0.2055226 -0.34015 -0.34019372
000060 8e e5 bc 3d 53 df f1 3d bb d1 58 be e5 7c 76 be
       0.092234716 0.11810174 -0.21173756 -0.24071081
000070 43 50 2e be 29 b5 7c be 55 f0 1f 3e 16 88 1f 3d
       -0.17022805 -0.24678482 0.15619023 0.03894814
