output_bbox_gcn/EVALUATOR_layout_MultiLayer_2023_09_21_16_51_13/Model/evaluator_450.pth (torch, 9127 bytes, 11 tensors)

LayoutSeq.weight_ih_l0 f4 [32, 4]
0	0x3e2cedd6	0.16887602
1	0xbdf90f53	-0.12161126
2	0x3b60b8a0	0.0034289733
3	0x3dee274c	0.11628589
4	0x3e436309	0.19080748
5	0xbe7ccb6e	-0.24686977
6	0xbd1e9ddb	-0.03872476
7	0x3d6fa01f	0.058502313
8	0x3e8ccb50	0.27498865
9	0x3e64340b	0.22285478
10	0x3e2b4266	0.16724548
11	0x3e8b9cdc	0.27268112
12	0xbe97c234	-0.29640353
13	0x3e455097	0.19269024
14	0x3e3396d7	0.1753801
15	0x3d40b6b4	0.04704924
16	0xbe77722d	-0.24164648
17	0x3e95d12c	0.29261148
18	0x3d957ff6	0.07299797
19	0x3e40b65e	0.18819568
20	0xbe6bffd4	-0.2304681
21	0xbde3fdc2	-0.11132385
22	0x3e1949f4	0.14969617
23	0x3e0e06d5	0.13869794
24	0x3e828b05	0.25496688
25	0x3e046acf	0.12931369
26	0xbe7cacab	-0.24675243
27	0xbe12d620	-0.14339495
28	0xbe3bbbab	-0.18333308
29	0x3e672a23	0.22574668
30	0xbc1902f2	-0.009339081
31	0x3eb208da	0.34772378
32	0x3e428365	0.18995436
33	0x3e8c3fe1	0.27392486
34	0x3e4961d9	0.19666232
35	0xbc8e85a2	-0.017397705
36	0x3e9d9dc2	0.30784422
37	0xbd987ad0	-0.074452996
38	0xbdaf8305	-0.08569912
39	0xbc98510b	-0.018593332
40	0xbe8f7344	-0.28017628
41	0x3d6fc64c	0.05853872
42	0xbe1b2048	-0.15149033
43	0xbe480f24	-0.19537026
44	0xbd8a1259	-0.06741781
45	0x3b677dd6	0.0035322807
46	0xbe544c87	-0.20732318
47	0xbe40c42f	-0.18824838
48	0xbe8bd90a	-0.27314025
49	0xbd21c1ab	-0.039491337
50	0x3ea4cc93	0.32187328
51	0xbe1a19f6	-0.15048966
52	0x3ccc4a9b	0.024937918
53	0x3e8ba32a	0.27272922
54	0x3e91c845	0.28473106
55	0x3ece8c62	0.4034148
56	0xbe6bf9fd	-0.23044582
57	0xbdda5ed1	-0.10662616
58	0xbe7331ae	-0.2374942
59	0xbd0d2c19	-0.034465883
60	0x3e225901	0.15854265
61	0x3ea1675b	0.31524166
62	0x3e942559	0.28934744
63	0xbcaa8c82	-0.020818952
64	0x3e00375a	0.12521115
65	0x3db96e55	0.09054247
66	0x3e933601	0.2875214
67	0x3cad9023	0.021186894
68	0xbd4fe384	-0.050754085
69	0xbe622b03	-0.2208672
70	0xbe4044ca	-0.18776241
71	0xbe2f58df	-0.17123745
72	0xbde9ae0c	-0.1141015
73	0x3eb15116	0.34632176
74	0xbeb2abdf	-0.34896752
75	0xbc3ecf98	-0.011646174
76	0xbe334313	-0.17506056
77	0xbe4eb5e2	-0.2018657
78	0x3d8a6f9c	0.06759569
79	0xbec41642	-0.3829823
80	0xbe9641e5	-0.2934715
81	0x3ea0d590	0.31412935
82	0xbdabb833	-0.083847426
83	0x3e9810ce	0.2970032
84	0x3eabf0ae	0.33582062
85	0xbea3d2d8	-0.319968
86	0x3d92aa66	0.07161407
87	0x3db9bc5a	0.09069128
88	0xbe786a1e	-0.2425923
89	0x3e45f999	0.19333495
90	0x3eaa6bc5	0.33285347
91	0xbe8c762c	-0.27433908
92	0xbe03569d	-0.12826009
93	0x3e42ca47	0.19022475
94	0x3de1397a	0.10997291
95	0x3dd560b2	0.10418834
96	0x3d32692d	0.043557335
97	0xbe5f5240	-0.2180872
98	0x3ead711a	0.33875352
99	0xbe349e2a	-0.1763846
100	0x3c713db1	0.014724181
101	0x3e9d6b58	0.3074596
102	0x3e1a3035	0.15057452
103	0x3d5e2058	0.054230064
104	0x3c8a57c2	0.01688755
105	0xbe2c7139	-0.16840066
106	0x3e0fdef2	0.1404989
107	0x3c08477e	0.008317826
108	0xbd9347a9	-0.071914025
109	0xbdc1a64e	-0.09455548
110	0x3ea02ef4	0.31285822
111	0x3d8d5872	0.06901635
112	0x3da9a4c7	0.08283382
113	0xbe05da41	-0.13071539
114	0xbdebad85	-0.115077056
115	0x3dc9bde9	0.098506756
116	0xbe4f0ad5	-0.20218976
117	0x3e8a0cc8	0.26962876
118	0xbd7510f8	-0.059830636
119	0xbe244c6a	-0.16044775
120	0x3c18f4f2	0.009335743
121	0x3e9af9eb	0.30268797
122	0xbe7c3126	-0.24628124
123	0xbe86579c	-0.26238716
124	0x3e7e2b4f	0.24821208
125	0x3df3e327	0.1190856
126	0x3dbcd0b6	0.09219496
127	0xbd8aa509	-0.06769759

LayoutSeq.weight_hh_l0 f4 [32, 8]
0	0x3e2783a4	0.1635881
1	0xbe71336b	-0.2355477
2	0x3e0008fd	0.12503429
3	0xbe412342	-0.18861106
4	0xbcb494b9	-0.022043573
5	0x3d926e3f	0.07149934
6	0xbceb3f23	-0.02871663
7	0x3e13b3e7	0.14424096
8	0x3e84a4b4	0.2590691
9	0x3e237d2b	0.15965717
10	0x3e5a9591	0.21346118
11	0xbe6e7e5c	-0.2329039
12	0x3e32ab90	0.17448258
13	0x3d7f132d	0.062274147
14	0x3d0d0eaa	0.034437813
15	0x3e548bc0	0.20756435
16	0xbe39b37d	-0.18134876
17	0x3e32760c	0.17427844
18	0xbe16b9eb	-0.1471936
19	0xbdbe8b0e	-0.09303866
20	0x3dc42df2	0.09579076
21	0x3af52778	0.0018703779
22	0x3e7e9f3e	0.24865434
23	0xbe40aeb7	-0.18816648
24	0x3e15fc47	0.14647017
25	0x3db67e54	0.08910814
26	0x3e3cb464	0.18428189
27	0x3d075185	0.033036727
28	0x3de3c862	0.11122204
29	0xbe00b763	-0.12569956
30	0x3dbf6efd	0.09347341
31	0x3e3691ad	0.17829008
32	0x3e740185	0.23828705
33	0xbe6dca32	-0.23221663
34	0xbe4454c1	-0.19172956
35	0xbe9e29da	-0.30891305
36	0x39da0d58	0.00041590142
37	0xbe05f195	-0.13080437
38	0x3e3d07f3	0.18460064
39	0xbc1412dd	-0.0090377005
40	0xbe5ee6b3	-0.21767692
41	0xbc930b79	-0.017949807
42	0xbeb5763c	-0.35441768
43	0xbe81a70c	-0.2532276
44	0xbe84304c	-0.25818098
45	0xbe08560e	-0.13314077
46	0xbe1301fc	-0.14356226
47	0x3e8a1d47	0.26975462
48	0xbe64bd12	-0.2233775
49	0xbe1d2e97	-0.15349804
50	0x3d4773fb	0.048694592
51	0xbe3b3462	-0.18281701
52	0xbe5c19dc	-0.2149424
53	0xbd148230	-0.03625697
54	0xbd816c26	-0.06319456
55	0x3e3fd992	0.1873534
56	0xbe48b8ec	-0.19601792
57	0x3e8f5d3d	0.28000823
58	0xbbee50a6	-0.0072727976
59	0xbd10e928	-0.035378605
60	0x3d8de6f8	0.069288194
61	0x3d94cf9d	0.072661616
62	0xbe7fe8a3	-0.24991088
63	0x3dc3e097	0.095643215
64	0xbe3260ed	-0.17419787
65	0xbe993958	-0.29926562
66	0xbe9c216d	-0.30494252
67	0x3ddb67c7	0.10713153
68	0x3d63baa5	0.05559792
69	0xbd2586f4	-0.040411904
70	0x3e67bcff	0.2263069
71	0xbe1cbddf	-0.15306805
72	0xbe1de9b8	-0.15421188
73	0x3d9ebe5e	0.077511534
74	0x3e3cdf4d	0.18444557
75	0xbe7c8a15	-0.24662049
76	0x3e70c1b3	0.2351139
77	0x3e7e17cd	0.24813767
78	0x3d93c07b	0.07214447
79	0xbdcedfe1	-0.10101295
80	0xbe67d6f2	-0.22640589
81	0xbe55cff5	-0.2088011
82	0xbdb76a0d	-0.089557745
83	0xbd8a00c1	-0.06738425
84	0xbd4b7886	-0.049675487
85	0xbd93d28f	-0.07217895
86	0xbe7902a7	-0.24317418
87	0x3e054593	0.13014822
88	0xbd95dd70	-0.073176265
89	0x3ca1b1ce	0.019738104
90	0xbe17ceb5	-0.14824946
91	0xbe363af6	-0.1779593
92	0x3e0a5e4f	0.13512538
93	0x3e229854	0.15878421
94	0x3e8c98d0	0.27460337
95	0x3d59e862	0.053200133
96	0xbe5dc70f	-0.21657966
97	0x3decd3a8	0.11563808
98	0x3ea35236	0.3189866
99	0xbe214e4f	-0.15752529
100	0x3e5f9d93	0.21837454
101	0x3df357be	0.1188197
102	0xbd181ee8	-0.03713885
103	0x3e22f49d	0.15913625
104	0x3d554ab3	0.05207319
105	0xbdf439c7	-0.11925083
106	0x3e82b5b6	0.2552926
107	0x3e7baf22	0.24578527
108	0x3e6a2326	0.2286497
109	0x3e84051d	0.2578515
110	0xbdd93139	-0.106050916
111	0x3e9f864b	0.31157145
112	0xbe4e6a29	-0.20157684
113	0xbe63799a	-0.22214356
114	0xbe106923	-0.14102606
115	0xbe8d0e69	-0.27550057
116	0xbda203f7	-0.079109125
117	0x3e15cfca	0.14630046
118	0x3dafe908	0.08589369
119	0xbc8bcfa9	-0.017066794
120	0x3e2bfade	0.16794917
121	0xbdf18374	-0.11792651
122	0x3c36eeca	0.01116533
123	0xbed476de	-0.41496938
124	0xbd9c43e4	-0.076301366
125	0x3d8e6928	0.06953651
126	0x3e1015f9	0.14070882
127	0x3e523e47	0.2053157
128	0xbe8293cf	-0.25503394
129	0xbda148ce	-0.078752145
130	0x3e3d97e7	0.18514977
131	0x3e3306e6	0.174831
132	0x3e59b355	0.21259816
133	0xbd3c82ff	-0.046023365
134	0xbe9f3c4a	-0.31100684
135	0x3e65435a	0.22388974
136	0xbd492ea3	-0.049116742
137	0xbe2c9bd7	-0.16856323
138	0x3e9b7936	0.30365914
139	0x3e33ea97	0.17569958
140	0x3d9f60a7	0.07782107
141	0x3e6bbe6a	0.23021856
142	0x3ea78839	0.32721117
143	0x3e1d66c4	0.15371233
144	0x3d6aa7a5	0.057288785
145	0x3ec1aa63	0.37825307
146	0x3e472cc1	0.19450666
147	0xbdf2603e	-0.11834763
148	0xbe9aa5ed	-0.30204716
149	0xbe83e77d	-0.2576255
150	0x3e9aae7a	0.3021124
151	0x3df824a0	0.12116361
152	0xbeb04bdc	-0.34432876
153	0x3e07dfca	0.13268963
154	0x3ec8b491	0.3920026
155	0x3ebe6250	0.3718438
156	0x3da9bc9f	0.0828793
157	0x3e2cf409	0.16889967
158	0xbe3db636	-0.18526539
159	0xbdfc14b1	-0.12308634
160	0x3d436f0f	0.047713336
161	0x3eae27d7	0.3401477
162	0xbe60cc26	-0.21952876
163	0x3e8975c1	0.26847652
164	0x3daa54fe	0.08316992
165	0xbe9ffd6a	-0.31248027
166	0xbe566eee	-0.20940754
167	0x3da62c6d	0.08113942
168	0xbe4e68fb	-0.20157234
169	0x3d89c810	0.06727612
170	0x3e3b83fe	0.1831207
171	0x3cc3f413	0.023920095
172	0xbe44041d	-0.19142194
173	0xbe193bce	-0.1496422
174	0xbe293dcb	-0.16527478
175	0x3ec77af2	0.38960987
176	0x3e6f3b36	0.23362431
177	0x3beaa158	0.007160347
178	0x3e944aed	0.28963414
179	0xbeafc094	-0.34326613
180	0xbe7f1b2d	-0.2491271
181	0xbe1c1266	-0.15241393
182	0x3e813e7d	0.25242987
183	0xbe43f690	-0.19137025
184	0xbe8ae5b0	-0.27128363
185	0xbe866ec2	-0.26256377
186	0xbdaa0568	-0.083018124
187	0xbc842991	-0.016133102
188	0xbea0733b	-0.31337914
189	0x3eb0a3e0	0.34500027
190	0x3e3db25d	0.18525071
191	0xbda559ac	-0.08073744
192	0xbe031e60	-0.12804556
193	0x3e42aab4	0.1901043
194	0x3c81d1d3	0.015847122
195	0xbe9fbfed	-0.31201115
196	0x3ccee933	0.025257682
197	0xbd35af69	-0.044356737
198	0x3d563037	0.052292075
199	0x3e844d80	0.25840378
200	0x3ea9ae03	0.33140573
201	0xbe8e955b	-0.27848324
202	0xbe4ff461	-0.20308067
203	0x3e3c7678	0.18404567
204	0x3da002c5	0.07813028
205	0x3e84010e	0.25782055
206	0x3e863d35	0.26218572
207	0x3e84e9c3	0.25959596
208	0xbe63e710	-0.22256112
209	0x3e746ac0	0.23868847
210	0x3e3c0374	0.18360692
211	0x3e874da7	0.26426432
212	0xbdfba7c3	-0.122878574
213	0xbe0bf6de	-0.13668391
214	0x3e5f8c79	0.2183093
215	0x3e540b75	0.20707496
216	0x3e45c7a4	0.19314438
217	0xbdb98354	-0.09058252
218	0xbde5160d	-0.111858465
219	0xbeabc34d	-0.3354744
220	0x3d9e3386	0.07724671
221	0xbddefb42	-0.108877674
222	0x3d6af4e1	0.05736244
223	0x3c4f1c8f	0.012641086
224	0xbd464876	-0.048408948
225	0x3e17c21e	0.14820144
226	0x3eb16f06	0.34655017
227	0x3e0a15b1	0.13484837
228	0xbe153307	-0.14570247
229	0xbd6147c6	-0.05500009
230	0xbe735804	-0.23764044
231	0xbdd41ad6	-0.10356681
232	0xbe78a8a1	-0.24283077
233	0xbd524593	-0.051335882
234	0xbd1af51e	-0.03783142
235	0xbe6923d4	-0.22767574
236	0xbdeb48a7	-0.11488467
237	0xbce6aad9	-0.028157638
238	0xbdf376d2	-0.118878976
239	0x3dd2f95c	0.10301468
240	0xbe44cffb	-0.19219963
241	0xbe456b46	-0.19279203
242	0x3ea1a5b1	0.31571725
243	0xbe898f0b	-0.26866946
244	0x3e1af48d	0.15132351
245	0xbd08958c	-0.033345744
246	0xbde7aa53	-0.11311784
247	0x3bf22081	0.0073891287
248	0x3df3a13b	0.11895987
249	0x3d865685	0.06559471
250	0xbe057ffb	-0.13037102
251	0xbd66297d	-0.05619191
252	0xbdc06000	-0.093933105
253	0xbd921890	-0.07133591
254	0x3cf6fde7	0.030150367
255	0x3e0e312e	0.13885948

LayoutSeq.bias_ih_l0 f4 [32]
0	0x3dc9b877	0.09849637
1	0x3e8bcc8d	0.27304497
2	0x3e0edd2f	0.13951562
3	0x3dd3d26f	0.103428714
4	0x3cb038d1	0.021511467
5	0x3e953758	0.29143786
6	0x3ea16810	0.31524706
7	0xbe17b1cf	-0.14813922
8	0xbd54e720	-0.05197823
9	0x3e7aac9d	0.24479909
10	0x3ba79aae	0.005114875
11	0x3d9cca49	0.0765577
12	0xbe8e159f	-0.2775087
13	0x3dcc0a9a	0.099629596
14	0x3e6c1181	0.23053552
15	0xbc7e7c56	-0.015532574
16	0xbda4bacc	-0.08043441
17	0x3dd0332d	0.10166011
18	0x3e0b772e	0.13619682
19	0xbe2b9255	-0.1675504
20	0xbd835607	-0.06412893
21	0xbbd53a27	-0.0065071764
22	0xbb839be3	-0.004016386
23	0x3db580db	0.08862468
24	0x3e650fc4	0.22369295
25	0xbde9f19a	-0.11423035
26	0x3e94d919	0.29071882
27	0xbde9924b	-0.11404856
28	0x3ec024f2	0.37528187
29	0x3c08ae4d	0.008342338
30	0xbe49760d	-0.19673939
31	0x3e47cdbc	0.19512075

LayoutSeq.bias_hh_l0 f4 [32]
0	0xbca68269	-0.020325856
1	0xbdbea1cc	-0.09308204
2	0x3ea72e31	0.3265243
3	0x3eb2c50d	0.34915963
4	0xbe679ff4	-0.22619611
5	0xbe8705fa	-0.26371747
6	0xbe1fba32	-0.15598372
7	0x3dc351ed	0.095371105
8	0x3e84d858	0.25946307
9	0x3ec07aeb	0.3759378
10	0xbe3d56a2	-0.18490079
11	0x3eb03ab4	0.34419787
12	0xbe947064	-0.28991997
13	0xbda4986c	-0.08036885
14	0x3be8fe44	0.007110389
15	0x3dc81f80	0.09771633
16	0xbe4569ae	-0.19278595
17	0xbe93c596	-0.28861684
18	0x3e524ce8	0.2053715
19	0x3dea1567	0.114298634
20	0xbca99182	-0.020699266
21	0x3b9cfd49	0.004790936
22	0x3e9d2c71	0.3069797
23	0xbe04b677	-0.1296023
24	0xbc3a3d13	-0.0113671
25	0x3e48199d	0.1954102
26	0x3e0c78a1	0.13717891
27	0x3def7c99	0.11693687
28	0xbe57518c	-0.21027201
29	0xbde19d32	-0.11016311
30	0xbdb79abc	-0.0896506
31	0x3e89030b	0.26760134

mlp.0.weight f4 [32, 8]
0	0x3d929a03	0.07158282
1	0xbe847a40	-0.2587452
2	0x3d2716a4	0.040793076
3	0x3e605ceb	0.21910445
4	0x3e18ceea	0.14922681
5	0x3e5008a7	0.203158
6	0xbdaf5730	-0.085615516
7	0x3de95670	0.1139344
8	0xbe6e3100	-0.2326088
9	0x3dbf7a12	0.09349455
10	0xbdb88dfc	-0.09011456
11	0x3d09bd62	0.033627875
12	0x3c83fb94	0.016111173
13	0x3d8f8f37	0.07009738
14	0xbe89323f	-0.26796147
15	0xbde4836c	-0.11157879
16	0x3d440ba8	0.04786268
17	0xbe38d7ee	-0.1805112
18	0x3e3463c3	0.17616181
19	0x3ddf9d6e	0.10918699
20	0xbea29a18	-0.3175819
21	0x3cd7fcf0	0.026365727
22	0xbd43e0e4	-0.047821894
23	0xbe5c9812	-0.21542385
24	0x3ed9a954	0.42512
25	0xbc0282ec	-0.0079657845
26	0x3ed583dc	0.41702163
27	0x3cfc143a	0.030771364
28	0x3e016298	0.12635267
29	0x3e31b3db	0.17353766
30	0x3d989b82	0.07451536
31	0x3e0e7552	0.13911942
32	0x3dba75bc	0.09104487
33	0xbe85ef66	-0.2615921
34	0xbd8e62e5	-0.069524564
35	0xbe4adcfd	-0.19810863
36	0xbeaa2bf7	-0.33236668
37	0xbd2910e0	-0.04127586
38	0x3e59a84a	0.21255603
39	0xbe80b661	-0.25139144
40	0xbd45a41c	-0.04825221
41	0x3e10ba72	0.14133623
42	0xbd35cf08	-0.044386894
43	0x3d85daa6	0.065358445
44	0x3e402ae6	0.18766364
45	0x3d21b386	0.039477848
46	0xbedc8d9a	-0.43076783
47	0x3e675bc0	0.22593594
48	0xbd929b7c	-0.071585625
49	0xbef84bc8	-0.48495317
50	0x3cafad91	0.021445068
51	0xbd9a7196	-0.07541196
52	0x3d9d3f09	0.076780386
53	0x3e337223	0.17524008
54	0xbe70127e	-0.23444554
55	0xbe24aaca	-0.16080776
56	0x3e0cb350	0.13740277
57	0x3e3478d1	0.17624213
58	0xbe52d24b	-0.20588033
59	0xbe4a9830	-0.19784617
60	0xbda4fd67	-0.08056145
61	0xbebb744c	-0.36612165
62	0xbd2e325b	-0.04252849
63	0xbddecd44	-0.10878995
64	0xbdc68b92	-0.0969459
65	0xbeac950b	-0.3370746
66	0x3e00b140	0.12567616
67	0xbe99ec2a	-0.3006299
68	0xbe3a987d	-0.18222232
69	0xbe8618a0	-0.26190662
70	0x3e880324	0.26564896
71	0xbec66ef3	-0.38756523
72	0xbeca65d8	-0.39530826
73	0x391cbc7c	0.00014947535
74	0xbd02a454	-0.031894997
75	0x3db4acbf	0.08822011
76	0xbe91d231	-0.28480676
77	0x3e20aa55	0.15689977
78	0xbdd1d6c8	-0.102460444
79	0x3f20c77c	0.6280439
80	0xbe4d69ae	-0.20059845
81	0xbe909b0e	-0.28243297
82	0x3d075adb	0.03304563
83	0x3e22b474	0.1588915
84	0xbcb830df	-0.022484241
85	0xbdbddef5	-0.09271041
86	0xbcb0f0fd	-0.021599287
87	0xbe71c880	-0.23611641
88	0x3dc03e70	0.09386909
89	0x3dddd365	0.10831336
90	0x3e10556d	0.14095087
91	0xbe9b3c31	-0.3031936
92	0xbdd33f6c	-0.10314831
93	0x3d0f4c15	0.034984667
94	0xbf0a1e29	-0.5395227
95	0x3ecdd23a	0.40199453
96	0xbe8b7731	-0.27239373
97	0x3e733b02	0.23752978
98	0x3e26f709	0.16305174
99	0x3d0979b2	0.033563323
100	0xbee4a640	-0.4465809
101	0x3e9079a0	0.28217793
102	0xbde6b84c	-0.112656206
103	0x3f683b28	0.90715265
104	0x3e1b3cff	0.15159987
105	0xbe25b5c3	-0.16182618
106	0x3e8a82ca	0.2705291
107	0xbd1c0cb9	-0.03809807
108	0x3e3bbcc2	0.18333724
109	0x3e865902	0.26239783
110	0xbe8b04e4	-0.2715217
111	0x3e201f8b	0.15637033
112	0x3e8de1eb	0.27711424
113	0xbe097d04	-0.13426596
114	0x3bb19c6f	0.0054202597
115	0xbe417007	-0.18890391
116	0x3c709c9d	0.014685777
117	0xbd817570	-0.063212276
118	0x3c964eaa	0.018348057
119	0x3c63fc75	0.013915171
120	0xbe8308d6	-0.2559268
121	0x3d9940c8	0.07483059
122	0x3e3b891e	0.18314025
123	0x3d036d6d	0.03208678
124	0x3eac89a5	0.33698764
125	0x3e061103	0.13092427
126	0xbd9ec18b	-0.07751759
127	0x3de4500d	0.11148081
128	0x3e47f8e2	0.19528535
129	0xbe631a76	-0.22178063
130	0x3d69705c	0.05699192
131	0xbe69cdbe	-0.2283239
132	0x3e7d4fa1	0.24737407
133	0xbe719076	-0.23590264
134	0xbe0b1c27	-0.13584958
135	0xbd17cc8c	-0.037060305
136	0xbe1063a7	-0.14100514
137	0xbd8cdb6b	-0.06877788
138	0xbda5a1cf	-0.08087503
139	0x3d5bf0a5	0.053696293
140	0xbd66f5b4	-0.056386665
141	0xbe85a4b4	-0.2610222
142	0xbe1ba705	-0.15200432
143	0x3e019494	0.12654334
144	0xbe1e9233	-0.15485458
145	0xbe65d9b6	-0.22446331
146	0x3ecd41e9	0.40089348
147	0x3c8897c9	0.01667394
148	0xbe0b1b9f	-0.13584755
149	0x3e03ed2f	0.12883447
150	0xbc6c99b3	-0.014440942
151	0xbe0beb24	-0.13663918
152	0x3e1a3105	0.15057762
153	0x3da99eee	0.082822666
154	0x3de434d1	0.111428864
155	0x3e2d5065	0.169252
156	0xbc5d2e60	-0.013499826
157	0xbdc3979b	-0.09550401
158	0x3e0f1587	0.13973056
159	0x3d5c33f6	0.05376049
160	0xbeb60df8	-0.35557532
161	0x3e751dd3	0.23937158
162	0x3d424c04	0.047435775
163	0xbbf977a5	-0.0076131397
164	0xbd0b420a	-0.033998527
165	0xbe0c2559	-0.13686122
166	0x3d73fb29	0.059565697
167	0x3e161b2e	0.14658806
168	0xbe9bdc2b	-0.30441412
169	0xbe11e55e	-0.14247653
170	0xbe4a984e	-0.19784662
171	0xbe20d52a	-0.15706316
172	0xbe31d5f7	-0.17366777
173	0x3e0b82d0	0.1362412
174	0xbe681d2e	-0.22667381
175	0x3f19ce72	0.60080636
176	0xbec643f7	-0.38723728
177	0xbe11f7f0	-0.14254737
178	0xbdb2b287	-0.08725458
179	0x3e47efb0	0.19525027
180	0x3e9d7b8a	0.30758315
181	0xbcd22bec	-0.02565571
182	0xbdb9e89a	-0.09077568
183	0x3e071fc1	0.13195707
184	0xbd2a4d45	-0.041577596
185	0xbe7bb729	-0.24581589
186	0xbe4e8731	-0.20168759
187	0x3cbde234	0.023179151
188	0x3e8eb04b	0.27868876
189	0xbe9f676d	-0.31133595
190	0xbd023e84	-0.0317979
191	0xbddd16df	-0.10795378
192	0xbe295f20	-0.16540194
193	0xbe24c0f6	-0.16089234
194	0xbed01544	-0.40641224
195	0x3e92f565	0.28702846
196	0x3df47ecb	0.11938246
197	0xbc7ae0cb	-0.015312384
198	0xbe2c90cb	-0.16852109
199	0x3de2044e	0.11035977
200	0xbeb66bd5	-0.35629144
201	0xbe526e80	-0.20549965
202	0x3dc9d7f4	0.09855643
203	0xbd27b0c0	-0.040940046
204	0x3d2bbc34	0.04192753
205	0x3caf0a0d	0.021367097
206	0x3d946612	0.07246031
207	0x3e9b99dd	0.30390826
208	0x3dd96029	0.10614044
209	0xbeca62bf	-0.39528462
210	0xbe599588	-0.21248448
211	0xbd4000c2	-0.046875723
212	0x3d7c5944	0.061608568
213	0x3ecb621c	0.3972329
214	0x3e4e4bf6	0.20146164
215	0xbc888003	-0.016662603
216	0x3e71be55	0.23607762
217	0xbd36082e	-0.044441395
218	0xbc968302	-0.018373016
219	0x3c880721	0.016604962
220	0x3e0d4194	0.13794547
221	0xbe857c9b	-0.2607163
222	0x3e4424c6	0.19154653
223	0xbe370b05	-0.17875297
224	0x3d91d720	0.0712111
225	0xbe960843	-0.29303178
226	0x3edcd5e5	0.4313194
227	0x3ede094d	0.4336647
228	0xbe027796	-0.12740931
229	0xbdbdeb6e	-0.0927342
230	0x3e124353	0.14283495
231	0xbc773983	-0.015089395
232	0x3e5d9fac	0.21642941
233	0x3dfb5206	0.12271504
234	0xbd11fd84	-0.035642162
235	0xbe3ff643	-0.18746285
236	0xbe82e5ea	-0.25566036
237	0x3e2948cc	0.16531676
238	0x3d3325bb	0.043737154
239	0xbe384e5a	-0.17998639
240	0xbd9bc1bd	-0.07605312
241	0xbc90b1d8	-0.017662928
242	0xbcef4ab7	-0.029210432
243	0x3d8dd865	0.069260396
244	0xbd80249d	-0.062569834
245	0xbea421ae	-0.32056946
246	0x3eb2000b	0.34765658
247	0xbcae705e	-0.021293815
248	0x3e629d11	0.22130229
249	0xbe855b36	-0.2604615
250	0xbc85fc0a	-0.016355533
251	0x3d90bb3f	0.07066964
252	0xbdef5805	-0.1168671
253	0x3d5f629d	0.054537404
254	0xbcd5a353	-0.026078856
255	0xbe2540ba	-0.16137972

mlp.0.bias f4 [32]
0	0x3640d1a0	2.8732247e-06
1	0x371d9374	9.392261e-06
2	0xb6e569b1	-6.837036e-06
3	0x3658b540	3.229201e-06
4	0xb74e7d62	-1.230775e-05
5	0xb7abaa5a	-2.0464115e-05
6	0xb7929431	-1.7473563e-05
7	0x35e41a10	1.6994909e-06
8	0x38305790	4.204322e-05
9	0x37160b9f	8.9434025e-06
10	0xb6df5c3c	-6.6566554e-06
11	0xb6d0ccaa	-6.222709e-06
12	0xb8e9721f	-0.000111315625
13	0xb717e695	-9.053988e-06
14	0xb60e34d8	-2.1190408e-06
15	0x36aeabc8	5.205602e-06
16	0x35a406e6	1.222096e-06
17	0x38248a29	3.922932e-05
18	0x37ce13b8	2.4566296e-05
19	0xb6fd4ee2	-7.5491707e-06
20	0xb75abfb7	-1.303845e-05
21	0xb7ce8668	-2.4619701e-05
22	0x37645fea	1.3612191e-05
23	0xb789208d	-1.634683e-05
24	0xb7492e74	-1.1991349e-05
25	0x354c5200	7.611525e-07
26	0x35fcb43b	1.8827917e-06
27	0xb583c6c0	-9.818104e-07
28	0x36e62000	6.8582594e-06
29	0x37dfbbde	2.6671154e-05
30	0xb66a6df0	-3.493271e-06
31	0xb71b5eb5	-9.260771e-06

mlp.1.weight f4 [32]
0	0x3f5ab953	0.8543903
1	0x3f4457f7	0.76696724
2	0x3f642138	0.8911319
3	0x3f4b9c74	0.79535604
4	0x3f622336	0.8833498
5	0x3f681498	0.90656424
6	0x3f705f1f	0.93895143
7	0x3f681a07	0.90664715
8	0x3f6bf9ed	0.9217823
9	0x3f5caeeb	0.86204404
10	0x3f6b6629	0.9195276
11	0x3f650276	0.8945688
12	0x3f8e8b56	1.1136272
13	0x3f50e51a	0.8159958
14	0x3f50f79e	0.81627834
15	0x3f5a5034	0.8527863
16	0x3f662f51	0.8991595
17	0x3f606e05	0.87667876
18	0x3f782575	0.96932155
19	0x3f5b51c6	0.8567165
20	0x3f62569c	0.88413405
21	0x3f76325c	0.9617059
22	0x3f717b6b	0.94328946
23	0x3f72a352	0.9478046
24	0x3f5a5cab	0.8529765
25	0x3f65e28a	0.89798796
26	0x3f66f05e	0.9021052
27	0x3f56e56f	0.8394384
28	0x3f632177	0.8872294
29	0x3f5ceb47	0.86296505
30	0x3f6e8a1f	0.93179506
31	0x3f4e5a8a	0.806069

mlp.1.bias f4 [32]
0	0x3d92ebfa	0.07173915
1	0x3e3bf9d8	0.18357027
2	0x3dbaaa0e	0.091144666
3	0xbe53b446	-0.20674238
4	0x3d30ab24	0.043131962
5	0x3d582aa4	0.05277504
6	0xbda5c050	-0.08093321
7	0x3d09132d	0.033465553
8	0x3d63066e	0.055426054
9	0x3dcf690f	0.1012746
10	0x3d9cff8a	0.07665928
11	0xbd9c3c8a	-0.076287344
12	0x3d9b77e0	0.07591224
13	0x3d92c21a	0.07165928
14	0xbd95ede4	-0.07320765
15	0x3dbdba48	0.09264046
16	0x3d909c4e	0.07061063
17	0x3c7aaa19	0.0152993435
18	0xbd33c580	-0.043889523
19	0xbd2c75db	-0.042104583
20	0xbd7fdb0c	-0.06246476
21	0x3da2bca8	0.079461396
22	0x3da469ae	0.08027969
23	0x3c950d99	0.01819496
24	0x3d37ee97	0.04490527
25	0x3d5993fa	0.053119637
26	0xbd9665b1	-0.07343615
27	0x3dbb0096	0.09130971
28	0x3d5d83e5	0.054080863
29	0xbdafea67	-0.085896306
30	0xbd398d5f	-0.045300838
31	0x3d90422b	0.070438705

mlp.1.running_mean f4 [32]
0	0x3d1047ea	0.035224833
1	0xbe05731a	-0.13032189
2	0x3cbf2bae	0.023336258
3	0x3df4c71f	0.11952042
4	0x3e1350da	0.14386311
5	0xbdf52154	-0.119692475
6	0x3dde43e4	0.10852793
7	0xbdc7acdf	-0.097497694
8	0x3e358f9f	0.17730568
9	0x3e17373b	0.14767163
10	0xbccf2119	-0.025284337
11	0x3dbef7ed	0.09324632
12	0x3e6159cc	0.22006911
13	0x3dd8ba05	0.105823554
14	0x3dd097f9	0.101852365
15	0xbba1eea3	-0.004941778
16	0x3d89f0da	0.06735392
17	0xbd03fe7f	-0.03222513
18	0x3e05bcdb	0.13060324
19	0xbd00a8a9	-0.031410847
20	0xbccd68be	-0.025074359
21	0x3e4afb37	0.19822393
22	0xbd49f393	-0.049304556
23	0xbd7508f2	-0.059822984
24	0xbe0ab9b1	-0.13547398
25	0x3e40ac6c	0.18815774
26	0x3e34debc	0.17663091
27	0xbd35a40c	-0.0443459
28	0x3d5dee85	0.054182548
29	0x3cb24b14	0.021764316
30	0x3c6797b6	0.014135292
31	0x3cd9dd9a	0.026594926

mlp.1.running_var f4 [32]
0	0x39f8da73	0.00047465003
1	0x39ca46d3	0.0003858121
2	0x39bcdcc4	0.00036022638
3	0x398a3ec7	0.00026368184
4	0x3a0cdba5	0.0005373306
5	0x3a0843e3	0.0005198104
6	0x3ab21af9	0.0013588361
7	0x38dfc7d8	0.000106706924
8	0x398b2a1a	0.00026543514
9	0x39c42f1f	0.0003741914
10	0x39d8a81c	0.00041323982
11	0x3b101e7c	0.0021990826
12	0x3a09cbde	0.0005256514
13	0x3a9d7464	0.0012012837
14	0x3a9003c8	0.0010987455
15	0x3a6571cc	0.0008752614
16	0x3a985ad8	0.0011623753
17	0x37570585	1.2816284e-05
18	0x3a647215	0.00087145093
19	0x39e3d16b	0.00043452843
20	0x3aab725c	0.0013080346
21	0x3b5ca7ef	0.0033669432
22	0x398ca784	0.0002682769
23	0x396dc777	0.00022676388
24	0x3a355ca1	0.0006918405
25	0x39a748bb	0.0003190691
26	0x3b521181	0.003205389
27	0x391a248e	0.00014700202
28	0x3ae8d5d1	0.0017763918
29	0x3989cb19	0.00026281996
30	0x3a6dd662	0.0009072778
31	0x39e77f81	0.0004415475

mlp.3.weight f4 [1, 32]
0	0x3dc67df0	0.096919894
1	0xbd837b6c	-0.06420025
2	0xbe0ae3ca	-0.13563457
3	0xbdd20e20	-0.102566004
4	0x3e0688d7	0.13138138
5	0x3e22c8d2	0.1589692
6	0xbed8aaa4	-0.42317688
7	0xbe808e47	-0.2510855
8	0xbe607d25	-0.21922739
9	0x3e06fa55	0.13181432
10	0xbe917434	-0.28408968
11	0xbe301e88	-0.17199147
12	0x3ee963cc	0.4558395
13	0x3da1f82b	0.079086624
14	0xbd458f90	-0.048232615
15	0xbd366410	-0.04452902
16	0x3e25e747	0.16201507
17	0xbdf27956	-0.11839549
18	0x3eac05ec	0.33598268
19	0x3dcf9ec0	0.10137701
20	0x3dd5a966	0.10432701
21	0x3e64b3a0	0.22334146
22	0xbe95525a	-0.29164392
23	0xbe9e1c9e	-0.30881208
24	0x3dc5112f	0.09622418
25	0x3e1cec34	0.1532448
26	0xbe472241	-0.1944666
27	0xbe14473e	-0.14480302
28	0xbde87fe5	-0.11352519
29	0xbe32bd85	-0.17455108
30	0x3e39693e	0.18106553
31	0x3d81fb16	0.06346719
