output_bbox_gcn/EVALUATOR_layout_MultiLayer_2023_09_21_16_51_13/Model/evaluator_720.pth (torch, 9127 bytes, 11 tensors)

LayoutSeq.weight_ih_l0 f4 [32, 4]
00000000: 724b eb3d 52b9 0dbe b651 50bd fa41 bb3d
00000010: 2ca3 1f3e 10f1 56be e5b0 18bd efa0 a63d
00000020: 9221 523e b28e 2f3e 7d83 3f3e bca7 953e
00000030: 5047 90be 62c5 163e f806 293e e987 533d
00000040: 3ae2 98be 65d5 9c3e 952a c53d f624 4b3e
00000050: 1c8a 78be deb9 f3bb 5350 0a3e 8ebc 233e
00000060: d0ee 533e 78ef f13d e7b8 65be 2bb9 0bbe
00000070: cf12 f7bd f69a 523e 817e cdbc 281c b03e
00000080: f688 413e e708 933e 2e57 5a3e b9a9 163c
00000090: c53d a33e a3db 31bd 4c65 c7bd 8598 0a3c
000000a0: 4aaf 90be 259c 953d c29c 42be 7ccf 3cbe
000000b0: 2cc3 9dbd 2574 143d 8404 43be bd41 39be
000000c0: 7d5f 76be 22f6 1cbd bf60 9f3e fbaf 8fbd
000000d0: 63c5 a4bb f114 6c3e ac54 923e fda6 ce3e
000000e0: 0ec1 54be dd54 d7bd 4673 64be f8d0 0cbc
000000f0: 6508 093e 5df7 9f3e 0dae 8a3e 5956 f5bc
00000100: 7dce 113e e1ba c63d f8e2 923e 3318 a03c
00000110: 5bb1 84bd 87de 7ebe 45e8 32be 3c09 1bbe
00000120: f8da abbd cd92 d03e 1b72 abbe 53f4 d4bc
00000130: a3ba 13be bd25 60be 5063 b03d 9811 c0be
00000140: dd0e a4be a1b1 a13e f89d a3bd 8592 9a3e
00000150: 9184 a83e 385d a5be 50e6 813d e3eb b13d
00000160: 80e3 83be 88a8 243e 3b25 a53e 481e 85be
00000170: 1730 10be 74f6 303e 0bbd e63d 6ee0 df3d
00000180: 1a08 293d 32ff 37be c4a1 9a3e e8ed 1bbe
00000190: 7dcf 233d 3da3 a83e 2c79 263e ba7f 5f3d
000001a0: c5fd 74bc 2539 10be e337 a83d d3d5 0f3d
000001b0: d6d5 c0bd 476c c7bd 3402 9e3e 0e6b 523d
000001c0: c9bc 533d 50dd edbd acf3 d4bd 40cf 063e
000001d0: 9841 46be d1d8 8f3e af93 9fbd f9e8 1ebe
000001e0: 41c7 673c 08c4 8e3e 8e35 5dbe 8552 87be
000001f0: d40d 703e 006e f53d 20b8 953d 7438 93bd
0.114889994 -0.13840225 -0.050859176 0.091434434 0.15589589 -0.20990396 -0.037278075 0.081361644
0.20520619 0.17144278 0.18702503 0.29229534 -0.28179407 0.14723733 0.16506565 0.051643286
-0.29860097 0.30631557 0.096272625 0.19838318 -0.24271435 -0.0074379286 0.13507204 0.15989897
0.20696568 0.11813253 -0.22433816 -0.13644855 -0.12064134 0.20566925 -0.025084736 0.34396482
0.18899903 0.2871773 0.21322319 0.0091957385 0.31883064 -0.043422353 -0.09736118 0.008459215
-0.28258735 0.07305173 -0.19005111 -0.18438524 -0.07703242 0.036243577 -0.19044691 -0.18091483
-0.24059863 -0.038320668 0.311285 -0.070159875 -0.005028413 0.23054864 0.28580225 0.40361777
-0.2077677 -0.10514233 -0.22309598 -0.008594744 0.13382109 0.3124341 0.27085915 -0.0299484
0.14238925 0.09703613 0.28688788 0.01954279 -0.0647914 -0.24889575 -0.17471416 -0.15140241
-0.08391374 0.40737 -0.33485493 -0.02599541 -0.14426665 -0.21889396 0.08612692 -0.37513423
-0.3204259 0.31580833 -0.079891145 0.3018991 0.3291364 -0.32297683 0.06342757 0.0868757
-0.25759506 0.16079915 0.32254967 -0.25999665 -0.14080845 0.17281514 0.11266526 0.109314784
0.041267492 -0.17968443 0.30201542 -0.15227473 0.039992798 0.3293704 0.16257161 0.05456517
-0.0149530815 -0.14084299 0.082137845 0.035116028 -0.09415786 -0.09737449 0.30861056 0.051371627
0.05169371 -0.11614478 -0.10398039 0.13164997 -0.1936096 0.28095105 -0.0779184 -0.1551856
0.014146627 0.27883935 -0.2160246 -0.26430145 0.23442775 0.119838715 0.0731051 -0.07188502

LayoutSeq.weight_hh_l0 f4 [32, 8]
00000000: 3368 1a3e 4d59 7dbe b492 0f3e aaf1 59be
00000010: 64f6 de3b 24e9 bb3d 9aca b1bb 8342 3c3e
00000020: c75b 783e f62d 013e 2398 223e c091 54be
00000030: f624 dc3d e56e 103d fe8f 873d 51b7 383e
00000040: ab4a 23be 1792 1c3e 8f67 cdbd b7cd a6bd
00000050: b1ab 453d 7b4b 373d 8a55 603e 463b 12be
00000060: 7b1e ee3d 2184 373d 0612 f73d 22fc 5abc
00000070: 10a7 a23d 2a2f 36bd 47e3 133d 8c6a 223e
00000080: 3a85 5d3e 3d4e 73be 7346 32be a817 9ebe
00000090: 9ed2 7c3c 9e7e a3bd 4e3f 253e 4291 723c
000000a0: 2a99 36be d892 87bb 96b3 adbe 7759 5ebe
000000b0: 2af8 8bbe 57af a4bd 0380 f3bd c4ce 653e
000000c0: f111 3dbe 9244 b2bd ccdd 623d 632c fabd
000000d0: 152c 36be 46e2 a5bc bf29 25bd 87ea e33d
000000e0: 8357 4cbe 945e 8b3e e357 823c 0189 1abd
000000f0: 2caf 683d 245a a23d 938e 76be 1ef9 ce3d
00000100: 04e0 04be 9227 8cbe ec4d 82be 0ac7 ac3d
00000110: e902 f93c ec11 05bd 94f3 543e 6456 ddbd
00000120: c9ef ecbd ab30 5e3d 15b4 093e ad16 7fbe
00000130: 86ed 493e 3c35 3f3e b2bf b83d b73c 96bd
00000140: e7c8 35be 87fb 2bbe 5d5a e9bd 3fe5 50bd
00000150: b193 6dbd b0a4 a53b d3b2 7dbe 8a54 d13d
00000160: fdc3 f9bc 3b51 3cbd 7b62 28be fb44 76be
00000170: c068 a73d ee3a 513e a35e 603e b7d2 de3d
00000180: 39f5 3cbe 71eb 9a3d deef a73e 7991 42be
00000190: 9a1e 483e 5ef0 e93d c1ae 8dbc a64c 3e3e
000001a0: 2e8f 453d 847a 07be 60c0 9c3e abc3 593e
000001b0: 3d74 2b3e 0fd4 793e c7cb 38bd d921 a43e
000001c0: 5efa 35be 240d 23be 5a56 aebd 2eb0 5bbe
000001d0: 1d92 b0bd 4e0f e33d 4818 a83d c215 7ebb
000001e0: b7ec d83d 195f cebd b115 ab3d 3bb1 c7be
000001f0: e518 05be 3cfa d83d 3dd6 1a3e 4939 433e
00000200: ccac 73be 2400 c9bd c852 1c3e 837a 223e
00000210: 4f9b 643e bd52 02bd af86 a3be 6046 5a3e
00000220: f20c 43bd 6049 23be 6c0f 9f3e 5dee 313e
00000230: 6fe7 9c3d 00c0 893e c20e 963e 7fa9 1b3e
00000240: 30ea 2d3d 13f2 ce3e 5695 463e 10cf 85bd
00000250: c7fb abbe 7d4f 60be b57f 8d3e f227 9f3d
00000260: 20a8 93be 97ea ff3d 6928 c13e af02 c13e
00000270: 8f9e 8b3d 25ca 153e 33b5 2fbe 6530 e1bd
00000280: a3b1 c43d 5df8 9c3e 4725 85be f8d3 803e
00000290: b3b2 003e 7471 a3be 4c76 79be fb19 a83d
000002a0: 429c 4dbe 35d3 8f3d 4216 593e c47d e93c
000002b0: c44c 5cbe bc83 eebd a78e 14be 0243 cc3e
000002c0: 86ff 5f3e 4cfa 0c3c bac0 8f3e e6bc a6be
000002d0: 99aa 80be c601 e0bd 4043 783e 9bb6 21be
000002e0: 96c6 90be 1d3e 7bbe 6bb6 5abd 2f87 a1bc
000002f0: 53b7 a7be 9586 b83e 10f0 493e 9fb9 6dbd
00000300: 5e66 83bd ea5d 163e 4d4b 0c3d 6cd7 a6be
00000310: 96b5 d93b 6113 d13b 1e5a 913d 376a 8e3e
00000320: 4944 8b3e 223b 79be c0ca 29be 8c05 0e3e
00000330: a7ad bb3d db63 493e dfe2 6d3e 6c1f 6d3e
00000340: c7ce 44be a4c1 4c3e a15e 3d3e 508a 673e
00000350: fcd8 0ebe 3211 4bbd ab5a 583e d8df 593e
00000360: cd4b 283e fca7 b8bd 71ee 01be f737 a3be
00000370: 70da 713c 2ceb 11bd c004 8b3d 6783 b33c
00000380: 6824 a7bb b9c1 ec3d d869 a63e 1d9e da3d
00000390: 693c 05be d75d 2bbc fbc8 60be b36f 89bd
000003a0: 1513 5bbe 888f 4fbd e77b dfbc b1b7 56be
000003b0: 42d3 ffbd 7b6a 15bc 43a5 e1bd ffb5 d83d
000003c0: 6916 6abe 0e7c 05be 6fd4 a93e f4d2 6abe
000003d0: 0fa9 093e 5f92 0ebd f8d0 ebbd ec80 88bc
000003e0: 7f3f d73d e12b 753d bced d7bd 612d 26bd
000003f0: 67b1 d5bd 1a43 fdbc a377 8d3c 3381 0f3e
0.15078811 -0.24741097 0.14020807 -0.21283594 0.0068042744 0.091753274 -0.0054257633 0.18384747
0.2425376 0.12615189 0.15878348 -0.20758724 0.10749237 0.035262007 0.06619261 0.1803868
-0.15946452 0.15290104 -0.10029518 -0.08144706 0.04825944 0.04474972 0.2190763 -0.14280424
0.116269074 0.044803742 0.120639846 -0.013365777 0.07942021 -0.044478573 0.03610542 0.15860957
0.21632853 -0.23760314 -0.17409687 -0.30877423 0.015431074 -0.07983135 0.1613743 0.01480514
-0.17831865 -0.004137378 -0.33926076 -0.21713816 -0.27337772 -0.08041256 -0.11889651 0.22442156
-0.18463875 -0.08704485 0.055387303 -0.12215497 -0.17790253 -0.020249497 -0.040323015 0.11128717
-0.19955258 0.27220595 0.015911048 -0.037728313 0.056807682 0.07927349 -0.24077825 0.10106109
-0.1297608 -0.2737394 -0.25450075 0.08436401 0.030396895 -0.032487795 0.20796043 -0.10807493
-0.11569173 0.054245632 0.13447602 -0.24910994 0.19719514 0.18672651 0.09020938 -0.07335799
-0.1775242 -0.16795169 -0.113941886 -0.050999876 -0.058002178 0.0050550327 -0.24775247 0.10221203
-0.030488962 -0.045975905 -0.16443817 -0.24049751 0.08174276 0.20432636 0.21911101 0.108800344
-0.1845292 0.07564438 0.32800192 -0.19000806 0.19542924 0.114227995 -0.017295243 0.18583927
0.04823225 -0.1323033 0.3061552 0.21266048 0.1674356 0.243973 -0.045116212 0.32057074
-0.17771289 -0.15922982 -0.08512564 -0.21453926 -0.08621619 0.110869035 0.08207756 -0.0038770293
0.10592025 -0.10076732 0.08353747 -0.39002404 -0.12997778 0.105946034 0.15120788 0.19064821
-0.23796386 -0.0981448 0.15265954 0.15867047 0.2232487 -0.031817187 -0.31938693 0.21315908
-0.047619767 -0.15945959 0.31066453 0.17376085 0.0766133 0.26904297 0.29308134 0.15201376
0.042459667 0.40419063 0.19392905 -0.06533635 -0.33590528 -0.21905322 0.27636495 0.07771291
-0.28839207 0.12495916 0.37726143 0.3769736 0.06817352 0.14627893 -0.17158966 -0.10995559
0.09604194 0.30658236 -0.26005003 0.2516172 0.12568168 -0.31922495 -0.24361533 0.082080804
-0.20079139 0.070227064 0.21199897 0.028502353 -0.21513659 -0.1164622 -0.14507543 0.39894873
0.21874818 0.008604597 0.28076726 -0.32565993 -0.25130156 -0.10937838 0.24244404 -0.15792315
-0.2827651 -0.24535413 -0.053396624 -0.01971778 -0.32757053 0.36040178 0.19720483 -0.05803835
-0.06416009 0.14684263 0.0342515 -0.3258623 0.006643961 0.006380484 0.070972666 0.2781541
0.27200535 -0.24338964 -0.16581249 0.13869303 0.09163981 0.19666998 0.23231076 0.23156518
-0.19219504 0.19995743 0.1849313 0.22611356 -0.1394996 -0.049576946 0.21128337 0.21276796
0.16435166 -0.090164155 -0.12688614 -0.31878635 0.014761552 -0.035624668 0.06788015 0.021913243
-0.0051007755 0.11560387 0.32502627 0.10674689 -0.13011326 -0.010459385 -0.21951668 -0.06710758
-0.21393998 -0.05067399 -0.02728076 -0.2096851 -0.12491466 -0.009119625 -0.11017849 0.10581588
-0.22860111 -0.13035604 0.33169886 -0.22932035 0.13443397 -0.03480756 -0.11514467 -0.016663037
0.10510158 0.0598563 -0.10543391 -0.04057062 -0.104342274 -0.030915786 0.017268961 0.1401413

LayoutSeq.bias_ih_l0 f4 [32]
00000000: fed7 c53d 87de 833e 9b4f 103e 5082 c93d
00000010: 8418 053d b8aa 8f3e efe6 923e 89c6 0bbe
00000020: 7f43 37bd 7d29 743e f9b9 fbb9 423e f83d
00000030: eb7e 7cbe be89 ea3d 4745 683e 61ba 8e3a
00000040: 5c51 9bbd 04a5 da3d 3d55 063e 8f65 2ebe
00000050: 8180 99bd db64 4b3c d09f 8bbb 9836 b93d
00000060: 17cb 663e f7bb dabd 5ab0 9b3e 5311 d1bd
00000070: a5b4 c53e 51e4 0a3c 2b93 43be b63a 4c3e
0.09660338 0.25755712 0.14092867 0.09839308 0.032494083 0.28059936 0.28691813 -0.13649954
-0.044742104 0.23843952 -0.0004801301 0.1212125 -0.2465779 0.114520535 0.22682677 0.0010889285
-0.075838774 0.106760055 0.13118453 -0.17030929 -0.07495213 0.012414183 -0.0042609945 0.09043616
0.2253841 -0.10680383 0.30407983 -0.102083825 0.38614383 0.008477286 -0.19099109 0.19944271

LayoutSeq.bias_hh_l0 f4 [32]
00000000: cb34 9bbc 2597 b3bd b427 a43e 7af0 a13e
00000010: be28 58be 2289 83be 83dc 16be 2bca d03d
00000020: 3453 843e 861a ba3e a230 3dbe 091c c03e
00000030: 646c 84be 7998 75bd f290 8b3c 328e e63d
00000040: 26af 3fbe faf0 8ebe f16f 4c3e 358b df3d
00000050: 2744 02bd 8f9e c13c d256 9b3e 122a 01be
00000060: b138 64bb d3eb 3c3e ff24 1e3e 8305 ee3d
00000070: 5ac0 42be b410 dcbd ab27 b6bd 617e 8a3e
-0.018946072 -0.08769063 0.3206154 0.31628782 -0.21109292 -0.25690562 -0.14732556 0.101948105
0.2584473 0.3634836 -0.18475583 0.3752139 -0.25863945 -0.059959862 0.017036889 0.1125759
-0.18719158 -0.27918226 0.19964577 0.109152235 -0.031803276 0.023635177 0.30339676 -0.12613705
-0.003482383 0.18449335 0.154438 0.11622145 -0.19018689 -0.10745373 -0.08894285 0.27049544

mlp.0.weight f4 [32, 8]
00000000: 3a24 8a3d 4259 62be 703a 3e3d 5802 3a3e
00000010: 7eb4 1f3e 72aa 0d3e 3509 d3bd 2f9b fb3d
00000020: f71c 64be 2f49 b43d c1f4 88bd 5237 a03c
00000030: 467a 4f3d 9aaf 533d 8e99 7bbe 22a1 c5bd
00000040: 8ba0 2b3d ed14 2dbe 9b21 503e 5d22 c53d
00000050: a1a9 8ebe d785 c5bc aee9 debc 44b1 45be
00000060: 5197 d33e 52a5 6fbc 7973 ce3e 7911 df3c
00000070: 70c0 ef3d def4 383e 6c7e 543d fe74 033e
00000080: 04fd c63d 7a8f 81be 9b35 5bbd 4575 4ebe
00000090: 8fcf 9cbe c8ca 87bb bc45 2a3e 5b51 84be
000000a0: 2050 04bd 8455 093e 1942 5bbd 1cbd c53d
000000b0: 01e6 393e 8848 403d d659 b5be 585a 5e3e
000000c0: 3bf1 acbd 2ba8 f4be 5190 1c3d f2b6 94bd
000000d0: 074f 6d3d 9985 0d3e c494 4ebe 8e2e 24be
000000e0: c0c4 053e d829 2f3e ee0f 54be 330e 52be
000000f0: 7598 a5bd 96e1 b6be 6f97 26bd 1817 c7bd
00000100: 0b93 a9bd b20f adbe 461e 073e 50e1 97be
00000110: 3473 2abe 95e8 86be e8cc 753e da52 c4be
00000120: f29a c7be 11d5 cb3c 228a 62bd be54 943d
00000130: 0d2f 8abe 77eb 393e c02e c5bd 0050 173f
00000140: 610b 50be c404 88be 353b 473d 34f1 213e
00000150: 45e5 7bbc bd0a e3bd 8b8a 1bbc e94c 61be
00000160: b4f4 933d 1fa5 d73d da11 1f3e 57c5 89be
00000170: 4627 adbd 1033 ebbb d747 efbe c5b9 bb3e
00000180: 2833 85be d213 7e3e 64e9 213e 048b 453d
00000190: 67e0 e5be 7251 903e 328b d1bd 943a 663f
000001a0: 5add 1f3e a724 1dbe 44dd 5d3e 54c6 35bd
000001b0: f435 fc3d ea7c 7e3e 8e06 6fbe d80a 153e
000001c0: 7c1e 403e 116a 92bd 8d0e 6b3d 34b5 1abe
000001d0: 674d 623b 5b24 8cbd 8722 7f3d 1f8c e03b
000001e0: 9d24 4cbe 6608 5c3d 2133 183e 4829 9d3c
000001f0: 70e9 8b3e bb32 e93d 6f98 9fbd 42e4 c53d
00000200: 0846 4f3e 0683 64be 50d0 003d 8840 41be
00000210: 1c72 5f3e a84a 58be 258f f9bd ae77 a3bc
00000220: 7dd3 21be a500 a5bd 4bef 95bd 2d46 df3c
00000230: a9a5 efbd 9ffd 7fbe ac74 14be 9c94 003e
00000240: fd9d 1bbe 8e94 62be 5719 d13e acf7 f93c
00000250: 2bce e2bd 2b33 d43d 0a4a 50bb 8f31 f0bd
00000260: cd5e 0b3e c33e 8c3d f01c f63d 981b 193e
00000270: 78ce cdbc 71e0 89bd bd6a e33d 3d38 3e3d
00000280: 659b a3be e49c 253e ced5 703d 0efc 4fbc
00000290: 27d4 2abd cff5 9abd 30b1 7c3d 94fe 043e
000002a0: 75c0 9abe a8c7 d7bd 57ff 33be 0e40 0ebe
000002b0: 33fe 1abe e2d0 b83d 00c3 59be 61e9 093f
000002c0: 2836 c7be a1c3 09be f972 c3bd 2f11 4d3e
000002d0: 9770 8f3e 21e1 59bc 6234 8bbd e1ea f63d
000002e0: b36e 55bd b476 73be 4d1d 47be c9fc 93bb
000002f0: 36d8 943e 2533 95be 135a 0ebd 7c6f d1bd
00000300: ae64 01be 5a88 1abe 63ea c6be d8b9 8a3e
00000310: dae1 b93d d46b edbc 1607 27be a4d1 d93d
00000320: cf67 aabe 041a 47be 4292 bc3d f369 3ebd
00000330: beba 4c3b 5f7d 143d 160a c23d 7413 9f3e
00000340: ec07 ad3d d54f b5be bebc 25be 968d 4abd
00000350: 9c9f ab3d 5da8 ae3e 66a9 2d3e 195a 6ebc
00000360: 245b 733e 8729 1dbd 40fc 73bc 5fe1 e73c
00000370: 759e 003e 2f99 7fbe d832 463e 26d2 2fbe
00000380: 8ba0 753d 0eca 86be 1005 d53e 23fe b63e
00000390: b2e0 ddbd 8b30 91bd 7030 0e3e d7e9 debb
000003a0: 0395 5d3e 8fa1 f53d d31a 5abd 01a7 3abe
000003b0: 7a5e 82be ebd2 0c3e efaa a53d 0177 29be
000003c0: 2f7c c4bd f501 a4bc 1908 d2bc fa0e 9c3c
000003d0: 67fd cbbd c6bf 88be 4501 973e 8a03 97bc
000003e0: eb18 383e 5810 56be 5c56 b93c 0bc5 c53d
000003f0: 591d f0bd ef07 e73c 5a64 38bd 82f4 2fbe
0.06745191 -0.22104362 0.04644245 0.18164957 0.15596196 0.13834551 -0.103044905 0.12285458
-0.22276674 0.08803021 -0.06687308 0.019557629 0.05065372 0.05168114 -0.24570295 -0.09649874
0.041901153 -0.16902514 0.2032532 0.09625695 -0.27863792 -0.024111671 -0.027211037 -0.19305903
0.41326383 -0.014626818 0.40322474 0.027230011 0.117066264 0.1806216 0.051878378 0.12837598
0.09716228 -0.25304776 -0.05351792 -0.20161922 -0.30627105 -0.0041440465 0.16628164 -0.2584332
-0.032302976 0.13411528 -0.053529833 0.096552104 0.18154146 0.04694417 -0.35420102 0.21714151
-0.084444486 -0.47784552 0.03822357 -0.072614565 0.057936694 0.13820495 -0.20173937 -0.16033384
0.13063335 0.17105806 -0.20709202 -0.20513229 -0.080857195 -0.35718983 -0.040671762 -0.09721202
-0.08279999 -0.33801037 0.13195142 -0.29664087 -0.16645509 -0.2634932 0.24003947 -0.3834446
-0.389854 0.024881871 -0.055307515 0.07242726 -0.26989022 0.18156229 -0.096280575 0.59106445
-0.2031684 -0.26566136 0.04864045 0.15814668 -0.015374486 -0.110860325 -0.00949348 -0.22001995
0.07224408 0.10529541 0.15534154 -0.2690837 -0.084547564 -0.007177718 -0.46734497 0.36665168
-0.26015592 0.24812248 0.15811688 0.04822828 -0.44897768 0.28187138 -0.102316275 0.89933133
0.15611783 -0.15346013 0.21666437 -0.044378594 0.12314978 0.24852338 -0.23342344 0.14554918
0.18761629 -0.07149137 0.057386924 -0.15108186 0.0034530999 -0.06842872 0.062288787 0.0068526412
-0.19935842 0.053718947 0.14863254 0.019184723 0.27326536 0.11386629 -0.07792746 0.09662677
0.20241559 -0.22315606 0.031448662 -0.18872273 0.21820873 -0.21122229 -0.12185506 -0.019954529
-0.15803333 -0.080567636 -0.07321032 0.027255142 -0.11701519 -0.24999093 -0.14497632 0.1255669
-0.15196986 -0.22126982 0.40839645 0.030513607 -0.1107448 0.10361322 -0.0031782412 -0.117282026
0.13610382 0.06847908 0.12017238 0.14951932 -0.025122866 -0.06732262 0.11104343 0.04644035
-0.31954494 0.1617313 0.05879765 -0.012694372 -0.04170623 -0.075664155 0.061692417 0.12987739
-0.30224958 -0.10536128 -0.17577873 -0.13891622 -0.15136032 0.09024216 -0.21265793 0.5387173
-0.38908505 -0.13453533 -0.09543414 0.20026086 0.28015587 -0.013298304 -0.067971006 0.12056518
-0.052107524 -0.2377575 -0.19444771 -0.0045162183 0.29071206 -0.29140583 -0.03475387 -0.10226342
-0.12636063 -0.15091076 -0.38850698 0.27094913 0.09076281 -0.02898208 -0.16311297 0.10635689
-0.33282325 -0.19443518 0.09207584 -0.04648776 0.0031239237 0.036252376 0.0947458 0.3106953
0.084487766 -0.3541247 -0.1618528 -0.049451433 0.083800524 0.34112826 0.16959152 -0.014547848
0.23765236 -0.03836968 -0.014891684 0.028305707 0.12560447 -0.24960779 0.19355333 -0.17170009
0.05996756 -0.2632603 0.41605425 0.35740766 -0.10833873 -0.07089337 0.13885665 -0.006802778
0.21638875 0.119937055 -0.053248238 -0.1822777 -0.25462705 0.13752334 0.080892436 -0.16549303
-0.09593999 -0.020020464 -0.025638627 0.01905011 -0.09960442 -0.26708812 0.29493156 -0.018434305
0.17978255 -0.20904672 0.022624187 0.096567236 -0.117243476 0.028202025 -0.045017578 -0.17183116

mlp.0.bias f4 [32]
00000000: bad3 03b8 34c2 6a36 8052 b3b7 1095 a535
00000010: 9e05 bbb7 a8b3 e537 062f d2b7 3d76 4a38
00000020: 9e5c 1ab8 3ef1 a137 986c 8eb7 5ba5 0c37
00000030: bc06 71b8 2019 6a35 0bdc f4b7 086b 30b6
00000040: 4896 9635 30ca 9c37 2015 2735 e468 5037
00000050: 3840 fdb5 60f8 9734 6385 e8b7 e819 2eb8
00000060: aa85 11b8 f8da 38b6 66f3 1bb7 04bf 55b7
00000070: 749f 88b6 2f50 7b37 2e71 ccb6 3ce0 8e37
-3.143002e-05 3.4981758e-06 -2.137688e-05 1.2336841e-06 -2.2294753e-05 2.7382586e-05 -2.5055848e-05 4.827067e-05
-3.6802718e-05 1.9305033e-05 -1.6978287e-05 8.38315e-06 -5.746515e-05 8.7208355e-07 -2.9189532e-05 -2.6288344e-06
1.1219608e-06 1.86908e-05 6.224309e-07 1.2422188e-05 -1.8868659e-06 2.8306658e-07 -2.7718668e-05 -4.150896e-05
-3.469518e-05 -2.7545593e-06 -9.295391e-06 -1.2740264e-05 -4.0716786e-06 1.4979435e-05 -6.0928496e-06 1.7032136e-05

mlp.1.weight f4 [32]
00000000: d1fa 433f 5403 253f 280f 4f3f 0b0c 343f
00000010: a44a 4e3f 7c0d 5f3f 02b1 653f 83b2 5a3f
00000020: 854c 5c3f a7cd 483f 2309 5d3f 52f9 523f
00000030: d1f4 873f 5eed 383f c35b 333f 3be9 3b3f
00000040: df67 5a3f 4f42 5b3f f360 763f b0fe 473f
00000050: 1f9f 513f 95d1 683f 189b 613f 4883 613f
00000060: f08d 423f f682 4f3f 5483 593f d57f 463f
00000070: 0fae 523f 9166 4a3f 6c58 643f 55b9 353f
0.7655459 0.64458203 0.808825 0.70330876 0.8058264 0.8712995 0.8972322 0.8542864
0.8605426 0.784388 0.86342067 0.8241168 1.0621587 0.72237194 0.7006189 0.73402756
0.85314745 0.85648054 0.9624168 0.78123 0.81883425 0.90944797 0.8812728 0.88090944
0.7599783 0.81059206 0.84966016 0.77538806 0.8229684 0.79062754 0.8919742 0.7098592

mlp.1.bias f4 [32]
00000000: c63f 423d 04d0 633e 143c d13d adab 9abe
00000010: 1b42 4d3d de88 4a3d a4e6 d8bd a917 87bc
00000020: b3f3 33bb 03ba a83d a871 683d b407 cebd
00000030: 8bab 043b ca44 b03d 917c cfbd ed56 c63d
00000040: 2180 403d 511a f8bc 52cc f3bc 98bd c3bd
00000050: 06af 47bd 407f be3d 7e93 173e dfa5 1d3a
00000060: 5965 1d3d b65d 973d c893 6fbd 2271 163e
00000070: e2f7 b63d 0d88 dcbd ff48 4abd 5c1f 9a3d
0.0474241 0.2224732 0.10216537 -0.30209103 0.05011187 0.049446933 -0.10590866 -0.016490774
-0.0027458488 0.08238604 0.056749016 -0.10060063 0.002024385 0.086068705 -0.10131181 0.096845485
0.046997193 -0.030285986 -0.029760513 -0.095576465 -0.0487509 0.09301615 0.14802358 0.00060137914
0.03842673 0.07390921 -0.058490545 0.14691594 0.08933999 -0.10768137 -0.04938602 0.075255126

mlp.1.running_mean f4 [32]
00000000: b0c9 e43c d826 e4bd 219c 183d 5d72 fe3d
00000010: af49 053e 8e48 dfbd a796 dc3d 005b d2bd
00000020: b5af 1d3e 9970 1b3e 4b32 f0bc 65de c43d
00000030: c13e 7c3e 752e e83d 8391 a53d 085d 623b
00000040: 146a 333d 920e 7cbc 0d60 0e3e 2544 9fbc
00000050: 47a4 343c c3e4 2c3e 01d7 65bd 4859 9cbd
00000060: efd8 0cbe af1b 483e b72b 1d3e 8cd1 7bbd
00000070: c814 9a3d 29f8 083d f2dc ab3c 8dd1 9338
0.027928203 -0.11140221 0.03725827 0.12424157 0.1301639 -0.109025106 0.10770922 -0.10271263
0.15399058 0.15179671 -0.029320857 0.09612731 0.24633314 0.11336986 0.08084395 0.0034540314
0.043802336 -0.015384333 0.13903828 -0.019441674 0.011025495 0.1688414 -0.056113247 -0.076342165
-0.13754629 0.1954181 0.15348707 -0.061479136 0.07523495 0.03343979 0.020979378 7.048538e-05

mlp.1.running_var f4 [32]
00000000: 82cd 9639 48df 9f39 42f8 c239 5080 6239
00000010: 41b5 cb39 e14c b039 4ad2 6f3a 9f89 ec38
00000020: 232f 2639 6ba0 5739 60ca b839 335c b03a
00000030: 7f81 4739 af85 783a d792 7b39 1fa5 f939
00000040: 0219 7e3a e4ca 3537 8ab3 3a3a cdbe a139
00000050: 3efe 113a faf6 de3a 54ce 7239 76a1 7439
00000060: 91ed e239 501d 8339 5dfe d23a d317 3939
00000070: 4e8c 973a cb2b 8239 ba0e 083a a5d7 ea38
0.00028763345 0.000304932 0.0003718753 0.0002160084 0.00038854222 0.00033626615 0.0009148462 0.00011278991
0.00015848553 0.00020563758 0.00035245996 0.0013455212 0.0001902636 0.00094803696 0.00023991927 0.00047616006
0.00096930575 1.083568e-05 0.00071220903 0.0003085047 0.0005569196 0.0017010861 0.00023155782 0.00023329802
0.0004328308 0.00025008107 0.0016097535 0.0001765185 0.00115622 0.0002482816 0.0005190183 0.000111981564

mlp.3.weight f4 [1, 32]
00000000: e583 e43d 8394 66bd 990c cebd 8863 0bbe
00000010: 5ee3 083e 7015 3e3e 6db8 d0be 1cd4 74be
00000020: 0907 44be 10a6 1f3e 430b 83be bc22 29be
00000030: 51d4 e63e b4a1 ba3d f181 79bd 3e90 83bc
00000040: 4cc3 383e f2ec 3dbe 2a2f b73e 1930 e33d
00000050: 71b9 fa3d 13b8 6a3e d6fc 87be e2eb 8abe
00000060: a48b c13d f9cb 0c3e 3c00 48be dea1 0fbe
00000070: 127d e4bd 9ee3 18be 2db7 433e a640 b73d
0.111579694 -0.056293976 -0.100609966 -0.13612187 0.13367984 0.18562865 -0.40765706 -0.23909038
-0.19143309 0.15590692 -0.2559453 -0.16517156 0.4508386 0.09112874 -0.060914937 -0.016059991
0.1804325 -0.18547419 0.3577817 0.11093158 0.122424014 0.22921781 -0.26560086 -0.2713309
0.094504625 0.13749684 -0.1953134 -0.14026591 -0.11156668 -0.14930579 0.19112845 0.089478776
