output_bbox_gcn/EVALUATOR_layout_MultiLayer_2023_09_21_16_51_13/Model/evaluator_640.pth (torch, 9127 bytes, 11 tensors)

LayoutSeq.weight_ih_l0 f4 [32, 4]
00000000: b1ab 043e ea13 0bbe 6440 19bd da2e c33d
00000010: 23e0 2c3e 8465 5fbe 42d5 19bd bcce 9f3d
00000020: 79b9 653e 4046 3d3e 49ed 3c3e c808 933e
00000030: b6d4 91be a9c5 263e 3f0c 2a3e 8709 4b3d
00000040: cf0b 92be 6617 9d3e bbd6 b93d 8987 4b3e
00000050: 70a1 73be 5cb1 0dbd d7c7 0b3e 565c 213e
00000060: 535a 613e 4270 fe3d 0428 6bbe 7cdb 0ebe
00000070: 30ee 0bbe 5e3c 573e ffda a0bc c89c b03e
00000080: e337 443e ebbb 8f3e 4892 583e 2d59 2c3c
00000090: c67c a43e e80a 55bd 3d6f c0bd a620 30b9
000000a0: 0c72 8ebe 72c2 8c3d 3072 36be 0829 40be
000000b0: 93b9 90bd f043 063d aa9d 48be da48 3abe
000000c0: 308e 7ebe 024c 1cbd cf09 a13e 4e05 b3bd
000000d0: ad51 523b 9e49 7d3e 2869 923e 52fd ce3e
000000e0: aee3 57be 2e64 d1bd 66ee 66be 825a 70bc
000000f0: 8b5b 0d3e 3f75 a23e 8082 8c3e d502 f4bc
00000100: 0779 0f3e 62d0 c53d 7e08 933e fae8 a53c
00000110: 6191 86bd b87b 79be 7d73 35be edb3 1fbe
00000120: 9a4b b7bd 5574 c83e 60c4 acbe 86eb b9bc
00000130: 4b5c 1bbe 858d 5cbe 7bc9 a93d 354b c0be
00000140: e805 a0be 56b5 a23e 4014 a7bd e326 9a3e
00000150: 317e aa3e 6e6f a4be e38d 853d 82c5 b23d
00000160: f6b8 80be 61f9 2e3e 3afd a53e e054 87be
00000170: 98dd 0dbe 1cc3 333e 53cb e53d 2f3a de3d
00000180: be96 343d e1c1 43be 4194 9f3e 4c7e 1ebe
00000190: eed4 123d 06ba a63e fd4c 243e 8060 5c3d
000001a0: 04de babb bb5d 17be 54e7 c63d 3ea4 e83c
000001b0: 6206 b6bd 632f c0bd abc6 9e3e ed26 613d
000001c0: 7516 703d 48a1 ecbd 8f0e d9bd 3878 003e
000001d0: 3bd1 47be 611c 903e 60a7 99bd f676 1ebe
000001e0: 8788 5c3c 24d8 923e 35ec 62be 15b8 86be
000001f0: 08c2 733e 1e8b f43d adb1 993d 5566 94bd
0.1295612 -0.13581815 -0.037414923 0.095304206 0.16882376 -0.21816069 -0.037556894 0.07803103
0.22434033 0.1848383 0.18449892 0.28717637 -0.28482598 0.16286339 0.16606234 0.049569633
-0.28524634 0.30681914 0.0907416 0.19875921 -0.23792052 -0.03459297 0.13650452 0.1575788
0.22007112 0.12423755 -0.22964483 -0.13950914 -0.1366508 0.21019122 -0.019635675 0.34494615
0.19161944 0.28073058 0.21149552 0.010519308 0.32126445 -0.052012354 -0.09396217 -0.0001679683
-0.27821386 0.06873025 -0.17816997 -0.18765652 -0.070666455 0.032779634 -0.19591394 -0.18191853
-0.24858928 -0.038158424 0.31452796 -0.08741246 0.003209214 0.24735114 0.28595853 0.40427643
-0.21082947 -0.10224186 -0.2255188 -0.014670016 0.13804452 0.31730077 0.27443314 -0.029786507
0.14011012 0.096588865 0.28717417 0.020252693 -0.065706976 -0.24363601 -0.17719837 -0.1559598
-0.08949967 0.39151254 -0.33743572 -0.022695314 -0.15171926 -0.2153836 0.082903825 -0.37557378
-0.31254506 0.31778973 -0.08158159 0.30107793 0.332994 -0.32116264 0.06521203 0.08729078
-0.25141114 0.17087318 0.3241976 -0.26431942 -0.13854063 0.17554897 0.11220422 0.108509414
0.04408907 -0.19116928 0.31167796 -0.15477866 0.035847597 0.325638 0.16044994 0.053802967
-0.005702736 -0.14781849 0.09712091 0.02839863 -0.08887936 -0.09384038 0.31010947 0.054968763
0.058615167 -0.115541995 -0.1059848 0.1254586 -0.19513409 0.2814665 -0.075026274 -0.15475067
0.013460285 0.28680527 -0.22160418 -0.26312318 0.23804486 0.11940597 0.07504592 -0.07246081

LayoutSeq.weight_hh_l0 f4 [32, 8]
00000000: 32fe 1f3e 1acd 7cbe ff34 0d3e 1d55 55be
00000010: dab3 04bb 13cb b23d c287 f9bb b7bc 343e
00000020: 74b9 7b3e 550e 0a3e 81dd 333e 17c8 5abe
00000030: 0f31 003e fb62 233d f8c1 733d 413e 3f3e
00000040: b344 27be 313d 203e 4d74 e4bd 2a8d afbd
00000050: 6ced 693d 8e15 163d 224a 673e e2ba 1bbe
00000060: 6b51 ff3d cb1a 603d 506d 0c3e 0625 5cbb
00000070: dbda b53d d3aa 85bd 70a2 423d 2308 2a3e
00000080: 645b 613e 5e50 72be 4922 34be 78db 9ebe
00000090: 48d9 503c 309a bfbd f3e1 2b3e df0d 1d3c
000000a0: 50dc 42be da01 c3bb 3082 aebe c507 65be
000000b0: 462c 8cbe df50 c2bd 6da5 fabd 855f 6d3e
000000c0: 3a7f 46be 77e7 d4bd 2d00 5f3d 6bf4 0abe
000000d0: 4107 41be 83d0 c2bc a7e1 30bd 9961 053e
000000e0: 86ac 4dbe 1c86 8c3e 64f7 3b3c 1740 22bd
000000f0: cfe4 6e3d 499d a03d f817 78be 0d19 ce3d
00000100: 2f06 0ebe 962b 91be 8107 8abe 97d1 b33d
00000110: efde 063d 8021 01bd a99c 5a3e 36be f2bd
00000120: 632b 00be fe88 723d d31a 163e 4d4a 7fbe
00000130: 866b 523e 211e 513e 41b8 b03d 4939 a4bd
00000140: ee61 40be d9a9 3abe c87a dcbd f62d 6bbd
00000150: d815 7cbd 3246 07bc b32d 7bbe 57fd e33d
00000160: 3505 26bd 3ac9 06bd 3466 22be 64fa 69be
00000170: 70dd bf3d 8dcc 4a3e 06e0 703e 6f59 c93d
00000180: 78b1 46be c9fb ac3d c2f7 a83e ea4e 3dbe
00000190: 5438 4d3e b190 e63d e3ee a9bc f295 393e
000001a0: 8af2 423d 6077 04be 1028 983e cd65 613e
000001b0: 8631 3b3e 6fc6 7a3e 472e 6ebd a632 a33e
000001c0: bc41 3abe e17a 35be c5b8 c9bd 52e1 6bbe
000001d0: 4d29 b1bd cc75 f33d a788 af3d 7c4c bebb
000001e0: 441f f93d 0a3b dabd 1a25 883d b41d ccbe
000001f0: 4485 f3bd 2e7f c23d faab 1c3e 9291 493e
00000200: 42e3 76be 3037 c3bd 6f70 253e efd5 273e
00000210: e8b6 633e e512 09bd 7174 a3be e0cb 5e3e
00000220: 76d9 4bbd 789a 23be 0474 9f3e 91c9 323e
00000230: d263 9e3d 40df 823e c78c 9a3e 05d1 1a3e
00000240: 1316 353d f5b1 cc3e 56d7 493e c6d5 9bbd
00000250: 8d5a a8be c487 6bbe 9ea8 913e 48be b03d
00000260: d940 9bbe acad 033e 05aa c23e 42f2 c03e
00000270: 031e 8f3d 7721 1c3e 8541 33be 3054 e9bd
00000280: d6e6 af3d 8e72 a03e 048e 80be 0114 833e
00000290: b15a ef3d d1a3 a1be f5b1 72be 5102 aa3d
000002a0: a209 4dbe d590 8a3d da14 513e 0089 ce3c
000002b0: e63f 59be 9571 fcbd 0abf 17be 6f0a cc3e
000002c0: db28 663e 509f 013c 599b 903e ec95 a8be
000002d0: 5f55 81be 6091 f4bd df13 7c3e 7cea 2abe
000002e0: 91c9 8fbe 6129 80be 1bf6 76bd 4d22 adbc
000002f0: 81e2 a6be 40f5 b53e 1acc 473e a16a 84bd
00000300: a153 a3bd 8863 1f3e 8684 f83c 564f a6be
00000310: 9e90 f13b 93a4 41bb 47ec 8c3d 995b 8d3e
00000320: c40b 923e 4325 81be 57a3 31be ce5d 1b3e
00000330: 43c8 b53d 7ad5 583e e854 783e 4fa8 733e
00000340: 7d18 4bbe bffb 543e fd4b 3c3e 6062 6f3e
00000350: 092f 0dbe 10f4 8cbd 2a7c 5a3e f5b5 593e
00000360: e56c 2c3e efab bcbd f0a4 f2bd ab7f a6be
00000370: 2d5f ec3c 3aee 5abd 6fbe 893d 467d ab3c
00000380: 2d7b 6dbc 5c20 fc3d d61d aa3e ae0f e53d
00000390: 7d31 08be 5812 babc e04c 64be c592 98bd
000003a0: eee1 61be b57b 49bd 8ea8 edbc 07f6 58be
000003b0: d29d fabd 9207 86bc e59f e6bd 5fb7 d13d
000003c0: 9d6e 64be dc8d 15be ee3b aa3e 31b6 73be
000003d0: fac8 0c3e 36b0 14bd 918b e3bd eff7 30bc
000003e0: 4423 e03d 3e36 7c3d e4fe e6bd d115 3abd
000003f0: 8001 d1bd 1fc7 29bd 1097 a13c 6afb 0f3e
0.15624312 -0.24687615 0.13789748 -0.2083325 -0.0020248801 0.087301396 -0.0076150605 0.17650114
0.24582464 0.1348203 0.17564966 -0.2136539 0.12518714 0.039889317 0.059511155 0.18676092
-0.163348 0.15648343 -0.11154995 -0.08571847 0.05711119 0.03664165 0.22586873 -0.15208009
0.12466701 0.05471305 0.13713574 -0.0033591404 0.08879634 -0.06526723 0.047518194 0.16604666
0.22007519 -0.2366347 -0.17591204 -0.31026816 0.012747116 -0.09355581 0.16785412 0.009585827
-0.19029355 -0.0059511485 -0.340837 -0.22366245 -0.27377528 -0.09488081 -0.12238584 0.23180969
-0.1938447 -0.10395711 0.054443527 -0.135698 -0.18850423 -0.023781067 -0.04318395 0.13025512
-0.20085344 0.27446067 0.011472557 -0.039611902 0.058323678 0.078425 -0.24227893 0.10063372
-0.13869546 -0.28353566 -0.2695885 0.087802105 0.03292745 -0.03152609 0.21348824 -0.11852686
-0.1251655 0.059212677 0.1465867 -0.24930687 0.2054883 0.2042165 0.08628894 -0.08018739
-0.18787357 -0.18228854 -0.10765606 -0.05741688 -0.06154427 -0.008256482 -0.24529152 0.11132305
-0.04053231 -0.03290675 -0.158593 -0.22849423 0.09368408 0.19804592 0.23522958 0.09831511
-0.19403636 0.08446462 0.33001524 -0.18487135 0.20041019 0.112580664 -0.020743793 0.18123606
0.047594585 -0.12936163 0.29718065 0.2201149 0.1828061 0.24489759 -0.058149602 0.3187458
-0.18189138 -0.17722656 -0.09849695 -0.23035172 -0.086504556 0.11887702 0.08570986 -0.0058074575
0.121641666 -0.10655792 0.066477016 -0.39866412 -0.11890653 0.09496914 0.15299979 0.19684437
-0.2411013 -0.095320106 0.16156171 0.16390203 0.22237742 -0.033465285 -0.31924775 0.2175746
-0.049767934 -0.15976894 0.311432 0.17459704 0.07733883 0.2556095 0.3018553 0.15118797
0.044210505 0.3997952 0.1971105 -0.076091334 -0.32881585 -0.23001009 0.28448957 0.08630043
-0.30322912 0.1285922 0.3802034 0.37684828 0.06988146 0.15247141 -0.17505462 -0.113930106
0.0858895 0.31337398 -0.2510835 0.256012 0.1168722 -0.31570294 -0.23700698 0.08301223
-0.20023206 0.06765906 0.2041811 0.025211811 -0.21215782 -0.123263516 -0.1481897 0.3985171
0.22476523 0.007911518 0.2824352 -0.3292688 -0.25260445 -0.119417906 0.24616955 -0.16691011
-0.2808347 -0.2503157 -0.0602933 -0.02113452 -0.32594684 0.35538673 0.19511452 -0.0646565
-0.07974935 0.15565312 0.03033663 -0.32482404 0.007371976 -0.0029547557 0.06881004 0.27608946
0.285246 -0.2522374 -0.17347465 0.15172502 0.088760875 0.21175185 0.24251139 0.23794673
-0.1983356 0.20799159 0.18388362 0.23377371 -0.13787474 -0.06882489 0.21336427 0.21260817
0.16838415 -0.09212481 -0.118478656 -0.32519278 0.028853977 -0.053449847 0.067257755 0.020933758
-0.014494699 0.123108596 0.33225888 0.11184631 -0.13300128 -0.022713825 -0.2229495 -0.07449869
-0.22058842 -0.04919024 -0.029011037 -0.21187602 -0.12237133 -0.016361032 -0.11260966 0.102400534
-0.2230782 -0.14604896 0.33248848 -0.2379997 0.13748541 -0.03630086 -0.111106046 -0.0108012995
0.109442264 0.061575167 -0.11279085 -0.045430962 -0.10205364 -0.041449662 0.019725353 0.1406075

LayoutSeq.bias_ih_l0 f4 [32]
00000000: 7676 c93d b62b 863e a5bd 0f3e d28e cb3d
00000010: 2cb4 f73c 489f 913e b780 963e c58b 0dbe
00000020: b2a7 3bbd ffbc 773e f610 383b c8a9 e83d
00000030: 989a 81be fb8c e33d 05d7 6a3e 6155 34bb
00000040: fe42 9cbd e2c1 d63d ccc4 083e 7e4f 2ebe
00000050: 3d51 97bd db57 053c ee2b 87bb 43a2 ba3d
00000060: 6d9a 673e 1d69 ddbd 3df7 993e d316 d5bd
00000070: ecc7 c43e c90f 063c 0fc4 44be 9b21 4b3e
0.09837048 0.26205224 0.14037187 0.0993935 0.03023728 0.28441834 0.29395077 -0.13822849
-0.045814224 0.2419319 0.0028086281 0.11360508 -0.25313258 0.11110874 0.22933586 -0.002751671
-0.07629965 0.10486199 0.13356322 -0.17022511 -0.07388542 0.008138622 -0.00412511 0.0911298
0.22617503 -0.108110644 0.3007144 -0.10404744 0.38433778 0.008182474 -0.19215415 0.19837038

LayoutSeq.bias_hh_l0 f4 [32]
00000000: 8383 93bc 5251 b5bd 9ac9 a43e 4405 a63e
00000010: 9f8e 5bbe 73f8 83be f1e2 19be 2d26 d03d
00000020: 031a 853e 76bf bc3e 986e 3bbe fe58 be3e
00000030: afd3 87be 80d7 84bd b761 813c 5ed0 df3d
00000040: 2071 40be 6d87 90be 5b0e 4f3e 37fd e03d
00000050: dc45 fbbc 25c1 9e3c 0cdd 9b3e fbec 00be
00000060: 8119 8dbb b455 403e d4af 193e 3dec f03d
00000070: 2f06 47be cff4 ddbd b4bc b5bd 3f21 8a3e
-0.018007046 -0.08853401 0.3218506 0.32425892 -0.21441124 -0.2577549 -0.15027978 0.101635315
0.25996408 0.36864823 -0.18303907 0.3717727 -0.2652869 -0.06486416 0.015793664 0.10928415
-0.18793154 -0.28228322 0.2022032 0.10985797 -0.03067296 0.019379208 0.30442083 -0.12590401
-0.004306019 0.18782693 0.1500848 0.11763809 -0.19435953 -0.10837709 -0.08873883 0.2697849

mlp.0.weight f4 [32, 8]
00000000: 5a5f 883d f9b3 65be 70b4 393d 86fe 423e
00000010: 2603 233e c244 1f3e 05a5 d2bd 2d8a f23d
00000020: 486f 65be 4194 b33d fe99 98bd c516 a43c
00000030: 1715 303d d94c 6d3d 42cc 82be 2cc7 c7bd
00000040: 96c8 413d f1ef 32be 438e 433e c1e9 d03d
00000050: fc91 97be 547d 00bc d550 ffbc 1005 4abe
00000060: 1ec4 d53e 4a61 4dbc 54c3 cf3e 66ad e83c
00000070: 295e f93d 5e78 383e 73e9 603d 43aa 053e
00000080: 4b00 c93d 263f 83be f8cb 66bd 100f 4dbe
00000090: 6a76 9fbe 7980 5abc 9a83 393e 687c 83be
000000a0: 81f8 0fbd 26e6 0b3e 4b8d 5abd d280 bd3d
000000b0: 92d3 3a3e d5ab 443d e132 bfbe bac4 5e3e
000000c0: 6f55 adbd 7645 f5be c1ea 1a3d 151e 9cbd
000000d0: 3363 7e3d e91c 143e e2e8 55be 13ef 25be
000000e0: 9669 043e ecac 313e 931b 51be 7634 51be
000000f0: 06d7 a3bd 8b9e b9be 6a55 21bd dd5a cabd
00000100: bffc aebd bffc adbe 1c00 063e 4e5d 98be
00000110: 2e26 2dbe ed10 89be 8499 7c3e e1cf c3be
00000120: 43ef c8be 657a 9a3c 7eec 4abd 15ea 983d
00000130: ebbf 8bbe 1417 353e 517b ccbd 2c7b 193f
00000140: c9d7 4ebe d268 8abe adea 213d 1b22 243e
00000150: 2c57 9bbc 3e11 dabd 6728 66bc e030 65be
00000160: d07a 943d 1856 e33d 0a7d 223e 7a95 8dbe
00000170: 159e b8bd 7f81 6cbb 412e f9be 4c60 be3e
00000180: cbe7 86be bdda 7b3e 9f0b 233e b819 373d
00000190: a7c4 e5be 5891 8f3e 13f7 d3bd a1d1 663f
000001a0: c1f7 213e 5f8e 21be c5fb 673e 2e36 1fbd
000001b0: 0df7 0b3e c181 833e 2ce6 7abe 84e7 183e
000001c0: 1937 543e 242d acbd cc5e 3e3d e4ab 23be
000001d0: 09dd bb3a fb6b 8ebd 51b8 663d 006a ee3b
000001e0: 65f7 5abe 39f4 713d 345a 213e 977d b73c
000001f0: cab9 963e ecd9 f73d cfb6 a5bd a2b7 d13d
00000200: 44e3 523e ac54 6abe 7396 073d b64a 4bbe
00000210: 916d 633e d414 59be a8c9 00be ef5c b2bc
00000220: aea1 1fbe 21f3 97bd ad73 a1bd 5f56 f43c
00000230: b7b8 d4bd c945 82be a675 14be 8432 fc3d
00000240: d120 1ebe a290 61be 4e40 d13e 6ab3 d03c
00000250: 6899 f0bd 7fed e03d 0b4e c2bb 1fbf ffbd
00000260: 7b85 0c3e 3fbf 983d c3b6 f33d a0a6 1f3e
00000270: 20a6 cbbc 642a 92bd ca09 fa3d b23e 3a3d
00000280: 4188 a9be 72f3 353e c51d 6f3d cf56 8abc
00000290: b35a 18bd fb93 b2bd 895e 793d f8fd 093e
000002a0: a4ac 9cbe 76c5 e8bd 78bf 36be b62c 14be
000002b0: e6a1 1dbe 2e9d da3d d9c9 61be fc3a 0d3f
000002c0: f46b c8be 1568 09be 7b3d b4bd 7cdc 4b3e
000002d0: 0673 933e 24c3 abbc ab37 90bd 38f3 fc3d
000002e0: 83e8 45bd 0021 79be b896 4abe dc67 343a
000002f0: d60f 923e 4e0e 98be ba80 0bbd 51b1 d1bd
00000300: ad40 0bbe 573f 1fbe e3e3 cabe f6ed 8d3e
00000310: 2a07 c83d de82 c2bc 67a6 26be c756 dc3d
00000320: c21e aebe 528f 49be e455 b83d 4cbe 3bbd
00000330: b675 413c 17a8 143d 61da b73d f7b0 9e3e
00000340: ddcd ad3d 3971 bcbe d772 2ebe 1f2e 62bd
00000350: b1b7 a43d 7952 b63e 9413 373e 5f89 32bc
00000360: 52a4 703e 595a 1fbd cf88 5ebc 7a93 c93c
00000370: acfc 073e 9f4f 83be 8c74 453e dd32 32be
00000380: b6c1 853d cf3a 8cbe bf19 d73e 6aae c13e
00000390: 679c e8bd 532d a0bd 7c13 0d3e 4dd6 0cbc
000003a0: 80a3 593e 13db fc3d 7197 46bd 7616 3cbe
000003b0: 6356 83be aad0 163e ba19 863d fde3 30be
000003c0: 6f4b bbbd a306 95bc 515b c8bc bd39 0c3d
000003d0: d69e babd c6e3 8ebe d947 a03e 728b b3bc
000003e0: b4d5 383e 8400 5abe 66de cb3c 6684 c63d
000003f0: 415f edbd 0191 e83c 8a31 27bd 21cc 36be
0.06658812 -0.22431935 0.045338094 0.19042405 0.1591917 0.15553573 -0.10285381 0.11842761
-0.22405732 0.087685116 -0.07451247 0.020030389 0.042988863 0.057934616 -0.2554646 -0.09754786
0.047310434 -0.17474343 0.19097237 0.10200835 -0.29603565 -0.007842381 -0.031166473 -0.19728494
0.41751188 -0.012535403 0.4057871 0.028402995 0.12176163 0.18014666 0.054910135 0.13053231
0.09814509 -0.25634116 -0.056346864 -0.20025277 -0.3114503 -0.013336294 0.18116608 -0.25680852
-0.0351491 0.13662013 -0.053357404 0.09253086 0.1824477 0.048015434 -0.37343505 0.21754733
-0.08463561 -0.47904557 0.037821535 -0.07622925 0.062106322 0.14464153 -0.20889619 -0.16204481
0.12930903 0.1735112 -0.20420675 -0.20430169 -0.07999997 -0.3625377 -0.039388098 -0.09880612
-0.08544301 -0.33981892 0.13085979 -0.29758686 -0.16909096 -0.26770726 0.24667937 -0.38244537
-0.39245042 0.01885719 -0.049541943 0.074665226 -0.2729486 0.17684585 -0.09984458 0.5995357
-0.20199503 -0.27033097 0.039530445 0.16028635 -0.018962465 -0.1064782 -0.014047719 -0.22381926
0.07249987 0.111004055 0.15868011 -0.27653104 -0.09014527 -0.0036087928 -0.486681 0.37182844
-0.2634872 0.24595161 0.15922402 0.04470226 -0.44876596 0.28040576 -0.1034986 0.9016362
0.15817167 -0.15776967 0.22654636 -0.03887003 0.13668461 0.25684932 -0.24501866 0.14932066
0.20724143 -0.084070474 0.046477124 -0.1598354 0.0014332841 -0.069541894 0.05632812 0.00727582
-0.21383436 0.0590708 0.15757066 0.022398753 0.2943862 0.12102112 -0.080915086 0.10240103
0.20594507 -0.22883862 0.033102464 -0.19852719 0.22209765 -0.21199352 -0.12576926 -0.02177283
-0.1558902 -0.0741942 -0.078833915 0.029826341 -0.10386794 -0.25443867 -0.14498004 0.123143226
-0.15442206 -0.2202783 0.40869373 0.025476176 -0.1174801 0.10982799 -0.0059297136 -0.12487625
0.13722794 0.07458352 0.119000934 0.15590906 -0.024859488 -0.071369916 0.12208898 0.045469947
-0.33111766 0.17768648 0.058378 -0.016887097 -0.037195873 -0.08719631 0.06088117 0.13475788
-0.30600464 -0.11365788 -0.17846477 -0.14470181 -0.1539379 0.10674511 -0.22049655 0.5516813
-0.39144862 -0.1341861 -0.08800789 0.19908327 0.28798693 -0.020967074 -0.07041868 0.12351078
-0.048317444 -0.24328995 -0.19784057 0.00068819313 0.28527707 -0.29698414 -0.03405831 -0.102388985
-0.1359889 -0.15551506 -0.3962699 0.27720612 0.097669914 -0.023744043 -0.16274415 0.10758739
-0.3400784 -0.19683579 0.09000757 -0.045835778 0.01180785 0.036293115 0.08977199 0.30994388
0.08486531 -0.36805132 -0.17035995 -0.055219766 0.08042849 0.35609797 0.17878562 -0.01089701
0.23500183 -0.03890452 -0.013582422 0.024606455 0.1327998 -0.25646684 0.1928274 -0.17402215
0.06531088 -0.27388617 0.4201183 0.3782838 -0.113579564 -0.07821145 0.13776964 -0.008596015
0.21253777 0.123464726 -0.04848427 -0.18367943 -0.25651845 0.14728037 0.06547876 -0.1727447
-0.09145247 -0.018191641 -0.024457606 0.03423475 -0.09112327 -0.27908152 0.31304815 -0.021917079
0.18050271 -0.21289259 0.024886321 0.09693222 -0.11590434 0.028389456 -0.04081873 -0.17851306

mlp.0.bias f4 [32]
00000000: 6b50 00b8 9e62 5137 6b28 2637 828f 4838
00000010: 1427 8eb7 12bb 18b8 1ea1 8bb8 2c27 1337
00000020: 6894 8138 e082 e137 e6c5 5538 f69b 6eb6
00000030: c8cf a639 09fe 21b7 bc98 a5b6 9785 0b36
00000040: 26f7 e637 bab9 0838 0588 1238 e4f1 20b7
00000050: 708e f035 3ceb a8b7 a437 1338 74d5 34b8
00000060: 3cf6 1235 5441 e937 9cae 9db7 587a 5537
00000070: a4fe a8b7 dcdd f937 b187 9b36 f8a8 a537
-3.0592473e-05 1.2480332e-05 9.903782e-06 4.7817368e-05 -1.6945916e-05 -3.6413847e-05 -6.658047e-05 8.771003e-06
6.178842e-05 2.6883034e-05 5.0967465e-05 -3.5555545e-06 0.00031816796 -9.655495e-06 -4.935164e-06 2.0790374e-06
2.7533224e-05 3.2597898e-05 3.493579e-05 -9.593063e-06 1.7922848e-06 -2.01367e-05 3.509935e-05 -4.3114138e-05
5.4747557e-07 2.7806185e-05 -1.8797167e-05 1.2724275e-05 -2.0145737e-05 2.9786424e-05 4.6351565e-06 1.9748215e-05

mlp.1.weight f4 [32]
00000000: 0b9f 4a3f 3779 2d3f c8b8 543f 719c 3a3f
00000010: 5aaa 533f 8ed3 613f bd72 683f 0ced 5e3f
00000020: 502b 603f 8d1c 4d3f 6f7c 603f 113a 583f
00000030: 3462 8a3f 0c68 3f3f 1e2f 3b3f 0eec 443f
00000040: bebd 5d3f f085 5c3f 33ea 773f 277c 4d3f
00000050: 6daf 563f 3c9b 6c3f 7a8f 653f a9e3 653f
00000060: 5e7e 493f a9cb 553f b5b8 5c3f 21c4 4a3f
00000070: d650 573f ba5e 4f3f c7a0 673f afe5 3c3f
0.7914893 0.67763084 0.83094454 0.7289496 0.8268181 0.8821343 0.90800077 0.87080455
0.8756609 0.8012169 0.8768987 0.844636 1.0811219 0.7476814 0.7311877 0.7692269
0.8661765 0.8614187 0.96841735 0.80267566 0.8386143 0.9242437 0.8967205 0.89800507
0.78708446 0.83513886 0.8621934 0.7920552 0.8410772 0.81003916 0.904797 0.7378797

mlp.1.bias f4 [32]
00000000: 8753 683d bc8f 553e 1469 c93d 04b7 8fbe
00000010: 419c 6a3d 178f 4e3d 2e5e d3bd 2301 fa39
00000020: ebe6 a53c 374d b23d f52f 863d 42a8 c1bd
00000030: 8e82 a83c f4fd ab3d c28b d0bd d433 d13d
00000040: c205 683d 96ba 2fbc 899c 19bd bed7 aabd
00000050: 146c 62bd 8eb6 be3d 1b5c 083e 3370 913b
00000060: 3da2 3b3d c5dd 8d3d 6e6c 86bd 1152 083e
00000070: e0db 9f3d 4be9 d0bd f3ab 4cbd 6a37 963d
0.056720283 0.20855612 0.09834495 -0.28069317 0.05727792 0.05042943 -0.10320698 0.00047684563
0.020251712 0.08706134 0.06552116 -0.09455921 0.020570066 0.08398047 -0.10182907 0.102149636
0.056646116 -0.010725638 -0.0375028 -0.08341931 -0.055278853 0.09312163 0.13316385 0.004438424
0.04580902 0.06927065 -0.0656365 0.13312556 0.0780561 -0.10200747 -0.04996867 0.07334788

mlp.1.running_mean f4 [32]
00000000: 7242 f03c dd9e ecbd fd29 0e3d 46e1 fd3d
00000010: 3ff3 0b3e d6d0 e5bd e12f e93d efa0 cfbd
00000020: b222 233e 2974 1b3e 030d 02bd 7745 c83d
00000030: 4ffe 763e 819a ec3d ecea b33d 781e b2b9
00000040: 0d62 613d 75e7 adbc 0ee4 0a3e b168 ccbc
00000050: fef5 b03a 86c7 383e 3338 66bd b7c6 8fbd
00000060: 4ece 0abe 5c76 463e f4a1 2e3e 22e0 73bd
00000070: 9f0a 893d 5eeb fb3c 1238 6f3c a2b1 1e3b
0.029328559 -0.11553738 0.034708012 0.12396483 0.1366701 -0.11221473 0.11386085 -0.101381175
0.15931204 0.1518103 -0.03175069 0.09778874 0.24120449 0.11552907 0.08785042 -0.00033973507
0.05502515 -0.021228531 0.13563558 -0.024952265 0.0013501046 0.18044862 -0.05620594 -0.07020324
-0.13555261 0.19381088 0.17053968 -0.05953992 0.06691479 0.03075188 0.014600771 0.0024214764

mlp.1.running_var f4 [32]
00000000: 44d9 b039 6be5 b539 df54 c539 ded5 3e39
00000010: bdd0 ed39 345c bc39 608a 753a ba56 1739
00000020: e714 4e39 6cc7 6b39 b70f e839 02b6 b33a
00000030: 6045 7b39 95c4 803a 48f8 cc39 8e0a 233a
00000040: de2c 8f3a 84c2 3237 7362 843a f424 b539
00000050: c1b5 573a a021 0a3b 0cde 8839 2bb4 8439
00000060: e096 1b3a 3d90 5539 92ba 103b 8719 1c39
00000070: e233 ba3a f457 7c39 617f 263a 6d6c e838
0.0003373121 0.0003469394 0.00037638002 0.00018199484 0.00045359685 0.0003592685 0.0009366628 0.0001443279
0.00019653478 0.00022485637 0.00044262197 0.0013710859 0.0002396307 0.0009824211 0.00039094896 0.00062195293
0.0010923406 1.0654916e-05 0.0010100141 0.00034550542 0.00082286826 0.002107717 0.0002610538 0.00025311238
0.0005935263 0.00020366996 0.002208386 0.00014886829 0.0014206136 0.00024065358 0.00063513784 0.00011082818

mlp.3.weight f4 [1, 32]
00000000: 25c0 e33d 7b65 66bd 3945 dbbd d4b8 05be
00000010: 88c4 083e c387 383e 9eb7 d2be 266f 7abe
00000020: 2325 49be c91c 183e 96a1 85be 7ed9 2bbe
00000030: 8002 e93e be2b b43d 0a29 62bd d54d b8bc
00000040: b006 343e f026 2cbe 0221 b63e 0200 e33d
00000050: 9fb6 f73d af32 6a3e 2464 8abe f424 8fbe
00000060: 81af c83d 0e6d 123e fe8e 45be 9038 0ebe
00000070: d72a e1bd 4747 1dbe 44ca 433e 865c b13d
0.11120633 -0.056249123 -0.107065625 -0.13058788 0.1335622 0.18020539 -0.41155714 -0.24456462
-0.19643073 0.1485473 -0.26099843 -0.16782185 0.4550972 0.08797406 -0.05521492 -0.02249805
0.17580676 -0.16811728 0.35572058 0.11083986 0.12095379 0.22870897 -0.27029526 -0.2795788
0.097991 0.14299414 -0.19292828 -0.13888764 -0.10994499 -0.15359221 0.19120127 0.086602256
