output_bbox_gcn/EVALUATOR_layout_MultiLayer_2023_09_21_16_51_13/Model/evaluator_1500.pth (torch, 9147 bytes, 11 tensors)

LayoutSeq.weight_ih_l0 f4 [32, 4]
0	0x3d43179f	0.04762995
1	0xbd90bb87	-0.07067018
2	0xbdd2ad53	-0.10286965
3	0x3d7a49f6	0.06110569
4	0x3ddf5d61	0.109064825
5	0xbde0a192	-0.10968317
6	0xbc74756d	-0.014920575
7	0x3d9ddd05	0.07708172
8	0x3dfa390e	0.122179136
9	0x3d83469e	0.064099535
10	0x3e33ca5f	0.17557667
11	0x3e9d76eb	0.3075479
12	0xbe82aec1	-0.25523952
13	0x3db1f633	0.08689537
14	0x3e234e79	0.15947904
15	0x3da5d45a	0.080971435
16	0xbebdee5d	-0.3709592
17	0x3e8aa3b0	0.2707801
18	0x3df10598	0.11768645
19	0x3e2da1c8	0.16956246
20	0xbe92b5a8	-0.28654218
21	0x3e4ad5f5	0.1980818
22	0x3e122338	0.14271247
23	0x3e10a088	0.14123738
24	0x3e07e6f9	0.13271703
25	0x3db2a604	0.08723071
26	0xbe43aaf5	-0.19108184
27	0xbe0ae5f2	-0.1356428
28	0xbc98dc41	-0.018659713
29	0x3e1cd547	0.15315734
30	0xbd84beaa	-0.06481679
31	0x3eb080c3	0.34473237
32	0x3e4f0a42	0.20218757
33	0x3e9e5a44	0.30928242
34	0x3e30f6de	0.17281672
35	0xbb848ea8	-0.0040453263
36	0x3e992dd3	0.29917774
37	0xbb049368	-0.0020229463
38	0xbdf93a18	-0.12169284
39	0x3d3dabdb	0.046306472
40	0xbe92e99a	-0.2869385
41	0x3dc7a216	0.09747712
42	0xbe90772c	-0.2821592
43	0xbe2a7344	-0.16645533
44	0xbe0f624b	-0.1400234
45	0x3d85bd14	0.065302044
46	0xbe27eca5	-0.16398866
47	0xbe3b4905	-0.18289573
48	0xbe361493	-0.17781286
49	0xbd246c8d	-0.040142585
50	0x3e95cb14	0.292565
51	0xbce45c7d	-0.027876133
52	0xbd7e116e	-0.06202834
53	0x3dbaf430	0.09128606
54	0x3e893629	0.26799133
55	0x3ed0317a	0.40662748
56	0xbe16d8f8	-0.14731205
57	0xbd9ef363	-0.07761266
58	0xbe378e88	-0.17925465
59	0x3d05f1bb	0.032701235
60	0x3de53538	0.11191791
61	0x3e91cc0d	0.2847599
62	0x3e6a7c98	0.22899091
63	0xbd01d0ff	-0.031693455
64	0x3e226483	0.15858655
65	0x3dbd9d69	0.09258539
66	0x3e8ef7a7	0.2792332
67	0x3c994d42	0.018713597
68	0xbca8c956	-0.020603817
69	0xbe86f196	-0.2635619
70	0xbe3aed41	-0.18254568
71	0xbe134d76	-0.14385018
72	0xbd3b4e6b	-0.045729082
73	0x3f0329be	0.5123557
74	0xbe9e1173	-0.30872688
75	0xbd2dd892	-0.042442866
76	0xbdd6a0bf	-0.10479879
77	0xbe75768d	-0.23971005
78	0x3de10add	0.109884
79	0xbebd4ae5	-0.36971202
80	0xbebaf235	-0.36512914
81	0x3e9d7978	0.30756736
82	0xbd9bddaf	-0.07610642
83	0x3e96e8ab	0.29474387
84	0x3ea18125	0.31543842
85	0xbeaffd85	-0.34373108
86	0x3d5c02d2	0.053713627
87	0x3dcbaea9	0.09945423
88	0xbe9b7593	-0.3036314
89	0x3de459b6	0.111499235
90	0x3e96b53d	0.2943515
91	0xbe76381a	-0.24044839
92	0xbe19c278	-0.1501559
93	0x3e36047d	0.1777515
94	0x3df5ddc3	0.12005188
95	0x3dd26d1a	0.10274716
96	0x3d822573	0.06354799
97	0xbd85044b	-0.064949594
98	0x3e6416a6	0.22274265
99	0xbe034e93	-0.12822942
100	0x3d8c070b	0.06837281
101	0x3ea8e013	0.32983455
102	0x3e1eceb6	0.15508541
103	0x3d0d1378	0.034442395
104	0xbd92ee13	-0.07174315
105	0xbe1ff7d6	-0.15621886
106	0xbcd4caba	-0.025975574
107	0x3d7200b5	0.059082706
108	0xbdefba79	-0.11705489
109	0xbe126646	-0.14296827
110	0x3e9753cf	0.29556128
111	0x3d477100	0.04869175
112	0x3c8fa6da	0.017535616
113	0xbe2372f9	-0.15961827
114	0xbdd13664	-0.10215452
115	0x3e0aa5df	0.13539837
116	0xbe4a0a8e	-0.19730589
117	0x3e876caf	0.26450107
118	0xbd989e2d	-0.07452045
119	0xbe28f3c4	-0.16499239
120	0x3d93f08a	0.072236136
121	0x3e6040d9	0.21899737
122	0xbe4219dc	-0.18955177
123	0xbe844534	-0.25834048
124	0x3e358bc9	0.17729105
125	0x3e0e4a06	0.13895425
126	0x3d891592	0.06693567
127	0xbd7163a5	-0.05893292

LayoutSeq.weight_hh_l0 f4 [32, 8]
0	0x3dce787b	0.100815736
1	0xbe6def53	-0.23235826
2	0x3e2562be	0.16150948
3	0xbe74b305	-0.23896416
4	0x3d675661	0.05647886
5	0x3de96b9f	0.1139748
6	0x3aa7af90	0.001279341
7	0x3e7426ef	0.23842977
8	0x3e43196a	0.19052663
9	0x3dbf8ba7	0.093528084
10	0x3de89e1d	0.11358283
11	0xbe214b94	-0.15751487
12	0xbcd11c7c	-0.025526278
13	0x3d2ccf94	0.04219015
14	0x3e019616	0.1265491
15	0x3e20b38d	0.15693493
16	0xbe1c92dd	-0.15290399
17	0x3e24d607	0.1609727
18	0xbcdc6b44	-0.026906617
19	0xbcd943ad	-0.026521528
20	0x3a6b762f	0.00089821493
21	0x3d7a63af	0.061130222
22	0x3e47d92b	0.19516437
23	0xbdcc7c2e	-0.09984623
24	0x3dbcc16c	0.0921658
25	0xbc8ac3bb	-0.016939035
26	0x3d9ab2fc	0.0755367
27	0xbd4e4b35	-0.05036469
28	0x3d2550c3	0.040360224
29	0x3cd7f98f	0.026364116
30	0x3caaec2b	0.020864567
31	0x3e10c9a6	0.14139423
32	0x3e23e1e9	0.16004147
33	0xbe4f9743	-0.20272546
34	0xbe187ce2	-0.14891389
35	0xbe7d7511	-0.24751689
36	0xbb3f0ccd	-0.0029151917
37	0xbc2f59b6	-0.010702541
38	0x3e12b1d3	0.14325647
39	0x3c968cdd	0.018377716
40	0xbde797c9	-0.113082476
41	0xbbb43f96	-0.005500744
42	0xbea52c4f	-0.32260367
43	0xbe530d16	-0.2061046
44	0xbe71f506	-0.23628625
45	0x3bed74fb	0.007246611
46	0xbd9dec8f	-0.077111356
47	0x3e5b8f12	0.21441296
48	0xbd9eceb5	-0.0775427
49	0xbc1976e4	-0.009366725
50	0x3d2b1682	0.041769512
51	0xbd0c91a6	-0.03431859
52	0xbe0e8b47	-0.13920318
53	0xbce3bda1	-0.027800383
54	0x3bd7f048	0.006589923
55	0x3c4c8677	0.012483231
56	0xbe31c5cd	-0.17360611
57	0x3e7b2ddc	0.24529213
58	0x3cdc1bc5	0.02686871
59	0xbcd6b266	-0.026208114
60	0x3d886c50	0.06661284
61	0x3d9016bb	0.070355855
62	0xbe77cb5e	-0.24198672
63	0x3d9855de	0.07438253
64	0xbd8a2304	-0.0674496
65	0xbe50414c	-0.20337409
66	0xbe37ce4b	-0.17949788
67	0x3d99f6ec	0.075178
68	0x3d126203	0.035738003
69	0xbcdadfb9	-0.026718007
70	0x3e17846a	0.14796606
71	0xbd51f3f3	-0.05125804
72	0xbd9fedeb	-0.07809051
73	0x3cf7b22f	0.030236332
74	0x3dd72a13	0.10506072
75	0xbe6f286c	-0.23355263
76	0x3e1250ee	0.14288685
77	0x3dd63649	0.10459573
78	0x3db78a60	0.0896194
79	0xbd13dce2	-0.036099322
80	0xbe0c7ab2	-0.1371868
81	0xbd7aa36c	-0.061191007
82	0xbe024000	-0.12719727
83	0x3b7cecb6	0.003859324
84	0xbd6de1ae	-0.058076553
85	0x3d5a2d46	0.053265832
86	0xbe5f9410	-0.21833825
87	0x3d3a9b40	0.045558214
88	0x3cd81553	0.026377356
89	0xbdccf25a	-0.100071624
90	0xbe003b66	-0.12522659
91	0xbe8e2ab2	-0.2776695
92	0x3ce4f6d4	0.027949728
93	0x3e341182	0.17584804
94	0x3e22c541	0.15895559
95	0x3e26c136	0.16284642
96	0xbe127914	-0.14304
97	0x3d2f1c85	0.042751808
98	0x3ea4e66d	0.3220705
99	0xbe433943	-0.19064812
100	0x3e234aad	0.15946455
101	0x3dfed571	0.124430545
102	0x3c3aec48	0.011408873
103	0x3e41b7e0	0.18917799
104	0x3d7a35c5	0.061086435
105	0xbe055e9a	-0.13024369
106	0x3eafa1b1	0.34303048
107	0x3e43dbcd	0.19126816
108	0x3dd86ae1	0.105672605
109	0x3e5fa084	0.21838576
110	0x3c5a7737	0.013334087
111	0x3e9f7ca6	0.31149787
112	0xbdd1f1c9	-0.10251195
113	0xbdb7317e	-0.08944987
114	0x3c30ed87	0.010798818
115	0xbe0a52e0	-0.13508177
116	0xbdd9b658	-0.106304824
117	0x3de3ef57	0.11129635
118	0x3dc41495	0.09574238
119	0x3d6712f7	0.05641457
120	0x3b8ed127	0.004358429
121	0xbd351e91	-0.044218604
122	0x3e415438	0.18879783
123	0xbea63a2d	-0.3246626
124	0xbe43d634	-0.19124681
125	0x3e171957	0.1475576
126	0x3e041552	0.12898758
127	0x3e0181dd	0.12647195
128	0xbe6cd942	-0.23129752
129	0xbde9549d	-0.11393092
130	0x3decdfd4	0.11566129
131	0x3dd88ab1	0.10573328
132	0x3e5a816a	0.2133843
133	0xbd183e7b	-0.03716896
134	0xbe961e1d	-0.2931985
135	0x3e572cf5	0.21013243
136	0xbd20e599	-0.03928146
137	0xbe127894	-0.1430381
138	0x3e968c9c	0.2940415
139	0x3e22758f	0.15865158
140	0x3d9e5d07	0.07732587
141	0x3eae59b2	0.34052807
142	0x3e852aeb	0.26009306
143	0x3e1eca9c	0.15506977
144	0x3d8fca34	0.07020989
145	0x3ecc4285	0.398945
146	0x3e2bb6d5	0.16768964
147	0xbcd5cc62	-0.026098434
148	0xbebae3fb	-0.3650206
149	0xbe2c2dd8	-0.16814363
150	0x3e6cbdce	0.2311928
151	0x3d255c0b	0.040370982
152	0xbe32ee22	-0.17473653
153	0x3da9772e	0.08274685
154	0x3ea6cf49	0.3258002
155	0x3ebfbdae	0.37449402
156	0x3d8eebd6	0.06978576
157	0x3dd9423c	0.10608336
158	0xbe2a9a47	-0.16660415
159	0xbdda0625	-0.10645703
160	0x3e046bc1	0.1293173
161	0x3e8fcdb1	0.28086618
162	0xbe99c837	-0.30035564
163	0x3e7374fb	0.23775093
164	0x3e096dc7	0.13420783
165	0xbeab3677	-0.3343999
166	0xbe82eb00	-0.25569916
167	0x3da654f5	0.08121673
168	0xbe3db096	-0.18524393
169	0x3d9c1247	0.076206736
170	0x3e84329e	0.25819868
171	0x3d59741f	0.053089257
172	0xbe3de9ff	-0.18546294
173	0xbdd3c8d8	-0.10341042
174	0xbe0c85fa	-0.13722983
175	0x3ec6105c	0.38684356
176	0x3e522935	0.20523532
177	0x3cb4d4a8	0.022074059
178	0x3e927cd8	0.28610873
179	0xbe9015af	-0.28141543
180	0xbe729f97	-0.23693691
181	0xbd417860	-0.04723394
182	0x3e69ea85	0.22843368
183	0xbd94956f	-0.07255065
184	0xbe979396	-0.29604787
185	0xbe51e7ec	-0.20498627
186	0xbc79f5a4	-0.015256319
187	0xbc4ed86a	-0.012624839
188	0xbeaac232	-0.33351284
189	0x3ecde1c3	0.40211305
190	0x3e6901e5	0.22754629
191	0xbc9a9662	-0.018870536
192	0x3cdb95ee	0.02680489
193	0x3dc90849	0.098160334
194	0x3d7a78dd	0.06115042
195	0xbea8ad05	-0.32944503
196	0x3bf34c4b	0.0074248663
197	0x3d2e251d	0.042515863
198	0x3dbf7da3	0.09350135
199	0x3e9bcd76	0.30430192
200	0x3e547066	0.20746002
201	0xbe51b93e	-0.2048082
202	0xbdcb3ab0	-0.09923303
203	0x3da54460	0.08069682
204	0x3d997fa4	0.07495049
205	0x3e045698	0.12923658
206	0x3e3a1253	0.18171053
207	0x3e51f244	0.20502573
208	0xbe27012d	-0.16309042
209	0x3e37e431	0.17958142
210	0x3e49dd6b	0.1971337
211	0x3e4c183a	0.19931117
212	0xbe062944	-0.13101679
213	0x3ce03572	0.027369235
214	0x3e42acab	0.1901118
215	0x3e4d63d2	0.2005761
216	0x3e20c25a	0.15699139
217	0xbd976956	-0.07393138
218	0xbdf919f8	-0.12163156
219	0xbe7e2818	-0.24819982
220	0xbd1c3690	-0.038137972
221	0x3cc501a6	0.024048638
222	0x3dd90bfe	0.105979905
223	0x3d2c9085	0.042130012
224	0x3c867b3c	0.016416185
225	0x3dc942d6	0.09827201
226	0x3e99851f	0.29984376
227	0x3deb9102	0.115022674
228	0xbe099ec2	-0.13439468
229	0x3d5c7901	0.053826336
230	0xbe3fea1a	-0.18741646
231	0xbd5a1fc5	-0.053252954
232	0xbe4f9326	-0.20270976
233	0xbd6e7c65	-0.0582241
234	0x3aca0bb1	0.0015414861
235	0xbe65a26e	-0.22425243
236	0xbe01edb7	-0.12688337
237	0x3d3f208f	0.04666191
238	0xbda8fc74	-0.082512766
239	0x3e093f2c	0.13403004
240	0xbe28f800	-0.16500854
241	0xbd9221d1	-0.07135356
242	0x3e98f5b6	0.29874963
243	0xbe2723c3	-0.16322236
244	0x3db1576a	0.08659251
245	0xbd41636f	-0.047213968
246	0xbd8f6f31	-0.0700363
247	0xbd12be03	-0.03582574
248	0x3d9dd7f2	0.07707204
249	0x3d44e0a7	0.048065808
250	0xbd9426f8	-0.07233995
251	0xbce9e916	-0.028553527
252	0xbddcd388	-0.10782534
253	0x3d18646a	0.037205137
254	0xbcaa755a	-0.02080791
255	0x3df7fb9f	0.1210854

LayoutSeq.bias_ih_l0 f4 [32]
0	0x3da34c5c	0.07973549
1	0x3e87a5ad	0.26493588
2	0x3e0c41e9	0.13697018
3	0x3db94196	0.09045713
4	0x3d28a728	0.041175038
5	0x3e83e6b2	0.25761944
6	0x3e77bcda	0.24193135
7	0xbe04a270	-0.1295259
8	0xbd610a25	-0.054941315
9	0x3e5cffb0	0.21581912
10	0xbc5de0a5	-0.013542329
11	0x3e1b95c4	0.1519385
12	0xbe56b37e	-0.20966908
13	0x3dd5b9a1	0.104357965
14	0x3e6ebee8	0.23315012
15	0x3c9e954a	0.019358296
16	0xbd8eff41	-0.069822796
17	0x3df12695	0.11774937
18	0x3df85a8f	0.12126648
19	0xbe2b361a	-0.16719857
20	0xbd995d7f	-0.07488536
21	0x3cd5603e	0.026046868
22	0xbc9ea565	-0.019365976
23	0x3db9e6a6	0.09077196
24	0x3e5c3e2e	0.21508095
25	0xbda09e78	-0.078427255
26	0x3e9ce81b	0.30645832
27	0xbdb810a1	-0.08987547
28	0x3ec655ce	0.3873734
29	0x3cb245dd	0.021761829
30	0xbe2f0207	-0.17090617
31	0x3e59485f	0.21219014

LayoutSeq.bias_hh_l0 f4 [32]
0	0xbcfb6a3a	-0.030690301
1	0xbd535ddf	-0.051603194
2	0x3e9c7b72	0.3056293
3	0x3e8ab458	0.27090716
4	0xbe47dd73	-0.1951807
5	0xbe7d0170	-0.2470758
6	0xbe05bd54	-0.13060504
7	0x3dcce19f	0.10003971
8	0x3e6b6e12	0.22991207
9	0x3ea8fcf9	0.33005503
10	0xbe3ee54f	-0.18642162
11	0x3ec0b812	0.37640435
12	0xbe625bb8	-0.221053
13	0xbd72ce6f	-0.0592789
14	0x3d4e4ee0	0.05036819
15	0x3e025bf1	0.12730385
16	0xbe373701	-0.17892076
17	0xbe845a8b	-0.2585033
18	0x3e41366a	0.18868414
19	0x3ddc76f1	0.10764874
20	0xbd036eff	-0.032088276
21	0x3d1827f9	0.037147496
22	0x3e9081ef	0.2822413
23	0xbdfb9c89	-0.12285716
24	0xbb4a01ac	-0.003082375
25	0x3e3f039e	0.18653724
26	0x3e2737c2	0.16329864
27	0x3dd5ec47	0.10445457
28	0xbe3114d4	-0.17293102
29	0xbdb8a49d	-0.090157725
30	0xbda070dd	-0.07834027
31	0x3e8fdf5d	0.281001

mlp.0.weight f4 [32, 8]
0	0x3d8193fc	0.06327054
1	0xbe55056f	-0.20802854
2	0x3cffb4c2	0.031214122
3	0x3e0efe9f	0.13964318
4	0x3df13ced	0.11779199
5	0x3d44d0ad	0.04805057
6	0xbdb14bac	-0.086570114
7	0x3e0475ec	0.12935609
8	0xbe41837d	-0.18897815
9	0x3d9367e8	0.07197553
10	0xbd3018e1	-0.042992476
11	0x3c904dfd	0.017615313
12	0x3d4eb475	0.050465066
13	0x3c47a4af	0.01218526
14	0xbe3c190c	-0.1836893
15	0xbdbbc6b7	-0.09168761
16	0x3cb2a3df	0.021806655
17	0xbde224fd	-0.11042211
18	0x3e6b4578	0.22975719
19	0x3d278965	0.040902514
20	0xbe49dc6a	-0.19712988
21	0xbdcdb0e4	-0.10043505
22	0x3be03489	0.0068422
23	0xbe1969bc	-0.1498174
24	0x3ebb9223	0.3663493
25	0xbd005971	-0.031335298
26	0x3ec5c4f8	0.38626838
27	0xbcb4f4cb	-0.022089383
28	0x3c0058e1	0.00783369
29	0x3e4a218e	0.19739363
30	0x3dae4c21	0.08510614
31	0x3e0b14dc	0.13582176
32	0x3d810dae	0.06301437
33	0xbe5e5a6c	-0.2171418
34	0x3ca82264	0.020524211
35	0xbe4c4c0b	-0.19950883
36	0xbe8c9ed8	-0.27464938
37	0xbb9a9213	-0.0047171204
38	0x3df7c898	0.12098807
39	0xbe7ea68a	-0.24868217
40	0xbd31c8af	-0.043404277
41	0x3dea2890	0.11433518
42	0xbd8b76ce	-0.068097696
43	0x3da0db38	0.07854313
44	0x3e3e9558	0.18611658
45	0x3ccc1183	0.024910694
46	0xbe803722	-0.25042063
47	0x3e6420d6	0.22278151
48	0xbda33c1a	-0.07970448
49	0xbee19ce0	-0.44065
50	0x3d0e5171	0.034745637
51	0xbd540f76	-0.051772557
52	0x3dc3c91a	0.095598415
53	0x3e201d2a	0.15636125
54	0xbe49a50b	-0.19691865
55	0xbe02637d	-0.12733264
56	0x3dec6b8d	0.11543951
57	0x3e2b4191	0.1672423
58	0xbe7329e5	-0.2374645
59	0xbe50b97d	-0.20383258
60	0xbd9b6849	-0.0758825
61	0xbea0eb1f	-0.31429383
62	0xbd2d5e44	-0.042326227
63	0xbda254a9	-0.07926304
64	0xbd8b42d8	-0.06799859
65	0xbe9bbafb	-0.30416092
66	0x3e055175	0.13019355
67	0xbe917b72	-0.28414494
68	0xbe32d528	-0.17464125
69	0xbe5928c8	-0.21206963
70	0x3e5991f3	0.21247081
71	0xbecd7c8e	-0.4013409
72	0xbebe8b60	-0.3721571
73	0x3d224b58	0.039622635
74	0xbd294d31	-0.04133338
75	0x3daa43d9	0.08313722
76	0xbe781b92	-0.24229267
77	0x3e16778f	0.14694045
78	0xbd271b59	-0.040797565
79	0x3f14e61b	0.58163613
80	0xbe3dfec0	-0.1855421
81	0xbe79829d	-0.24366231
82	0x3d97d3c0	0.07413435
83	0x3dfd6c9d	0.12374232
84	0xbb93d15a	-0.0045110406
85	0xbdb4dbb7	-0.0883097
86	0x3b6247aa	0.0034527578
87	0xbe817ef1	-0.2529216
88	0x3dad02ab	0.084477745
89	0x3d94c2b0	0.07263696
90	0x3e01a08f	0.12658904
91	0xbe4adbb0	-0.19810367
92	0xbd2d8b3b	-0.04236911
93	0x3bcc95b5	0.0062434324
94	0xbeab6b1a	-0.3348015
95	0x3ead4893	0.33844432
96	0xbe7ca26d	-0.24671336
97	0x3e8c7132	0.2743011
98	0x3e11cfe5	0.14239462
99	0x3d870a42	0.065937534
100	0xbee22f30	-0.44176626
101	0x3ea0c484	0.3139993
102	0xbdac4c56	-0.084129974
103	0x3f60b3e7	0.8777451
104	0x3e0deec4	0.13860613
105	0xbe04c1ad	-0.12964506
106	0x3e3ecc84	0.18632704
107	0xbda12d60	-0.07869983
108	0x3c9bab8d	0.0190027
109	0x3e311006	0.17291269
110	0xbe28546b	-0.16438453
111	0x3dbd91b5	0.09256307
112	0x3e17e3a7	0.14832936
113	0xbc2b1e2d	-0.010444206
114	0x3d59665b	0.05307613
115	0xbe0d4883	-0.13797192
116	0x3cfd12fa	0.030892838
117	0xbcff6632	-0.03117666
118	0x3d89b7c2	0.06724502
119	0x3d66b4c4	0.056324735
120	0xbd58d315	-0.05293568
121	0x3c4b73a0	0.012417704
122	0x3d31e0ed	0.043427397
123	0xbc5c5396	-0.013447663
124	0x3d71c1ea	0.05902282
125	0x3d6918ef	0.056908544
126	0xbd18c900	-0.037301064
127	0x3d16290a	0.03666023
128	0x3e2970c1	0.16546918
129	0xbe4f4800	-0.2024231
130	0x3c34bca5	0.0110313045
131	0xbe1d2c2e	-0.15348884
132	0x3e35889d	0.17727895
133	0xbe1d1b52	-0.15342453
134	0xbe0d4b98	-0.13798368
135	0xbd9beb94	-0.07613292
136	0xbe348df8	-0.17632282
137	0xbde6aca9	-0.11263401
138	0xbd5f41f6	-0.054506265
139	0x3c77e67f	0.015130638
140	0xbe2d72ad	-0.16938277
141	0xbe4b6fdf	-0.19866894
142	0xbe0ccde6	-0.13750419
143	0x3e11aff6	0.1422728
144	0xbe11970a	-0.14217773
145	0xbe505834	-0.20346147
146	0x3eb60edd	0.35558215
147	0x3dbb298f	0.09138786
148	0xbd7f672b	-0.062354248
149	0x3d946479	0.07245726
150	0x3cc1c220	0.023652136
151	0xbd8cfeb0	-0.06884515
152	0x3def0945	0.1167169
153	0x3d377dc1	0.044797663
154	0x3de349fb	0.11098095
155	0x3e030a1b	0.12796824
156	0xbd01137d	-0.031512726
157	0x3cc5b5ed	0.0241346
158	0x3d8e9022	0.06961085
159	0x3d24417f	0.040101524
160	0xbe7a3077	-0.2443255
161	0x3d677051	0.056503598
162	0x3d7ef266	0.062242888
163	0x3d22d421	0.039753083
164	0xbd21b36e	-0.039477758
165	0x3c90fb3b	0.017697921
166	0x3ce184a2	0.027529065
167	0x3de34e0e	0.11098872
168	0xbe8de615	-0.277146
169	0xbdc6e1cb	-0.09711035
170	0xbe31a7a4	-0.17349106
171	0xbd9cfa6c	-0.07664952
172	0xbe0e37d6	-0.13888487
173	0xbca0c913	-0.01962713
174	0xbe08ff98	-0.13378751
175	0x3ef09c69	0.4699433
176	0xbebfa482	-0.37430197
177	0xbe19f1a7	-0.1503359
178	0xbddad8cd	-0.10685883
179	0x3e443a7f	0.1916294
180	0x3e81650b	0.25272402
181	0x3c3e192a	0.011602679
182	0xbd163971	-0.036675874
183	0x3dd6899f	0.10475468
184	0xbd24d601	-0.040243153
185	0xbe6879e2	-0.22702745
186	0xbe24d21a	-0.16095772
187	0xbd1319b1	-0.035913173
188	0x3ea91256	0.33021802
189	0xbe65af31	-0.22430111
190	0xbc4d9f12	-0.012550132
191	0xbd7e019a	-0.062013246
192	0xbd785147	-0.060624387
193	0xbde5231d	-0.11188338
194	0xbe8897fd	-0.26678458
195	0x3e5e4458	0.21705759
196	0x3d844b37	0.064596586
197	0xbd2a034a	-0.041507043
198	0xbe4a8c9b	-0.19780199
199	0x3dab92c6	0.08377604
200	0xbe73f60c	-0.23824328
201	0xbe4ee588	-0.20204747
202	0x3debd972	0.11516084
203	0xbcd6cfd5	-0.026222149
204	0xbda428a9	-0.08015568
205	0xbd0dc918	-0.034615606
206	0x3e074f41	0.13213827
207	0x3ea4fc44	0.32223713
208	0x3d5cffbd	0.05395483
209	0xbe769707	-0.2408105
210	0xbe07b785	-0.13253601
211	0x3c2634b3	0.0101444
212	0x3d93bd2f	0.07213818
213	0x3e9dd09e	0.30823225
214	0x3da8abac	0.08235869
215	0xbd9ad0b8	-0.07559341
216	0x3e795c72	0.24351671
217	0xbd228257	-0.039675083
218	0x3c8798a7	0.016552282
219	0x3d4041cd	0.046937753
220	0x3d8a6d37	0.06759112
221	0xbe65b179	-0.22430982
222	0x3e2a6626	0.16640529
223	0xbe24ec50	-0.16105771
224	0x3d20f3ed	0.039295126
225	0xbe54ceef	-0.20782064
226	0x3ec7ca87	0.39021704
227	0x3e80f700	0.25188446
228	0xbd891d76	-0.06695072
229	0xbd060542	-0.032719858
230	0x3dd73169	0.10507471
231	0xbc0daece	-0.008647634
232	0x3e5d9d8c	0.2164213
233	0x3db27657	0.08713978
234	0xbd26a6c3	-0.04068638
235	0xbe304e03	-0.17217259
236	0xbe67ea3e	-0.2264795
237	0x3da17adb	0.07884761
238	0x3e1bfd29	0.15233292
239	0xbe032b4e	-0.12809488
240	0xbde9a01a	-0.1140749
241	0xbd2af615	-0.04173859
242	0xbcbf9a01	-0.023388864
243	0xbd39bec3	-0.04534794
244	0xbdf8df5e	-0.12151979
245	0xbe4cc554	-0.1999715
246	0x3e07dfc3	0.13268952
247	0x3bf84dcd	0.007577634
248	0x3e32cfc3	0.17462067
249	0xbe341477	-0.17585932
250	0xbc11ac62	-0.008891197
251	0x3dc85d03	0.097833656
252	0xbe0726b8	-0.13198364
253	0x3bb1380a	0.0054082917
254	0xbd41f6d3	-0.04735453
255	0xbe04a3a0	-0.12953043

mlp.0.bias f4 [32]
0	0x381f64e6	3.8002523e-05
1	0x378d0206	1.6809452e-05
2	0xb81bcee7	-3.7147573e-05
3	0x37a8ade0	2.0108128e-05
4	0x378bb6f8	1.6655293e-05
5	0x38212869	3.8423026e-05
6	0xb6071750	-2.0130137e-06
7	0xb880bd51	-6.1387786e-05
8	0x387c054a	6.0086408e-05
9	0xb8a22584	-7.73175e-05
10	0xb74b3268	-1.2111479e-05
11	0xb69f707c	-4.751664e-06
12	0x384d3e76	4.893398e-05
13	0x36504a2b	3.1037587e-06
14	0x37936dbe	1.7574868e-05
15	0x36ccced2	6.103751e-06
16	0x376a18a4	1.3953224e-05
17	0xb81c18f5	-3.721654e-05
18	0xb891b69a	-6.948151e-05
19	0x37832533	1.563374e-05
20	0x37eb7f68	2.8073511e-05
21	0xb78545cb	-1.5887335e-05
22	0xb7fb20a8	-2.9936738e-05
23	0xb79fb09d	-1.9036519e-05
24	0x3806c4c5	3.2131346e-05
25	0xb88385c4	-6.2714826e-05
26	0xb7e0fe9c	-2.6821443e-05
27	0x380589f7	3.183816e-05
28	0x37a6d7fa	1.9889314e-05
29	0xb61bf948	-2.32419e-06
30	0x385ace60	5.2167452e-05
31	0x37d5fce9	2.550935e-05

mlp.1.weight f4 [32]
0	0x3f17d430	0.5930815
1	0x3ed8290a	0.4221881
2	0x3f25d132	0.6477233
3	0x3f0ef69b	0.5584504
4	0x3f2ff936	0.6873964
5	0x3f421bc2	0.75823605
6	0x3f4d5ee1	0.802229
7	0x3f3abafa	0.72941554
8	0x3f3f092e	0.7462338
9	0x3f3107c5	0.6915248
10	0x3f46e3d8	0.7769141
11	0x3f2b0b56	0.6681417
12	0x3f723c15	0.9462293
13	0x3f125762	0.57164586
14	0x3f061af4	0.5238488
15	0x3ebfecf9	0.37485483
16	0x3f44458a	0.7666861
17	0x3f458d6f	0.77168936
18	0x3f63af0e	0.8893899
19	0x3f254b7c	0.64568305
20	0x3f31076d	0.69151956
21	0x3f4cb4b2	0.7996322
22	0x3f4346e9	0.76280075
23	0x3f42bfb0	0.7607374
24	0x3f13aba9	0.5768381
25	0x3f2c4a19	0.67300564
26	0x3f408bcd	0.7521332
27	0x3f2e8a06	0.6817936
28	0x3f2e7506	0.68147314
29	0x3f26497c	0.6495588
30	0x3f4a1599	0.78939205
31	0x3f0e512e	0.5559262

mlp.1.bias f4 [32]
0	0xbca1fc96	-0.019773763
1	0x3e68c3f2	0.22730997
2	0x3dafd1e4	0.08584955
3	0xbee144b8	-0.4399774
4	0xbcdccfbf	-0.02695453
5	0x3c09206a	0.0083695445
6	0xbdb72441	-0.08942462
7	0xbd8288b8	-0.06373733
8	0xbd855047	-0.06509452
9	0x3d0a234a	0.03372506
10	0x3bd93cd9	0.006629568
11	0xbdb78fa9	-0.08962948
12	0xbe07edb5	-0.13274272
13	0x3cf59083	0.029976135
14	0xbd624b48	-0.055247575
15	0x3cd9face	0.02660885
16	0xbd2bcacb	-0.041941445
17	0xbe054bac	-0.13017148
18	0xbc42f30b	-0.011898766
19	0xbe03a295	-0.12854989
20	0x3cd2a520	0.025713503
21	0x3d6ad120	0.057328343
22	0x3e6a53c2	0.22883514
23	0x3ca36cfe	0.019949432
24	0x3cb70656	0.022341888
25	0x3dba88e1	0.09108139
26	0xbd320f66	-0.043471716
27	0x3deac754	0.114638
28	0x3e4d54c5	0.20051868
29	0xbdd7d013	-0.10537734
30	0x3cb364c5	0.021898637
31	0x3d646c12	0.055767126

mlp.1.running_mean f4 [32]
0	0x3d0a0260	0.03369367
1	0xbdc6cac2	-0.09706642
2	0x3d1a93cb	0.037738603
3	0x3e36e793	0.17861776
4	0x3df3dfd7	0.119079284
5	0xbd99bd0e	-0.075067624
6	0x3db95e67	0.09051209
7	0xbdbe0f98	-0.09280318
8	0x3df4e0e1	0.11956955
9	0x3e1274ce	0.1430237
10	0xbd1799b3	-0.037011813
11	0x3ddb8994	0.107196
12	0x3e78b75d	0.24288698
13	0x3df8c5dc	0.12147114
14	0x3d9c5090	0.076325536
15	0x3c47e9d2	0.012201743
16	0x3cb1a147	0.021683348
17	0x3c9656fd	0.018352026
18	0x3dcf2208	0.10113913
19	0x3b1153b8	0.0022175144
20	0x3c9e87d0	0.01935187
21	0x3dfe7b96	0.12425916
22	0xbd6d345f	-0.057911273
23	0xbd5adba0	-0.053432107
24	0xbdecec61	-0.11568523
25	0x3e44324a	0.19159809
26	0x3d8fc05e	0.07019113
27	0xbd516432	-0.051120944
28	0x3d9ed8c5	0.07756189
29	0x3d7352b7	0.059405055
30	0x3ce30cdb	0.02771609
31	0xbacbb3da	-0.0015541271

mlp.1.running_var f4 [32]
0	0x395f32af	0.00021285818
1	0x39babdeb	0.00035618184
2	0x39c3d629	0.0003735286
3	0x396ed916	0.0002277832
4	0x397e9c58	0.0002428157
5	0x39440b88	0.00018696312
6	0x3a3a7d2b	0.00071139884
7	0x396265e2	0.00021590994
8	0x38fc320b	0.000120256176
9	0x383a5cc8	4.4432265e-05
10	0x39dd7c6b	0.00042245103
11	0x3a3b1492	0.0007136549
12	0x3873ebba	5.8155252e-05
13	0x39e6085a	0.0004387524
14	0x394b10ef	0.00019365897
15	0x384c98b5	4.877961e-05
16	0x3a13c7a3	0.0005637353
17	0x3732edd5	1.0665001e-05
18	0x3a43740a	0.0007455951
19	0x3900894f	0.00012258183
20	0x39a86929	0.00032121807
21	0x3a346f5f	0.00068830507
22	0x3984e7ec	0.00025349797
23	0x39945809	0.0002829435
24	0x3981a293	0.00024725925
25	0x390818a7	0.00012979154
26	0x3a4cbb65	0.00078099064
27	0x3954b142	0.00020283929
28	0x3a57f3bb	0.0008237918
29	0x39cdd400	0.000392586
30	0x38db1dc6	0.000104482795
31	0x395e34be	0.00021191218

mlp.3.weight f4 [1, 32]
0	0x3de2ac77	0.11068051
1	0xbd61a09a	-0.055084802
2	0xbdbb5758	-0.09147519
3	0xbe679f3d	-0.22619338
4	0x3e1bd5d3	0.15218286
5	0x3e366d51	0.17815138
6	0xbeb64846	-0.35602015
7	0xbe44262d	-0.19155188
8	0xbe290bb4	-0.1650837
9	0x3e43ad09	0.19108976
10	0xbe7411e6	-0.23834953
11	0xbe09a9fe	-0.13443753
12	0x3eea86ac	0.4580587
13	0x3dea577c	0.114424676
14	0xbdbc5021	-0.09194971
15	0xbc75ee7e	-0.015010474
16	0x3e5636da	0.20919362
17	0xbe819ed6	-0.25316495
18	0x3eadcf66	0.33947295
19	0x3df78dc5	0.12087587
20	0x3e04aa2b	0.12955539
21	0x3e5d4ee1	0.21612121
22	0xbe729115	-0.23688157
23	0xbe652d0c	-0.22380465
24	0x3da8781b	0.08226033
25	0x3e1162e4	0.1419788
26	0xbe4a8cc1	-0.19780256
27	0xbe1f2386	-0.15540895
28	0xbe022e4e	-0.12712976
29	0xbe0755a9	-0.1321627
30	0x3e344c92	0.17607334
31	0x3de0609b	0.10955926
