output_bbox_gcn/EVALUATOR_layout_MultiLayer_2023_09_21_16_51_13/Model/evaluator_1470.pth (torch, 9147 bytes, 11 tensors)

LayoutSeq.weight_ih_l0 f4 [32, 4]
00000000: c21c 453d 9614 99bd 1c36 d2bd bfbb 773d
00000010: 1ea5 de3d 0f81 e7bd e47c 7fbc 1979 9e3d
00000020: 7421 fc3d f826 893d afea 343e 7a79 9d3e
00000030: b826 83be 2a4e b53d 40c8 223e 5dea a43d
00000040: 5b78 bdbe fe5d 8b3e a6be ef3d 4bbe 2f3e
00000050: 8dc6 91be cee6 453e 09d2 113e 27af 113e
00000060: 2766 0a3e 87b4 b33d 69c1 44be 1a1a 0abe
00000070: 14e3 a8bc a1ed 1e3e 7b7d 82bd 1f74 b03e
00000080: 8758 4d3e 8ea9 9e3e 48b4 333e d357 93bb
00000090: 3e32 993e 7549 3abb 98f2 f6bd 018d 3a3d
000000a0: c2f7 92be bc72 c63d f985 8fbe 05bd 2abe
000000b0: c23d 0dbe 076e 853d f4a0 28be cc7e 3abe
000000c0: 11f8 37be 1d34 24bd a234 963e a342 e9bc
000000d0: c5bb 77bd fa90 c13d e95b 893e 4855 d03e
000000e0: 543b 19be 7345 a2bd 4e70 39be 6b9a 003d
000000f0: b95a e53d 99d6 913e 5d8b 6b3e 8515 00bd
00000100: 6630 223e 604a be3d 922e 8f3e 5101 9a3c
00000110: be79 b3bc cdd2 86be a69d 3abe c61b 13be
00000120: 011f 3ebd 1f78 023f 765f 9ebe fd86 2ebd
00000130: d41b d8bd 4224 75be 9f47 e03d 9b2d bdbe
00000140: 5d90 babe de94 9d3e 8185 9bbd 521a 973e
00000150: 48a1 a13e 4bac afbe d8fb 5b3d 0ec5 ca3d
00000160: 8c15 9bbe 60a5 e63d 8764 973e b95f 76be
00000170: 21d3 19be 3a92 353e bf74 f53d 08fe d23d
00000180: 3a17 7e3d 475b 8bbd 0cdb 663e 3ca4 04be
00000190: 0d37 893d 523e a93e de36 1f3e 7a2e 113d
000001a0: 91f7 8fbd bd3e 1ebe 5368 bebc b322 733d
000001b0: e425 eebd 58d6 10be 85b9 973e f302 4b3d
000001c0: ee3d 933c 1321 21be acc9 d0bd b8cc 0a3e
000001d0: c560 49be 8121 883e af98 99bd ff59 28be
000001e0: 8026 903d 39ef 603e afcd 42be 0957 84be
000001f0: d079 373e d6a0 0d3e 9f40 893d bc67 74bd
0.04812313 -0.074746296 -0.10264227 0.060481783 0.10871337 -0.11303913 -0.015593741 0.07737941
0.12311068 0.06696886 0.1766765 0.30756742 -0.25615478 0.08852799 0.15896702 0.08052514
-0.37005886 0.27220148 0.11706285 0.17162435 -0.28471795 0.19326326 0.14240278 0.14226972
0.1351553 0.08774667 -0.19214405 -0.1348652 -0.020616092 0.15520336 -0.0637159 0.34463593
0.20053302 0.30988735 0.1754924 -0.0044965534 0.29921144 -0.0028425131 -0.1205799 0.045544628
-0.2870465 0.096898526 -0.280319 -0.16673668 -0.1379309 0.06515127 -0.16467649 -0.18212432
-0.17965724 -0.04008876 0.2933703 -0.028474158 -0.060481805 0.0945148 0.26827934 0.40690064
-0.14964038 -0.07923403 -0.18109247 0.031397264 0.111989446 0.28484038 0.23002382 -0.031270523
0.15838775 0.0929153 0.27965218 0.018799456 -0.021908637 -0.26332703 -0.182242 -0.14366063
-0.046416286 0.5096454 -0.30932206 -0.042609204 -0.10552183 -0.23939613 0.10951161 -0.36948857
-0.36438265 0.3077764 -0.07593823 0.29512268 0.3156836 -0.34311137 0.053706974 0.099008664
-0.30289876 0.112620115 0.29568884 -0.24059953 -0.15021946 0.17731562 0.11985158 0.10302359
0.06203387 -0.06804519 0.22544497 -0.12953275 0.06699953 0.3305536 0.15548274 0.035444714
-0.070296414 -0.1545362 -0.023243105 0.059359264 -0.11628321 -0.14144266 0.29633728 0.04956336
0.017973866 -0.15735273 -0.10194716 0.13554657 -0.19665821 0.2658806 -0.07499825 -0.16440581
0.07038593 0.21966256 -0.19023775 -0.25847653 0.17917562 0.13830885 0.067017786 -0.05966924

LayoutSeq.weight_hh_l0 f4 [32, 8]
00000000: 7db9 d43d 6f67 6fbe 3386 243e 4ea8 74be
00000010: 9d7c 653d 3c44 e93d 5d7a 8f3a 7f6b 733e
00000020: dd1c 453e e9b5 bf3d ca24 e93d 2aaf 23be
00000030: 00d6 b2bc 915f 2b3d b677 ff3d e174 213e
00000040: e62c 1dbe de1c 253e 4a1d eebc a685 e1bc
00000050: 9909 2b3b d69d 793d 1f8a 473e bdca d0bd
00000060: 84ed bc3d ed61 7bbc 09dd 9c3d ee3f 4dbd
00000070: bed0 293d 2e2e cf3c 18d0 ab3c 794f 113e
00000080: 2da0 263e ba07 51be 013b 1abe cb06 7fbe
00000090: 6efc 19bb 112f 4bbc 48f6 123e 3b16 953c
000000a0: 5e29 e9bd 7675 ccbb 7a55 a5be c7e7 53be
000000b0: 09c0 73be 808f b53b bc16 a0bd a9d9 5c3e
000000c0: 0922 a5bd eaef 2ebc 1a34 323d 6285 14bd
000000d0: b832 0ebe 2370 edbc 702c b03b a4d2 6b3c
000000e0: 0f04 33be 8862 7c3e 315b de3c f9d6 d5bc
000000f0: f479 873d 1ce7 903d dad6 77be 0746 9a3d
00000100: 38d9 8cbd 926a 51be 6938 3abe 3d6f 9c3d
00000110: ae6f 113d 2ff3 e7bc 1bc7 193e 45b8 59bd
00000120: bbb9 a1bd 3c1a 003d 0e3b d63d 377c 6fbe
00000130: 50db 133e 1b2f d73d 3095 b83d 488b 19bd
00000140: f6ba 0cbe 3219 83bd a6dd 02be ca83 373b
00000150: 7039 69bd a12e 543d cdf4 61be 6a39 3e3d
00000160: 7ad0 c23c b5d5 cabd 7e98 00be 7c41 8ebe
00000170: 6498 ed3c 165b 353e dc5a 243e f4b6 253e
00000180: 727e 13be 95a9 313d ad2f a53e 9af5 42be
00000190: 1731 243e 68e2 fe3d 291b 2f3c 332e 423e
000001a0: 2279 7d3d c13b 06be 040d af3e 93c5 433e
000001b0: 1bf1 da3d 5a25 613e 8656 443c 5215 a03e
000001c0: 730b d6bd d051 babd 59b7 0b3c a99d 0cbe
000001d0: 19d3 d5bd 5346 e03d 72a7 c23d 9dd7 603d
000001e0: 7c7a e03b e8d2 3cbd b712 3f3e 054d a7be
000001f0: ca1b 42be 1f90 173e 4bfe 033e 91a7 033e
00000200: 1534 6dbe 3173 e8bd f3b8 ed3d 45f6 da3d
00000210: 6512 5b3e 6dd4 13bd cdc4 96be bec6 563e
00000220: b3ac 1fbd 58d3 13be 0fc6 963e 753e 233e
00000230: fa14 9d3d 829c ae3e 176b 853e 8c36 1f3e
00000240: 301c 8e3d 4987 cc3e 69c2 2b3e b3fa dbbc
00000250: 6bc1 babe 49c1 2cbe 3dc6 6d3e a662 293d
00000260: ed66 36be fe2c ac3d 6594 a73e 08cf bf3e
00000270: f15e 8e3d 17b5 db3d 3d96 2abe 19d2 d9bd
00000280: 115e 043e 970b 903e 4777 99be 7487 733e
00000290: 3757 0a3e 5a63 abbe a7db 82be cedb a53d
000002a0: 512c 3ebe f73b 9c3d b1b5 833e d1a5 573d
000002b0: 8b06 3fbe e246 d4bd a178 0cbe b24f c63e
000002c0: 0076 533e 8058 ac3c c242 923e ee1f 91be
000002d0: 9720 71be f033 4fbd d0fd 693e 47fe 98bd
000002e0: 9077 97be 9714 53be c7ae 81bc efea 4abc
000002f0: 6d9d aabe 977d cd3e d458 673e 7c32 a3bc
00000300: 79c1 d13c 2567 ca3d 1489 773d 7bd8 a8be
00000310: c347 f53b 5411 2d3d 187a be3d be9b 9b3e
00000320: 0a49 573e 9466 53be 80b5 d3bd c47d a53d
00000330: 9f6e 9a3d 5928 063e 2000 3b3e f83d 533e
00000340: e42c 28be 33af 383e 8f74 493e 0c60 4d3e
00000350: 0aa0 06be 7d75 d83c c008 433e 2511 4d3e
00000360: 9d9d 203e b836 97bd 8c2e fbbd dc53 80be
00000370: f051 19bd 5a8a b63c 8624 d73d 2123 283d
00000380: 678e 883c 326f c93d 8765 993e 864e eb3d
00000390: 9770 09be feda 573d ff07 41be fbfc 5abd
000003a0: 4ead 4fbe 47ef 6ebd 1a77 b73a 821c 65be
000003b0: 3244 02be 39c4 3a3d bc3a abbd 7ddb 083e
000003c0: 6727 2cbe 61d4 92bd 7afe 993e 4284 28be
000003d0: 1170 b43d d9b3 44bd ab49 93bd dd85 14bd
000003e0: ad12 9e3d 1935 463d b80e 94bd 4e22 eabc
000003f0: 547e dbbd 51b5 143d feb2 a4bc 7ead f93d
0.103869416 -0.233793 0.16066818 -0.23892328 0.056027044 0.11389968 0.0010946501 0.23771475
0.19249292 0.093608685 0.1138397 -0.15984789 -0.021830559 0.041839186 0.12474005 0.15767242
-0.15349159 0.16124293 -0.0290667 -0.027529549 0.002609825 0.06094154 0.19486283 -0.10194919
0.0922499 -0.015343172 0.076593466 -0.050109796 0.041458838 0.025290575 0.02097325 0.14190473
0.1627204 -0.20413104 -0.1506157 -0.24904935 -0.0023496407 -0.012401358 0.14351761 0.018199077
-0.11384843 -0.0062395884 -0.32291776 -0.20693885 -0.23803724 0.005540788 -0.07816836 0.21567406
-0.08063132 -0.010677317 0.04350672 -0.036260016 -0.13886535 -0.028984135 0.005376391 0.014393482
-0.17482017 0.24646962 0.027143093 -0.026103484 0.066150576 0.070753306 -0.24203053 0.07532888
-0.06877369 -0.2045081 -0.18185581 0.076384045 0.035506897 -0.028314201 0.15017359 -0.05315425
-0.078967534 0.03127502 0.104604825 -0.23387228 0.1443913 0.105070315 0.0901283 -0.037486345
-0.13743195 -0.0640129 -0.12779865 0.0028002136 -0.056939542 0.05180228 -0.2206604 0.046441473
0.02378105 -0.09904043 -0.12558171 -0.27784336 0.02900333 0.17710528 0.16050285 0.16183072
-0.14403704 0.043374617 0.32262936 -0.19039002 0.16034351 0.12445527 0.010687628 0.18962936
0.0618831 -0.13108732 0.34189618 0.19118337 0.106905185 0.21986905 0.011983519 0.31266266
-0.104514025 -0.09097636 0.0085276 -0.13732018 -0.10440654 0.10950913 0.09504594 0.054893125
0.006850539 -0.046099573 0.18659483 -0.3267595 -0.18955913 0.14801072 0.12889974 0.1285689
-0.23164399 -0.11350096 0.11607542 0.106915034 0.21393736 -0.036091257 -0.29447022 0.20974252
-0.03898306 -0.1443609 0.29447982 0.15941794 0.076700166 0.3410378 0.26058266 0.15548152
0.0693897 0.39946964 0.1677338 -0.026852941 -0.3647569 -0.16870607 0.23220153 0.041353844
-0.178127 0.08407019 0.32730404 0.3746264 0.069517024 0.107278995 -0.16658874 -0.10635776
0.12926508 0.28133842 -0.29973814 0.2378214 0.13509832 -0.33474237 -0.25558206 0.08098565
-0.18571593 0.07628625 0.25724557 0.05264837 -0.1865484 -0.10365082 -0.13717891 0.38732678
0.20650482 0.021038294 0.28566557 -0.28344673 -0.23547588 -0.05058664 0.22850728 -0.074703746
-0.29583406 -0.20613323 -0.01583041 -0.012385114 -0.3332323 0.4013488 0.22592479 -0.019921534
0.02560495 0.098829545 0.060433462 -0.32977661 0.0074853613 0.042252854 0.09300631 0.3039226
0.21023956 -0.20644599 -0.10337353 0.080806285 0.075406305 0.13101329 0.18261766 0.20629108
-0.16423374 0.18035583 0.1967337 0.2005617 -0.13146988 0.02642321 0.19046307 0.20026071
0.15685125 -0.07383484 -0.122647375 -0.2506398 -0.037431657 0.022282768 0.10505013 0.041049127
0.016669465 0.09835662 0.29960272 0.114895865 -0.13421856 0.05269908 -0.18850707 -0.053463917
-0.20280954 -0.05833366 0.0013997287 -0.22374156 -0.12721327 0.04559729 -0.08360812 0.13364978
-0.16811906 -0.07169414 0.30076963 -0.16456702 0.088104375 -0.04802308 -0.071917854 -0.036260474
0.07718406 0.04839048 -0.0722937 -0.02858081 -0.107174546 0.03630573 -0.020104881 0.12191294

LayoutSeq.bias_ih_l0 f4 [32]
00000000: 25a3 a43d d36f 873e a6f8 0b3e 9476 b93d
00000010: 8daa 273d 5741 843e b2be 783e 32d3 04be
00000020: 81d7 60bd 5dfd 5c3e 0cf8 63bc 6a82 1b3e
00000030: 197c 57be 97a0 d63d 9dc3 6d3e b1a3 9a3c
00000040: c05e 8fbd e2f9 f13d 5394 f83d 601f 2bbe
00000050: f596 99bd 7f48 d23c 2afb 9cbc eba4 b93d
00000060: 97c4 5c3e 3cf8 a1bd 8def 9c3e 3e60 b9bd
00000070: ef72 c63e 59db ae3c 02c5 2fbe dbe0 583e
0.0803893 0.26452503 0.1366907 0.0905582 0.040934134 0.258311 0.24291494 -0.1297119
-0.05489302 0.21581025 -0.013914119 0.15186468 -0.21043433 0.10479849 0.23219152 0.018876882
-0.07000494 0.118152395 0.121376656 -0.16711187 -0.07499496 0.025669334 -0.019162733 0.09064659
0.21559368 -0.07908675 0.30651513 -0.0905156 0.38759562 0.021344827 -0.17164996 0.21179526

LayoutSeq.bias_hh_l0 f4 [32]
00000000: 5417 f7bc c6f3 57bd 8280 9c3e 3b44 8b3e
00000010: 3b55 48be 454b 7dbe 0862 06be 16f4 cc3d
00000020: 75f1 6b3e 1920 a93e b0a3 3fbe 8e15 c13e
00000030: 9829 63be 3a3f 72bd 8557 473d 80f6 013e
00000040: 8e79 37be 884a 84be 0f5b 413e 5ded dc3d
00000050: 88d7 03bd d59f 163d 7db4 903e 2f05 fcbd
00000060: de9a 3abb f5fa 3e3e 5613 273e ba3c d63d
00000070: 7d56 31be 9fbc b9bd 1366 a1bd 82b3 8f3e
-0.03016249 -0.052722715 0.30566794 0.27200493 -0.19563763 -0.24735744 -0.13123333 0.10007493
0.23041327 0.330323 -0.18714786 0.37711757 -0.22183836 -0.05914233 0.04866745 0.12691689
-0.17917463 -0.25838113 0.18882392 0.10787461 -0.03218797 0.03677352 0.28262702 -0.12305676
-0.0028473656 0.1865042 0.1631597 0.104608014 -0.17318149 -0.0906918 -0.07880797 0.2806664

mlp.0.weight f4 [32, 8]
00000000: bbe2 823d ab5a 56be f149 033d 34ff 0f3e
00000010: b99a f23d 97f8 4c3d 3757 b1bd b259 053e
00000020: 45a6 41be dbf8 943d f69b 37bd dde5 963c
00000030: a2ae 4b3d 9c2a 673c 754c 3ebe e95e bdbd
00000040: a4da b43c 2e7f e7bd a0ed 6b3e 0c25 303d
00000050: 6128 4bbe b92c cdbd ca08 cc3b beb4 19be
00000060: c8db bc3e 3cf8 01bd 57e6 c53e 852e 9bbc
00000070: 02b2 4c3c 938a 493e e333 a83d ed8a 0a3e
00000080: 5f82 823d 1962 5fbe 4a9a 8f3c dc9e 4bbe
00000090: 4b70 8dbe e813 53bb 1c97 fa3d 09a9 7fbe
000000a0: 13d2 2cbd c50f eb3d dd6e 8abd d2f0 a23d
000000b0: 39e4 3d3e 9026 d13c 7b63 81be 80a0 643e
000000c0: d915 a3bd 534f e2be d93c 0c3d c0da 58bd
000000d0: f3c6 c13d cb23 1f3e cb2c 4abe 5077 03be
000000e0: f433 ee3d 8d86 2b3e e20f 73be 656b 50be
000000f0: 8941 9bbd 5477 a1be 2252 30bd c54c a4bd
00000100: ba8b 8bbd 1755 9cbe 3c1c 053e c9c6 91be
00000110: 6773 32be cb89 5abe a2dc 593e fb58 cdbe
00000120: 1af0 bebe c2c1 243d a677 2cbd 95e8 a93d
00000130: 2aba 77be 8175 173e fefe 27bd b6ee 143f
00000140: 22c1 3fbe a701 7abe aeb1 973d b4ac fe3d
00000150: d8f3 9fbb 148b b7bd 568b 823b 6f8c 80be
00000160: 6e36 ad3d 8604 953d 2065 023e 32b6 4dbe
00000170: 9940 30bd 37dd 943b fe19 adbe c83e ae3e
00000180: 0ddf 7cbe ae10 8c3e 6e44 123e 6326 873d
00000190: 7c7e e2be be4c a03e 7b67 aebd f7cb 603f
000001a0: e0be 0e3e 3bef 05be 27b0 3f3e 69ed a0bd
000001b0: e71a a73c 7027 333e aa43 28be 2cf1 c13d
000001c0: c896 193e 2bf2 43bc da0f 5a3d 0b6e 0dbe
000001d0: 4fdd f43c 33d3 05bd 0253 883d d90a 5d3d
000001e0: acc6 63bd 94f5 423c 317f 3f3d 49d4 62bc
000001f0: 144e 853d bf13 633d ed09 1dbd 7ac2 1d3d
00000200: e553 2a3e 10cf 4fbe 23b7 3b3c 9226 1fbe
00000210: 7ee2 363e aa4e 1ebe 8f41 0dbe 5a2d 97bd
00000220: b918 34be c246 e6bd a6ec 5fbd ae0e 7b3c
00000230: b4cd 2cbe e688 4cbe c222 0dbe 452d 113e
00000240: 14a5 10be f64e 51be 2ba3 b73e 188b b93d
00000250: e04e 82bd 0ff6 953d 4b95 ba3c 8c2e 90bd
00000260: 5fb7 f03d aa24 3e3d e7d2 e03d 3108 063e
00000270: 8570 f1bc 84b2 9e3c e3c9 913d 35a2 243d
00000280: bc95 7ebe 7eef 723d 1334 7f3d 2dc5 1a3d
00000290: 9f7e 20bd ca8e 7e3c 2145 e83c d412 e43d
000002a0: f347 8ebe 09fc c6bd 9044 31be 0278 a0bd
000002b0: 83d5 0ebe 884f 93bc 8f64 0abe 5f3a f23e
000002c0: 01c7 bfbe 716a 19be fcc3 dcbd 10b4 443e
000002d0: 4183 813e f114 413c 2734 18bd 3237 d73d
000002e0: 30fb 26bd 7e52 68be c10a 26be f799 14bd
000002f0: 83a2 a83e 44a7 68be ab21 54bc 74cd 81bd
00000300: a5f2 7fbd 3c55 e8bd 09bf 89be 6acb 5f3e
00000310: 00a2 873d beb5 31bd 56f6 49be 8380 ae3d
00000320: 221c 76be cd66 4ebe e3c9 e93d 6e5f d4bc
00000330: 473b a2bd 8312 06bd b88a 083e 3b2f a53e
00000340: ecce 623d 7705 79be fd15 09be 02d4 0d3c
00000350: 352d 953d 3e50 9e3e e639 ac3d a591 99bd
00000360: 7e47 793e a5fe 22bd 2fa3 823c 655b 3f3d
00000370: bb79 8d3d 6637 66be 2586 2c3e d818 25be
00000380: da10 273d 5c19 57be b006 c83e 9d24 823e
00000390: 902e 8cbd 3222 01bd 6574 d93d 0543 03bc
000003a0: 9911 5f3e f183 b43d 61d2 2cbd c30a 30be
000003b0: b3bb 68be 2195 a13d 0bfb 1b3e 1a10 03be
000003c0: 555d eabd c06c 27bd c079 c4bc 6231 38bd
000003d0: f4c5 f6bd 9546 4fbe 764c 0c3e 3b44 ea3b
000003e0: 3abc 333e f698 35be 1562 01bc d92b c83d
000003f0: e2d8 06be 1166 af3b 057b 3fbd c349 05be
0.06390902 -0.20933025 0.032052938 0.14062196 0.11845917 0.05004176 -0.08659213 0.13022497
-0.18911083 0.07274028 -0.04482647 0.018420154 0.04972709 0.01410928 -0.18583854 -0.09246618
0.022076912 -0.113035545 0.23039865 0.04300408 -0.19839622 -0.10018296 0.0062266337 -0.15010354
0.3688643 -0.031730875 0.38652298 -0.01894308 0.012493612 0.19681768 0.082130216 0.13529558
0.063725226 -0.21814765 0.017529625 -0.19884819 -0.27624735 -0.003220791 0.12235853 -0.24966826
-0.04219253 0.11477617 -0.06759427 0.07956089 0.18544091 0.025531083 -0.2527121 0.22326851
-0.079631515 -0.44201145 0.034237716 -0.05294299 0.09461775 0.15540998 -0.1974365 -0.12838483
0.11631003 0.16750546 -0.23736528 -0.20353468 -0.07580859 -0.31536353 -0.043047078 -0.08022455
-0.0681376 -0.30533668 0.12999052 -0.28471974 -0.17426835 -0.21341626 0.21275571 -0.4010695
-0.37292558 0.040223844 -0.042106293 0.082963146 -0.2419211 0.14790918 -0.041014664 0.58176744
-0.18726018 -0.24414693 0.074069366 0.12435284 -0.0048813634 -0.08962074 0.0039838953 -0.25107142
0.08457647 0.072762534 0.12733889 -0.20089033 -0.043030355 0.0045429724 -0.33808893 0.34032273
-0.24694462 0.27356476 0.14283916 0.065991186 -0.44237125 0.3130855 -0.08515831 0.87811226
0.1394 -0.1307954 0.1871954 -0.078577824 0.02039857 0.17495513 -0.16432062 0.09469828
0.14998925 -0.011959593 0.053237773 -0.1381151 0.029890684 -0.03267212 0.066564575 0.053965423
-0.05560939 0.011899371 0.04675216 -0.013844558 0.06509033 0.055438753 -0.038339544 0.038515545
0.16633566 -0.20293832 0.011457237 -0.15542057 0.17859837 -0.15459695 -0.1379454 -0.07381697
-0.17587556 -0.11243965 -0.054669045 0.015323324 -0.16875345 -0.19974098 -0.1378279 0.14177425
-0.14125472 -0.20440277 0.35866675 0.09059733 -0.063627005 0.073223226 0.022776267 -0.07040128
0.11753725 0.046421684 0.109777264 0.13089062 -0.029472599 0.019372232 0.07118585 0.040193755
-0.24861807 0.05931043 0.06230552 0.037785698 -0.039183255 0.015536973 0.028353276 0.11136404
-0.27789268 -0.09716041 -0.17311311 -0.0783539 -0.13948636 -0.01798226 -0.13514923 0.4731016
-0.37456515 -0.1498201 -0.107795686 0.19209313 0.2529545 0.011784778 -0.03715911 0.105085745
-0.040766895 -0.22687718 -0.1621504 -0.036279645 0.32936487 -0.22720057 -0.01294748 -0.06338015
-0.062487263 -0.11344382 -0.2690356 0.2185494 0.06622696 -0.043386213 -0.19722876 0.085206054
-0.2403417 -0.20156403 0.1141546 -0.02592441 -0.079214625 -0.032732498 0.13334167 0.32262596
0.055373117 -0.24318491 -0.13387294 0.008656504 0.07284013 0.30920595 0.08409481 -0.074984826
0.24343678 -0.03979363 0.015946953 0.04671802 0.06907984 -0.2248207 0.16848047 -0.16122758
0.040787555 -0.21005768 0.39067602 0.2541856 -0.068448186 -0.03152675 0.106179036 -0.008011584
0.21784057 0.08814228 -0.04219282 -0.17191605 -0.22727852 0.07889772 0.15232484 -0.12799111
-0.11443583 -0.040875196 -0.023983836 -0.04496897 -0.12049475 -0.20241769 0.13701043 0.007149247
0.17552271 -0.17734131 -0.00789692 0.09773988 -0.13168672 0.0053527434 -0.04674818 -0.13016419

mlp.0.bias f4 [32]
00000000: 5e0f 82b7 0e2f f6b6 e85d c9b7 ae61 0639
00000010: 307b cab5 9f0d ac38 6f3d 3238 c076 b9b6
00000020: 47ea 0439 eb2e 79b8 813c edb7 a87d 5837
00000030: 7617 cc37 c009 f9b5 3cb9 0738 849f 6bb6
00000040: 70f3 97b5 cc37 25b7 fc2f 9338 1c8d 4537
00000050: b98f c737 2225 e537 904f aab8 3063 2c38
00000060: 53d1 cf37 da5d 0ab8 cc42 1138 52e0 05b8
00000070: be96 aeb6 9abf 9b37 3466 0ab8 8491 60b7
-1.5504364e-05 -7.336849e-06 -2.4004796e-05 0.00012815624 -1.5086025e-06 8.204136e-05 4.249572e-05 -5.527254e-06
0.00012675776 -5.9409922e-05 -2.8280776e-05 1.290386e-05 2.432962e-05 -1.8554783e-06 3.235902e-05 -3.511058e-06
-1.1321226e-06 -9.847758e-06 7.018444e-05 1.177497e-05 2.3789575e-05 2.7316219e-05 -8.121051e-05 4.110037e-05
2.4773797e-05 -3.298917e-05 3.4632903e-05 -3.1918586e-05 -5.203153e-06 1.8566661e-05 -3.2996948e-05 -1.3385321e-05

mlp.1.weight f4 [32]
00000000: 9403 193f 3171 db3e 530e 273f 477c 0f3f
00000010: 2edf 303f c40f 433f 2924 4e3f 24c1 3b3f
00000020: 81f8 3f3f 3617 323f 2276 473f 1f48 2c3f
00000030: 24f8 723f 6d49 133f e232 073f 3c30 c63e
00000040: 33e2 443f f886 463f d775 643f f914 263f
00000050: 78e8 313f 53a6 4d3f b135 443f ec9d 433f
00000060: 250e 153f ae3d 2d3f 5e5e 413f 2337 2f3f
00000070: 1694 2f3f 7081 273f 79f1 4a3f fa56 0f3f
0.59771085 0.42859796 0.6525623 0.5604901 0.69090545 0.7619593 0.80523926 0.73341584
0.7498856 0.6956667 0.7791463 0.6729755 0.9490988 0.57533914 0.52812016 0.38708675
0.7690765 0.77549696 0.8924231 0.6487575 0.69495344 0.80331916 0.76644427 0.76412845
0.5822471 0.6767224 0.7553462 0.68443507 0.68585336 0.6543188 0.7927471 0.5599209

mlp.1.bias f4 [32]
00000000: 51f3 9ebc cdc4 6a3e 5814 b43d 46f4 dfbe
00000010: 51e1 babc 0bbd 313c 8424 b8bd 54b1 83bd
00000020: 46dc 83bd d061 103d da2b f53b bc10 babd
00000030: 8d61 03be 8082 ff3c c08a 61bd b06c e43c
00000040: 9c9a 21bd 7c90 03be 8deb 48bc 7032 05be
00000050: 6440 c03c dc2c 713d 73e3 683e cd60 9d3c
00000060: cc83 b63c c1fe b93d d151 30bd 510b f33d
00000070: 9cff 4a3e ba3f d9bd 4e15 a63c a0c6 6c3d
-0.019403132 0.22926636 0.08792943 -0.43741053 -0.022812517 0.010848294 -0.0899134 -0.06430307
-0.06438498 0.03524953 0.007482034 -0.09085223 -0.12830181 0.031190157 -0.055063963 0.027883857
-0.039454088 -0.12848085 -0.012263191 -0.13007522 0.023468204 0.05888067 0.22743015 0.019211197
0.022279643 0.090817936 -0.043046776 0.11867393 0.1982407 -0.10607858 0.02027383 0.05780661

mlp.1.running_mean f4 [32]
00000000: fed9 0d3d ec92 cdbd 9ab2 0d3d edab 373e
00000010: d8bd f63d 05b7 98bd 5c75 b93d c4fd bfbd
00000020: 0a67 ed3d 487e 1b3e 461d 30bd 000f e83d
00000030: 9e09 843e 8982 003e f14d 9f3d e148 4c3c
00000040: 9f24 ac3c e4db 953c 64d1 c93d 3c12 4dba
00000050: 3688 9a3c c2fa 083e 333a 7abd e09b 6fbd
00000060: 4712 eebd fb7a 473e 882d 9a3d b836 64bd
00000070: f0ac 963d 39a5 803d 4e8e d83c 19d9 b3ba
0.03463172 -0.10037789 0.034594156 0.17936678 0.120479286 -0.07456783 0.09055588 -0.09374574
0.11591919 0.15184891 -0.042996667 0.11330986 0.25788587 0.12549795 0.07778538 0.012468548
0.021013556 0.018293329 0.09854391 -0.00078228465 0.018863779 0.13376907 -0.06109066 -0.058498263
-0.1162458 0.19480507 0.07528216 -0.055716246 0.07357204 0.06281514 0.026435044 -0.0013721316

mlp.1.running_var f4 [32]
00000000: 1553 a239 0404 c139 fa03 dc39 c6e0 a939
00000010: c23f 6939 0eba 4539 c204 6f3a 3e53 4639
00000020: f44a 0939 2c5f 8a38 b112 fa39 0ba2 6d3a
00000030: e747 bd38 681b 1e3a f495 8739 cdc9 2f38
00000040: 28ab 463a df3f 4837 cd34 393a ab56 0b39
00000050: ee4c b539 ae72 6b3a d9f4 6239 c3df c239
00000060: 3677 8339 cd17 5939 de13 683a d816 3f39
00000070: 9237 563a 758f a639 dfe1 0539 e050 3739
0.0003096095 0.0003681482 0.00041964633 0.0003240166 0.00022244363 0.00018856695 0.00091178354 0.00018913762
0.0001309326 6.59808e-05 0.00047697642 0.0009064979 9.025615e-05 0.00060313055 0.0002586093 4.1911193e-05
0.0007578605 1.19358e-05 0.0007065058 0.0001328836 0.00034580327 0.0008981627 0.00021644252 0.0003716928
0.00025075086 0.00020703599 0.0008853058 0.0001822369 0.0008171733 0.0003176887 0.00012768012 0.00017482368

mlp.3.weight f4 [1, 32]
00000000: e357 e23d 643d 63bd d494 bbbd faa4 62be
00000010: 1f5d 1b3e 5f0f 373e f81a b7be dfc2 45be
00000020: c4fa 29be f424 443e b717 74be 42ab 0abe
00000030: e787 e93e 41b0 e83d 29d1 babd 08d2 68bc
00000040: 1a49 553e 9a43 81be 3d86 ae3e b9c7 f53d
00000050: 0d1d 043e 5e28 5e3e ed7b 73be 601f 66be
00000060: be26 a83d 91fd 103e 43c7 4abe 831e 1fbe
00000070: cffb 01be 6849 08be 87f5 343e 3e51 df3d
0.11051919 -0.05547847 -0.09159246 -0.22133246 0.15172242 0.17876957 -0.35762763 -0.19312619
-0.16599566 0.19154721 -0.23837171 -0.13541892 0.45611498 0.11361743 -0.091219254 -0.014210232
0.20828667 -0.25246888 0.3408679 0.12000985 0.12901707 0.21695086 -0.23777743 -0.22472906
0.082105145 0.14159228 -0.19802575 -0.15538983 -0.12693714 -0.13309252 0.17671786 0.109041676
