output_bbox_gcn/EVALUATOR_layout_MultiLayer_2023_09_21_16_51_13/Model/evaluator_1250.pth (torch, 9147 bytes, 11 tensors)

LayoutSeq.weight_ih_l0 f4 [32, 4]
000000 3c 2c 61 3d 1c 23 d3 bd 3f f6 c9 bd 10 c6 75 3d
       0.054973826 -0.10309431 -0.09861421 0.06000334
000010 73 1d e0 3d f9 5d 0e be b6 39 b5 bc 79 b0 a2 3d
       0.10943117 -0.13903035 -0.022122245 0.07943816
000020 3d 8e 09 3e 63 9a bd 3d 15 87 3e 3e d2 7d 9d 3e
       0.13433166 0.092579626 0.18606217 0.30760056
000030 c5 7b 86 be 92 ec c6 3d a0 a7 1e 3e a0 c8 96 3d
       -0.26266304 0.09713091 0.15493631 0.07362485
000040 bc 29 b8 be 32 6a 91 3e c5 44 e4 3d 9b bb 3e 3e
       -0.3596934 0.28401333 0.11145929 0.18626253
000050 66 50 8b be 69 b7 18 3e 90 1c 0f 3e 00 88 19 3e
       -0.27209777 0.14913715 0.1397574 0.14993286
000060 b9 51 1d 3e 40 5c bd 3d 28 6c 4d be 36 68 06 be
       0.15363206 0.09246111 -0.2006079 -0.13125691
000070 c5 4d 23 bd 90 44 2e 3e 37 97 5e bd 5b 32 b0 3e
       -0.03986909 0.17018342 -0.05434343 0.34413418
000080 cc 5e 40 3e ca 55 9f 3e 52 ed 49 3e f6 14 95 bb
       0.18786162 0.3112014 0.19719437 -0.004549618
000090 81 4a 99 3e d7 52 20 bc 5c 8a e7 bd 34 90 23 3d
       0.29939654 -0.009785376 -0.11305687 0.039932445
0000a0 56 30 93 be 35 1d c2 3d 75 f9 84 be 7b 3a 2d be
       -0.28747815 0.09478227 -0.2597157 -0.1691684
0000b0 3a 27 f1 bd 1c 21 7b 3d 62 ed 2e be 42 1c 37 be
       -0.1177506 0.061310872 -0.17082742 -0.17881873
0000c0 17 2a 48 be 5a fb 23 bd 5e ec 98 3e 11 f4 ff bc
       -0.19547306 -0.04003463 0.29867834 -0.03124431
0000d0 02 a5 3d bd 11 ce fe 3d 4a a0 8b 3e 28 b4 d0 3e
       -0.04629994 0.12441648 0.27270728 0.40762448
0000e0 36 8c 2c be f0 71 be bd bb a8 48 be 88 f3 9c 3c
       -0.16850361 -0.092990756 -0.19595616 0.019159093
0000f0 f2 55 f0 3d f3 87 93 3e 3e 78 75 3e 11 ea f0 bc
       0.11735143 0.2881466 0.2397165 -0.029408487
000100 c0 8a 21 3e 55 cc c5 3d 46 9e 90 3e ad f8 a0 3c
       0.15775585 0.09658114 0.28245753 0.019649828
000110 b9 f4 09 bd 8f 05 86 be 10 6d 37 be 61 b2 12 be
       -0.03368065 -0.26176116 -0.17912698 -0.14325859
000120 ca 2b 57 bd b2 97 f9 3e ce 4b a1 be d6 6f 2b bd
       -0.052531995 0.48748547 -0.31503147 -0.041854702
000130 43 e0 e8 bd 9d 3c 73 be 41 5f db 3d c4 c2 bc be
       -0.113708995 -0.23753591 0.107115276 -0.36867344
000140 9b 8b b6 be 86 bb 9e 3e e0 f9 98 bd 9f b4 98 3e
       -0.35653386 0.31002444 -0.07469535 0.29825303
000150 2f 56 a2 3e 4d 55 ac be f8 9c 62 3d b4 e1 c0 3d
       0.31706378 -0.3365883 0.05532548 0.094180495
000160 8f 46 96 be 29 19 fe 3d aa 8f 9b 3e 02 72 78 be
       -0.29350707 0.12407143 0.30383044 -0.2426224
000170 e7 ff 19 be a8 6f 31 3e 3e 52 f2 3d 0d 90 d8 3d
       -0.15039025 0.1732775 0.11832093 0.105743505
000180 30 d7 4d 3d 0f 5a c2 bd 80 f6 7b 3e 62 18 0d be
       0.050254047 -0.094898336 0.24605751 -0.13778833
000190 12 ed 5e 3d 64 52 ab 3e f1 f4 21 3e 35 1d 2f 3d
       0.054425307 0.33461297 0.15816094 0.042752463
0001a0 7b f0 6e bd 91 61 11 be 9f 77 6b 3b d7 81 78 3d
       -0.05833481 -0.14197375 0.0035929454 0.0606707
0001b0 aa 96 e4 bd e3 c0 06 be 01 20 99 3e fe e6 56 3d
       -0.111615494 -0.13159518 0.2990723 0.052466385
0001c0 e3 97 b4 3c fc c6 11 be 0f db d2 bd af 39 0f 3e
       0.022045081 -0.14236063 -0.10295688 0.13986848
0001d0 53 ff 43 be 54 b8 8c 3e 6e 63 a1 bd dd f8 24 be
       -0.19140367 0.2748438 -0.07880293 -0.16110559
0001e0 8b 07 5b 3d 31 97 6c 3e 34 09 47 be 33 5a 85 be
       0.05347399 0.2310455 -0.19437104 -0.2604538
0001f0 79 15 4a 3e 65 a0 07 3e b4 97 8b 3d d0 26 85 bd
       0.19734754 0.1324478 0.068160444 -0.065015435

LayoutSeq.weight_hh_l0 f4 [32, 8]
000000 03 98 00 3e 2d e8 78 be 9b 98 1e 3e 22 0b 72 be
       0.12557988 -0.24307318 0.15487902 -0.2363706
000010 87 c9 4a 3d 4d de e3 3d 19 97 23 ba 95 4a 69 3e
       0.049508598 0.11126385 -0.0006240472 0.22782357
000020 6a 3f 54 3e 53 f3 c3 3d bd d0 f0 3d fa 2c 36 be
       0.20727316 0.09567895 0.11758564 -0.17790595
000030 fe 8a 28 3c f1 dd 1f 3d d6 88 dc 3d 75 c4 25 3e
       0.010287045 0.03903002 0.10768287 0.16188224
000040 c9 80 21 be 30 44 23 3e bf 06 37 bd 9f 7e 1c bd
       -0.15771784 0.1594398 -0.044684168 -0.038206693
000050 68 79 73 3c fe 9e 6f 3d 12 cf 47 3e 5a 04 ee bd
       0.0148604885 0.058501236 0.19512585 -0.11621924
000060 8f 97 b9 3d 33 a3 99 b9 42 63 af 3d c2 4d 3d bd
       0.09062111 -0.00029304027 0.08563854 -0.046216734
000070 d0 fa 47 3d 97 9a 8e 3c 67 34 a2 3c e5 7d 10 3e
       0.048823178 0.017407699 0.019800378 0.14110525
000080 8e 28 3b 3e 85 fd 5d be f8 5a 26 be dd cb 87 be
       0.18277189 -0.21678741 -0.1624564 -0.26522723
000090 80 10 81 3b 91 b8 d3 bc 24 41 15 3e b2 fe a6 3c
       0.0039387345 -0.025844844 0.1457563 0.02038512
0000a0 48 13 f8 bd a0 13 08 bc 4b 74 a8 be 68 54 55 be
       -0.121130526 -0.00830546 -0.32901224 -0.2083298
0000b0 d6 6b 80 be f2 0e 25 bc 97 ae b7 bd f2 6e 62 3e
       -0.25082272 -0.010074364 -0.08968847 0.22112635
0000c0 87 37 e4 bd 44 01 91 bc 99 7b 60 3d e9 81 4e bd
       -0.111434035 -0.017700799 0.054805372 -0.05041686
0000d0 15 09 10 be e1 d8 0a bd 0d 56 e6 bb a0 02 dd 3c
       -0.14065965 -0.033898238 -0.007029301 0.02697879
0000e0 a1 c9 3c be 96 d4 82 3e 1d 4a e8 3c 87 98 c4 bc
       -0.1843629 0.25552815 0.028355652 -0.023998512
0000f0 ad 88 7d 3d bd bf 94 3d d4 fe 75 be cf d2 aa 3d
       0.061897922 0.07263134 -0.2402299 0.0834099
000100 e0 61 9c bd 7d c1 5e be 7d bc 4b be 9f a6 a6 3d
       -0.07635856 -0.21753497 -0.19896121 0.08137249
000110 31 1a 07 3d 4c 88 18 bd 88 95 2c 3e 4d e7 85 bd
       0.032983962 -0.037239358 0.16853917 -0.06538258
000120 4d 3d af bd 3c e5 1a 3d f7 09 d9 3d e2 d6 73 be
       -0.08556614 0.03781627 0.10597604 -0.2381244
000130 dd 43 23 3e 55 70 e6 3d 9e 19 bd 3d 60 0a 44 bd
       0.15943857 0.112518944 0.09233402 -0.047861457
000140 ba 03 12 be 5a 47 b6 bd 87 45 03 be e7 a6 db bb
       -0.14259234 -0.08900328 -0.12819491 -0.006703246
000150 eb 0a 54 bd a9 9a 20 3d a0 1d 6f be 5c 4e 62 3d
       -0.051768225 0.039209995 -0.23351145 0.05525051
000160 2a c8 3d 3b d8 af b7 bd 74 96 05 be 08 32 8e be
       0.0028958418 -0.089690864 -0.13045675 -0.27772546
000170 c0 47 15 3d 00 93 42 3e b1 e5 2f 3e 20 3a 1b 3e
       0.03644538 0.19001389 0.17177464 0.15158892
000180 59 71 1b be d6 d5 42 3d cf c4 a6 3e 88 eb 41 be
       -0.15179957 0.04756721 0.32572028 -0.18937504
000190 85 d6 2a 3e d3 7a fe 3d f7 2d c7 3b 58 cd 46 3e
       0.16683395 0.124257706 0.0060784775 0.1941427
0001a0 08 44 86 3d 12 77 0c be 4f 77 a9 3e 4e 77 43 3e
       0.06555945 -0.13717297 0.33098838 0.1908848
0001b0 f6 00 ea 3d ca b3 6e 3e aa 44 75 3a 16 73 a4 3e
       0.114259645 0.23310772 0.000935624 0.32119054
0001c0 a1 24 fc bd e6 07 c7 bd a7 14 64 bc 7b f2 18 be
       -0.12311674 -0.097183034 -0.0139209395 -0.14936249
0001d0 77 e9 ba bd fc 10 c6 3d 18 d8 ac 3d 4b 5d 08 3d
       -0.09126561 0.09671208 0.08439654 0.033292096
0001e0 d4 16 d9 3c 2e 45 76 bd 40 0e 2b 3e 34 5d ae be
       0.026500143 -0.06012457 0.16704655 -0.34055483
0001f0 49 d8 35 be 85 c2 17 3e 08 78 06 3e 0c d0 13 3e
       -0.17758287 0.14820297 0.13131726 0.14434832
000200 04 d4 6d be 53 eb e3 bd ec 82 f8 3d 91 97 ec 3d
       -0.23225409 -0.11128869 0.12134346 0.115523465
000210 eb 27 5e 3e dd 40 fe bc d8 d2 9a be 6c 30 54 3e
       0.21694915 -0.031036789 -0.30238986 0.20721596
000220 69 4e 1b bd bb 8e 1c be 71 f0 97 3e c8 d2 2a 3e
       -0.037916575 -0.15288822 0.2967563 0.16681969
000230 97 47 93 3d c2 2e ac 3e 7c 2e 88 3e bd c2 21 3e
       0.07191389 0.33629423 0.26597965 0.15796943
000240 06 98 76 3d 58 01 cf 3e 42 7f 30 3e fe 48 00 bd
       0.060203575 0.40430713 0.17236045 -0.03131961
000250 82 fb b9 be 42 8e 33 be ad 31 78 3e 4a cd 46 3d
       -0.36324698 -0.17534736 0.242377 0.048535623
000260 be b1 4e be 82 53 c0 3d b9 3a ad 3e cc 9f c0 3e
       -0.20184991 0.09390928 0.33833864 0.37621915
000270 ce 37 8b 3d 21 fc ed 3d 32 e7 29 be 4e 64 d3 bd
       0.06797753 0.116203554 -0.165921 -0.10321866
000280 be 60 04 3e 16 a8 91 3e b7 f8 96 be 8c 86 72 3e
       0.12927529 0.28448552 -0.2948663 0.23684138
000290 e3 e3 11 3e b4 5a ab be b5 7e 83 be 13 1c a5 3d
       0.14247088 -0.33467638 -0.25682607 0.08061995
0002a0 87 55 44 be 37 64 9f 3d 2c ad 7e 3e 8f 48 4f 3d
       -0.19173251 0.07782786 0.24870747 0.050606307
0002b0 dc 54 4b be 7d 5e d5 bd 5d f1 0b be 1f a1 c7 3e
       -0.1985659 -0.10418413 -0.13666292 0.38990113
0002c0 42 8e 59 3e bb d9 6e 3c 4c 61 90 3e 3d 8f 98 be
       0.21245673 0.014578278 0.28199232 -0.29796782
0002d0 89 95 6c be 6b 15 8e bd 21 f5 68 3e 12 07 c6 bd
       -0.23103918 -0.06937679 0.2274976 -0.09669317
0002e0 17 69 96 be 86 86 5c be 9e cf b3 bc e1 60 14 bc
       -0.29377052 -0.21535692 -0.021949586 -0.009056301
0002f0 d4 55 a9 be 2c 6d c8 3e 84 be 5c 3e 0e 51 dc bc
       -0.33073294 0.39145792 0.21557051 -0.026894119
000300 3b e0 7f 3c 87 0e d8 3d 21 92 5e 3d 8b 56 a9 be
       0.015617426 0.10549646 0.054338578 -0.3307384
000310 8c db d9 3b 06 90 1c 3d ed 19 b5 3d 10 d4 98 3e
       0.0066484865 0.03822329 0.088428356 0.2984929
000320 ee f4 6b 3e 03 2b 5f be 34 a1 06 be 0e b3 ac 3d
       0.23042652 -0.21793751 -0.13147432 0.084325895
000330 dd 86 a4 3d 85 73 16 3e 63 d5 42 3e ad 3d 5b 3e
       0.08033536 0.14692505 0.19026713 0.21410246
000340 b3 59 31 be 7c 74 3b 3e 85 1d 48 3e 98 cf 54 3e
       -0.17319374 0.18306154 0.19542511 0.20782316
000350 4f 1e 0a be 4f ce 79 3c 56 d8 47 3e fc d4 4c 3e
       -0.13488124 0.015246942 0.1951612 0.20003122
000360 63 10 1f 3e 3b 05 95 bd ec 92 07 be 7d 15 89 be
       0.15533595 -0.07276388 -0.1323964 -0.26774207
000370 b6 34 0c bd e4 a7 64 3c 8c 11 c5 3d b9 d0 f5 3c
       -0.034229957 0.013956044 0.096224874 0.030006753
000380 54 56 98 3c 0f cc c8 3d c3 fd 98 3e ab 2c e4 3d
       0.018595852 0.09804546 0.29881105 0.11141332
000390 91 6f 06 be 9d 94 29 3d 60 81 49 be 63 f7 56 bd
       -0.13128497 0.041401494 -0.19678259 -0.05248202
0003a0 3a a3 4f be d4 2a 6f bd 95 19 7a bb ba 02 5f be
       -0.2027711 -0.058390453 -0.003816222 -0.21778384
0003b0 30 29 03 be 0e 20 0e 3d 21 9e bc bd 15 d4 04 3e
       -0.1280868 0.03469854 -0.09209848 0.12971528
0003c0 de 6f 49 be 8d 5d 92 bd 30 43 a1 3e ee c4 30 be
       -0.1967158 -0.0714675 0.31496572 -0.17262623
0003d0 27 a6 c7 3d b1 93 4c bd 6a e6 b2 bd 3a 50 2d bd
       0.09748488 -0.049945537 -0.08735354 -0.042312838
0003e0 69 e9 a2 3d 44 10 4e 3d b2 d4 93 bd f9 ef e6 bc
       0.07954676 0.05030848 -0.07218303 -0.0281906
0003f0 36 22 d2 bd 7e 69 c5 3c 80 a9 41 bc 72 78 04 3e
       -0.102604315 0.024098154 -0.011820197 0.12936571

LayoutSeq.bias_ih_l0 f4 [32]
000000 c6 c8 ae 3d 86 80 85 3e 7b 21 0c 3e 0c b8 bc 3d
       0.08534388 0.26074618 0.13684647 0.09214792
000010 1d c0 20 3d b9 ff 85 3e fe 07 80 3e 02 08 06 be
       0.039245714 0.26171663 0.25006098 -0.13088992
000020 c8 0a 56 bd 38 bf 5e 3e 06 50 55 bc 1c 7a 1a 3e
       -0.052256376 0.21752632 -0.013019567 0.15085644
000030 1f 4a 5d be cd 6e e2 3d c7 47 63 3e 56 0b 84 3c
       -0.21610306 0.1105629 0.2219535 0.016118687
000040 44 63 91 bd 74 cd f2 3d 82 be fb 3d 70 a1 2b be
       -0.070990115 0.11855593 0.12292196 -0.16760802
000050 c1 26 9c bd 8e db c2 3c 52 46 7b bc 72 20 b7 3d
       -0.07624579 0.023786332 -0.01533659 0.08941735
000060 e9 ac 60 3e 64 4c ae bd fe c6 9d 3e 22 59 c2 bd
       0.2194096 -0.08510664 0.30815881 -0.09489657
000070 e8 e8 c6 3e 01 28 87 3c 4e 71 36 be a1 8c 55 3e
       0.38849568 0.016498568 -0.1781666 0.20854427

LayoutSeq.bias_hh_l0 f4 [32]
000000 fb f2 d6 bc 30 50 7e bd 67 da 9d 3e 15 0c 90 3e
       -0.026238909 -0.06208819 0.3083069 0.28134218
000010 59 c6 4b be 95 cf 80 be 9e 2c 0c be e7 30 ce 3d
       -0.19899882 -0.25158373 -0.13688895 0.10067921
000020 32 6d 72 3e 45 23 ab 3e 88 8e 41 be bb d2 c3 3e
       0.23674467 0.33425346 -0.18902028 0.38246712
000030 8a 21 69 be de 6c 64 bd 59 16 05 3d 92 ba ff 3d
       -0.227667 -0.055767886 0.032492016 0.12486757
000040 b0 08 39 be 15 41 85 be 13 2b 43 3e ba 29 de 3d
       -0.1806972 -0.26026216 0.190594 0.108478025
000050 16 a7 08 bd 4d 05 0f 3d 0d 60 93 3e 26 c7 ff bd
       -0.03336247 0.034917165 0.28784218 -0.124891564
000060 e2 8d a8 ba 15 1d 3e 3e d6 37 27 3e 9b 8a d9 3d
       -0.0012859667 0.18565781 0.16329893 0.1062214
000070 9b 30 34 be 1f 8c c5 bd ba 65 aa bd 57 48 8e 3e
       -0.17596667 -0.096458666 -0.08320184 0.27789566

mlp.0.weight f4 [32, 8]
000000 67 7b 8b 3d 63 dd 5e be 66 07 23 3d cc 35 18 3e
       0.068106465 -0.2176414 0.039801978 0.14864272
000010 5a a4 fe 3d 94 6a 8d 3d 48 56 b2 bd be 26 08 3e
       0.12433691 0.06905094 -0.08707863 0.13296029
000020 55 21 44 be f2 25 a1 3d 1b b0 67 bd 6b a8 c2 3c
       -0.1915334 0.078685656 -0.05656443 0.023761949
000030 3c fe 39 3d ce 4f ec 3c 45 1e 4e be ac 84 c5 bd
       0.045408472 0.028846648 -0.20128734 -0.09644446
000040 23 ff cb 3c 82 46 07 be c9 85 70 3e ea e4 64 3d
       0.024901932 -0.1321049 0.23488535 0.055882372
000050 42 a9 55 be 1f 96 bb bd 77 21 15 bb 4e be 1e be
       -0.20865348 -0.09159493 -0.0022755542 -0.15502283
000060 5e 43 c5 3e ba 11 04 bd ba b5 c7 3e c5 57 1d 3b
       0.3852796 -0.032243468 0.39005834 0.0024008614
000070 09 28 56 3d 33 f2 3e 3e a6 8c 73 3d 13 ec 09 3e
       0.052284274 0.18647079 0.059460305 0.13468961
000080 cb cc 85 3d 7d bc 67 be 28 6d bd 3b 05 7e 4b be
       0.06533202 -0.22630496 0.0057808347 -0.19872291
000090 fc 6d 91 be 75 97 39 3b f7 e2 02 3e d9 df 83 be
       -0.28404224 0.0028319035 0.12781893 -0.2575672
0000a0 2c a2 0a bd 1f 45 f3 3d 22 b9 86 bd 8c a3 b2 3d
       -0.033846065 0.11878418 -0.0657828 0.087226
0000b0 88 74 36 3e 1b 40 06 3d d1 da 8b be dd b7 65 3e
       0.1781789 0.03277598 -0.2731538 0.2243342
0000c0 57 27 a2 bd ac ee e7 be f0 c0 04 3d bf 7a 70 bd
       -0.0791766 -0.4529928 0.032410562 -0.05871081
0000d0 f4 f1 aa 3d e6 83 15 3e 45 cb 4c be 0e a3 0c be
       0.0834693 0.14601097 -0.19999416 -0.13734075
0000e0 d0 c6 f6 3d 66 b4 2d 3e 81 6c 6b be 0e 3f 4f be
       0.12049639 0.16963348 -0.2299061 -0.20238897
0000f0 49 25 9c bd 95 3b a7 be 09 f2 42 bd 33 53 b4 bd
       -0.07624299 -0.32662645 -0.047594104 -0.088049315
000100 94 51 90 bd 9c 15 a1 be 05 f8 04 3e 42 1c 94 be
       -0.0704681 -0.314618 0.12985237 -0.2892781
000110 65 71 30 be 2a e3 61 be de 3f 59 3e 30 8d cc be
       -0.17230757 -0.22059312 0.2121577 -0.39951468
000120 44 c5 c2 be 71 e6 36 3d d8 90 45 bd 35 c4 9c 3d
       -0.38041127 0.04465336 -0.048233837 0.07654611
000130 8e a0 77 be 8e f8 23 3e 6c 36 3d bd 23 88 14 3f
       -0.2418234 0.16012785 -0.04619448 0.5802023
000140 cd cc 4c be 45 e9 78 be f6 6f 92 3d 3c dc 09 3e
       -0.2 -0.24307735 0.07150261 0.13462919
000150 23 f9 92 bb 2c 9d ce bd b2 bd d2 3b d1 d6 72 be
       -0.004485266 -0.10088572 0.006431305 -0.23714758
000160 10 e6 aa 3d 94 30 9c 3d 8b 2d 0b 3e 6d b0 5e be
       0.08344662 0.07626453 0.13591592 -0.21746989
000170 3b b7 4d bd 44 1c 02 bc 0a af bb be d4 3a b3 3e
       -0.05022357 -0.007941309 -0.36656982 0.3500582
000180 6a f1 7d be a8 85 88 3e d6 87 16 3e e0 e5 83 3d
       -0.24799123 0.26664472 0.14700255 0.064403296
000190 01 b9 e4 be 72 79 9b 3e 49 8b bf bd c2 f2 61 3f
       -0.44672397 0.30366093 -0.093527384 0.88261044
0001a0 8e ae 10 3e a5 79 0b be eb ff 47 3e 1b 74 a1 bd
       0.14129087 -0.13620622 0.19531219 -0.078834735
0001b0 c8 6d 34 3d 9c f9 41 3e 37 1d 2e be cf 55 e3 3d
       0.044050008 0.18942875 -0.17003332 0.11100351
0001c0 02 ed 27 3e 57 69 df bc ad 3b 63 3d 3e 01 0b be
       0.16399005 -0.02727191 0.055476833 -0.13574693
0001d0 a6 85 b4 3c 8f c4 33 bd 20 14 7e 3d e1 c6 0a 3d
       0.022036385 -0.043888625 0.06203091 0.033881072
0001e0 b5 e7 a4 bd 35 4a 4b 3c a9 75 89 3d ec 32 5b bc
       -0.08052007 0.012407829 0.06711895 -0.01337884
0001f0 ab b8 f5 3d 60 c0 81 3d cb 46 4b bd be 22 69 3d
       0.11998113 0.06335521 -0.04962806 0.0569179
000200 3d ef 31 3e 57 d1 54 be 29 8a 88 3c b7 d2 31 be
       0.17376418 -0.20782982 0.016667442 -0.17365538
000210 44 5d 42 3e 4d 5f 2a be 74 14 07 be d2 8b 54 bd
       0.1898089 -0.16637917 -0.13191396 -0.051891156
000220 ac 95 31 be ed 56 da bd bf 7d 6d bd 25 62 72 3c
       -0.17342252 -0.10661111 -0.05798125 0.014793907
000230 6d 9d 24 be 96 4f 58 be 84 28 10 be 50 8c 0c 3e
       -0.16075678 -0.2112411 -0.14077955 0.137254
000240 90 7b 0a be ad ff 59 be de 81 c3 3e b4 ee a2 3d
       -0.13523698 -0.21288939 0.38185018 0.07955685
000250 da e8 97 bd 96 b8 a0 3d 21 54 81 3c 20 80 a6 bd
       -0.0741746 0.07847707 0.015787186 -0.08129907
000260 62 d1 fc 3d 88 75 53 3d 0f 22 de 3d d0 69 12 3e
       0.12344624 0.05162576 0.1084634 0.14298177
000270 b4 84 96 bc 35 ce 8b bc d1 b0 9e 3d 32 c7 2d 3d
       -0.018373825 -0.0170661 0.07748569 0.042426296
000280 ac 6e 8e be fb 82 a6 3d b6 e3 6d 3d 46 14 a3 3c
       -0.2781881 0.08130451 0.05807849 0.019907128
000290 34 e1 32 bd 04 4e 87 bb ad 9c 12 3d 27 b8 e5 3d
       -0.0436718 -0.0041291732 0.03579395 0.11216765
0002a0 9c b7 90 be c3 5a c5 bd 71 5e 31 be a4 3a c3 bd
       -0.28265083 -0.09636452 -0.17321183 -0.09532669
0002b0 5b fc 13 be 16 bf 0b 3b 2b 14 15 be a1 58 fd 3e
       -0.14451735 0.0021323613 -0.14558475 0.4948168
0002c0 1c 21 c0 be 9d 15 15 be 9e 74 e4 bd e5 37 4b 3e
       -0.3752526 -0.14559026 -0.111550555 0.19845541
0002d0 03 12 83 3e 9d 80 2d 3c 38 77 2a bd b3 88 db 3d
       0.2559968 0.010589746 -0.041617602 0.10719433
0002e0 57 db 31 bd eb 09 68 be 50 a0 31 be 2d 72 f7 bc
       -0.04342207 -0.22660033 -0.1734631 -0.03020581
0002f0 56 ac a3 3e d8 ef 7c be 5f 81 b2 bc 6d 57 9b bd
       0.3196742 -0.24700868 -0.021790205 -0.075850345
000300 10 b1 98 bd 2a 12 01 be 66 85 98 be 14 d7 6c 3e
       -0.07455647 -0.12604585 -0.29789275 0.23128921
000310 19 59 98 3d 80 ee 50 bd ec 7f 3d be af 35 c5 3d
       0.07438869 -0.0510087 -0.1850583 0.0962938
000320 6e ff 85 be 35 0d 49 be b3 01 dd 3d 24 36 ff bc
       -0.2617144 -0.19633944 0.1079134 -0.031153746
000330 db 13 8a bd 1b 7d 3a bc a6 e3 0b 3e bc 2d a5 3e
       -0.067420684 -0.0113823665 0.1366106 0.32261455
000340 af 0e 94 3d 46 c7 8d be b1 05 0e be a0 1b 1f bc
       0.07229363 -0.27691096 -0.13869359 -0.009711176
000350 4c 90 9f 3d b4 c4 9d 3e 77 64 cb 3d 93 5b 72 bd
       0.07791194 0.30814135 0.099312715 -0.059169363
000360 26 dd 78 3e 8c ec 24 bd 96 6c 18 3c 15 14 32 3d
       0.24303111 -0.04026465 0.009303233 0.043476183
000370 68 ee a2 3d 98 1b 6c be c9 a9 38 3e e4 d8 26 be
       0.07955629 -0.23057401 0.18033518 -0.16293675
000380 02 9c 4c 3d 9c 33 6a be 5d 2f cc 3e 86 0a 89 3e
       0.04995347 -0.2287125 0.39879885 0.2676584
000390 ad 97 96 bd 23 17 bf bc 11 ed df 3d 08 27 91 ba
       -0.073531486 -0.023326462 0.10933889 -0.0011074254
0003a0 d3 25 68 3e b3 ba c5 3d 58 cc 4a bd 2c 0d 30 be
       0.22670679 0.09654751 -0.049511284 -0.17192525
0003b0 0a 8e 6f be a6 10 a5 3d 21 8d 16 3e 2e d8 04 be
       -0.23394027 0.08059816 0.14702274 -0.12973091
0003c0 a9 75 eb bd a5 55 0b bd 20 df de bc e2 50 20 bd
       -0.11497051 -0.034017224 -0.027206004 -0.039139636
0003d0 3e 0f e8 bd 74 6c 62 be 57 b8 31 3e 9d f5 4b 3b
       -0.11331032 -0.22111684 0.17355476 0.0031121739
0003e0 e0 db 39 3e 50 69 40 be 07 0d 05 3a d3 29 c7 3d
       0.18150282 -0.18790174 0.00050754886 0.09724774
0003f0 0e af 03 be 53 ae 07 3c 6d 82 2c bd 71 e7 0b be
       -0.12859747 0.008281308 -0.04211657 -0.13662507

mlp.0.bias f4 [32]
000000 3a d8 eb 37 1c 64 76 36 e4 99 0e b7 56 8a d9 b7
       2.8114871e-05 3.6715128e-06 -8.49969e-06 -2.5932834e-05
000010 8c 2c 3e b7 c8 cf d5 b7 16 f0 75 37 a2 d3 e2 b8
       -1.1335254e-05 -2.5488334e-05 1.4659037e-05 -0.000108159395
000020 e8 82 44 b7 66 c8 c4 37 b8 e0 b4 35 18 b7 88 37
       -1.1712989e-05 2.3458339e-05 1.3476447e-06 1.6297723e-05
000030 a2 7a 4d b8 cc b8 b9 b7 69 5a c8 b7 7f 36 a9 36
       -4.899002e-05 -2.2139771e-05 -2.3883958e-05 5.0429367e-06
000040 c9 51 b3 37 80 32 bc b7 a4 30 9a 37 ba 0c 1f 37
       2.1376547e-05 -2.2434862e-05 1.838088e-05 9.480102e-06
000050 32 bc dd 37 18 c1 17 b8 7c e4 8c b7 b7 14 9e 37
       2.6432888e-05 -3.6181038e-05 -1.6795697e-05 1.8844714e-05
000060 00 39 c8 b3 5c 2c f6 b8 83 00 b1 37 ac b8 49 37
       -9.323594e-08 -0.00011738457 2.1100283e-05 1.2023531e-05
000070 d2 70 c9 b7 22 c9 c0 b7 a0 2b 21 b6 43 1b 81 37
       -2.4013603e-05 -2.2981843e-05 -2.4016263e-06 1.5390693e-05

mlp.1.weight f4 [32]
000000 dd 9d 22 3f e7 1d f6 3e 91 8b 30 3f 97 14 15 3f
       0.6352213 0.4806969 0.6896296 0.5823454
000010 e9 97 37 3f 90 69 4a 3f 96 36 54 3f 64 84 43 3f
       0.7171617 0.79067326 0.8289579 0.7637389
000020 a7 84 47 3f c1 c6 39 3f 5e 10 4c 3f 37 21 36 3f
       0.77936786 0.725689 0.79712474 0.7114443
000030 d4 e1 79 3f 40 1e 1b 3f 1c 19 10 3f 9e 8c f8 3e
       0.9761021 0.6059303 0.56288314 0.48544782
000040 8a ca 49 3f 9c 0b 4e 3f 4e fe 69 3f c7 1d 2d 3f
       0.78824675 0.80486465 0.91403663 0.6762356
000050 05 d9 38 3f 97 26 55 3f b0 e8 4b 3f a2 6a 4a 3f
       0.72206146 0.8326201 0.7965193 0.7906896
000060 5f 21 20 3f b5 20 35 3f 8c 2e 47 3f 18 b9 33 3f
       0.6255092 0.7075303 0.778054 0.70204306
000070 f5 99 37 3f 53 86 30 3f 53 ab 51 3f 14 8a 17 3f
       0.71719295 0.6895496 0.81902045 0.59195065

mlp.1.bias f4 [32]
000000 b2 1e 4f bc 02 67 72 3e 5b c9 da 3d 97 a7 d0 be
       -0.012641596 0.23672107 0.10682937 -0.4075286
000010 a8 aa d3 bb 0e 1c 08 3d e1 7e c7 bd ae 84 83 bd
       -0.006459553 0.03322988 -0.09740997 -0.06421791
000020 ba dc 5e bd de bc 26 3d 61 4e ad 3c 3c b3 ca bd
       -0.05440972 0.04070746 0.021155538 -0.098974675
000030 ca 99 ae bd 13 d0 3d 3d ae 08 52 bd 72 be 08 3d
       -0.08525427 0.046341013 -0.05127781 0.033384748
000040 b2 a2 bc bc 61 3e d1 bd 93 e4 8b bc 20 06 0a be
       -0.023026798 -0.10216976 -0.017076766 -0.13478899
000050 54 82 e5 3b 09 aa 91 3d ae 17 58 3e 78 18 8b 3c
       0.0070040617 0.0711251 0.21102783 0.016979441
000060 82 8a ba 3c 35 f0 9a 3d cf 70 11 bd 30 b1 1e 3e
       0.022771124 0.07565347 -0.035507973 0.15497279
000070 d0 58 44 3e 20 d6 e6 bd ee 84 2e 3b 08 eb 90 3d
       0.19174504 -0.1127131 0.0026629525 0.07076079

mlp.1.running_mean f4 [32]
000000 c7 5b 0f 3d 23 b6 d0 bd 27 78 2d 3d a7 ed 22 3e
       0.034999635 -0.1019099 0.042350914 0.1591097
000010 9a a7 f3 3d 9c 51 a5 bd 38 20 b5 3d 45 fd cc bd
       0.11897202 -0.080722064 0.08844036 -0.10009245
000020 5e c4 f9 3d f1 36 14 3e 01 aa 18 bd b7 75 db 3d
       0.12195657 0.14474083 -0.037271503 0.10715812
000030 76 2f 7f 3e 93 a6 00 3e 1d b6 91 3d aa 73 52 3c
       0.24920449 0.12563543 0.071148135 0.012844959
000040 4c 7e e2 3c 3a ba 1e 3c da d6 e9 3d 13 dd 1f bc
       0.027648114 0.009687955 0.11417933 -0.009757298
000050 c4 6e 9e 3c 12 c1 09 3e 74 3c 81 bd 2f e8 91 bd
       0.019339927 0.13452557 -0.06310359 -0.07124364
000060 88 bd fc bd ae a5 43 3e b8 46 b5 3d 33 87 5f bd
       -0.12340838 0.1910617 0.08851379 -0.054572295
000070 44 a5 b2 3d 40 96 64 3d 14 e5 c6 3c 18 5f b2 3a
       0.08722928 0.055807352 0.024279155 0.0013608662

mlp.1.running_var f4 [32]
000000 1b 73 a3 39 1d 69 c6 39 ea cb df 39 46 9a 9b 39
       0.00031175543 0.00037843818 0.00042685802 0.00029678846
000010 ce 68 87 39 8f 65 71 39 fe 97 6a 3a de 16 36 39
       0.00025827292 0.00023021385 0.000894904 0.00017365391
000020 15 8b 24 39 a7 59 76 38 7e d4 08 3a 60 a7 7f 3a
       0.00015692071 5.8734466e-05 0.0005219652 0.0009752419
000030 6e 15 b0 38 86 c3 2d 3a 59 44 73 39 ba 11 fb 38
       8.3963256e-05 0.00066285615 0.00023199747 0.000119719145
000040 53 a3 5a 3a 6f 89 d0 36 0f de 5b 3a cf 25 3f 39
       0.0008340377 6.2148824e-06 0.00083872763 0.00018229264
000050 74 63 fe 39 a3 38 7a 3a d2 7f 7d 39 15 6f 9c 39
       0.00048520754 0.00095451827 0.00024175577 0.000298374
000060 af 1a c2 39 f7 5f 22 39 b8 04 a0 3a 14 40 5f 39
       0.00037022444 0.00015485274 0.0012208438 0.00021290808
000070 f2 f2 60 3a 6c c0 c9 39 f4 59 57 39 43 40 6c 39
       0.00085811235 0.00038481073 0.00020537508 0.00022530653

mlp.3.weight f4 [1, 32]
000000 a1 4f de 3d 2d 22 6f bd 69 bc bb bd f4 a4 39 be
       0.10855032 -0.058382202 -0.09166796 -0.18129331
000010 e5 d9 16 3e db ac 3b 3e f0 f4 bd be c6 4b 52 be
       0.14731558 0.18327658 -0.37100935 -0.20536718
000020 cd 5a 31 be c1 68 45 3e e8 29 75 be a6 f4 12 be
       -0.17319794 0.19278242 -0.23941767 -0.14351138
000030 51 8d e4 3e b3 ef d9 3d 6d 02 ac bd 58 6e 17 bc
       0.44639066 0.10641422 -0.083989 -0.009242617
000040 7a 11 4e 3e 2c 1e 7a be 13 23 b3 3e 41 33 eb 3d
       0.20123854 -0.24425572 0.34987697 0.11484385
000050 90 d1 ff 3d 18 7d 65 3e 0c 38 7b be 8c 53 6e be
       0.12491143 0.22411 -0.24533099 -0.23274058
000060 79 a5 ab 3d ba 9d 0d 3e 83 18 4a be 27 f7 1c be
       0.08381171 0.13829699 -0.19735913 -0.15328656
000070 d5 55 ff bd e7 69 0e be d5 dc 39 3e 80 a8 d5 3d
       -0.12467543 -0.13907586 0.18150647 0.104325294
