output_bbox_gcn/EVALUATOR_layout_MultiLayer_2023_09_21_16_51_13/Model/evaluator_490.pth (torch, 9127 bytes, 11 tensors)

LayoutSeq.weight_ih_l0 f4 [32, 4]
0.16115129 -0.12541233 -0.0059964936 0.109882556 0.18808082 -0.24008073 -0.037759494 0.06431683
0.26444107 0.2149699 0.17332879 0.2743776 -0.29421732 0.18793283 0.17345957 0.047451697
-0.25213072 0.2980078 0.076547764 0.19241127 -0.2308741 -0.094039515 0.14562213 0.14508888
0.24887878 0.13087657 -0.24489678 -0.14286728 -0.1730154 0.22171994 -0.010391387 0.34695244
0.19206408 0.27543178 0.20197462 -0.008862899 0.31272346 -0.07077531 -0.08646382 -0.015432997
-0.2773744 0.062140044 -0.15412356 -0.19472142 -0.06655318 0.01341464 -0.20431314 -0.1863032
-0.2678762 -0.039119486 0.32002363 -0.13522126 0.02138566 0.2690787 0.28532702 0.4042029
-0.22306444 -0.10298665 -0.23452775 -0.031062718 0.15342838 0.31716135 0.28507987 -0.022693457
0.12953524 0.09222232 0.28714916 0.020805338 -0.055677302 -0.22547454 -0.18552256 -0.16741568
-0.107578255 0.35657653 -0.34576955 -0.015510394 -0.16937011 -0.20552368 0.0712977 -0.38127726
-0.2964878 0.31583095 -0.08400059 0.29804802 0.33645168 -0.3201254 0.069913805 0.089363836
-0.2429675 0.18934326 0.32936028 -0.2739953 -0.13131997 0.18595952 0.11098945 0.1051543
0.04382489 -0.21348643 0.3348453 -0.17086998 0.020212006 0.31085142 0.15376021 0.054111164
0.012039631 -0.16341549 0.13238668 0.011385489 -0.07638644 -0.09461923 0.31293586 0.0661275
0.076423295 -0.12541267 -0.11228625 0.1053176 -0.19960976 0.27446526 -0.06375948 -0.1580635
0.012000651 0.30101505 -0.24083282 -0.26059327 0.24536039 0.119848736 0.08709763 -0.070015974
00000000: d804 253e 176c 00be 3c7e c4bb 1b0a e13d
00000010: 4298 403e b9d7 75be b3a9 1abd 8bb8 833d
00000020: d264 873e 1221 5c3e 1a7d 313e 397b 8c3e
00000030: a7a3 96be 7771 403e 639f 313e b65c 423d
00000040: 4717 81be 7a94 983e 13c5 9c3d 7607 453e
00000050: 436a 6cbe ca97 c0bd f81d 153e 2e92 143e
00000060: 14da 7e3e 8204 063e 39c6 7abe cd4b 12be
00000070: f32a 31be 8d0a 633e a340 2abc c0a3 b13e
00000080: 72ac 443e 6505 8d3e 6fd2 4e3e b135 11bc
00000090: 4a1d a03e a5f2 90bd f113 b1bd aeda 7cbc
000000a0: 0404 8ebe 8f86 7e3d 91d2 1dbe 0d65 47be
000000b0: 094d 88bd 14c9 5b3c 7737 51be 44c6 3ebe
000000c0: 1227 89be c13b 20bd 23da a33e 7177 0abe
000000d0: fb30 af3c afc4 893e 6216 923e aff3 ce3e
000000e0: 016b 64be aaea d2bd 0b28 70be 3e77 febc
000000f0: 541c 1d3e f962 a23e fdf5 913e a1e7 b9bc
00000100: e3a4 043e 0edf bc3d 3705 933e f56f aa3c
00000110: e20d 64bd cce2 66be a0f9 3dbe 046f 2bbe
00000120: fd51 dcbd 3391 b63e b508 b1be 4f1f 7ebc
00000130: 5c6f 2dbe cd74 52be 8704 923d c636 c3be
00000140: 40cd 97be 98b4 a13e 8008 acbd c099 983e
00000150: 6543 ac3e 7ae7 a3be f82e 8f3d 6304 b73d
00000160: 79cc 78be 33e3 413e e9a1 a83e 1d49 8cbe
00000170: be78 06be 2c6c 3e3e 704e e33d 235b d73d
00000180: ba81 333d 309c 5abe d870 ab3e 8af8 2ebe
00000190: a693 a53c eb27 9f3e 5173 1d3e aba3 5d3d
000001a0: df41 453c 6456 27be 6090 073e 348a 3a3c
000001b0: 7e70 9cbd bac7 c1bd 2139 a03e db6d 873d
000001c0: d183 9c3d 2e6c 00be 55f6 e5bd c1b0 d73d
000001d0: 8066 4cbe b686 8c3e 5594 82bd 66db 21be
000001e0: 619e 443c a51e 9a3e e19c 76be 7b6c 85be
000001f0: c13f 7b3e 4173 f53d 3e60 b23d 8964 8fbd

LayoutSeq.weight_hh_l0 f4 [32, 8]
0.16222396 -0.2389894 0.1281116 -0.19350399 -0.017894646 0.07400358 -0.021837255 0.15238917
0.25578243 0.1539732 0.20578523 -0.2284102 0.16310394 0.057172004 0.040820416 0.20274845
-0.1767076 0.16958384 -0.137736 -0.09133071 0.08380921 0.009739073 0.24435556 -0.17904967
0.14247827 0.079333425 0.17390922 0.023093892 0.10398296 -0.11123356 0.08338814 0.17838295
0.23102528 -0.23237227 -0.18581407 -0.3086048 0.0041706697 -0.12370429 0.18102512 -0.0055169463
-0.21202351 -0.014752977 -0.35067612 -0.24576716 -0.26400262 -0.1236391 -0.13716166 0.25948954
-0.21595062 -0.14137678 0.051729016 -0.17024717 -0.2097412 -0.035245024 -0.05538226 0.1733006
-0.19889858 0.2791251 -0.0017293858 -0.038009323 0.0666208 0.07397667 -0.24783067 0.09691547
-0.16712643 -0.297455 -0.29558602 0.10149336 0.045618743 -0.037321594 0.22676681 -0.1448289
-0.14760536 0.0727426 0.17571041 -0.24752621 0.22745983 0.23939733 0.07552669 -0.09627643
-0.21832302 -0.20454699 -0.09173433 -0.06648605 -0.05654875 -0.055805854 -0.24036264 0.12661836
-0.06531366 0.004865616 -0.14827327 -0.19245823 0.12239037 0.17061715 0.2693659 0.066524506
-0.21162564 0.108247064 0.32400322 -0.1644471 0.21429785 0.11433108 -0.032465093 0.1647193
0.05097219 -0.12163814 0.26503417 0.23909768 0.21725571 0.253388 -0.093785286 0.31324944
-0.19585882 -0.21229781 -0.12936936 -0.2643965 -0.08338733 0.13747467 0.08889311 -0.014242948
0.1576424 -0.11630889 0.023831198 -0.41317248 -0.0868897 0.075026795 0.14497557 0.20490845
-0.25060126 -0.08362874 0.17935188 0.17286968 0.21570973 -0.04259945 -0.31431252 0.22352716
-0.05043084 -0.16543706 0.3069664 0.17520049 0.07784751 0.23354766 0.32184514 0.1528901
0.05249631 0.38551268 0.19751357 -0.10701456 -0.30793637 -0.25381032 0.29870972 0.11128271
-0.33618614 0.13418664 0.38890478 0.37527528 0.07950922 0.16407934 -0.18365704 -0.123728596
0.05652511 0.3341582 -0.22756667 0.2664711 0.09127773 -0.31136614 -0.21810125 0.08081706
-0.20126024 0.06760152 0.18733455 0.02386854 -0.19795385 -0.14357872 -0.15994163 0.39127788
0.23205487 0.008079473 0.288246 -0.33844316 -0.25189385 -0.14571568 0.25278333 -0.18737264
-0.27437976 -0.25971016 -0.0772425 -0.018806739 -0.31693017 0.34657493 0.18832567 -0.077512234
-0.11716157 0.18194212 0.019029189 -0.3152254 0.019067809 -0.034491543 0.05724432 0.26291004
0.32048467 -0.27254796 -0.19607508 0.17775607 0.08012326 0.24708518 0.25952318 0.25434783
-0.21606967 0.2315841 0.18326144 0.25713927 -0.12861042 -0.12143748 0.21830894 0.20779054
0.18514135 -0.091634445 -0.10986546 -0.33361545 0.06327867 -0.09736692 0.06359448 0.015584827
-0.042999443 0.14327343 0.34572926 0.12963653 -0.1406603 -0.049602848 -0.23391096 -0.09741767
-0.23752901 -0.050479237 -0.035962153 -0.22378477 -0.11670694 -0.025169803 -0.118001774 0.102033205
-0.20044883 -0.18161885 0.32261658 -0.2601789 0.14376947 -0.036629897 -0.10764701 0.002967412
0.11666874 0.064466506 -0.12649815 -0.055488084 -0.094225526 -0.06352721 0.02567449 0.13998514
00000000: 0a1e 263e a3b9 74be b02f 033e e925 46be
00000010: cb97 92bc 308f 973d 0be4 b2bc e80b 1c3e
00000020: eaf5 823e 27ab 1d3e 5db9 523e 5de4 69be
00000030: b804 273e 312d 6a3d 4f33 273d 4a9d 4f3e
00000040: d6f2 34be 63a7 2d3e aa0a 0dbe 980b bbbd
00000050: 2aa4 ab3d a290 1f3c 5838 7a3e cc58 37be
00000060: d3e5 113e 9079 a23d 4215 323e 672f bd3c
00000070: 05f5 d43d 6cce e3bd 67c7 aa3d 05aa 363e
00000080: e491 6c3e fff2 6dbe 0b46 3ebe 7301 9ebe
00000090: 1daa 883b ad58 fdbd a65e 393e 80c7 b4bb
000000a0: b11c 59be 78b6 71bc d28b b3be 63aa 7bbe
000000b0: 5a2b 87be 7f36 fdbd 1b74 0cbe d0db 843e
000000c0: 2922 5dbe 13c5 10be cee1 533d 4655 2ebe
000000d0: 66c6 56be 165d 10bd 82d8 62bd b675 313e
000000e0: 12ac 4bbe 7ce9 8e3e 8fac e2ba aaaf 1bbd
000000f0: 7c70 883d 1581 973d 53c7 7dbe 9e7b c63d
00000100: 3123 2bbe 064c 98be 0d57 97be c0db cf3d
00000110: b8da 3a3d 87de 18bd 8f35 683e 074e 14be
00000120: dc25 17be 13fa 943d 6eed 333e 8377 7dbe
00000130: 3beb 683e 9324 753e bdad 9a3d 942c c5bd
00000140: 1290 5fbe c474 51be 35df bbbd d729 88bd
00000150: a99f 67bd ae94 64bd a021 76be 3ea8 013e
00000160: 2bc3 85bd bf6f 9f3b f3d4 17be c513 45be
00000170: cda7 fa3d 43b6 2e3e 54ea 893e 003e 883d
00000180: 64b4 58be a3b0 dd3d c0e3 a53e d264 28be
00000190: e570 5b3e 6a26 ea3d 1efa 04bd 2dac 283e
000001a0: 37c8 503d 6b1d f9bd 8fb2 873e 06d6 743e
000001b0: 4878 5e3e 12bc 813e 8012 c0bd 3b62 a03e
000001c0: 378f 48be 9964 59be 6779 04be fa5e 87be
000001d0: fac6 aabd 29c6 0c3e 970d b63d 415b 69bc
000001e0: 026d 213e 5b33 eebd a539 c33c 588b d3be
000001f0: 3af3 b1bd a6a7 993d 7a74 143e 85d3 513e
00000200: cf4e 80be 8b45 abbd 05a8 373e c004 313e
00000210: 03e3 5c3e c37c 2ebd 92ed a0be 4ee4 643e
00000220: 9290 4ebd 5568 29be b32a 9d3e c267 333e
00000230: 846e 9f3d 1e27 6f3e e3c8 a43e 398f 1c3e
00000240: 5f06 573d eb61 c53e ff40 4a3e 732a dbbd
00000250: d6a9 9dbe 6df3 81be 7bf0 983e 31e8 e33d
00000260: 9720 acbe 3968 093e 871e c73e 1524 c03e
00000270: bbd5 a23d 6a04 283e 9710 3cbe 6b65 fdbd
00000280: e086 673d c916 ab3e 3d07 69be e66e 883e
00000290: d2ef ba3d 626b 9fbe ef55 5fbe 6a83 a53d
000002a0: 2a17 4ebe aa72 8a3d a1d4 3f3e f587 c33c
000002b0: 6ab4 4abe 4d06 13be bdc7 23be 9355 c83e
000002c0: cb9f 6d3e c45f 043c fb94 933e 6c48 adbe
000002d0: 3bf8 80be 7e36 15be d16c 813e 9dde 3fbe
000002e0: 817b 8cbe bbf8 84be 5131 9ebd 9710 9abc
000002f0: ac44 a2be 4572 b13e 72d8 403e bcbe 9ebd
00000300: 68f2 efbd 094f 3a3e 1ae3 9b3c 3965 a1be
00000310: 1834 9c3c 0147 0dbd 0579 6a3d 259c 863e
00000320: 9116 a43e 688b 8bbe e8c7 48be b005 363e
00000330: aa17 a43d e603 7d3e 39e0 843e e139 823e
00000340: 5e41 5dbe 6224 6d3e e3a8 3b3e c2a7 833e
00000350: 73b2 03be 37b4 f8bd 618c 5f3e 0bc7 543e
00000360: b295 3d3e d7aa bbbd 2401 e1bd a5cf aabe
00000370: 3f98 813d 4f68 c7bd d33d 823d 8157 7f3c
00000380: 2f20 30bd 45b6 123e 6d03 b13e 70bf 043e
00000390: 4109 10be 5b2c 4bbd 5b86 6fbe ea82 c7bd
000003a0: ce3a 73be 51c3 4ebd 0d4d 13bd d627 65be
000003b0: 0c04 efbd e730 cebc eaaa f1bd c9f6 d03d
000003c0: 7542 4dbe 4bfa 39be 002e a53e 2b36 85be
000003d0: 4e38 133e 3b09 16bd 0976 dcbd e978 423b
000003e0: 05f0 ee3d 0407 843d bb88 01be 7947 63bd
000003f0: 50f9 c0bd 8e1a 82bd 4f53 d23c 4458 0f3e

LayoutSeq.bias_ih_l0 f4 [32]
0.09879591 0.27100837 0.14001308 0.1043848 0.023543883 0.29022136 0.31040958 -0.1453326
-0.04930845 0.24532418 0.0067227357 0.088391736 -0.27163646 0.10209667 0.23154461 -0.012540465
-0.0802915 0.10215827 0.13567401 -0.16877796 -0.067918114 -0.003675186 -0.003845419 0.08962758
0.2241671 -0.11248427 0.2927862 -0.11038215 0.37743625 0.008457029 -0.1945865 0.19601397
00000000: 8355 ca3d 9cc1 8a3e 975f 0f3e b3c7 d53d
00000010: 1adf c03c e597 943e 01ee 9e3e 12d2 14be
00000020: a8f7 49bd 4336 7b3e 654a dc3b ba06 b53d
00000030: ef13 8bbe 0f18 d13d 081a 6d3e 8676 4dbc
00000040: df6f a4bd 5b38 d13d 21ee 0a3e 21d4 2cbe
00000050: a718 8bbd 64db 70bb 6d03 7cbb aa8e b73d
00000060: 0f8c 653e 275e e6bd 13e8 953e 0910 e2bd
00000070: 533f c13e 5a8f 0a3c af41 47be e3b7 483e

LayoutSeq.bias_hh_l0 f4 [32]
-0.019473078 -0.09151975 0.32569912 0.3453739 -0.22344515 -0.26186162 -0.154803 0.09740805
0.26105264 0.37549025 -0.18237488 0.35419238 -0.2839877 -0.07699344 0.010347121 0.1004757
-0.19248459 -0.28741026 0.2047207 0.1126543 -0.024543893 0.0076094694 0.30658203 -0.12834297
-0.009873209 0.19394928 0.1399232 0.11852205 -0.20650049 -0.109565556 -0.0883084 0.26824805
00000000: 0186 9fbc b56e bbbd 09c2 a63e d9d4 b03e
00000010: cece 64be ba12 86be ad84 1ebe df7d c73d
00000020: b1a8 853e 4240 c03e 7bc0 3abe b458 b53e
00000030: d666 91be bdae 9dbd f986 293c 34c6 cd3d
00000040: ae1a 45be 7027 93be 4ea2 513e 4cb7 e63d
00000050: 4610 c9bc db58 f93b 52f8 9c3e 576c 03be
00000060: 3dc3 21bc a49a 463e 0748 0f3e b0bb f23d
00000070: dd74 53be e863 e0bd 09db b4bd cf57 893e

mlp.0.weight f4 [32, 8]
0.06987988 -0.2494095 0.039604887 0.21299228 0.1515272 0.19530867 -0.08916486 0.11391333
-0.23206131 0.09308576 -0.08599343 0.029904127 0.022245111 0.06533688 -0.2650995 -0.10839685
0.04826807 -0.17918864 0.177368 0.107878216 -0.3156723 0.019720675 -0.04434178 -0.211545
0.42367342 -0.006727369 0.41461182 0.030281596 0.12516473 0.17235765 0.071179 0.13530715
0.09347511 -0.25972253 -0.06680286 -0.19786409 -0.32776755 -0.034218512 0.20629975 -0.25346336
-0.04664148 0.14059639 -0.04582685 0.0722637 0.18808505 0.041995805 -0.41767758 0.22356954
-0.07543339 -0.4829462 0.02550906 -0.078390196 0.0727237 0.16896644 -0.22975978 -0.16139302
0.13280024 0.17573732 -0.20462567 -0.20150004 -0.07944673 -0.36572266 -0.0424461 -0.10537558
-0.09381656 -0.33781734 0.12718801 -0.29956618 -0.1785664 -0.2669558 0.2620205 -0.385496
-0.39769047 0.004878972 -0.033698097 0.084402226 -0.27925968 0.16343628 -0.10434915 0.6198439
-0.20170921 -0.27923822 0.033112857 0.15909117 -0.0216172 -0.09553067 -0.020673487 -0.23418196
0.086610064 0.114280134 0.14849097 -0.2931345 -0.09984004 0.022102837 -0.52960634 0.39215854
-0.27001336 0.23939392 0.16152973 0.03667272 -0.44776115 0.28103882 -0.109185524 0.9064201
0.15235887 -0.1611758 0.26012328 -0.03618218 0.17265067 0.2635489 -0.2661338 0.15411744
0.26254237 -0.12198625 0.012673397 -0.18203223 0.010532655 -0.06438502 0.026390934 0.015214821
-0.24626286 0.07207454 0.17726581 0.030374222 0.32885116 0.1288253 -0.07904968 0.10933408
0.1997532 -0.22829488 0.048667677 -0.22370334 0.24028662 -0.22665444 -0.13370726 -0.03140173
-0.14362712 -0.06836482 -0.082650915 0.047503088 -0.06755403 -0.26232284 -0.14779773 0.12577483
-0.15584673 -0.22222258 0.4027118 0.019238958 -0.13284354 0.1242132 -0.011543067 -0.13570985
0.14661556 0.08202712 0.11312127 0.16811113 -0.017558204 -0.08761283 0.13638867 0.050279547
-0.35066676 0.22146778 0.05097229 -0.010878411 -0.034097698 -0.12435808 0.060636606 0.14591253
-0.3065951 -0.13626465 -0.19206296 -0.15421246 -0.16696541 0.13246407 -0.2263028 0.5887355
-0.388923 -0.13968632 -0.08622255 0.19578433 0.30399394 -0.025296215 -0.08661927 0.12939055
-0.0416891 -0.24765666 -0.20241338 0.015712578 0.2779171 -0.30771324 -0.032811455 -0.105179146
-0.15903705 -0.160537 -0.40440053 0.28609332 0.11524412 -0.016194316 -0.16581526 0.11004459
-0.3548712 -0.2022956 0.095808394 -0.040945373 0.033331715 0.02636801 0.076030634 0.304322
0.099774905 -0.3912325 -0.2009861 -0.0523292 0.06659608 0.3884951 0.19556928 -0.01400188
0.23422056 -0.04139935 -0.01601448 0.018771704 0.1375563 -0.26175216 0.19186732 -0.17915179
0.070637375 -0.28951985 0.4295145 0.420716 -0.12397266 -0.09129371 0.14075392 -0.013388132
0.21415448 0.12395959 -0.038034957 -0.18679 -0.2560443 0.16216499 0.045057878 -0.1797433
-0.07934692 -0.017555999 -0.026403237 0.061682455 -0.06849113 -0.3119031 0.34141058 -0.021486465
0.20362724 -0.24313231 -0.00103594 0.08142164 -0.11543141 0.048376355 -0.031070702 -0.1742343
00000000: 2f1d 8f3d 3465 7fbe bc38 223d a61a 5a3e
00000010: f229 1b3e fffe 473e 119c b6bd 644b e93d
00000020: 7ba1 6dbe bfa3 be3d 531d b0bd 80f9 f43c
00000030: 613b b63c 58cf 853d 1fbb 87be 2bff ddbd
00000040: bdb4 453d 3a7d 37be f59f 353e 41ef dc3d
00000050: cd9f a1be 418d a13c ba9f 35bd 419f 58be
00000060: b9eb d83e 4371 dcbb 0048 d43e 1c11 f83c
00000070: 2f2b 003e 867e 303e 4cc6 913d f58d 0a3e
00000080: e16f bf3d 5afa 84be f0cf 88bd e29c 4abe
00000090: 26d1 a7be b628 0cbd 3e40 533e f3c5 81be
000000a0: 230b 3fbd 80f8 0f3e efb4 3bbd fefe 933d
000000b0: 5e99 403e cb03 2c3d d6d9 d5be 6aef 643e
000000c0: d27c 9abd b944 f7be 60f8 d03c 0a8b a0bd
000000d0: 2af0 943d 8a05 2d3e 2646 6bbe 3644 25be
000000e0: c9fc 073e 7cf4 333e 6489 51be 0756 4ebe
000000f0: f8b4 a2bd 0040 bbbe f6db 2dbd 27cf d7bd
00000100: e622 c0bd 65f6 acbe 933d 023e bd60 99be
00000110: 1cda 36be 6eae 88be 8d27 863e bb5f c5be
00000120: 169e cbbe c9df 9f3b 0407 0abd 13db ac3d
00000130: 20fb 8ebe d75b 273e 02b5 d5bd 17ae 1e3f
00000140: dc8c 4ebe 50f8 8ebe 59a1 073d cce8 223e
00000150: 8e16 b1bc 95a5 c3bd 725b a9bc 65cd 6fbe
00000160: 9e60 b13d b40b ea3d 040e 183e ba15 96be
00000170: ef78 ccbd 0211 b53c 4894 07bf 01c9 c83e
00000180: 313f 8abe ae23 753e 0d68 253e 2236 163d
00000190: f340 e5be 52e4 8f3e a99c dfbd 260b 683f
000001a0: f703 1c3e 450b 25be e12e 853e c433 14bd
000001b0: 56cb 303e e2ef 863e b042 88be f6d0 1d3e
000001c0: f46b 863e edd3 f9bd 14a4 4f3c a866 3abe
000001d0: 2891 2c3c 4bdc 83bd cd31 d83c 9647 793c
000001e0: 552c 7cbe d19b 933d 2b85 353e 5cd3 f83c
000001f0: 2e5f a83e c8ea 033e cce4 a1bd 8cea df3d
00000200: 1a8c 4c3e 22c6 69be c257 473d 7d12 65be
00000210: b20d 763e 1a18 68be 8eea 08be 1a9f 00bd
00000220: fd12 13be db02 8cbd e244 a9bd 9992 423d
00000230: c459 8abd 2e4f 86be 4a58 17be 1ecb 003e
00000240: 4996 1fbe 518e 63be 3e30 ce3e 059b 9d3c
00000250: 2308 08be 7d63 fe3d 221f 3dbc 86f7 0abe
00000260: 6422 163e d6fd a73d 20ac e73d 5325 2c3e
00000270: 39d6 8fbc 5b6e b3bd 79a9 0b3e edf1 4d3d
00000280: 988a b3be 73c8 623e 52c8 503d 5d3b 32bc
00000290: 07aa 0bbd 73af febd 175e 783d 186a 153e
000002a0: 08fa 9cbe f688 0bbe 27ac 44be dfe9 1dbe
000002b0: fbf8 2abe a9a4 073e ecbb 67be 5fb7 163f
000002c0: ea20 c7be ee09 0fbe 7395 b0bd b07b 483e
000002d0: 18a5 9b3e 023a cfbc 7265 b1bd f57e 043e
000002e0: 31c2 2abd b599 7dbe 7445 4fbe aab7 803c
000002f0: 264b 8e3e 978c 9dbe 4e65 06bd 2a68 d7bd
00000300: 9cda 22be d063 24be 960d cfbe d37a 923e
00000310: 1c05 ec3d f1a9 84bc 7acb 29be 0f5f e13d
00000320: aeb1 b5be 9426 4fbe 3137 c43d 56b6 27bd
00000330: d686 083d ba01 d83c f3b5 9b3d 18d0 9b3e
00000340: c956 cc3d a04f c8be 4dcf 4dbe 2557 56bd
00000350: 8763 883d d4e8 c63e 5043 483e 2468 65bc
00000360: 84d7 6f3e 5d92 29bd cc30 83bc 1ec7 993c
00000370: 8fdb 0c3e 6104 86be de78 443e 9173 37be
00000380: 54aa 903d f23b 94be 53e9 db3e 1668 d73e
00000390: 61e5 fdbd 32f8 babd cc21 103e e559 5bbc
000003a0: 504b 5b3e 87de fd3d 8bca 1bbd e145 3fbe
000003b0: 3d18 83be 940e 263e 9c8e 383d a10e 38be
000003c0: a380 a2bd 99d1 8fbc 9a4b d8bc bea6 7c3d
000003d0: 1445 8cbd c3b1 9fbe 5ecd ae3e 6204 b0bc
000003e0: a983 503e adf7 78be 61c8 87ba 64c0 a63d
000003f0: 4e67 ecbd 4926 463d fc87 febc 7a6a 32be

mlp.0.bias f4 [32]
-1.0582517e-06 -3.1885766e-06 9.192307e-06 4.611654e-05 4.194826e-07 1.497698e-05 -5.042353e-06 -6.9386035e-05
1.8555147e-07 1.8271825e-05 -4.238568e-05 -3.7612604e-06 -0.00011272257 -2.9815321e-06 6.7169067e-06 -8.525792e-06
-1.4166066e-05 -4.113545e-05 -2.306397e-05 -1.369166e-05 -5.219319e-06 -4.644926e-06 -5.9374306e-06 -3.5828325e-05
-7.8385565e-06 -4.9259666e-05 -1.2756336e-06 1.5551279e-05 6.350064e-06 -1.2079177e-05 -7.970434e-06 2.4473466e-06
00000000: 4009 8eb5 54fb 55b6 a838 1a37 426d 4138
00000010: 4035 e134 a445 7b37 7c31 a9b6 5883 91b8
00000020: 003c 4734 7246 9937 47c7 31b8 f669 7cb6
00000030: 7865 ecb8 5516 48b6 ca61 e136 ff09 0fb7
00000040: caaa 6db7 da88 2cb8 8079 c1b7 3bb5 65b7
00000050: 9c21 afb6 9cdb 9bb6 243a c7b6 5f46 16b8
00000060: 5882 03b7 2a9c 4eb8 7036 abb5 1e74 8237
00000070: a212 d536 aca7 4ab7 c1b8 05b7 183d 2436

mlp.1.weight f4 [32]
0.84176886 0.74611795 0.8774591 0.78409714 0.87155193 0.90151805 0.93122554 0.90073574
0.91065276 0.84701574 0.90918726 0.8840831 1.1110404 0.80065733 0.79735076 0.8350667
0.8911961 0.87040585 0.9704686 0.84477305 0.87463343 0.9540824 0.9318617 0.9362328
0.8402122 0.8863773 0.89194024 0.82860935 0.8769983 0.850698 0.9264472 0.791079
00000000: 2a7e 573f 9601 3f3f 29a1 603f 97ba 483f
00000010: 071e 5f3f e3c9 663f cc64 6e3f 9e96 663f
00000020: 8a20 693f 06d6 583f 7fc0 683f 4553 623f
00000030: 9236 8e3f e1f7 4c3f 2e1f 4c3f eec6 553f
00000040: 6d25 643f ebd2 5e3f a170 783f 0c43 583f
00000050: fae7 5f3f bf3e 743f 7d8e 6e3f f4ac 6f3f
00000060: 2618 573f 9fe9 623f 3256 643f be1f 543f
00000070: f682 603f 58c7 593f a52b 6d3f 2784 4a3f

mlp.1.bias f4 [32]
0.06876058 0.18981954 0.09298248 -0.22034325 0.04811796 0.052683353 -0.087037064 0.027510948
0.05196517 0.10087623 0.0761233 -0.080638625 0.066605546 0.07469489 -0.08239111 0.09751879
0.07040005 0.013463345 -0.043022756 -0.052154675 -0.060095165 0.08398145 0.092418686 0.01654537
0.045881804 0.057683986 -0.073850185 0.10145013 0.058747917 -0.09048676 -0.046383765 0.06715442
00000000: 59d2 8c3d 0e60 423e 996d be3d a9a1 61be
00000010: 5717 453d 80ca 573d 7d40 b2bd a45e e13c
00000020: 6ed9 543d 3298 ce3d 88e6 9b3d dd25 a5bd
00000030: 7d68 883d a2f9 983d acbc a8bd eeb7 c73d
00000040: e72d 903d 5d95 5c3c a138 30bd 24a0 55bd
00000050: 5926 76bd 77fe ab3d 0246 bd3d 288a 873c
00000060: 8fee 3b3d 0b46 6c3d c43e 97bd 16c5 cf3d
00000070: a8a1 703d 1f51 b9bd e7fc 3dbd 4288 893d

mlp.1.running_mean f4 [32]
0.033048786 -0.1269347 0.02482061 0.11807586 0.14294958 -0.11833357 0.11216215 -0.097990386
0.17390177 0.15187185 -0.028526895 0.093279935 0.2292358 0.108339794 0.09938452 -0.004407599
0.06763751 -0.030416457 0.1311226 -0.03300781 -0.01624445 0.1999639 -0.05113419 -0.06113583
-0.13546893 0.19111702 0.18061572 -0.05122248 0.053669814 0.023578057 0.013043329 0.014992256
00000000: 2a5e 073d 2cfb 01be 9854 cb3c c2d1 f13d
00000010: 6061 123e df58 f2bd 45b5 e53d 2faf c8bd
00000020: 4e13 323e 4b84 1b3e 3cb1 e9bc 8d09 bf3d
00000030: cabc 6a3e 41e1 dd3d 1c8a cb3d 9f6d 90bb
00000040: 8985 8a3d ef2b f9bc 0145 063e 3333 07bd
00000050: 1513 85bc 56c3 4c3e 1672 51bd 9069 7abd
00000060: 5eb8 0abe 2eb4 433e 54f3 383e aace 51bd
00000070: e1d4 5b3d c526 c13c b0b3 553c 14a2 753c

mlp.1.running_var f4 [32]
0.0004041104 0.0005146289 0.00031487926 0.00031158852 0.00056434615 0.00050544535 0.0011342702 9.766751e-05
0.00025450677 0.00032320048 0.00041983655 0.0018206385 0.000480703 0.0011360034 0.0009090091 0.0008479142
0.0011145618 1.2331976e-05 0.0008033656 0.00037789965 0.0010366475 0.0027961028 0.0003287036 0.00018892091
0.00054876227 0.00029518103 0.0028028225 0.00017390374 0.0013809839 0.00024320211 0.00078277 0.00025738188
00000000: c8de d339 29e8 063a 6116 a539 b45c a339
00000010: a1f0 133a dd7f 043a cbab 943a d8d2 cc38
00000020: 526f 8539 3c73 a939 821d dc39 7ea2 ee3a
00000030: dd06 fc39 f3e5 943a 914a 6e3a 8f46 5e3a
00000040: 7d16 923a 6fe5 4e37 f498 523a d520 c639
00000050: 1ee0 873a d23e 373b da55 ac39 1219 4639
00000060: d0da 0f3a 87c2 9a39 8faf 373b ee59 3639
00000070: 2102 b53a 1204 7f39 ce32 4d3a 36f1 8639

mlp.3.weight f4 [1, 32]
0.1020544 -0.06191227 -0.1281581 -0.111695096 0.13272871 0.16433482 -0.41967374 -0.25177184
-0.21305992 0.13616602 -0.27780876 -0.1713504 0.4588134 0.08094055 -0.048665326 -0.039365217
0.16424184 -0.12782265 0.34155867 0.1046992 0.109249905 0.22518873 -0.2851998 -0.30154637
0.09901718 0.15387444 -0.19237006 -0.14204986 -0.11127836 -0.1684301 0.18440627 0.06946161
00000000: e601 d13d b897 7dbd e13b 03be 66c0 e4bd
00000010: 09ea 073e 6347 283e 7adf d6be 3de8 80be
00000020: 612c 5abe 1b6f 0b3e f33c 8ebe 7b76 2fbe
00000030: 97e9 ea3e 29c4 a53d 4b55 47bd 6c3d 21bd
00000040: 032f 283e f1e3 02be c7e0 ae3e 896c d63d
00000050: 6abe df3d e097 663e b505 92be 4964 9abe
00000060: 85c9 ca3d 4391 1d3e a8fc 44be 8575 11be
00000070: e9e5 e3bd f178 2cbe ffd4 3c3e e341 8e3d
