output_bbox_gcn/EVALUATOR_layout_MultiLayer_2023_09_21_16_51_13/Model/evaluator_270.pth (torch, 9127 bytes, 11 tensors)

LayoutSeq.weight_ih_l0 f4 [32, 4]
00000000: e9d6 473e 7b46 c5bd 6ac2 573d 23b6 1c3e
00000010: 7b9b 4d3e e348 8ebe 6d61 41bd c03c 0c3d
00000020: c668 a13e fdb7 833e 2e77 043e cefd 803e
00000030: 650e 8ebe e6e1 703e 3259 333e 9f5f 193d
00000040: cb1d 40be 1178 863e 66fb a23d 089d 283e
00000050: d113 77be ae31 4dbe bacb 2b3e d4d7 c63d
00000060: 9012 8f3e fe92 dd3d 7322 83be 5752 21be
00000070: 64de 66be 0109 7b3e 99ed 6abc a6a3 b23e
00000080: 8acf 353e 74f4 883e 948b 253e 219f 53bd
00000090: 80cb 943e 59c7 c7bd af50 c7bd eb18 aebc
000000a0: 0895 99be 8e9a 113d b347 27be eaa9 47be
000000b0: c216 45bd 898c 00bd 8c00 5dbe 5471 4fbe
000000c0: 47a6 93be df89 15bd 923f aa3e 67fc 68be
000000d0: d8bc 133d 2ba3 933e c88b 923e 8450 c83e
000000e0: 3d6c 89be 4dec 0bbe 8883 8ebe 2368 63bd
000000f0: c9d1 2b3e e79d 9a3e 4e1c a43e 66c2 66bc
00000100: a406 e33d 4224 b83d 7e41 943e 7a33 a73c
00000110: 9785 1cbd 581f 51be c745 42be bc3e 44be
00000120: a5f2 0bbe a86f 993e 4e79 b8be 8230 56bb
00000130: 4f1c 5fbe dd1c 52be 9cc6 573d cc9d c0be
00000140: 91ac 98be 9ca7 973e 2538 a6bd e06c 963e
00000150: 8067 a53e 6d96 a1be 6490 983d 3c08 c43d
00000160: 818e 6dbe 4ff1 563e ee7f b03e c1b8 88be
00000170: 8fc7 e1bd dfa8 593e b85b d83d 330a d23d
00000180: c398 373d 710a 67be cb3c ae3e a7df 48be
00000190: b8bd 85bb 1ddb 993e be92 083e 51b4 643d
000001a0: 3c35 193d c551 47be 06ab 243e c4c7 6bbc
000001b0: 19e0 cdbc 58e2 99bd 732c a83e 856e af3d
000001c0: 5da6 f93d 3a9a 26be 9604 f7bd e5b1 853d
000001d0: 08ed 6abe c867 613e 0e35 44bd 1612 3cbe
000001e0: b767 97bc d1ba 973e bc6c 8cbe 70e9 8ebe
000001f0: 9c21 833e 91c5 d73d c7e7 f03d 7671 5ebd
0.19515575 -0.09632584 0.052675642 0.15303855 0.20078842 -0.27789983 -0.047212053 0.034237623
0.31525248 0.2572631 0.12936088 0.25193638 -0.27745357 0.23523673 0.17514494 0.037444707
-0.18761365 0.26263478 0.07958107 0.16466153 -0.24128653 -0.20038483 0.16776934 0.09709135
0.2794385 0.10819052 -0.2561222 -0.15754066 -0.22545773 0.24515153 -0.014338874 0.3489048
0.17754951 0.26749003 0.16166526 -0.05166543 0.29061508 -0.097548194 -0.09732186 -0.021252116
-0.29996514 0.035547785 -0.16335945 -0.19498411 -0.048117407 -0.031384025 -0.2158224 -0.20258075
-0.28837797 -0.036508437 0.33251625 -0.22752534 0.036068767 0.28835425 0.2862227 0.3912393
-0.26840392 -0.1366436 -0.27834725 -0.055519234 0.16779245 0.30198595 0.32052845 -0.014084434
0.11085251 0.08991291 0.28956217 0.020410288 -0.03821334 -0.20422113 -0.1897193 -0.19164556
-0.1366678 0.29968 -0.36030048 -0.0032682722 -0.21788143 -0.20518823 0.052679643 -0.3762039
-0.29819158 0.29620063 -0.081161775 0.2937994 0.32305527 -0.31560078 0.07449415 0.09571883
-0.23198892 0.2099049 0.34472603 -0.26703456 -0.11024391 0.21255825 0.10564369 0.102558516
0.04482342 -0.22562577 0.34030756 -0.19616567 -0.004081454 0.30049983 0.13337228 0.055836026
0.037404284 -0.19464786 0.16080865 -0.01439089 -0.025131272 -0.07513875 0.32846412 0.08566002
0.121899344 -0.1626977 -0.120614216 0.06528071 -0.22941983 0.22012246 -0.04790216 -0.18366274
-0.018482072 0.29634717 -0.27426708 -0.27912474 0.2561158 0.1053573 0.11762958 -0.054307424

LayoutSeq.weight_hh_l0 f4 [32, 8]
00000000: 829e 1b3e 7618 56be 1aae f93d f78c 1fbe
00000010: 220e 61bd fd80 813d 2c48 8abd f5d0 c03d
00000020: 8fbe 873e 950d 473e c691 803e fba9 7abe
00000030: 7baa 6f3e 979d 9b3d 9300 08bc ec81 5f3e
00000040: 2dc1 42be b3a4 443e 42bc 48be 2cf5 dabd
00000050: e807 283e cfda 13bd d503 903e c049 66be
00000060: fd99 1e3e 505b 0e3e e15a 713e fdc2 af3d
00000070: 7755 1a3e 2405 46be db71 193e eb1a 283e
00000080: 77f4 953e ad50 6fbe 7fb8 6bbe 4a14 9cbe
00000090: 1ff8 3dbd 4ddb 2bbe b4fa 573e 9825 ffbc
000000a0: 3470 79be 81ff c5bc bee0 c1be 47ed 90be
000000b0: a315 51be 0b2b 40be 4a31 52be e003 9f3e
000000c0: 25f1 83be 1e9c 56be c921 a33c 8d94 7dbe
000000d0: 1999 78be 6c72 17bd df0a 01be e42f 833e
000000e0: 1d5f 2fbe 9bd9 8c3e 43c0 23bd 27d0 c5bc
000000f0: 7410 b13d a8b8 933d a0b1 87be 1e6b c73d
00000100: 6cd3 52be 8350 99be 6a1d b0be 28b9 093e
00000110: bebd fd3d 03d5 69bd 115d 563e 2667 40be
00000120: 69fb 41be 3d77 de3d ad61 6a3e c030 72be
00000130: 3e74 8e3e dd18 8f3e 3b2a 3d3d cbff 01be
00000140: af28 81be f6ec 62be fed7 babd 00ab 88bd
00000150: 0fca 243c 1da8 23be 9cde 8ebe 6b52 193e
00000160: 8875 f2bd e494 cc3d 4bca 16be 47f2 cdbd
00000170: 57ef 4f3e 16cb c63d 9a16 973e 6226 96bc
00000180: 38dc 7cbe 0fb5 153e ac31 973e cede 03be
00000190: 53f0 603e 2446 213e b01f 53bd 5b2e 0d3e
000001a0: 2e09 753d 5fb0 ecbd bb4a 673e 8ad6 8d3e
000001b0: 2a55 8c3e 8465 973e 7c59 20be a8dc 9d3e
000001c0: 5245 71be f0c9 86be b0f4 54be 5203 a7be
000001d0: aa9d 92bd c314 5f3e 39d4 6a3d 7820 33bd
000001e0: c7b6 553e a2ed ecbd 16b3 3ebd 2a52 d1be
000001f0: 8cb1 84bc 153e 353d e000 d53d 9dd4 493e
00000200: 82a9 8dbe 32ae 58bd 48c4 563e 064f 3d3e
00000210: 6373 413e 536c 87bd 9fd8 8dbe 6ec0 623e
00000220: ee0c 00bd b3e8 44be 6745 8d3e 0860 383e
00000230: 6144 ad3d 3667 6a3e fb36 b03e e54d 223e
00000240: cf2b be3d c634 a93e 41f0 2b3e 8d75 36be
00000250: a1b2 90be 85e0 82be d374 a33e 9125 333e
00000260: 09a1 b8be 1956 db3d 07bb ca3e cf23 ad3e
00000270: b243 e03d 9831 553e f74a 4cbe a783 c7bd
00000280: b137 813c 43b4 b53e 2dbe 42be e438 873e
00000290: f465 533d 577f a0be 860c 30be 4706 b53d
000002a0: 60e5 49be faa3 603d c716 2d3e 7180 a63c
000002b0: 3990 1ebe 49f4 2bbe f71b 49be d355 c83e
000002c0: 2dcb 733e 705a 3d3b 802f 9a3e b8a8 babe
000002d0: d2bf 80be 2939 33be d1c2 7c3e 25b7 56be
000002e0: 17ee 81be b44e 8cbe 4dd5 e0bd 027c 613b
000002f0: 14e9 94be 3f85 ae3e fbf0 213e 9ed1 c2bd
00000300: 99dd 3fbe 30be 6d3e c701 3e3c f3fa 97be
00000310: f7bb 9e3d 6781 c2bd 3c47 ac3c 13bc 6b3e
00000320: fede bd3e 25eb 97be 5c55 69be 1c0f 563e
00000330: 917f a23d 5fa9 9f3e fab7 773e b471 8b3e
00000340: 0d86 7abe f6ce 883e b30b 423e dc2d 973e
00000350: 2b6d c3bd 61dc 59be 35da 6e3e e6e4 603e
00000360: 0315 5f3e 521d 88bd 595f e8bd 7d60 a8be
00000370: eea9 0a3e 0ddd 2cbe 45a1 be3c 47b9 afbc
00000380: 9b77 21bd 09af 2b3e 2837 ac3e 3d8d 2b3e
00000390: c21b 52be e16d 96bd 3933 80be 33c2 08be
000003a0: 83a6 87be d30b 51bd e88b 5abd ef2d 75be
000003b0: 12fc d3bd c7b0 48bd f791 05be 0b2e d03d
000003c0: 41d1 1dbe bac1 75be c088 8c3e 7054 a0be
000003d0: 75c0 523e 5424 74bb 519a 2ebe 61bf 773c
000003e0: 3c29 1c3e 1869 5c3d 20a8 27be 7e5b 85bd
000003f0: e8f0 cabd b4bf cdbd 6fb6 913d 4b9b 1c3e
0.15197185 -0.20907769 0.1219141 -0.15581118 -0.05494512 0.06323431 -0.06752047 0.094148554
0.26512572 0.19438775 0.25111216 -0.24478905 0.23404877 0.07598417 -0.008300918 0.21826905
-0.19019003 0.19203453 -0.19603065 -0.10691294 0.16409266 -0.036097344 0.28127924 -0.22489071
0.1548843 0.1390202 0.23569824 0.08582113 0.15071665 -0.19337898 0.14984839 0.16416518
0.29288074 -0.23370619 -0.23019598 -0.3048423 -0.046379205 -0.16782875 0.2109173 -0.031145856
-0.24359208 -0.024169685 -0.37866777 -0.28306028 -0.2041841 -0.1876642 -0.20526615 0.31057644
-0.25769916 -0.20957991 0.019913571 -0.24763699 -0.24277152 -0.036974356 -0.12601803 0.25622475
-0.17126127 0.2750977 -0.039978277 -0.024147106 0.08645716 0.07212955 -0.26502705 0.09737228
-0.20588464 -0.29944238 -0.3439744 0.13449538 0.12389706 -0.05708791 0.2093394 -0.18789348
-0.18943562 0.10862587 0.22888823 -0.23651409 0.2782306 0.27948657 0.046182852 -0.12695234
-0.25226352 -0.22160706 -0.091232285 -0.06673241 0.01005794 -0.15982099 -0.27904212 0.14972846
-0.118388236 0.09989336 -0.14725606 -0.10055976 0.20306145 0.09706704 0.2950943 -0.01832885
-0.24693382 0.1461985 0.29530084 -0.12877962 0.21966676 0.15749413 -0.05154389 0.13787214
0.059823208 -0.115570776 0.22587101 0.27702743 0.27408725 0.29569638 -0.15659136 0.3083241
-0.235616 -0.2632594 -0.20796466 -0.3261972 -0.07158978 0.21785264 0.057331298 -0.043732136
0.20870505 -0.11568762 -0.04655751 -0.40883 -0.016197942 0.04424866 0.104005575 0.19710012
-0.27668387 -0.0529005 0.20973313 0.18487176 0.18891673 -0.06612458 -0.2770433 0.22143719
-0.03126233 -0.19229393 0.27592012 0.18005383 0.08460308 0.22890934 0.34416947 0.15850027
0.092856996 0.33048075 0.16790868 -0.1781828 -0.28261283 -0.2556192 0.31925067 0.17494799
-0.3606036 0.10709781 0.39595816 0.33816382 0.10950412 0.208197 -0.19950472 -0.097419076
0.015773626 0.3548909 -0.19017859 0.26410592 0.051610902 -0.31347153 -0.17192277 0.08839088
-0.19716406 0.05484388 0.1690322 0.020324918 -0.15484704 -0.16792406 -0.19639574 0.3912798
0.23807974 0.0028893016 0.30114365 -0.36456847 -0.25146347 -0.17502274 0.24683692 -0.20968302
-0.2537696 -0.27403796 -0.10978184 0.003440619 -0.29084074 0.34086034 0.15814583 -0.095126376
-0.18736877 0.23217082 0.011597103 -0.29683647 0.07750695 -0.09497338 0.021030061 0.23020963
0.37084192 -0.2967159 -0.22786468 0.20904201 0.079344876 0.31183907 0.24191275 0.27235186
-0.24465199 0.267204 0.18949775 0.29527175 -0.095423065 -0.21275474 0.23325427 0.21962318
0.21785359 -0.066462174 -0.11346311 -0.32886115 0.13541386 -0.16881199 0.023270259 -0.021450652
-0.039420705 0.1676599 0.3363583 0.16753097 -0.20518401 -0.073451765 -0.2503908 -0.13355331
-0.26494226 -0.051036667 -0.05335608 -0.23943304 -0.10350813 -0.048996713 -0.13043962 0.10165032
-0.15411855 -0.23999682 0.27448082 -0.3131442 0.20581229 -0.0037253099 -0.17051055 0.015121312
0.15250105 0.053811163 -0.16372728 -0.065115914 -0.099092305 -0.1004633 0.071148746 0.15293615

LayoutSeq.bias_ih_l0 f4 [32]
00000000: e02f c53d af04 8c3e c253 0d3e 1b0b be3d
00000010: e78d 633c 8bde 913e e649 a63e a29e 23be
00000020: e8dd 86bd d9e0 693e f261 53bc ca1f 393c
00000030: d1cf 98be 0a0c c73d 0e80 5a3e 14b2 05bd
00000040: c202 9bbd 49fe c23d 214c 0b3e 0720 25be
00000050: 2e19 07bd b4c0 43bc 4187 b3bb e257 a73d
00000060: 2ebf 653e 0a08 01be 960e 913e d2cc 15be
00000070: 384f bc3e f995 c5ba 1c40 62be 724d 463e
0.09628272 0.27347323 0.13801482 0.09279462 0.013888813 0.284901 0.32478255 -0.15978482
-0.06585294 0.22839679 -0.01290177 0.011299083 -0.2984605 0.09719093 0.21337911 -0.03264053
-0.075688854 0.09521157 0.1360326 -0.16125499 -0.032982998 -0.0119477995 -0.00547877 0.08171059
0.2243621 -0.12600723 0.2833144 -0.14628914 0.3677919 -0.0015074603 -0.22094768 0.1936548

LayoutSeq.bias_hh_l0 f4 [32]
00000000: 5ede cdbc c670 dfbd 5680 a93e a99c b73e
00000010: a34d 73be 6c11 92be c8a8 31be 3760 b23d
00000020: d95a 7f3e 7844 ba3e 4af8 53be 6703 933e
00000030: 7352 9fbe 28c0 b1bd bc45 a9bc 8bb8 a63d
00000040: 7c52 41be 1dd3 98be 8dc8 523e cb99 fb3d
00000050: f218 303c 2635 1aba 29e1 9d3e 91d5 0cbe
00000060: 14dc 7cbc 25cd 4a3e b1c9 013e 3689 c03d
00000070: c49c 67be 7eca fabd 9cb6 e1bd 7be6 883e
-0.025130447 -0.10910182 0.33105725 0.3586171 -0.23760085 -0.28528917 -0.17349541 0.08709758
0.24937 0.36380363 -0.20700184 0.28713533 -0.3111759 -0.08679229 -0.020663135 0.081406675
-0.18879122 -0.29848567 0.20584317 0.12285193 0.010748135 -0.00058825535 0.30835846 -0.13753344
-0.01543333 0.19804819 0.12674595 0.09401171 -0.22618395 -0.122456536 -0.11021158 0.26738343

mlp.0.weight f4 [32, 8]
00000000: e602 b43d a67e afbe 0216 993c 8010 6f3e
00000010: b92a 043e b269 763e ad70 79bd c9da 1c3e
00000020: b662 66be 173b ba3d 1b38 c2bd 30ca 543d
00000030: cc82 1e3c 7dde c23d 2085 99be c82a f8bd
00000040: bafb 813d aaa6 4abe 66a9 343e d615 e23d
00000050: 0602 a8be 192b 343d f048 32bd 4206 56be
00000060: a038 e23e a38d 0abd ee45 da3e 5528 213d
00000070: 10d6 f83d 6aa3 4a3e cd28 c33d ccb5 363e
00000080: 7117 823d 8898 8bbe 24f1 aabd 76e4 5ebe
00000090: 04bb abbe 1b6b 67bd 58bc 653e 4a18 81be
000000a0: 9de0 6fbd 5fe9 213e 322b 1dbd 4433 4d3d
000000b0: 7844 253e ec4b 003d dcc8 ffbe bf4b 643e
000000c0: 7da7 65bd ba47 ffbe 937d 363c 0eb8 77bd
000000d0: 5714 d73d be3a 443e 2c11 78be b4c0 1dbe
000000e0: c93d 403e 866c 2a3e 6b26 56be 5ce5 33be
000000f0: e485 9dbd e33a bebe a407 57bd 3d31 e5bd
00000100: bcfa ebbd f892 a6be 2c55 003e 7655 98be
00000110: 4686 59be 386c 55be 7712 8c3e 6dad d5be
00000120: 74c7 cbbe 6d61 22bc 1d1e d3bc 3a7b de3d
00000130: 3d69 9cbe 3898 073e 7d68 debd d192 273f
00000140: 7135 46be 28aa 92be 6eb0 803d 3879 2c3e
00000150: 631e 8dbc e74e cabd 713b 59bc 5a16 6cbe
00000160: 9f52 053e 8ffb 863d 26d2 e03d 96d0 b6be
00000170: 80fe f6bd 53db b93d f7e8 10bf adb3 e83e
00000180: 8b6d 8dbe b30a 6c3e 9659 2e3e 6293 cd3c
00000190: 948c e3be 2c36 943e 3adf 0cbe 67a5 683f
000001a0: e100 1c3e edaf 2cbe 544e 9c3e 6e85 7fbd
000001b0: fd02 5b3e 4088 8f3e 7612 a4be 593b 2a3e
000001c0: cea7 b93e 1e17 4abe 6c6a 10bd abc9 3fbe
000001d0: c7e8 933b 6064 88bd 6529 953b ed6e 14bb
000001e0: 9e32 9dbe d2ad b93d 0e3d 6b3e 86aa 463d
000001f0: b1b8 b83e b590 053e 44b8 63bd 30b2 ff3d
00000200: 4c0d 433e c5fa 56be 1114 9c3d 11c4 86be
00000210: 8fad 7c3e 969b 89be e8be 03be f67e 3fbd
00000220: 0e6a 03be beac 8abd 0d25 9ebd 437d bd3d
00000230: 4e19 6e3b b3d4 7abe 9460 39be f980 fe3d
00000240: e710 21be 6737 70be 6c93 c43e 361b 063c
00000250: 79b4 1dbe f266 183e 9a33 f9bc 2e56 1abe
00000260: 7079 2f3e 02f9 9d3d 339f af3d 42f4 2b3e
00000270: ae6b 94bc da01 eebd 9050 423e d631 9f3d
00000280: f930 bfbe 722f ae3e 2e8e 4b3c afb9 673c
00000290: 2dad 6dbd aff7 41be 0b8f 813d dca4 173e
000002a0: 6fcc 96be 9d5d 26be 84ac 6dbe 5d0a 35be
000002b0: fa53 4bbe c64e 103e 3435 6abe 9211 283f
000002c0: 2d48 c0be d008 27be 8d56 c0bd 9002 4a3e
000002d0: 81b4 a23e b73a b5bc ace1 c7bd 79e7 173e
000002e0: 73af 39bd ae26 71be b486 4abe 4a07 7d3d
000002f0: f6f1 933e 80ed 9dbe a502 30bd 8639 03be
00000300: 7e7a 46be ec74 24be b1a3 d5be 0f0c 8f3e
00000310: 6e53 0b3e a83c 1fbb 762a 42be bbf8 da3d
00000320: 8e44 adbe 27ee 77be aa5d c03d 2a12 91bd
00000330: b643 a63d 93db 883a 5838 613d f391 a63e
00000340: c080 113e cb01 d1be 1e5e 88be 7894 4cbc
00000350: 64be 123d 897b e23e f5a0 603e 3962 ebbc
00000360: 3109 7c3e a2d7 61bd c054 b7bc 486b 773c
00000370: 853c 163e a609 82be 3d51 303e 1e7b 3dbe
00000380: 7911 b33d 59c1 a1be f5c3 dc3e 0fa4 fc3e
00000390: c24e 13be 8875 a6bd 5f8e 1e3e 025f 67bc
000003a0: bef6 733e 1b7b f43d cda1 9cbc df6b 37be
000003b0: 3718 85be e7a2 243e ea47 653d 7a89 34be
000003c0: 4598 90bd f249 b6bc 00c2 54bd b005 ad3d
000003d0: 79be 51bd a4af afbe 7d48 c33e fa10 96bc
000003e0: c63c 813e 9edd babe 0539 acbc 4e4e 63bc
000003f0: 3131 bebd fe56 d23d 53b7 49bd 7afc 01be
0.08789615 -0.34276313 0.018687252 0.23346138 0.12906922 0.24063757 -0.06089847 0.15317835
-0.22498593 0.09093302 -0.094833575 0.051950634 0.009674739 0.095150925 -0.2998438 -0.12117535
0.06346841 -0.1979014 0.17642745 0.11039321 -0.32814044 0.043986414 -0.04352659 -0.20900825
0.44183826 -0.03382648 0.42631477 0.039345104 0.12150204 0.197889 0.095292665 0.17842788
0.06352127 -0.2726481 -0.08346775 -0.21766838 -0.3354112 -0.056498628 0.22435129 -0.25213844
-0.058563817 0.1581168 -0.038371272 0.05009772 0.161394 0.031322405 -0.4995793 0.2229452
-0.056067932 -0.4985941 0.011138338 -0.060478263 0.105019264 0.19163033 -0.242253 -0.15405542
0.18773569 0.16642961 -0.20913093 -0.17567962 -0.07691553 -0.37154302 -0.05249752 -0.11191032
-0.11522433 -0.32534003 0.1253249 -0.29752702 -0.21242628 -0.20842063 0.27357838 -0.41733876
-0.39800608 -0.009910923 -0.025771195 0.10863347 -0.3054904 0.1324166 -0.10859773 0.654584
-0.19356324 -0.28645444 0.06283651 0.16843116 -0.017226404 -0.09878331 -0.013258801 -0.23055401
0.13019799 0.0659095 0.10977583 -0.35706013 -0.12060261 0.09075036 -0.56605476 0.45449582
-0.27622637 0.23050956 0.17026362 0.025094692 -0.4444319 0.2894758 -0.13757029 0.90877384
0.1523471 -0.16863985 0.3052851 -0.062383108 0.21387859 0.28033638 -0.32045335 0.16624202
0.36260837 -0.19735381 -0.03525774 -0.18729274 0.004513833 -0.0665977 0.0045520538 -0.0022649125
-0.3070268 0.09066357 0.2297251 0.048502468 0.36078408 0.13043483 -0.05559565 0.124851584
0.19048041 -0.20994098 0.07621015 -0.26321462 0.24675582 -0.26876515 -0.12865794 -0.04675194
-0.12833425 -0.06771229 -0.077219106 0.092524074 0.0036331 -0.24495201 -0.18103248 0.12426943
-0.15729104 -0.23458634 0.38393724 0.0081851985 -0.15400876 0.1488302 -0.030420113 -0.15071937
0.17136168 0.0771351 0.08575287 0.16792396 -0.018117752 -0.11621447 0.18976045 0.07773177
-0.3734205 0.34020573 0.012424035 0.0141433915 -0.05802648 -0.1894214 0.063261114 0.14808983
-0.29452845 -0.16246648 -0.2321034 -0.17679735 -0.19856253 0.1409255 -0.22871858 0.6565181
-0.37555066 -0.16311955 -0.09391508 0.1972754 0.3177834 -0.022122724 -0.0975984 0.14834394
-0.045333337 -0.23549911 -0.19777948 0.06177453 0.2889554 -0.3084526 -0.042971272 -0.12814912
-0.19382665 -0.16060227 -0.4172645 0.27938887 0.13606045 -0.0024297629 -0.1896151 0.10691973
-0.33841366 -0.24211942 0.09392865 -0.07083543 0.081183836 0.0010441415 0.054985374 0.32533225
0.1420927 -0.4082168 -0.26634306 -0.01248657 0.035826102 0.44234875 0.219364 -0.02873336
0.24612881 -0.055137284 -0.02237928 0.015101261 0.14671524 -0.25397986 0.1721849 -0.18503997
0.08743567 -0.31592825 0.43118253 0.49343917 -0.14385512 -0.08127886 0.15483998 -0.014121773
0.23824593 0.11937543 -0.019120121 -0.17912243 -0.25995037 0.16077767 0.055976786 -0.17630568
-0.07060293 -0.022252057 -0.051942825 0.084483504 -0.05120704 -0.3431369 0.38141242 -0.018318642
0.2524168 -0.36497205 -0.021023283 -0.01387365 -0.09286726 0.10270499 -0.049247097 -0.12693968

mlp.0.bias f4 [32]
00000000: 35d6 62b7 64d3 3037 e889 b4b7 5822 d5b7
00000010: c83a a1b6 94da 54b7 97cb f737 c080 7f37
00000020: a494 f537 2cc8 29b8 f873 9bb6 1e77 b8b6
00000030: 1080 0638 bab8 81b6 abae 6836 18a4 3bb7
00000040: 42d8 27b7 9de6 a338 7ab1 a3b7 a9eb 93b7
00000050: d29d 93b6 e438 60b7 ab7e 9537 bea6 6c38
00000060: 1b02 da36 98c4 2c38 b860 81b5 9acc 1fb7
00000070: f229 cbb6 0807 ebb6 e4da 7e36 507f db35
-1.3520524e-05 1.0539636e-05 -2.152189e-05 -2.5407571e-05 -4.805017e-06 -1.2687076e-05 2.9539498e-05 1.5229161e-05
2.9275492e-05 -4.0479164e-05 -4.6328605e-06 -5.4974944e-06 3.2067357e-05 -3.8660046e-06 3.4672364e-06 -1.1184275e-05
-1.0004327e-05 7.815401e-05 -1.9513758e-05 -1.7633503e-05 -4.399314e-06 -1.3364686e-05 1.7821169e-05 5.6422075e-05
6.4971514e-06 4.1191088e-05 -9.639398e-07 -9.524776e-06 -6.0547545e-06 -7.0043643e-06 3.797636e-06 1.6353824e-06

mlp.1.weight f4 [32]
00000000: 3a39 6a3f aa17 5d3f 67ac 733f 4e55 5b3f
00000010: 5010 6f3f 34e1 703f ca02 783f 9441 703f
00000020: f7bf 773f 6e95 6c3f 175f 763f 455b 6f3f
00000030: 4ce8 8b3f ab38 643f 5b19 663f cc52 6e3f
00000040: 8b50 713f 768a 6d3f 914e 773f 5bff 683f
00000050: 9533 6f3f 68da 7f3f 24e3 7d3f fcb5 7f3f
00000060: b1c8 673f f25e 6f3f 87cb 723f 80d4 673f
00000070: 6311 703f 2719 6b3f c19b 743f f9e1 623f
0.9149357 0.86364233 0.9518494 0.8567704 0.93384266 0.9409363 0.96879256 0.93850064
0.9677729 0.9241551 0.96238846 0.9349864 1.0930266 0.8914897 0.8988244 0.9309509
0.94263524 0.927894 0.9660426 0.9101464 0.9343808 0.99942636 0.99174714 0.9988706
0.90540606 0.9350425 0.9484181 0.90558624 0.9377653 0.91835254 0.9555016 0.88626057

mlp.1.bias f4 [32]
00000000: 8a03 593d a42c f63d 2457 853d 3649 eebd
00000010: d9ef 213c 4f11 513d c3ea 53bd 41e8 653c
00000020: 5152 4c3d 352c b93d 8218 7a3d 5cf3 4fbd
00000030: 4d7f 903d 6e59 6f3d 37e7 45bd 1769 7a3d
00000040: fd8e 3d3d 3067 08bc 35b1 23bd a07d 88bc
00000050: c05a 32bd c6bf 513d 1050 883c ece5 a63c
00000060: 7c70 123d 6620 813d 3a77 5bbd c3ba 543d
00000070: 32dd 183d 330d 6fbd 36fd 2ebd 954b 443d
0.05298189 0.12020233 0.065107614 -0.11635058 0.009883844 0.051041897 -0.051737558 0.014032424
0.04988319 0.09041635 0.06105853 -0.050769195 0.07055531 0.058434896 -0.048316207 0.061135378
0.046278942 -0.008325383 -0.03996392 -0.016661465 -0.043543577 0.05120828 0.01663974 0.020373307
0.035751805 0.06305008 -0.0535805 0.051935922 0.037320323 -0.058362197 -0.04272195 0.047923643

mlp.1.running_mean f4 [32]
00000000: 2469 953d ddbd 07be 975f e53c 4347 023e
00000010: 6c6f 123e 6f20 00be 7359 df3d 605c b7bd
00000020: e0e9 2f3e 9f4d dd3d 8f5e d8bb e0f0 d33d
00000030: f4d3 1d3e 41ce d13d 3046 dc3d 3877 53bb
00000040: 6501 b33d ea01 3cbd 4fd4 e93d fe80 91bc
00000050: 0816 a2bd 9459 3a3e 0aeb f2bc 5c2e 4abd
00000060: baa5 f1bd 9e46 3c3e 332e 233e a7da c7bc
00000070: e4e1 3f3d f46e 713c 71d9 8e3c 7227 c13d
0.072954446 -0.13256021 0.027999682 0.12722497 0.14300317 -0.12512372 0.10905733 -0.08953166
0.1717906 0.10805821 -0.006603069 0.10348678 0.15412885 0.10244418 0.10755575 -0.0032267105
0.087405 -0.045900263 0.11417448 -0.017761704 -0.079143584 0.18198234 -0.029653091 -0.049360618
-0.11799188 0.18386313 0.15935592 -0.024396254 0.046846285 0.014735926 0.017437669 0.09431352

mlp.1.running_var f4 [32]
00000000: db20 1c3a 48bf d139 8a36 7539 5e66 8e39
00000010: f186 183a 6654 1b3a c62b 8f3a c705 3f39
00000020: 0793 6f39 2f6b af39 a908 d939 0ccb 323b
00000030: 7b15 013a 7921 a33a 60fe b23a 6cff b73a
00000040: 10b5 5d3a 159b c637 f149 383a 4ff2 ba39
00000050: 833b a63a f531 553b cb19 9a39 d2ee dd38
00000060: 0960 0c3a f5df de39 ed0b 3e3b 0d88 0739
00000070: f246 c23a 949e 9c39 9986 4d3a 3716 743a
0.00059558236 0.00040006102 0.00023385338 0.0002716062 0.00058184477 0.0005925357 0.001092308 0.00018217332
0.00022847588 0.0003345846 0.00041395918 0.002728167 0.00049241603 0.0012445889 0.0013656132 0.0014037914
0.00084574614 2.3675655e-05 0.0007030061 0.00035657219 0.0012682531 0.0032530997 0.00029392386 0.00010582585
0.00053548865 0.0004251 0.0028998808 0.00012925286 0.0014822169 0.0002987279 0.0007840186 0.00093111716

mlp.3.weight f4 [1, 32]
00000000: 1011 993d b5d8 71bd 1d1c 2bbe ad91 54bd
00000010: 401a fd3d 8655 153e 424e debe 7443 82be
00000020: e111 77be 0e04 ca3d 3af2 9dbe 3276 2ebe
00000030: 84c3 d63e fe99 963d 68c6 3fbd 3fa1 87bd
00000040: 4d86 253e 8dbb cbbd e99d a03e 1fe8 9c3d
00000050: 73c7 ac3d 5993 603e 43a0 a3be b218 aebe
00000060: 92b8 a43d 6bb4 0b3e a111 52be 1072 3fbe
00000070: 2e66 0cbe 9264 51be 762d 273e c21d 333d
0.074739575 -0.05904456 -0.16709943 -0.05189674 0.123585224 0.14583406 -0.4341908 -0.25442088
-0.24127914 0.098640546 -0.30848867 -0.17037275 0.41946042 0.073535904 -0.046820074 -0.06622552
0.16164513 -0.09947882 0.31370476 0.07661461 0.084364794 0.21931209 -0.31958207 -0.34003216
0.080430165 0.13643043 -0.20514537 -0.18695855 -0.13710853 -0.20448521 0.16325936 0.04372955
