output_bbox_gcn/EVALUATOR_layout_MultiLayer_2023_09_21_16_51_13/Model/evaluator_390.pth (torch, 9127 bytes, 11 tensors)

LayoutSeq.weight_ih_l0 f4 [32, 4]
0.1794715 -0.11382215 0.019211136 0.12866391 0.19264054 -0.2601651 -0.041516438 0.049779136
0.28877124 0.23438875 0.15060593 0.2678376 -0.29316634 0.20440218 0.17971705 0.046634927
-0.22518368 0.28202474 0.07170339 0.17987613 -0.23307464 -0.13972993 0.15772808 0.12511732
0.26344082 0.12246015 -0.25055692 -0.14701864 -0.19762644 0.232704 -0.009588083 0.3487701
0.18627161 0.27124944 0.18576533 -0.030847104 0.30214086 -0.080816366 -0.087364316 -0.019695878
-0.28732535 0.048950106 -0.15371864 -0.19617905 -0.0659542 -0.011406131 -0.21095616 -0.192266
-0.27986622 -0.038710903 0.32536194 -0.17608348 0.0300359 0.2791826 0.2852421 0.400839
-0.24069124 -0.11340254 -0.24506223 -0.040924493 0.16384207 0.3114789 0.29861987 -0.01842468
0.11703927 0.08902504 0.28890774 0.02196825 -0.043599196 -0.21131657 -0.18919992 -0.17883842
-0.12279291 0.32807574 -0.3537416 -0.007800017 -0.18542042 -0.19858469 0.0610759 -0.38447013
-0.2925104 0.3085938 -0.083208546 0.29526418 0.33295202 -0.31974888 0.07305323 0.09226743
-0.24050103 0.1993942 0.33752292 -0.27424693 -0.12232977 0.19829133 0.10804037 0.10279754
0.044268362 -0.22202733 0.3431716 -0.18337382 0.0063959244 0.29998282 0.14333351 0.053875107
0.023570552 -0.17699243 0.14816885 0.0014023309 -0.05893895 -0.08983018 0.3157428 0.07512955
0.09438101 -0.1403989 -0.117660955 0.08629011 -0.2100755 0.25760543 -0.0549551 -0.16777499
0.003314154 0.30079135 -0.25832543 -0.26758838 0.25283358 0.117858805 0.1022909 -0.06276636
00000000: 60c7 373e 961b e9bd ac60 9d3c 79c0 033e
00000010: 9043 453e 5c34 85be 240d 2abd 35e5 4b3d
00000020: d3d9 933e 9b03 703e 7138 1a3e 0322 893e
00000030: e619 96be ce4e 513e bf07 383e 4404 3f3d
00000040: 8d96 66be 8c65 903e 3ad9 923d 7331 383e
00000050: 1eab 6ebe 5d15 0fbe 7883 213e c11e 003e
00000060: b7e1 863e 63cc fa3d ff48 80be 0e8c 16be
00000070: 965e 4abe f549 6e3e 5617 1dbc ff91 b23e
00000080: fcbd 3e3e 35e1 8a3e 4439 3e3e 11b3 fcbc
00000090: 35b2 9a3e 0d83 a5bd 10ec b2bd 4059 a1bc
000000a0: 4f1c 93be e87f 483d 6b68 1dbe 29e3 48be
000000b0: ff12 87bd c8e0 3abc e404 58be 61e1 44be
000000c0: a04a 8fbe 538f 1ebd d795 a63e 3a4f 34be
000000d0: d90d f63c 06f1 8e3e 410b 923e c53a cd3e
000000e0: c477 76be 973f e8bd 98f1 7abe 71a0 27bd
000000f0: 37c6 273e 2a7a 9f3e b4e4 983e 5bef 96bc
00000100: 49b2 ef3d c352 b63d b7eb 933e c2f6 b33c
00000110: 1295 32bd 5f63 58be a0bd 41be 6b21 37be
00000120: d97a fbbd 8bf9 a73e 9e1d b5be 4997 ffbb
00000130: dade 3dbe c959 4bbe b92a 7a3d 45d9 c4be
00000140: ecc3 95be 0200 9e3e 3e69 aabd de2c 973e
00000150: b078 aa3e 20b6 a3be ef9c 953d b5f6 bc3d
00000160: e745 76be fe2d 4c3e cecf ac3e 186a 8cbe
00000170: 0888 fabd e20c 4b3e 4544 dd3d 8487 d23d
00000180: be52 353d 225b 63be 30b4 af3e 59c6 3bbe
00000190: e794 d13b 5997 993e 05c6 123e 25ac 5c3d
000001a0: 0817 c13c 813d 35be 93b9 173e 6bce b73a
000001b0: f869 71bd e3f8 b7bd 0aa9 a13e 86dd 993d
000001c0: d54a c13d bbc4 0fbe 3af8 f0bd dfb8 b03d
000001d0: 081e 57be dce4 833e 9918 61bd 35cd 2bbe
000001e0: 4732 593b 5301 9a3e 3b43 84be 5801 89be
000001f0: 6773 813e f55f f13d e47d d13d a68b 80bd

LayoutSeq.weight_hh_l0 f4 [32, 8]
0.16328768 -0.22912589 0.12278361 -0.17979749 -0.03096134 0.069027066 -0.039942008 0.12972642
0.26460022 0.16862462 0.22378291 -0.23957251 0.19386628 0.07007986 0.02030875 0.2142707
-0.18532887 0.18115856 -0.16530666 -0.096307874 0.116992645 -0.009257744 0.25471365 -0.2023544
0.15181728 0.10503533 0.2010172 0.049674578 0.12227676 -0.14797749 0.11156822 0.17577362
0.25650734 -0.23266028 -0.20490643 -0.30857688 -0.009111005 -0.14135018 0.19086964 -0.01449124
-0.22536518 -0.022087172 -0.36279446 -0.2649335 -0.24389958 -0.14965668 -0.15870996 0.2857231
-0.2321892 -0.17408547 0.038918488 -0.20432703 -0.22555436 -0.03499885 -0.07706005 0.21154085
-0.18947439 0.28015563 -0.01749104 -0.031291056 0.07396119 0.07169159 -0.2534686 0.09543272
-0.1856104 -0.29993957 -0.31923494 0.11709786 0.07532758 -0.046167437 0.22192338 -0.1662727
-0.16368702 0.08319694 0.19806919 -0.24818595 0.2478767 0.26335424 0.06602153 -0.10576828
-0.23628218 -0.2131215 -0.09030987 -0.06719873 -0.030613484 -0.09979127 -0.2547665 0.13470374
-0.08498057 0.046011735 -0.15077098 -0.15191893 0.15623587 0.1383639 0.27993625 0.029754564
-0.22321628 0.12644981 0.3086431 -0.1474295 0.22265258 0.13009763 -0.043723393 0.15183176
0.056529537 -0.11906087 0.23973915 0.25439692 0.242947 0.27026516 -0.12189807 0.31198037
-0.21036991 -0.24017306 -0.16107765 -0.2953638 -0.07706407 0.16666408 0.082362495 -0.020288859
0.18303141 -0.11846885 -0.008618015 -0.4147117 -0.058560923 0.06050513 0.13188367 0.20394158
-0.26276213 -0.070398785 0.1943526 0.17771408 0.20758279 -0.05215844 -0.30443147 0.22327852
-0.0468537 -0.17126065 0.29804045 0.18154451 0.077495605 0.22427976 0.33648658 0.15147635
0.06839975 0.3611523 0.18490441 -0.14097454 -0.293553 -0.2564975 0.3061846 0.1409805
-0.3557125 0.12659776 0.39671615 0.3627727 0.08974861 0.17911659 -0.18845916 -0.1184464
0.03500498 0.3476198 -0.20711796 0.27017182 0.07090436 -0.31521514 -0.19488311 0.08223812
-0.19963633 0.06288016 0.17534056 0.02139825 -0.18066922 -0.15577424 -0.17408682 0.39051124
0.23712124 0.0039452952 0.2916791 -0.35197362 -0.24945444 -0.16008702 0.25312403 -0.19576278
-0.26615134 -0.26596078 -0.09181034 -0.0097977165 -0.30714315 0.34271297 0.1794475 -0.08593254
-0.14642505 0.20289768 0.0136321485 -0.30719915 0.03829852 -0.05961467 0.043565705 0.25034243
0.3479091 -0.28842923 -0.21373066 0.19152398 0.076663986 0.27657387 0.26084712 0.26804838
-0.23206724 0.24964648 0.18359639 0.27529785 -0.11101508 -0.16011164 0.21747571 0.20712021
0.2074941 -0.08753983 -0.116681784 -0.3367765 0.096588664 -0.12592883 0.047829155 0.005940364
-0.047728468 0.15455964 0.34297 0.143693 -0.15919937 -0.061017524 -0.24249564 -0.11218426
-0.2503665 -0.052163277 -0.043079134 -0.23310791 -0.11079641 -0.033974595 -0.12123089 0.10432991
-0.17509627 -0.21171728 0.29934824 -0.28339455 0.16261274 -0.023692619 -0.12358398 0.015300399
0.12387243 0.06619646 -0.13677266 -0.05721113 -0.094384946 -0.08362013 0.040280845 0.13892059
00000000: e334 273e fa9f 6abe f975 fb3d d51c 38be
00000010: a3a2 fdbc 105e 8d3d 3b9a 23bd 01d7 043e
00000020: ae79 873e efab 2c3e 5927 653e 7f52 75be
00000030: e284 463e 0886 8f3d 895e a63c c769 5b3e
00000040: dac6 3dbe a181 393e 2646 29be 103d c5bd
00000050: d799 ef3d cbad 17bc d469 823e fe35 4fbe
00000060: fd75 1b3e c31c d73d 74d7 4d3e 9277 4b3d
00000070: 3d6c fa3d 6987 17be e17d e43d 00fe 333e
00000080: ee54 833e 7f3e 6ebe fed2 51be cafd 9dbe
00000090: 5346 15bc 1abe 10be 5573 433e aa6c 6dbc
000000a0: 21c6 66be 28f0 b4bc 32c0 b9be 5da5 87be
000000b0: d0c0 79be 9a3f 19be dd84 22be 4c4a 923e
000000c0: 01c3 6dbe 7643 32be fe68 1f3d 1b3b 51be
000000d0: b9f7 66be f45a 0fbd a9d1 9dbd 2a9e 583e
000000e0: 9305 42be 8f70 8f3e 5f49 8fbc 0d2b 00bd
000000f0: f778 973d 0ad3 923d a3c6 81be 3b72 c33d
00000100: a710 3ebe ae91 99be c372 a3be 01d1 ef3d
00000110: 5945 9a3d 111a 3dbd e23f 633e 6443 2abe
00000120: 929d 27be 2863 aa3d a6d2 4a3e 7524 7ebe
00000130: 64d3 7d3e 5ed6 863e 4c36 873d 0a9d d8bd
00000140: f5f3 71be 863c 5abe 62f4 b8bd 7d9f 89bd
00000150: 21c9 fabc 5e5f ccbd c170 82be c7ef 093e
00000160: 4b0a aebd cd76 3c3d b563 1abe a390 1bbe
00000170: 4cfc 1f3e 44af 0d3e ce53 8f3e d8bf f33c
00000180: cf92 64be 0f7c 013e 7806 9e3e c2f7 16be
00000190: 0aff 633e 5038 053e 4d17 33bd c979 1b3e
000001a0: 848b 673d 2fd6 f3bd 2e7e 753e 5040 823e
000001b0: 19c7 783e 3260 8a3e b2a5 f9bd e4bb 9f3e
000001c0: 366b 57be edef 75be 8af1 24be ed39 97be
000001d0: c4d3 9dbd fda9 2a3e abad a83d d234 a6bc
000001e0: 966c 3b3e cc9f f2bd 9332 0dbc 1855 d4be
000001f0: 94dd 6fbd 3ad4 773d 830c 073e 10d6 503e
00000200: c288 86be 3d2d 90bd 5e04 473e aefa 353e
00000210: 9590 543e 17a4 55bd 71de 9bbe 20a3 643e
00000220: aae9 3fbd f45e 2fbe c298 983e cee6 393e
00000230: 04b6 9e3d 98a9 653e f847 ac3e 9e1c 1b3e
00000240: 2b15 8c3d f4e8 b83e 9557 3d3e a15b 10be
00000250: 944c 96be a453 83be 3ac4 9c3e 315d 103e
00000260: f31f b6be d8a2 013e 611e cb3e 58bd b93e
00000270: 1fce b73d 576a 373e 70fb 40be 0794 f2bd
00000280: 6261 0f3d 39fb b13e bb16 54be f653 8a3e
00000290: 4e36 913d e163 a1be 708f 47be 766c a83d
000002a0: 776d 4cbe 50c7 803d 7a8c 333e 624b af3c
000002b0: 5a01 39be 4883 1fbe d143 32be 17f1 c73e
000002c0: e9cf 723e 8947 813b f756 953e e335 b4be
000002d0: fc70 7fbe daed 23be 7999 813e 0a76 48be
000002e0: fd44 88be 032c 88be 0f07 bcbd 9a86 20bc
000002f0: de41 9dbe 1378 af3e 16c1 373e 66fd afbd
00000300: 73f0 15be 69c4 4f3e 6059 5f3c 3549 9dbe
00000310: e9de 1c3d 832e 74bd f471 323d e22c 803e
00000320: 2421 b23e ffac 93be 36dc 5abe dd1e 443e
00000330: 0202 9d3d 179b 8d3e c18d 853e a33d 893e
00000340: 09a3 6dbe 54a3 7f3e b100 3c3e d7f3 8c3e
00000350: e05b e3bd 4ef4 23be f4b1 5e3e 5217 543e
00000360: 5579 543e 1548 b3bd dcf6 eebd f86d acbe
00000370: 47d0 c53d 7df3 00be 81e8 433d 63a7 c23b
00000380: ed7e 43bd e244 1e3e c499 af3e 4224 133e
00000390: 2905 23be 83ed 79bd c750 78be dcc0 e5bd
000003a0: 0a30 80be 29a9 55bd bf73 30bd d7b3 6ebe
000003b0: 3ae9 e2bd f228 0bbd e747 f8bd ebaa d53d
000003c0: 704c 33be 6acc 58be 2c44 993e 1719 91be
000003d0: f483 263e 0617 c2bc 9919 fdbd 86ae 7a3c
000003e0: d4b0 fd3d 0292 873d 220e 0cbe 3856 6abd
000003f0: e54c c1bd 0841 abbd 87fd 243d 3341 0e3e

LayoutSeq.bias_ih_l0 f4 [32]
0.098843545 0.2734559 0.13806461 0.10155015 0.018136835 0.29071596 0.32183582 -0.152771
-0.056877777 0.24477512 -0.0014869331 0.05420257 -0.2858821 0.0990247 0.23001459 -0.021042677
-0.07957721 0.101061136 0.13740703 -0.16439249 -0.055649213 -0.008984496 -0.0037565085 0.08650072
0.2243001 -0.11676079 0.28711808 -0.120726846 0.37217906 0.0059114206 -0.2012689 0.19378956
00000000: 7c6e ca3d 6902 8c3e cf60 0d3e 86f9 cf3d
00000010: b393 943c b9d8 943e aac7 a43e 0070 1cbe
00000020: acf8 68bd 54a6 7a3e 32e5 c2ba 8403 5e3d
00000030: 235f 92be 76cd ca3d f288 6b3e b161 acbc
00000040: 60f9 a2bd 24f9 ce3d 6eb4 0c3e 8156 28be
00000050: 6ef0 63bd b533 13bc c12f 76bb 4a27 b13d
00000060: edae 653e 4820 efbd 2401 933e a33f f7bd
00000070: 418e be3e 97b4 c13b 6f19 4ebe c570 463e

LayoutSeq.bias_hh_l0 f4 [32]
-0.020840382 -0.09813128 0.32713848 0.3543852 -0.23072883 -0.2693012 -0.15870285 0.091873296
0.256027 0.37743005 -0.19290566 0.32443792 -0.29839128 -0.082394876 0.0030000147 0.09251708
-0.19217326 -0.29032367 0.20679128 0.11814764 -0.012126806 0.0023345384 0.3081649 -0.13209757
-0.012334711 0.19776861 0.13253525 0.113457136 -0.21598348 -0.113375425 -0.09293033 0.2666625
00000000: 73b9 aabc 0df9 c8bd b27e a73e fa71 b53e
00000010: 2e44 6cbe d9e1 89be 0083 22be 1128 bc3d
00000020: f915 833e 833e c13e 1089 45be ba1c a63e
00000030: bec6 98be a5be a8bd e59b 443b 9879 bd3d
00000040: 11c9 44be 4ea5 94be 18c1 533e 64f7 f13d
00000050: 83af 46bc 0eff 183b cac7 9d3e 9644 07be
00000060: 8717 4abc db83 4a3e 52b7 073e 375c e83d
00000070: c62a 5dbe 6031 e8bd 4252 bebd fd87 883e

mlp.0.weight f4 [32, 8]
0.07810846 -0.28322458 0.034741875 0.22696234 0.14075735 0.21608952 -0.07708878 0.12374876
-0.22724393 0.09009822 -0.09866987 0.038907975 0.008155555 0.08354569 -0.27687952 -0.113743134
0.04987314 -0.18596873 0.17455234 0.10901258 -0.32049495 0.036451194 -0.05100229 -0.21762767
0.42866302 -0.012375935 0.4200672 0.034424778 0.12321343 0.17593132 0.08442228 0.1488595
0.084222294 -0.26696044 -0.07443075 -0.20575406 -0.33381432 -0.04831579 0.21707587 -0.24786326
-0.05097259 0.14501993 -0.042813532 0.05738242 0.18328458 0.036191184 -0.45233577 0.22699094
-0.06592358 -0.48997715 0.016611284 -0.07038997 0.083416976 0.1834757 -0.23763144 -0.15848082
0.15370454 0.17286377 -0.20791753 -0.19101824 -0.07974448 -0.3675297 -0.044437505 -0.110860266
-0.10318209 -0.33352524 0.12446748 -0.29856604 -0.19231077 -0.24878626 0.27020803 -0.39555842
-0.39160338 -0.005084724 -0.030174775 0.094113424 -0.29404 0.14615189 -0.09921186 0.6405772
-0.19876778 -0.28794175 0.03723781 0.15961483 -0.022859192 -0.08980864 -0.02130446 -0.23519693
0.10437933 0.096375346 0.13068864 -0.3211052 -0.10766641 0.05550639 -0.55252945 0.417584
-0.2754812 0.2349656 0.16656075 0.028931355 -0.4443008 0.28482568 -0.11964557 0.9076675
0.15073282 -0.16184309 0.28433004 -0.04411344 0.19930457 0.2640236 -0.28589708 0.15901755
0.3004878 -0.15546799 -0.0033818074 -0.19582236 0.01781496 -0.06334943 0.010422603 0.010540268
-0.27353364 0.07988317 0.19611429 0.03691944 0.34622562 0.1319993 -0.072250865 0.113998756
0.19142997 -0.21485363 0.06565079 -0.23901443 0.2519297 -0.24759574 -0.13682652 -0.04287202
-0.13450219 -0.070123896 -0.07943931 0.06585308 -0.037645098 -0.25596327 -0.1612613 0.12812692
-0.1552343 -0.22990152 0.39478466 0.01091246 -0.14030252 0.13838476 -0.02046276 -0.13769896
0.1552322 0.08533752 0.106724896 0.1698375 -0.0135072535 -0.10618058 0.1520978 0.058163833
-0.36279136 0.27021655 0.039100442 -0.0031708772 -0.036160477 -0.15547924 0.058125913 0.1456726
-0.3008991 -0.1487548 -0.20871352 -0.16263546 -0.18357374 0.13958721 -0.22735289 0.6192885
-0.3850667 -0.1470163 -0.08783507 0.19725269 0.30978453 -0.026027337 -0.095404044 0.13496917
-0.04360675 -0.24143487 -0.19860345 0.03477025 0.28407776 -0.31309047 -0.03632831 -0.11511339
-0.17441595 -0.1632145 -0.4114824 0.2834757 0.12612045 -0.013306895 -0.17388286 0.1119053
-0.35141858 -0.21703696 0.097680256 -0.049489435 0.05524081 0.014141674 0.066403486 0.31058216
0.11600648 -0.40078622 -0.23045903 -0.03624695 0.054068364 0.41161856 0.20922609 -0.02111904
0.23987964 -0.04983426 -0.021402815 0.014264941 0.13979886 -0.2579445 0.18843852 -0.17841919
0.075304486 -0.2999844 0.43108115 0.45551613 -0.13341999 -0.092618145 0.14740096 -0.014826337
0.2234138 0.119494975 -0.03224407 -0.18686289 -0.25596148 0.16731785 0.04574153 -0.17854567
-0.074494064 -0.015758822 -0.03408824 0.07899354 -0.056108274 -0.3319742 0.35509825 -0.023026517
0.23887959 -0.30190703 -0.029583089 0.0337843 -0.10220842 0.07460683 -0.038546927 -0.13397153
00000000: 54f7 9f3d d002 91be 7f4d 0e3d d168 683e
00000010: b222 103e 9246 5d3e b9e0 9dbd fd6f fd3d
00000020: a2b2 68be 6a85 b83d 6e13 cabd f85d 1f3d
00000030: e19e 053c 011a ab3d 27c3 8dbe 29f2 e8bd
00000040: c747 4c3d 966e 3ebe d9bd 323e fd41 df3d
00000050: ea17 a4be d94d 153d c7e7 50bd cad9 5ebe
00000060: b879 db3e 6fc4 4abc 0c13 d73e ff00 0d3d
00000070: 5357 fc3d 5727 343e 97e5 ac3d a06e 183e
00000080: bd7c ac3d 0aaf 88be 266f 98bd 31b1 52be
00000090: b6e9 aabe c7e6 45bd 2349 5e3e decf 7dbe
000000a0: a2c8 50bd 1b80 143e 3e5d 2fbd d409 6b3d
000000b0: f4ae 3b3e 353d 143d 8e98 e7be 5070 683e
000000c0: f102 87bd 49de fabe 6314 883c 9e28 90bd
000000d0: 85d6 aa3d 0ee1 3b3e a855 73be cc48 22be
000000e0: b964 1d3e 3303 313e 55e8 54be 499a 43be
000000f0: 1351 a3bd da2c bcbe 1a04 36bd b50a e3bd
00000100: 2251 d3bd d2c3 aabe cee8 fe3d a6dd 98be
00000110: 1ded 44be d3c1 7ebe b558 8a3e a286 cabe
00000120: 3d80 c8be c29d a6bb 1731 f7bc 8abe c03d
00000130: 698c 96be d7a8 153e 962f cbbd defc 233f
00000140: c889 4bbe 1a6d 93be ad86 183d 1272 233e
00000150: 3343 bbbc 98ed b7bd b186 aebc 77d7 70be
00000160: d5c4 d53d 7060 c53d 3ed3 053e e767 a4be
00000170: 3580 dcbd ab5a 633d 9272 0dbf 92cd d53e
00000180: df0b 8dbe d29a 703e e78e 2a3e 7301 ed3c
00000190: 657b e3be acd4 913e bd08 f5bd e65c 683f
000001a0: b459 1a3e 32ba 25be b593 913e 4bb0 34bd
000001b0: 7f16 4c3e 1a2e 873e 1a61 92be 7fd5 223e
000001c0: 89d9 993e 0033 1fbe 50a1 5dbb a885 48be
000001d0: aef0 913c 59bd 81bd 91c3 2a3c 17b1 2c3c
000001e0: 9a0c 8cbe ca99 a33d 2fd2 483e d738 173d
000001f0: 7c44 b13e d32a 073e 43f8 93bd 2e78 e93d
00000200: 3806 443e 9702 5cbe ec73 863d 33c0 74be
00000210: eefc 803e bd89 7dbe 401c 0cbe 929a 2fbd
00000220: f1ba 09be 1e9d 8fbd 14b1 a2bd fbdd 863d
00000230: bf31 1abd 9e0d 83be af21 25be b433 033e
00000240: bef5 1ebe 4e6b 6bbe 3721 ca3e 2dca 323c
00000250: 77ab 0fbe bcb4 0d3e 85a1 a7bc f500 0dbe
00000260: 31f5 1e3e 70c5 ae3d 9592 da3d e2e9 2d3e
00000270: 874d 5dbc 3475 d9bd 87bf 1b3e 333d 6e3d
00000280: cabf b9be d359 8a3e c927 203d 7ece 4fbb
00000290: 021d 14bd f335 1fbe 7015 6e3d 332b 153e
000002a0: 720f 9abe 2e53 18be ffb8 55be e989 26be
000002b0: c1fa 3bbe f3ef 0e3e 32cf 68be b189 1e3f
000002c0: 7627 c5be 718b 16be e0e2 b3bd 9cfc 493e
000002d0: 149c 9e3e 4837 d5bc 3263 c3bd 5c35 0a3e
000002e0: fe9c 32bd b43a 77be b45e 4bbe 406b 0e3d
000002f0: a472 913e 654d a0be fecc 14bd 92c0 ebbd
00000300: 189a 32be b421 27be d2ad d2be ba23 913e
00000310: b825 013e 2a05 5abc 590e 32be 9b2e e53d
00000320: 23ed b3be f03e 5ebe 960c c83d 6fb5 4abd
00000330: 3044 623d 7bb2 673c 8dfe 873d a004 9f3e
00000340: ce94 ed3d da33 cdbe 74fd 6bbe af77 14bd
00000350: ca76 5d3d abbf d23e 5d3f 563e d601 adbc
00000360: 02a3 753e 021f 4cbd f554 afbc 80b7 693c
00000370: 6f27 0f3e 4d11 84be 07f6 403e 85b3 36be
00000380: 3d39 9a3d 8e97 99be abb6 dc3e 6939 e93e
00000390: 409f 08be 95ae bdbd 47f0 163e 2aea 72bc
000003a0: 96c6 643e c8b9 f43d 5c12 04bd fc58 3fbe
000003b0: 620d 83be 5f55 2b3e 785b 3b3d add4 36be
000003c0: 5890 98bd a518 81bc 1ca0 0bbd 5dc7 a13d
000003d0: cad1 65bd 86f8 a9be 70cf b53e 1ba2 bcbc
000003e0: da9c 743e 8f93 9abe 3c58 f2bc 6861 0a3d
000003f0: a652 d1bd 77cb 983d 62e3 1dbd d52f 09be

mlp.0.bias f4 [32]
6.1948135e-06 -2.7121896e-06 1.41477885e-05 -2.596439e-07 -1.2203667e-05 -1.448509e-05 8.977506e-06 5.2032963e-05
0.00011298138 7.781597e-06 -2.4249823e-05 1.498707e-06 8.314675e-06 -4.732065e-06 5.111895e-06 -3.5516757e-06
5.607357e-06 3.722201e-05 2.4196584e-05 6.061324e-06 8.79355e-06 1.9329814e-06 2.1841963e-05 6.0010083e-05
8.364765e-06 -1.2447622e-05 -1.0006185e-05 4.0848936e-06 1.2676861e-06 4.5218163e-05 -4.666891e-06 1.9811978e-06
00000000: 0bdd cf36 1003 36b6 4a5c 6d37 3065 8bb4
00000010: 5abe 4cb7 fd04 73b7 189e 1637 f83d 5a38
00000020: 6bf0 ec38 b48d 0237 196c cbb7 2e27 c935
00000030: 427f 0b37 21c8 9eb6 d886 ab36 5359 6eb6
00000040: d426 bc36 d41e 1c38 c5f9 ca37 6062 cb36
00000050: 0288 1337 5eb8 0136 4239 b737 56b3 7b38
00000060: 6456 0c37 21d6 50b7 3de0 27b7 f810 8936
00000070: 5d25 aa35 a2a8 3d38 4a98 9cb6 b8f4 0436

mlp.1.weight f4 [32]
0.8734835 0.799823 0.9124375 0.81458867 0.9003317 0.9167084 0.9496403 0.9141855
0.938591 0.8869148 0.9354069 0.9086587 1.1128292 0.8403748 0.84414357 0.8791516
0.9133023 0.8888978 0.9682206 0.8736855 0.9001305 0.9750786 0.96048194 0.96449614
0.8709807 0.9128716 0.9174061 0.8593107 0.90367156 0.8818525 0.9390187 0.8312606
00000000: 9d9c 5f3f 33c1 4c3f 8195 693f e288 503f
00000010: 237c 663f 67ad 6a3f a01b 733f 1008 6a3f
00000020: 8047 703f d90c 633f d476 6f3f db9d 683f
00000030: 3071 8e3f ce22 573f cb19 583f 1410 613f
00000040: 2ece 693f ce8e 633f 4edd 773f daa9 5f3f
00000050: f46e 663f c09e 793f 25e2 753f 38e9 763f
00000060: 97f8 5e3f f4b1 693f 20db 6a3f c9fb 5b3f
00000070: 0557 673f 16c1 613f 8863 703f 7fcd 543f

mlp.1.bias f4 [32]
0.0722344 0.16543029 0.0863447 -0.17827483 0.03373243 0.053541783 -0.07236929 0.031921428
0.056616474 0.10082593 0.074308306 -0.069297194 0.080116495 0.06790517 -0.064452745 0.08305731
0.066598 0.008576067 -0.04273935 -0.02748801 -0.061536048 0.07069871 0.057913344 0.019765956
0.043583244 0.053520117 -0.07140946 0.07735326 0.04853743 -0.07768654 -0.044763934 0.064843185
00000000: a1ef 933d 8f66 293e 7dd5 b03d ad8d 36be
00000010: 042b 0a3d a14e 5b3d 5a36 94bd 0bc0 023d
00000020: ade6 673d d37d ce3d f42e 983d b0eb 8dbd
00000030: 1e14 a43d de11 8b3d cdff 83bd f319 aa3d
00000040: 8864 883d a282 0c3c 750f 2fbd 892e e1bc
00000050: 390d 7cbd 7cca 903d 8b36 6d3d 37ec a13c
00000060: 5884 323d e937 5b3d 1f3f 92bd 636b 9e3d
00000070: 2fcf 463d 1f1a 9fbd 635a 37bd 81cc 843d

mlp.1.running_mean f4 [32]
0.047396597 -0.12926722 0.02310313 0.12142982 0.144398 -0.11887063 0.111221 -0.09843443
0.17633465 0.14052512 -0.017458407 0.098208405 0.20336947 0.1063673 0.105226375 -0.0017474444
0.071740344 -0.03653529 0.13058218 -0.031476866 -0.04184286 0.19695193 -0.042671625 -0.058392424
-0.12921707 0.18955918 0.17264599 -0.03821653 0.05048972 0.019290041 0.009022057 0.054693338
00000000: ef22 423d a05e 04be c642 bd3c 33b0 f83d
00000010: 12dd 133e 7272 f3bd d6c7 e33d fe97 c9bd
00000020: 1291 343e d1e5 0f3e ef04 8fbc 7d21 c93d
00000030: 1640 503e 19d7 d93d ed80 d73d 810a e5ba
00000040: 9aec 923d 07a6 15bd 56b7 053e e3ed 00bd
00000050: 6b63 2bbd c4ad 493e 71c8 2ebd e52c 6fbd
00000060: 7b51 04be cd1b 423e 1cca 303e f088 1cbd
00000070: 4fce 4e3d 2606 9e3c 40d1 133c 1f06 603d

mlp.1.running_var f4 [32]
0.000618237 0.0004366411 0.00036372914 0.00034560543 0.0005147467 0.0005825042 0.0015477841 0.00011720534
0.00025083564 0.0005083401 0.00044417984 0.0030883905 0.000719016 0.0015015969 0.0014376434 0.000903267
0.001275561 1.8478506e-05 0.0006900891 0.0004759216 0.0014195543 0.0041248174 0.00026085076 0.00017189763
0.00058473524 0.00045537553 0.003347127 0.00018681717 0.0017160273 0.00025185294 0.0010216637 0.0007818155
00000000: 2f11 223a faec e439 e6b2 be39 6032 b539
00000010: 11f0 063a 32b3 183a 04df ca3a 23cc f538
00000020: 9782 8339 2042 053a cfe0 e839 9866 4a3b
00000030: 597c 3c3a 3bd1 c43a 4f6f bc3a 39c9 6c3a
00000040: ba30 a73a 4a02 9b37 18e7 343a 1e85 f939
00000050: 5710 ba3a 7a29 873b ccc2 8839 6b3f 3439
00000060: eb48 193a 78bf ee39 795b 5b3b 5ae4 4339
00000070: 52ec e03a 210b 8439 58e9 853a c0f2 4c3a

mlp.3.weight f4 [1, 32]
0.088366605 -0.0657777 -0.14764619 -0.08704055 0.12823905 0.15305921 -0.42751735 -0.24824904
-0.22827175 0.12437388 -0.29376975 -0.17125027 0.44788808 0.077231266 -0.04716984 -0.051942497
0.160969 -0.10614005 0.3281693 0.09389059 0.09734578 0.22217989 -0.30142003 -0.3189247
0.09050436 0.14974973 -0.19759901 -0.15522087 -0.1196336 -0.18456523 0.17474158 0.05546594
00000000: 8df9 b43d 75b6 86bd 9030 17be 5142 b2bd
00000010: 1951 033e 8ebb 1c3e 8ee3 dabe ff34 7ebe
00000020: 12c0 69be bcb7 fe3d fd68 96be 3b5c 2fbe
00000030: 9651 e53e 6d2b 9e3d 2a35 41bd a8c1 54bd
00000040: 0fd5 243e f45f d9bd ce05 a83e b649 c03d
00000050: 395d c73d 2083 633e ba53 9abe 194a a3be
00000060: 5a5a b93d fe57 193e 6557 4abe 38f2 1ebe
00000070: 7602 f5bd abfe 3cbe 75ef 323e 4130 633d
