output_bbox_gcn/GENERATOR_layout_MultiLayer_2023_09_21_17_53_01/Model/generator_0.pth (torch, 19577 bytes, 12 tensors)

encoder.weight_ih_l0 f4 [64, 4]
000000 27 90 5e 3d 48 f5 b9 3d 01 96 5a bd 62 02 67 be
       0.054336693 0.09079987 -0.05336571 -0.22559503
000010 02 95 de 3d cf 66 3d bd d5 15 d1 bd 49 3d 8c 3d
       0.10868265 -0.046240624 -0.10209242 0.06847627
000020 1e 24 fc 3d 35 03 26 be fa 23 0a 3e a3 4d 38 be
       0.12311576 -0.16212161 0.13490286 -0.17998366
000030 ba 5e 64 3e 3b da c3 3c 68 29 88 3d 93 86 6a bd
       0.2230176 0.023907771 0.066485226 -0.057257246
000040 30 5e 65 be 2c e9 0d be 11 2d 93 3d b8 61 15 3c
       -0.22399211 -0.1385848 0.0718633 0.009117536
000050 74 b8 03 be b3 f6 3b 3e e2 26 ce bd 29 79 16 be
       -0.12863332 0.18355827 -0.1006601 -0.14694656
000060 bd 6f be bd b9 b1 03 3d 8c 44 3b bd 65 32 bb 3d
       -0.09298656 0.03215191 -0.04571967 0.09140471
000070 00 65 2f 3d 24 4f c0 3d b2 61 8d bd 77 3e b7 bd
       0.04282093 0.09390095 -0.069033995 -0.08947461
000080 6a b1 10 3d e5 f2 95 bd 65 2a 87 be ba d8 6d 3d
       0.035325445 -0.07321719 -0.26399532 0.058068015
000090 1a a3 8a 3d 8e 53 c2 bd 10 38 86 3e be 93 b3 bd
       0.067693904 -0.09488593 0.26214647 -0.08768414
0000a0 15 d6 a4 3e 11 8b 46 be a9 19 c2 bd f9 fc 40 bc
       0.32194582 -0.19388987 -0.094775505 -0.011779063
0000b0 4e 7c 19 3c 8a f2 12 3c 19 69 51 be fe 58 57 bd
       0.009368015 0.008968959 -0.20450248 -0.052575104
0000c0 16 4c f0 3d dc 24 e7 3c fd c3 0e bd e5 9e 27 bd
       0.11733262 0.028215818 -0.034854878 -0.040923018
0000d0 32 0c 00 3e 68 31 d5 be 34 fe db 3d 9b a4 12 3e
       0.12504652 -0.41639256 0.10741845 0.14320605
0000e0 82 3a b1 3b c9 80 14 be ab 87 8f bd c0 a2 3d 3d
       0.005408586 -0.14502253 -0.070082985 0.04629779
0000f0 b3 d6 fe bc 27 48 44 3d 91 b1 06 3e 7e 8a 47 bd
       -0.031108236 0.047920372 0.13153674 -0.04871606
000100 7e 2e 41 3d 20 52 64 bd 93 c3 09 bd a9 0d af 3c
       0.04716348 -0.055742383 -0.03363378 0.021368818
000110 50 7c d6 bb 11 a8 1a 3e 82 9d e6 3d 66 5f ab be
       -0.006545581 0.15103175 0.11260511 -0.3347122
000120 29 14 f4 3d ba 35 d9 3c bb f1 00 be 02 a4 d3 3d
       0.11917908 0.026514877 -0.12592213 0.103340164
000130 aa 9c b5 3d 62 b3 e8 3d d4 66 6f 3e d3 5d 67 3e
       0.08867772 0.113623396 0.2337907 0.22594385
000140 f7 82 54 be b2 cb 2c 3c 4e 03 0f 3c c9 71 9c 3e
       -0.20753084 0.010546612 0.008728815 0.3055556
000150 e9 82 44 be 6b 0c ab ba bc 4c a7 3d c9 5d 8e 3d
       -0.19190563 -0.0013049965 0.08168933 0.06951482
000160 fe ad 6d bd 80 5a 81 be 8e 9e be bd 29 36 d3 bd
       -0.05802726 -0.2526436 -0.09307586 -0.103130646
000170 a6 cb d5 3d b8 26 a2 bc 35 69 07 be fd aa 0a 3d
       0.104392335 -0.019793853 -0.13223727 0.033854473
000180 54 f5 bf bd 99 2a f3 3d 86 ae bf bd 4a 69 31 bd
       -0.093729645 0.11873359 -0.093594596 -0.043313302
000190 6c 16 10 3e 22 60 c3 bb 01 96 e2 bd 43 4f cd bd
       0.14071053 -0.0059623877 -0.11063767 -0.100248836
0001a0 96 f3 ae 3d 1b 81 fd 3d 73 72 19 be 7d 79 da bc
       0.08542554 0.123781405 -0.14985065 -0.026669258
0001b0 02 f2 14 be f4 48 45 3e 92 c0 2f be fb 75 b3 bd
       -0.14545444 0.1926611 -0.17163303 -0.08762737
0001c0 09 d4 b3 bd dc 6f 3c bd c9 d0 47 bd 7e e1 db 3a
       -0.08780677 -0.046005115 -0.048783097 0.0016775576
0001d0 a0 b2 9e 3d c8 1f 1d be 62 09 81 bd 33 93 1c be
       0.07748914 -0.15344155 -0.06300618 -0.15290527
0001e0 c9 6d c6 bd 91 04 2b 3d a8 67 ab 3c 38 e1 08 3e
       -0.096889086 0.0417524 0.02092345 0.13367164
0001f0 a2 63 85 3d cf f6 a2 3d 90 0c c0 bd 46 8c 29 bd
       0.06513144 0.07957231 -0.09377396 -0.04139354
000200 e9 e6 1b 3e c6 da 38 3d fd 7f 65 bb a7 4f 16 3e
       0.15224804 0.045130514 -0.0035018914 0.14678822
000210 56 38 b2 3b f3 14 22 3c 1f 2e d6 3c c8 9b e0 3c
       0.0054388447 0.00989269 0.02614504 0.027418032
000220 1f e6 76 3d f4 60 bb bd e0 dc 26 bd a0 62 e7 bd
       0.060278054 -0.09149352 -0.040737987 -0.11298108
000230 c1 69 d1 bd 2e 41 90 be 6c 63 37 3d 44 30 91 bd
       -0.10225249 -0.28174728 0.04477255 -0.07089284
000240 5a b8 a2 bc 26 f6 97 3c 4c c7 96 3e 81 56 42 3e
       -0.019863296 0.01854999 0.29448926 0.18978311
000250 4d 07 2f be 48 ae 22 bd 6e 83 11 be f6 4f d1 3d
       -0.17092629 -0.03971699 -0.14210293 0.102203295
000260 10 d7 ce bc 3f 93 29 bc 8a 33 63 bd 1c 41 62 3c
       -0.025249034 -0.010350048 -0.055469073 0.013809469
000270 3c de 3f bd 55 61 3d 3e e6 c3 67 3c b1 98 3f 3e
       -0.0468428 0.1849416 0.014145827 0.18710591
000280 a9 aa 62 3e 66 09 6c 3e d9 e1 1b be e6 f4 51 3d
       0.22135414 0.2305046 -0.15222873 0.051258944
000290 96 56 9f 3a 36 11 72 be c8 e6 32 be 7b ba 75 3d
       0.0012156542 -0.23639378 -0.17470849 0.059992295
0002a0 49 9d fb 3b d5 f0 90 3d 16 06 a1 3d da 70 2c 3e
       0.007678662 0.07077185 0.07862489 0.16839924
0002b0 0f f8 88 3e 8a c9 cb 3d 6e b7 f5 bb 36 bb ff 3d
       0.26751754 0.0995055 -0.007498673 0.124868795
0002c0 a4 26 a9 3c 7f 91 50 3d 47 2b 39 3d ad 02 69 bc
       0.020648308 0.050920006 0.045207288 -0.014221829
0002d0 cb c6 8d bd d0 cb 69 3c 6a 81 5c bb f8 1c ec 3a
       -0.069226824 0.014269784 -0.0033646473 0.0018014004
0002e0 d2 3c bb bd 72 93 d9 3d ea 0e ce 3d 07 ec eb bb
       -0.0914246 0.10623826 0.100614384 -0.0071997675
0002f0 4e c6 ed 3d 24 54 06 3e df 75 44 3c d7 78 6b 3d
       0.11610089 0.13118035 0.011990993 0.05748829
000300 83 9c 9d bd 44 b8 9d bd 73 f6 e8 bc 79 ec 9c bd
       -0.07695868 -0.077011615 -0.028437829 -0.07662291
000310 5e c4 18 be 9c c4 5d 3d cb 25 5b bd d2 af 28 3e
       -0.14918658 0.05414258 -0.05350284 0.1647332
000320 2b 9b fd bc 31 76 80 bd 3e a2 5d 3e e4 7c 69 bd
       -0.030957779 -0.06272543 0.21643922 -0.05700387
000330 8f 93 17 3e cb 5f 95 3c d2 45 c1 bd be ef 8e 3b
       0.14802383 0.018234154 -0.09437145 0.0043620756
000340 11 a9 96 be ff 90 2c bd 52 d3 ae 3b 10 17 68 bd
       -0.29425862 -0.042130467 0.00533525 -0.05666262
000350 06 6e ba 3d 82 94 0a 3e 6b f6 7b 3e b5 48 97 3d
       0.091030166 0.13533214 0.2460572 0.07386915
000360 9f f6 03 3e 6f e2 87 3d 79 cc b6 3d 4c 87 6b 3c
       0.12887047 0.06634986 0.08925719 0.014375519
000370 e8 90 01 3e 26 fc 11 be 5f 41 3a bd ee 5a a1 3e
       0.12652934 -0.14256343 -0.0454725 0.31514686
000380 dd d8 24 3d 0b 85 cc 3d d0 52 50 be 49 34 8e bd
       0.04024588 0.099863134 -0.2034409 -0.06943566
000390 e7 f1 08 3e 62 26 f6 3c bd 2b 57 bc 7d 0e 54 bd
       0.13373528 0.0300476 -0.013132987 -0.05177163
0003a0 0a 17 30 be 75 ca 34 3d 90 59 5d bd 4a 9d ff 3d
       -0.17196289 0.04413839 -0.05404049 0.124811724
0003b0 66 10 17 3d b9 e2 de bc 46 10 94 bd ec f9 65 3c
       0.036880873 -0.02720772 -0.072296664 0.014036637
0003c0 41 e9 bf 3c d8 19 aa 3d d3 40 bf 3e 1d c8 47 be
       0.023426654 0.083057106 0.37354144 -0.19509931
0003d0 36 be 27 3d ca 3c 5e bd cd 01 e9 3d 87 5c 4b 3e
       0.040952884 -0.05425719 0.113772966 0.19859515
0003e0 f3 09 2d 3e 5e d4 70 3d 12 67 45 3d 25 93 d6 3d
       0.16898327 0.05879628 0.048194 0.10477284
0003f0 93 e4 cc 3b 5d 2e 2e 3e 7e e8 0f be b8 9a ed 3d
       0.006252834 0.17009874 -0.14053532 0.11601776

encoder.weight_hh_l0 f4 [64, 16]
000000 ba e9 80 be 1a bb e5 3d e1 8b 73 3c 8c 50 c9 3d
       -0.2517832 0.112173274 0.014864893 0.09829816
000010 56 06 d5 bd 86 18 4f be 18 b5 24 bc 10 40 7b 3d
       -0.10401599 -0.20224199 -0.010052942 0.06134039
000020 2c 1f 3c 3d 3f d3 8a 3e 4f 9d c6 bd 5d 0b f8 bc
       0.045928165 0.27114293 -0.09697973 -0.030278856
000030 89 66 d2 bd 0e 32 88 3d 4d 12 68 be b8 c7 58 3e
       -0.10273463 0.06650172 -0.22663231 0.21169937
000040 20 c8 76 39 93 23 bc 3d ce 9d 4b be e9 88 2c bd
       0.0002353494 0.09186473 -0.19884416 -0.042122755
000050 f3 93 f0 bc b4 50 58 bd f8 ae 2a be b7 81 da 3b
       -0.029367423 -0.05281134 -0.16668308 0.0066682952
000060 6b 78 e6 3c 07 c8 d4 3b cd 54 d7 3d c9 5b 27 be
       0.028133592 0.0064935717 0.10514221 -0.16343607
000070 28 34 9b 3c 68 e0 19 be 2a 62 47 bb 13 85 35 bd
       0.018945768 -0.1502701 -0.00304235 -0.044316363
000080 e4 4b ef bb 33 ac 93 bc 77 45 ab 3c ca 0b 35 bc
       -0.007302748 -0.018026447 0.020907147 -0.011050174
000090 37 74 ea 3d ff 38 83 3e 18 96 f4 bd 15 57 41 3c
       0.114479475 0.25629422 -0.119426906 0.011800547
0000a0 f1 b4 22 bd 86 50 f7 bd 22 54 39 bc 3c ad 11 be
       -0.03972334 -0.120759055 -0.011311563 -0.1422624
0000b0 c8 74 22 3e d6 01 49 bd 47 a3 9b 3d 1b e5 cd 3e
       0.15864861 -0.049074017 0.07599502 0.40213856
0000c0 07 b4 3e be 9f 43 c6 bd 8c d5 24 3e 02 b9 54 be
       -0.18623362 -0.096808665 0.16097087 -0.207737
0000d0 12 ae bc 3b 16 dc 02 be 01 ad 50 3d 7f 1a eb 3c
       0.0057580555 -0.12779269 0.05094624 0.028699158
0000e0 5c cc ba bc ae 1d 7d 3d 74 cd 3e 3e 9b 34 11 3e
       -0.022802524 0.061795883 0.18633062 0.14180224
0000f0 5e 06 ad 3d f2 99 00 bb 6c f8 e9 3d 66 6a 12 bd
       0.0844848 -0.0019623009 0.11424336 -0.035746
000100 e2 6d 30 3d b0 7c 5f 3e 7a 69 69 3e bb b7 70 be
       0.043073542 0.21824908 0.22794142 -0.23507588
000110 ce ce 1e be d1 3e e8 bd a9 2c 57 3c 11 15 94 3d
       -0.15508577 -0.11340106 0.013133206 0.072305806
000120 9a 41 1b 3e bb 49 33 3e 94 ad 7c 3d 4e 31 be bd
       0.15161744 0.17508595 0.061688974 -0.09286748
000130 19 3c ac bd b1 dc 37 3e 3e 31 bf bd ac 92 45 3d
       -0.084099 0.17955281 -0.09335564 0.04823558
000140 24 54 9f bd ca 6e c8 bd 15 c1 88 3d cf a9 a1 3d
       -0.077797204 -0.09786756 0.066774525 0.078937165
000150 35 7a a5 bd 3d 6b 91 bc 2a 68 a0 be 2e 01 07 3d
       -0.0807995 -0.01775133 -0.3132947 0.03296011
000160 d6 e4 51 3d 6d 01 aa 3d b6 49 c5 3b 30 45 4e bd
       0.051243626 0.08301053 0.00602075 -0.05035895
000170 4f 5d ed bd ae 35 1f be 19 fa 15 be 8b b2 38 bc
       -0.11590063 -0.15547821 -0.14646186 -0.011273037
000180 12 dc 07 be 82 d0 12 ba 55 84 87 3d cc b0 4b bd
       -0.13267544 -0.0005600528 0.06617037 -0.049729154
000190 1a cf 3a 3d 98 17 d2 3d 2a ef 1b be 6d 6f 86 3e
       0.045607664 0.102584064 -0.15227953 0.26256886
0001a0 40 06 8e 3e ad b4 bc 3d 5d 7c ef 3c bf f8 36 3e
       0.27739143 0.09214149 0.029234106 0.17868327
0001b0 02 12 48 bb 90 95 c5 3d d8 b1 30 3e 77 3a 2c 3d
       -0.0030528312 0.096476674 0.17255342 0.042047944
0001c0 a2 49 6b 3d 56 49 af 3d 38 96 61 bc c3 91 f7 3c
       0.05744327 0.085589096 -0.013768725 0.030220872
0001d0 f8 bd 56 be 3e 34 a5 3d bf f7 c5 3c 95 24 65 be
       -0.20970905 0.08066605 0.024165986 -0.22377236
0001e0 d0 04 40 38 93 01 2a be 19 e7 6d be 46 6a d8 bd
       4.578085e-05 -0.16602163 -0.23232688 -0.10567145
0001f0 b2 e7 6e be eb ba 1b 3d 40 d4 35 3d 92 b0 91 3e
       -0.23330572 0.038020056 0.04439187 0.28455025
000200 ab 07 0f be 5a 46 ae bb 0a dd c3 3c e2 8e a4 3d
       -0.13967769 -0.005318445 0.02390911 0.08035065
000210 72 fe 89 3e b7 fd 8d bd ec 9b dc 3d c6 5e f2 3d
       0.2695194 -0.06933158 0.10771927 0.11834483
000220 cf 53 f2 3b 06 a9 be bd 11 1a f8 bd c8 f7 6f 3d
       0.0073952447 -0.093095824 -0.12114347 0.058585912
000230 89 9e ee bb e7 11 f7 3d 96 d0 2e bd a4 9d 56 bc
       -0.0072820825 0.120639615 -0.04267939 -0.013099108
000240 e8 ec b3 3d 58 c5 da 3d 60 0c 8c bc 2c a3 9b 3c
       0.08785421 0.106821716 -0.017095745 0.018998705
000250 36 93 dc 3d 29 ba ba 3d b2 a6 af bd 1f 38 14 be
       0.10770266 0.091175385 -0.085767165 -0.14474533
000260 2d cc 1f 3e 81 a3 c0 3d 64 e1 82 3c 32 b1 a7 3d
       0.1560523 0.09406186 0.015976615 0.08188094
000270 86 9b f0 3d 83 86 41 be 66 59 c8 bc 59 d1 c0 bd
       0.11748414 -0.18898968 -0.024456691 -0.0941493
000280 4b 5e 41 3d cd 9f b5 bd 8f d4 ac bd 0d 68 20 bc
       0.047209065 -0.0886837 -0.0843898 -0.009790433
000290 c3 f6 f8 bd 8a 42 c5 bd fb 89 f8 bd e9 d0 d1 3d
       -0.12156441 -0.09631832 -0.12135693 0.102449246
0002a0 60 81 e3 bd 5f e4 dd 3d 71 96 7a bd d1 1b 65 be
       -0.11108661 0.10834574 -0.06117863 -0.22373892
0002b0 c2 79 6d bd be 51 89 bd 34 22 05 3e 3d 5b 12 3d
       -0.057977445 -0.06705044 0.13001329 0.035731543
0002c0 22 4a 92 3e ff 19 ae bc a8 5c c6 3d e2 fc e3 3d
       0.28572184 -0.02125263 0.096856415 0.11132218
0002d0 36 18 a3 3c 09 8d 25 3e b2 23 cd bc c2 ed 0a 3e
       0.019909006 0.16167082 -0.025041435 0.1356726
0002e0 b1 36 62 3d de c7 b5 3c cd d9 0b 3d 26 17 b6 3b
       0.05522794 0.02219003 0.034143258 0.0055569587
0002f0 2e 82 87 bd 61 49 10 be ca 9e 7f bc 00 9a e0 bd
       -0.06616627 -0.14090492 -0.015601823 -0.10966873
000300 58 cd 27 3e 30 3d b7 bd fd 38 26 3e 75 45 ff 3d
       0.16386926 -0.089472175 0.16232677 0.1246442
000310 01 38 b8 bd 30 b6 b5 3d ef 93 fc 3d de 70 f1 bc
       -0.08995057 0.0887264 0.123329036 -0.029472765
000320 3e 45 25 be 01 69 65 3e e3 0d 28 bd 07 3c 07 be
       -0.16139695 0.22403337 -0.04102887 -0.13206492
000330 e2 b8 83 3e 4a d4 78 3c 42 bc 4b bb 86 0c 65 bd
       0.25726992 0.015187332 -0.0031087552 -0.055920146
000340 81 c7 d9 bd 54 16 18 bd ad 54 63 3e fa 64 5e bd
       -0.106337555 -0.03713067 0.2220027 -0.054295518
000350 0a 70 72 bc 1a c3 a4 bd b0 1b ed 3b f9 f8 19 be
       -0.01479722 -0.08045025 0.0072359666 -0.15036382
000360 fd 3a f5 3c 98 98 43 bd 27 e0 8b be 2e ae ab bb
       0.029935354 -0.047752947 -0.27319452 -0.0052392697
000370 73 38 3b bd be 53 63 be 52 33 1b 3e 9c c6 aa 3d
       -0.04570813 -0.22199914 0.15156296 0.08338663
000380 c9 f4 f3 bd 5b 8a c6 3c 41 89 96 3d 62 40 7a bd
       -0.119119234 0.024235895 0.07350398 -0.061096556
000390 f3 3c a4 3d ae 80 1e 3d 52 97 1a be 8a f1 9d 3d
       0.08019438 0.038696937 -0.15096787 0.077120855
0003a0 55 d1 b0 be 6c e5 e6 3a 18 85 c9 bd 9b 2e 1d 3e
       -0.34534708 0.001761598 -0.09839839 0.1534981
0003b0 ad 97 36 bd ba 92 c5 3d eb 7f 3b bd 21 13 38 bd
       -0.044578243 0.096471265 -0.04577629 -0.044940118
0003c0 36 9e e0 bc 42 8f 46 3d 6d 61 56 3e ea 31 43 be
       -0.02741919 0.048476465 0.20935602 -0.1906201
0003d0 14 51 57 bd fa 15 2a 3e 01 4d a3 bc ea 33 50 be
       -0.052567557 0.16609946 -0.01993418 -0.20332304
0003e0 48 39 42 3b 1a 78 b7 bd b3 59 aa bc 45 49 7d bd
       0.0029636193 -0.089584544 -0.020794725 -0.061837453
0003f0 4a cf dd bd 20 0e 93 bd 61 9b 0c 3d 18 f9 19 be
       -0.10830553 -0.071804285 0.03432787 -0.15036428

encoder.bias_ih_l0 f4 [64]
000000 24 ad a6 ba 2c 7d 2e 39 42 65 91 39 c7 12 90 3c
       -0.0012716395 0.00016640563 0.00027731998 0.017587079
000010 c4 3a cc 3c 17 29 ca 3a bf ab c2 3c 7a f9 1c bb
       0.024930365 0.0015423623 0.023763536 -0.002395241
000020 26 61 24 3b df 7e c0 3c 93 3b aa 3c 0f 0e 99 3c
       0.002508232 0.023497997 0.02078036 0.018683461
000030 bf e9 9e ba 23 40 c5 39 00 78 c5 3c cc f6 91 3b
       -0.0012124105 0.00037622554 0.024105072 0.0044544693
000040 ea d3 b9 3c ae c7 a4 3b 35 04 2c 3b 68 1e 69 3c
       0.022684056 0.0050286865 0.0026247625 0.014228441
000050 a8 48 cc 3a 2e 69 ef 3a 4a a3 7f 3a 75 48 a2 3c
       0.0015585618 0.0018265599 0.000975181 0.01980994
000060 f6 b1 c3 b9 df cf d4 3a 97 80 b0 3c 96 8e a5 3b
       -0.0003732589 0.0016236267 0.021545691 0.005052398
000070 dc 82 86 3c 1a 31 89 3a e4 be 79 3a f4 45 39 3c
       0.01641982 0.0010466904 0.0009527041 0.011308182
000080 85 9a b5 3c 73 f7 0f bb 36 35 93 3c f9 ac e5 3b
       0.022168407 -0.002196756 0.017969709 0.0070091453
000090 26 18 36 3b bc f8 8f 3c ff 57 83 3c aa 40 a1 3c
       0.002778539 0.01757466 0.01603317 0.019684155
0000a0 fe 0a 36 ba 6a e9 5c 3c 80 d5 ac 3c 85 cd 9b 3a
       -0.0006944387 0.013483385 0.021097898 0.0011886811
0000b0 c3 9f 68 3c 26 85 43 3c d4 b0 33 3a 59 6a 6c 3c
       0.014198246 0.0119336005 0.00068546575 0.014429652
0000c0 f3 43 a6 ba 08 01 d7 38 b6 56 8b 39 cb 40 8a 3c
       -0.0012685045 0.00010252191 0.0002657675 0.016876599
0000d0 e0 ef c9 3c 48 69 1a 3b 8a 0c c5 3c 16 fc 16 bb
       0.024650514 0.0023561288 0.02405383 -0.0023038439
0000e0 de 2b 00 3b 66 ac bf 3c 7c b8 ab 3c 56 ea 96 3c
       0.0019557397 0.023397636 0.020961992 0.018422287
0000f0 b0 00 4b b8 7d ce d5 39 7f c2 c5 3c 5e b3 35 3c
       -4.8399612e-05 0.00040780372 0.024140595 0.011090128

encoder.bias_hh_l0 f4 [64]
000000 28 ad a6 ba 14 7d 2e 39 4c 65 91 39 c7 12 90 3c
       -0.00127164 0.00016640528 0.00027732027 0.017587079
000010 c4 3a cc 3c 13 29 ca 3a bf ab c2 3c 7d f9 1c bb
       0.024930365 0.0015423618 0.023763536 -0.0023952418
000020 25 61 24 3b de 7e c0 3c 93 3b aa 3c 0f 0e 99 3c
       0.0025082317 0.023497995 0.02078036 0.018683461
000030 bf e9 9e ba 12 40 c5 39 fe 77 c5 3c cd f6 91 3b
       -0.0012124105 0.00037622504 0.024105068 0.00445447
000040 ea d3 b9 3c ac c7 a4 3b 3a 04 2c 3b 67 1e 69 3c
       0.022684056 0.0050286856 0.0026247636 0.01422844
000050 aa 48 cc 3a 34 69 ef 3a 2d a3 7f 3a 76 48 a2 3c
       0.001558562 0.0018265606 0.0009751793 0.019809943
000060 e2 b1 c3 b9 e5 cf d4 3a 97 80 b0 3c 96 8e a5 3b
       -0.0003732583 0.0016236274 0.021545691 0.005052398
000070 db 82 86 3c 14 31 89 3a ee be 79 3a f6 45 39 3c
       0.016419819 0.0010466897 0.0009527047 0.011308184
000080 85 9a b5 3c 70 f7 0f bb 36 35 93 3c f9 ac e5 3b
       0.022168407 -0.0021967553 0.017969709 0.0070091453
000090 28 18 36 3b bc f8 8f 3c ff 57 83 3c ab 40 a1 3c
       0.0027785394 0.01757466 0.01603317 0.019684156
0000a0 1b 0b 36 ba 68 e9 5c 3c 80 d5 ac 3c 7f cd 9b 3a
       -0.0006944404 0.013483383 0.021097898 0.0011886804
0000b0 c2 9f 68 3c 27 85 43 3c c7 b0 33 3a 5a 6a 6c 3c
       0.0141982455 0.011933601 0.000685465 0.014429653
0000c0 f0 43 a6 ba e8 00 d7 38 cc 56 8b 39 cb 40 8a 3c
       -0.0012685042 0.00010252168 0.00026576815 0.016876599
0000d0 df ef c9 3c 46 69 1a 3b 8a 0c c5 3c 1a fc 16 bb
       0.024650512 0.0023561283 0.02405383 -0.0023038448
0000e0 da 2b 00 3b 66 ac bf 3c 7f b8 ab 3c 55 ea 96 3c
       0.0019557388 0.023397636 0.020961998 0.018422285
0000f0 50 03 4b b8 60 ce d5 39 7f c2 c5 3c 5e b3 35 3c
       -4.8402057e-05 0.00040780287 0.024140595 0.011090128

decoder.weight_ih_l0 f4 [64, 16]
000000 70 13 d7 bd 14 cd 04 be 34 99 49 be b8 be 2d 3d
       -0.10501754 -0.12968856 -0.19687349 0.04241821
000010 d8 74 67 be a2 28 62 3e da f7 24 3e bc 60 0f 3e
       -0.22603166 0.22085813 0.16110173 0.14001745
000020 f0 f5 78 3e 02 7f 78 3e b4 4e ce bd 20 30 6e 3e
       0.24312568 0.242672 -0.10073605 0.23260546
000030 8c fe 24 be d0 88 07 3d 32 eb 5e be 9c c5 16 3e
       -0.16112727 0.03308946 -0.21769407 0.1472382
000040 10 98 46 bd 84 ff d2 3d e8 90 c6 bd 1a 6c 1a 3e
       -0.04848486 0.10302642 -0.096956074 0.150803
000050 9c f8 5c be ba 04 0e 3e 26 16 3e 3e 86 fb 70 be
       -0.21579212 0.1386899 0.18563136 -0.23533449
000060 08 4e 69 3e bc 59 11 3e 92 b0 2d be 5a 4c 70 3e
       0.22783673 0.14194387 -0.16961887 0.23466626
000070 ec 1d 74 3e 00 4e 25 bb 00 14 03 bd 50 f6 16 3e
       0.2383954 -0.0025223494 -0.032001495 0.14742398
000080 1c 4d 9b 3d a8 9a 6b 3d b0 fb 92 bc 38 e2 ea 3d
       0.07583067 0.05752054 -0.01794228 0.11468929
000090 f4 07 ab bd 74 41 a9 3d 68 22 a2 3d 30 c9 1f 3d
       -0.08351126 0.08264437 0.07916719 0.039010227
0000a0 18 f3 fa bd b2 fa 79 3e e0 53 a6 bd 54 12 34 3e
       -0.12253398 0.24412039 -0.08121467 0.17585117
0000b0 5c c9 10 be 5a 3a 47 3e cc 92 fc bd 00 da 1e 3d
       -0.14139313 0.19455853 -0.12332687 0.03878212
0000c0 30 65 90 bc a8 94 e1 3d 30 1a 96 3c f4 20 59 be
       -0.017626375 0.11014682 0.018323034 -0.21203977
0000d0 64 98 c3 3d 44 e5 8c 3d 2a 85 3d be 64 9c 4e be
       0.095505506 0.068796664 -0.1850783 -0.20176846
0000e0 7a 9a 4c 3e 36 77 38 3e 00 56 ca 3a 94 30 7a 3e
       0.19980803 0.18014225 0.0015437007 0.24432594
0000f0 4c f7 60 3e 60 0c e7 bc 00 b6 1f 3c 46 e8 3c be
       0.21969336 -0.028204143 0.009747982 -0.1844798
000100 18 64 37 bd f0 7c ba bc cc 3a 69 be c0 44 14 3e
       -0.04477319 -0.022764653 -0.22776335 0.14479351
000110 28 16 f7 bd b4 16 9d 3d 8e 9f 2b be d8 39 99 3d
       -0.12064773 0.07670346 -0.16760084 0.07481736
000120 32 92 22 be 70 f0 fe bc 4c 00 1e 3e 2c 43 34 be
       -0.15876082 -0.031120509 0.15429801 -0.17603749
000130 1a f7 43 3e 6c 94 22 be 98 39 36 bd a0 7b 57 bc
       0.1913723 -0.15876931 -0.04448852 -0.013152033
000140 a0 7b 1a 3c 64 4d 92 3d 1a ee 37 be 72 3a 78 3e
       0.009428889 0.07143667 -0.17961922 0.24241045
000150 c0 b0 c0 3d 72 63 1b 3e 8c 01 44 be e4 67 a8 bd
       0.094087124 0.15174654 -0.19141215 -0.082229406
000160 aa 7f 16 3e 90 28 e5 3c ce 7b 71 be 10 8a 1c be
       0.14697137 0.027973443 -0.23582384 -0.15287042
000170 d4 f1 87 3d c0 c3 c4 bc 40 8b 33 bd 3c 3c 55 be
       0.06637922 -0.024019122 -0.04383397 -0.20823759
000180 f0 e3 8c 3c 18 37 02 3d 50 1d a2 bc 20 57 61 bc
       0.017198533 0.031790823 -0.019789368 -0.013753682
000190 fc f1 46 be 10 35 6a bd ea f1 45 be fc 21 02 be
       -0.19428247 -0.05717951 -0.19330564 -0.12708277
0001a0 80 31 82 3d e8 0a ef bd 60 cf 70 bc c0 46 9f 3c
       0.063570976 -0.11672002 -0.01469788 0.019442916
0001b0 a4 fa 62 3e 5a 22 26 3e 48 4b 2f 3e c0 b2 8c bd
       0.22165924 0.16224042 0.17118561 -0.06870031
0001c0 50 4b 7c bd 6e f4 08 3e 76 63 70 be 08 71 14 3d
       -0.06159526 0.13374493 -0.23475441 0.036240608
0001d0 0a 24 1d 3e 00 f3 a3 3c a8 b5 af 3d 18 01 30 bd
       0.15345779 0.020013332 0.0857957 -0.042969793
0001e0 64 2a 17 3e ae e1 77 3e 2c 7f d6 3d 70 23 07 be
       0.14762264 0.24207184 0.10473475 -0.13197112
0001f0 00 b4 b2 3d de 0f 60 be 00 a2 92 bd 48 40 6a bd
       0.087257385 -0.21881053 -0.07159805 -0.05719021
000200 0c 48 62 be 48 1b 12 3e c8 85 51 bd f0 a7 27 3e
       -0.22097796 0.1426822 -0.051152974 0.16372657
000210 24 18 60 3e 40 30 17 bd e0 44 b4 bd d8 82 be 3d
       0.21884209 -0.03691125 -0.08802199 0.093023
000220 94 18 3c be 28 40 d0 bd 8a af 59 be 18 d0 2c 3e
       -0.18368751 -0.10168487 -0.21258369 0.16876256
000230 aa db 33 3e f0 b8 af bd 1c 80 e2 bd 38 fa 0a 3e
       0.17564264 -0.08580196 -0.11059591 0.13572013
000240 0e 68 00 3e 76 c7 7e 3e f4 1b 92 bd 82 c7 4e be
       0.12539694 0.24880776 -0.07134238 -0.20193294
000250 6a 01 5a 3e 8e c2 00 be 80 c6 3c 3b c8 64 f4 3d
       0.21289602 -0.12574217 0.0028804839 0.11933285
000260 b4 ce db 3d 20 a4 29 3c dc 13 f0 bd 80 72 73 3c
       0.10732785 0.010354072 -0.11722538 0.014858842
000270 32 13 74 be 34 e1 40 be ca 1e 69 3e 98 34 58 3e
       -0.23835447 -0.18835908 0.22765651 0.21113813
000280 4e cc 21 3e 3c 3e 5d be 24 f6 4d be c0 b3 a7 bc
       0.15800592 -0.21605772 -0.20113426 -0.020471454
000290 d6 21 73 be 4c f4 54 be f8 e1 42 be 32 bc 28 3e
       -0.23743376 -0.20796317 -0.19031513 0.16478041
0002a0 bc da 7c be b8 a4 06 be f8 71 56 bd 48 be 18 be
       -0.24692816 -0.13148773 -0.052354783 -0.14916337
0002b0 d8 a4 0e 3d 00 50 51 3c 68 84 0d bd 02 c0 11 be
       0.034825176 0.012775421 -0.0345501 -0.14233401
0002c0 66 92 31 be 08 15 41 3d 28 e7 17 3d 8e 6a 27 be
       -0.17341003 0.047139198 0.037085682 -0.16349241
0002d0 b4 8b c0 3d 98 f0 54 be 60 14 a5 3d 2c 37 00 3e
       0.09401646 -0.20794904 0.08060527 0.12521046
0002e0 ea ab 74 3e 3a 83 6d be ac 34 df 3d 64 b0 9f 3d
       0.23893705 -0.2319459 0.10898718 0.07797316
0002f0 72 3e 24 be 80 f7 ec 3d 60 3a 1b 3d b0 84 b1 bc
       -0.16039446 0.115706444 0.037897468 -0.021669716
000300 6c ea 62 3e 98 2f 83 3d 00 5e 8b ba 1c b7 56 be
       0.22159737 0.06405562 -0.0010632873 -0.20968288
000310 00 2b 0c be 7c 5c 3e 3e 48 98 3d 3d 30 bf d7 3c
       -0.13688278 0.18589967 0.046287805 0.026336282
000320 78 bf 0b bd d0 f3 8b bc fc 03 58 be e8 cb 7c 3e
       -0.034118146 -0.017084032 -0.2109527 0.24687159
000330 a6 78 60 3e 36 5d 21 be 58 80 89 bd 80 05 99 bb
       0.21921024 -0.15758213 -0.06713933 -0.004669845
000340 c4 df 13 be b4 e3 3c 3e 5c f4 53 be a0 95 3a 3e
       -0.14440829 0.18446237 -0.20698684 0.1822114
000350 f0 a9 55 be 72 74 7f be dc 44 4a 3e cc 51 db 3d
       -0.20865607 -0.24946764 0.1975283 0.10708961
000360 30 87 e8 bd f8 ad 1a bd 64 35 b9 bd c8 38 43 bd
       -0.1135391 -0.037763566 -0.090433866 -0.047661573
000370 da 5c 10 be c4 93 b9 bd 46 d7 6e 3e 48 0d 61 3d
       -0.1409792 -0.09061387 0.23324308 0.054944307
000380 38 b1 a0 3d ac 30 0c be 98 55 28 bd a6 5a 4c 3e
       0.07846302 -0.13690442 -0.041097254 0.19956455
000390 5a e6 37 be 30 5a f8 3d 34 c7 f0 bd b2 9c 60 be
       -0.17958966 0.12126577 -0.11756745 -0.21934775
0003a0 88 aa 06 3d 00 d3 be 3b 16 06 69 be ce 6d 7c 3e
       0.032877475 0.005823493 -0.22756228 0.24651262
0003b0 68 dc 54 be 2a 60 42 be de 63 0d be 38 f3 6f be
       -0.20787203 -0.18981996 -0.13807628 -0.23432624
0003c0 40 03 85 3d 40 a7 86 3c 10 ba c1 bd e6 fe 0e be
       0.064947605 0.016437173 -0.09459317 -0.13964424
0003d0 cc c3 82 3d 9a a0 55 3e 78 bb a4 bd 60 ea 19 bd
       0.063850015 0.20862046 -0.08043569 -0.037577033
0003e0 a0 c9 03 3e a4 01 92 3d 8c 0c de 3d 28 48 72 bd
       0.12869883 0.07129219 0.10842237 -0.059150845
0003f0 c8 c0 27 3e f0 7a 91 bc e6 b4 16 3e f8 13 6d be
       0.16382134 -0.017758816 0.14717445 -0.23152149

decoder.weight_hh_l0 f4 [64, 16]
000000 3c 4c 11 be 46 db 7f be e8 a1 1d be 34 72 ca 3d
       -0.14189237 -0.2498599 -0.15393794 0.09885064
000010 02 8e 48 be b8 e3 28 bd 48 80 14 3e 20 61 5c bd
       -0.19585422 -0.041232795 0.1450206 -0.053803563
000020 ac da c0 bd 1c b1 2a be 10 9d 7a be 9c 6b eb bd
       -0.09416708 -0.16669124 -0.24473977 -0.11495134
000030 22 7f 45 be f2 6f 44 3e 02 e4 2a be b6 9d 0b be
       -0.19286779 0.19183329 -0.1668854 -0.1363438
000040 30 44 18 be a0 23 a0 3d 4c cc b7 bd 86 7c 3a be
       -0.14869761 0.07819295 -0.089745134 -0.18211564
000050 4c dd de 3d 42 13 62 3e 38 e3 c8 3d 66 94 63 3e
       0.10882053 0.22077659 0.098089635 0.22224578
000060 10 0f 4f 3e cc 8f 3d 3e 48 62 5d be 42 33 1d 3e
       0.2022059 0.18511885 -0.21619523 0.15351585
000070 90 19 ba bc be 5a 1b 3e 84 77 45 be e8 12 9d bd
       -0.022717267 0.15171334 -0.19283873 -0.07669622
000080 c8 73 54 bd a8 ba 4e 3e 54 af 6a 3e 76 66 6f 3e
       -0.05186823 0.20188391 0.22918445 0.2337893
000090 94 f4 ec bd 22 a7 43 be 00 c0 8d 3b 80 10 91 3d
       -0.11570087 -0.19106725 0.0043258667 0.07083225
0000a0 fa 56 4a be d0 bd 68 3e c2 c7 03 3e f8 00 d4 bd
       -0.19759741 0.22728658 0.1286917 -0.10351747
0000b0 58 c6 d7 3d 30 24 16 3d f0 db 93 bc fc 7b c6 bd
       0.10535878 0.036655605 -0.01804921 -0.09691617
0000c0 f0 36 82 3c ce 83 6d 3e 00 05 b8 bd 92 68 17 be
       0.015895337 0.23194811 -0.08985329 -0.14785984
0000d0 10 38 5b 3d 4a 25 6d be c8 6c 0e 3e 18 af 0b be
       0.053520262 -0.23158756 0.13908684 -0.13641012
0000e0 60 72 1a bc c0 99 f0 bc d4 6d a9 bd c2 78 21 3e
       -0.009426683 -0.029370189 -0.08272901 0.15768722
0000f0 32 d8 7d be 88 01 24 bd 60 06 1c 3d 98 44 7f bd
       -0.24789503 -0.040040523 0.038092017 -0.062321275
000100 ec 81 49 be 40 0e 24 3c 40 db 12 3e 2a 61 6b 3e
       -0.19678468 0.010013163 0.1434145 0.22986284
000110 46 a3 0a be e0 21 bb bc 72 5e 51 3e c0 c9 44 bd
       -0.13538846 -0.022843301 0.20446184 -0.048043966
000120 d8 27 19 3d 18 69 de 3d a4 84 5e 3e 68 64 18 3e
       0.037391514 0.10859889 0.21730286 0.14882052
000130 80 3a f1 bb 42 99 51 3e 58 19 16 be 64 35 63 be
       -0.00736171 0.2046862 -0.14658105 -0.22188336
000140 ac e0 4c 3e a8 77 a7 3d e8 b3 3a 3e b8 b4 2a be
       0.2000758 0.081771195 0.18232691 -0.16670501
000150 ce c9 26 3e 80 2a 27 be 94 4e 17 be 38 c6 04 3d
       0.1628792 -0.16324806 -0.14776069 0.0324156
000160 68 4f d9 3d d0 b2 b1 bd 94 3b d8 bd 6a 42 14 be
       0.10610849 -0.08676684 -0.105582386 -0.1447846
000170 c8 e2 ae 3d 74 12 fe bd d0 bd a9 bd 42 a4 0a be
       0.08539349 -0.124058634 -0.08288157 -0.13539222
000180 b4 81 bd 3d 64 dc bb 3d 28 db 24 3d a4 47 3f 3e
       0.092532545 0.091728956 0.040248066 0.18679672
000190 90 43 35 3e d4 8e 9d 3d 78 75 44 be 60 7a f3 3d
       0.17701554 0.07693258 -0.19185436 0.118885756
0001a0 80 38 c0 3b 90 d0 3d be f2 5d 28 be e8 b1 3d be
       0.0058661103 -0.18536592 -0.16442087 -0.18524897
0001b0 30 ef 31 be aa f6 68 be 52 77 5f 3e 70 c1 e6 3c
       -0.17376399 -0.22750345 0.21822861 0.02816841
0001c0 30 da cd bc 54 fe 56 3e 40 ec 92 3d c8 85 8e 3d
       -0.025128454 0.20995456 0.07173967 0.069591105
0001d0 ca fe 67 be d0 01 aa bd 40 dd ef 3c 36 69 3f be
       -0.22655788 -0.08301127 0.029280305 -0.18692479
0001e0 9e 44 4e 3e a8 b2 73 3d 62 01 74 3e 60 85 02 3e
       0.20143363 0.05949655 0.23828653 0.12746191
0001f0 76 7f 31 be b4 8d 5e 3e ac f7 93 bd dc e2 d3 3d
       -0.17333779 0.21733743 -0.07224974 0.10346004
000200 24 d7 ef 3d 48 98 35 be 4c ef bb bd c0 f2 81 3b
       0.11710957 -0.17733872 -0.09176502 0.0039657056
000210 60 a5 10 3c 4a ad 52 3e 22 7d 18 be 52 8e 4a be
       0.008828491 0.20573917 -0.14891484 -0.19780853
000220 6a a4 08 be 18 80 ad 3d b0 18 ba 3c 40 39 72 3c
       -0.13343969 0.084716976 0.02271685 0.014784157
000230 50 d6 49 be 02 1d 35 be ca a9 25 be c0 9d 63 3e
       -0.1971066 -0.17686847 -0.1617805 0.22228146
000240 28 19 97 bd 18 c2 54 3e 30 38 d6 bc d4 76 c4 bd
       -0.07377845 0.20777166 -0.02614984 -0.09592977
000250 12 41 67 3e d4 0d 79 3e 30 b3 06 3e 44 42 ef 3d
       0.22583416 0.24321681 0.13154292 0.11682561
000260 fc 06 0d 3e 60 fd 9a bc 5c 4a 5b be 5a 70 52 be
       0.13772196 -0.018919647 -0.21415085 -0.20550671
000270 78 22 45 bd b0 90 45 3d 18 bc f4 bd 64 a9 f8 bd
       -0.048128575 0.048233688 -0.119499385 -0.12141684
000280 64 c6 f8 3d 6c b6 5a be 68 11 94 bd 70 7a 2a be
       0.12147215 -0.21358651 -0.072298825 -0.16648269
000290 46 6f 25 3e 00 4d 0a 3e f4 e2 62 be 6a bd 4d 3e
       0.16155729 0.13505936 -0.22156888 0.20091787
0002a0 0e 5d 4d be a0 19 29 3c dc be 79 3e 54 9f e3 bd
       -0.20055029 0.010321051 0.24389213 -0.11114374
0002b0 d8 32 ca bd bc 6b 54 be e2 ea 18 be b0 f0 a6 bd
       -0.09872979 -0.20744222 -0.1493335 -0.08151376
0002c0 f2 d8 4a be b4 37 99 3d 10 30 1f be 32 f6 79 3e
       -0.1980932 0.07481328 -0.15545678 0.24410322
0002d0 7e 76 7c 3e 6e ba 02 3e 80 de 33 3d f0 3d 35 bd
       0.24654576 0.1276643 0.043913364 -0.04424852
0002e0 3c ad 5c 3e b8 d2 3f be d4 93 b6 3d 00 f6 01 3a
       0.21550459 -0.18732727 0.08914915 0.00049576163
0002f0 86 15 26 be 6a 24 55 3e 40 95 63 3e 24 45 24 be
       -0.16219148 0.20814672 0.22224903 -0.16042
000300 3e 66 3f be b4 da 60 be 1a 46 70 be ca 72 7a be
       -0.18691346 -0.21958429 -0.23464242 -0.24457851
000310 98 a9 2a 3d b8 f3 76 bd 40 b5 af bb ae 31 10 be
       0.041665643 -0.060291022 -0.005362183 -0.14081451
000320 a0 3c 2e bc 6a 21 59 3e 5c 82 2c be b0 45 4c 3e
       -0.010634571 0.21204153 -0.16846603 0.19948459
000330 14 e8 9f bd 20 f8 e5 bc 40 6c 73 be 88 aa 40 3e
       -0.07807937 -0.028072417 -0.23771763 0.18815053
000340 40 60 db bb ce c8 07 3e ec c7 04 3e d8 bf 96 3d
       -0.0066948235 0.13260195 0.12966889 0.0736081
000350 20 93 28 bd 18 9c 61 3d 60 09 26 3c c0 d5 26 bd
       -0.041155934 0.055080503 0.010134071 -0.04073119
000360 20 42 cc bc d4 43 bc 3d 80 77 2b bb 52 6d 16 be
       -0.024933875 0.09192625 -0.0026163757 -0.1469014
000370 de d4 66 be a2 92 37 3e 32 4a 36 3e a8 1b 00 3e
       -0.2254214 0.1792703 0.17801741 0.1251055
000380 02 85 5c be 4c 38 55 3e 50 76 4c bd 94 85 f4 bd
       -0.21535113 0.20822257 -0.04991752 -0.119395405
000390 f4 00 99 bd 52 bf 66 3e 10 65 c9 bc 92 a9 7b be
       -0.07470885 0.2253392 -0.024584323 -0.24576405
0003a0 d8 04 6f bd 68 c6 26 bd 68 eb 2b 3e 36 9e 25 3e
       -0.05835423 -0.04071656 0.16789019 0.16173634
0003b0 d4 e6 53 be 7e fa 45 be 30 53 9f 3d 4a f3 62 be
       -0.20693523 -0.19333836 0.07779539 -0.2216312
0003c0 9a a6 12 3e 80 e5 2c 3e 46 e9 25 be cc e2 ad bd
       0.14321366 0.16884422 -0.16202268 -0.08490524
0003d0 76 10 6b be 68 44 15 3e a8 98 09 3e b8 85 2a 3e
       -0.22955498 0.14576876 0.1343714 0.16652572
0003e0 c6 99 09 be e8 81 5b bd c8 d9 8e 3d 48 c1 1b 3e
       -0.13437566 -0.053590685 0.06975132 0.1521045
0003f0 e0 61 4e 3e ae f1 71 be b0 bc 88 3c 00 f9 67 3e
       0.20154524 -0.2362735 0.016691536 0.2265358

decoder.bias_ih_l0 f4 [64]
000000 a0 75 07 be b8 ec 17 bd 80 05 73 bb a8 4b db bd
       -0.13228464 -0.037090987 -0.0037082136 -0.1070779
000010 80 b0 0b bc 54 40 aa bd d8 4b 6f bd 92 49 60 3e
       -0.008525968 -0.08313051 -0.05842194 0.21903065
000020 f8 00 5f 3d b0 ed f9 3d 04 e8 13 be 08 cf 4d bd
       0.054444283 0.122035384 -0.14443976 -0.05024627
000030 84 2c d7 bd a8 8c 9b bd 00 1d fb 3c d0 7e 6f be
       -0.105065376 -0.075951874 0.030653477 -0.23388219
000040 ce 6b 52 be 20 d2 60 3e 50 6f 96 bc 5e bd 39 be
       -0.20548937 0.21955156 -0.018363625 -0.18138644
000050 fc 92 2e 3e f0 08 ca bc 20 eb 29 be 78 52 41 3e
       0.17048258 -0.024662465 -0.165936 0.18879116
000060 f4 b3 10 3e 68 44 2a be d8 67 6c be 4c 9e 2e 3e
       0.14131147 -0.16627657 -0.23086488 0.17052573
000070 a2 b4 73 3e 52 a4 4a be 0a f9 6e be 70 d5 69 bd
       0.23799375 -0.19789246 -0.23337188 -0.057088315
000080 98 93 14 3e e0 c5 0c be c8 82 04 3e 9e e3 42 be
       0.14509428 -0.13747358 0.12940514 -0.19032142
000090 e8 43 0a 3d 20 76 c2 3c 00 de ca 3a 96 7c 7e be
       0.033756167 0.023737967 0.0015477538 -0.24852213
0000a0 46 58 4f be 20 62 fc 3d 66 0d 2b 3e 88 88 87 bd
       -0.20248517 0.12323403 0.1670433 -0.06617838
0000b0 84 da 70 3e 96 bd 6b 3e 54 a1 97 3d 50 9f 51 be
       0.23520857 0.2302154 0.07403818 -0.20470929
0000c0 32 d2 57 3e e8 db 7f 3e 8c 33 e1 3d 80 48 93 3b
       0.21076277 0.24986231 0.1099616 0.0044947267
0000d0 66 4a 74 3e a6 0c 37 be c4 dd 32 3e 50 3b 36 be
       0.23856506 -0.17875919 0.1746741 -0.17796063
0000e0 88 43 68 bd 9c c7 e4 bd 18 79 a2 bd 7a 3f 4c 3e
       -0.056705028 -0.11170885 -0.07933253 0.1994609
0000f0 04 cf 9c 3d 40 5d ca 3d c4 ca 3a be b4 4b f1 3d
       0.076566726 0.09881067 -0.18241411 0.11782017

decoder.bias_hh_l0 f4 [64]
000000 9c 86 a2 bd 06 04 51 be 80 49 1d 3d 28 e1 fe 3d
       -0.07935831 -0.20411691 0.038400173 0.12445289
000010 50 20 d6 3d 9c b4 8e bd d8 d1 54 bd 02 69 6d be
       0.10455382 -0.06968042 -0.051957935 -0.23184589
000020 b0 9c 11 3e e0 7f 55 3c 84 86 5d 3e e8 91 92 3d
       0.14219928 0.013030976 0.21633345 0.07156736
000030 d8 b5 a3 bd e0 a1 ba bd a0 5c 3a 3c 5c b4 9b bd
       -0.07993668 -0.091129065 0.011374623 -0.0760276
000040 5c 34 f8 3d a4 94 c7 3d 6a c6 70 be f0 f8 87 3c
       0.12119362 0.09745148 -0.23513189 0.016598195
000050 78 a3 35 3e b0 82 9c bc da fc 1e be 20 5b ae 3d
       0.1773814 -0.019105285 -0.15526143 0.085134745
000060 60 e9 f3 3d e8 1a 3f bd 4a 6a 06 3e 9c b6 49 be
       0.11909747 -0.04665652 0.13126484 -0.19698566
000070 e0 09 0d be 80 ba 54 bd a4 62 5c 3e e8 84 1a 3e
       -0.13773298 -0.051935673 0.21522003 0.15089762
000080 b0 bf 06 3e 44 69 fb bd b4 55 43 be 40 4f eb 3b
       0.1315906 -0.12275937 -0.19075662 0.007181078
000090 80 11 8d bc 00 da 8e 3a e0 f4 ac 3c 3c ab 32 be
       -0.017220259 0.0010898709 0.02111286 -0.17448133
0000a0 ba 7d 4f 3e e0 5d dc 3c 04 5b f8 3d f4 dd 71 3e
       0.20262805 0.026900232 0.12126735 0.23619825
0000b0 40 15 d6 3d 44 18 bf 3d 1e 8f 16 be 40 69 89 bb
       0.10453272 0.093308 -0.14703032 -0.004193455
0000c0 4e ee 4e be 42 c6 3f 3e dc 4b 1f be d0 76 38 3d
       -0.20208094 0.18727973 -0.15556282 0.045035183
0000d0 40 6e 09 3c 32 45 36 be f8 b0 2f bd 20 82 52 be
       0.008388102 -0.17799833 -0.04289338 -0.20557451
0000e0 fc 6e 7d be b4 d8 70 be 90 a8 86 bc 10 e1 0b be
       -0.24749368 -0.23520166 -0.016437799 -0.13660073
0000f0 a0 3c 24 bc 64 da a2 bd b6 dc 19 be 78 fc cf bd
       -0.01002422 -0.07951811 -0.15025601 -0.101555765

mlp.0.weight f4 [16, 16]
000000 04 3b 13 be 9b b3 a7 be 29 b1 d6 3e 01 7b af 3e
       -0.14377981 -0.32754216 0.41932037 0.34273532
000010 85 cd 2d be 96 d5 ae be ae 2e a1 3e 9a bb 4b 3e
       -0.1697293 -0.34147328 0.31480926 0.19895783
000020 b3 ba 8f 3d f1 db 0b be 25 5f e6 3e e8 dc 47 be
       0.07018032 -0.1365812 0.44994465 -0.19517863
000030 3a 30 f8 3c fd 95 e7 bd c9 7e eb 3c 3d 4b 41 3e
       0.030296434 -0.11307905 0.02874698 0.18876357
000040 f3 8e e3 be 40 a8 c5 bd 1f 42 82 be 29 71 58 be
       -0.44445 -0.09651232 -0.2544107 -0.21136917
000050 fd c3 5f b8 33 77 66 bd ce c4 88 3d 0d 19 39 be
       -5.334987e-05 -0.05626602 0.066781625 -0.18075962
000060 59 b0 01 be 8a d5 e4 3d 58 b4 16 3d 60 9c 1f bf
       -0.12664928 0.11173542 0.036793083 -0.62347984
000070 59 3e 88 3e 52 1d f6 3c 03 0f 97 bd 6a b1 8e be
       0.26610067 0.030043278 -0.0737591 -0.2786973
000080 71 fb 27 be 59 2c c9 be 54 4f de be 5e 20 f8 3b
       -0.16404511 -0.39291647 -0.43419898 0.007572218
000090 cf 41 ee 3d 8a 45 6d be 1c 2e 68 3d e1 43 01 3e
       0.11633646 -0.23171058 0.0566846 0.1262355
0000a0 24 d2 bc bc d7 62 8e 3e ec 3b 1c be 80 40 e8 3d
       -0.023049422 0.27809784 -0.15257233 0.113404274
0000b0 c1 f1 e9 be af 0e aa be 17 99 41 be 29 01 41 3e
       -0.45692256 -0.33214328 -0.18906055 0.18848099
0000c0 1b f5 23 be f2 f5 1a be 3f 47 07 3e 4a 81 77 3d
       -0.16011469 -0.15132883 0.13210772 0.060426034
0000d0 09 46 f2 bc 01 bf b1 3e d4 87 0f be 16 4c d8 be
       -0.029574411 0.34716037 -0.14016658 -0.4224555
0000e0 97 22 86 be 78 a3 56 be 51 34 3b 3e a6 22 3e 3e
       -0.26198265 -0.20960796 0.18281676 0.18567905
0000f0 50 95 09 be 74 e8 0d bf 4b 97 01 3e cf 71 69 be
       -0.13435864 -0.5543282 0.1265537 -0.22797321
000100 5f 34 b6 3d 92 25 75 3e 30 5a 70 be 16 d7 6c 3e
       0.08896708 0.23940113 -0.23471904 0.23128924
000110 e4 9c 38 bd 07 f3 8f be 26 81 e7 3d 77 00 eb 3d
       -0.045071498 -0.28115103 0.1130393 0.11474698
000120 e7 9f f8 bb d3 b2 b9 be 86 11 c3 3d c7 4c e1 3d
       -0.007587421 -0.36269245 0.09524827 0.11000972
000130 6d 55 29 be 9e 73 b2 3b 04 c6 b7 be 80 2c 1d bf
       -0.16536494 0.0054459115 -0.3589326 -0.61396027
000140 d5 fa 92 3e a4 e0 6e 3e 4b 3a 19 be 2d 7b e3 be
       0.28706995 0.23327881 -0.14963643 -0.44429913
000150 d8 76 ff 3d 65 78 ac bc b1 13 d8 3e 7d 0e 17 be
       0.124738395 -0.021053502 0.42202523 -0.1475162
000160 57 6a a2 3e 7a 12 b3 bd 2a cc 9d 3e 60 f9 29 be
       0.31721756 -0.087437585 0.30819827 -0.16599035
000170 7c 74 36 be 6a 64 93 be dc 1a 66 3e ca 6e 84 3d
       -0.17817873 -0.28787547 0.22471184 0.06466444
000180 73 70 a6 be 79 be 7d 3d 6a 70 54 3c 67 04 19 ba
       -0.32507667 0.061949227 0.012966255 -0.0005837143
000190 3a d9 a0 3d c1 17 b2 3e 13 c7 11 bc ef 41 21 3f
       0.07853933 0.34783748 -0.008897561 0.6299123
0001a0 24 7c 2a 3e 52 1f 5a bc c6 b3 86 bd 66 e3 aa bd
       0.16648918 -0.013313131 -0.06577258 -0.08344154
0001b0 61 51 5e be 4e 31 66 bd 74 47 c1 3e 10 6b 85 be
       -0.21710731 -0.056199364 0.37749827 -0.26058245
0001c0 d9 1a de bd ec 91 90 be 3c 9e 00 bb f3 11 04 be
       -0.108449645 -0.2823633 -0.0019625565 -0.12897472
0001d0 69 5a bc 3e ad 46 50 3d df b1 69 3e d8 ed 05 be
       0.36787727 0.05084865 0.22821759 -0.13079011
0001e0 01 49 01 be 74 97 05 3e 2c 9a c1 3e 6a d0 c0 3e
       -0.12625505 0.13046056 0.37812936 0.37659007
0001f0 39 09 12 be d8 2b 07 3f 70 3f 15 3e 75 c7 4b be
       -0.1426133 0.52801275 0.1457498 -0.19900306
000200 f4 cb ef bd 3f e8 b0 bd b5 91 18 3e 51 f8 c7 be
       -0.11708823 -0.086380474 0.14899333 -0.39056638
000210 16 b5 d9 3e a1 3f bd 3d 68 01 c8 3d d1 be 81 3e
       0.4252097 0.09240652 0.09765893 0.25340894
000220 43 d3 39 be 76 30 04 bf f5 59 de bd 12 e2 a3 3d
       -0.18146996 -0.51636446 -0.10857002 0.08002104
000230 18 e0 43 3e 54 16 6f bd a8 59 c8 be 39 a5 68 3e
       0.19128454 -0.058370903 -0.39130902 0.22719277
000240 4b 0e ca 3a 64 8e 7e bd 61 ac 45 be 7c 16 99 3e
       0.0015415637 -0.062147513 -0.19304039 0.29899967
000250 85 ae b8 3e b3 6e 3a be f4 c1 56 be b4 25 73 be
       0.36070648 -0.18206291 -0.20972425 -0.23744851
000260 79 5e 65 bb 4c 31 01 bf f1 6f 4a be 2b ec 94 be
       -0.0034998937 -0.50465846 -0.19769265 -0.29086432
000270 f1 1b 57 be df b4 50 3e c1 b6 c7 3e 47 cf 34 3e
       -0.21006753 0.20381497 0.39006618 0.17657195
000280 10 c9 b6 be 09 91 7d 3d 13 07 8d 3e a6 c3 fb bd
       -0.35700274 0.061905894 0.2754446 -0.12293176
000290 30 75 c5 3d cd 30 d8 be 6f e6 5e 3d a8 9f 5a be
       0.09641492 -0.42224732 0.054418977 -0.21349967
0002a0 09 7c e2 3e 1a 51 8b 3c fd bb b3 be 66 fe 93 3e
       0.44235256 0.017006446 -0.3510436 0.28905028
0002b0 8f ec 17 3e eb 39 ce bd 9c 35 0e 3e 7c 8d 46 be
       0.14836334 -0.10069641 0.13887638 -0.1938991
0002c0 01 5b 7e 3e b8 de 8c bd 4f 0b 44 3e 51 e9 b6 be
       0.24839403 -0.06878418 0.19144939 -0.3572488
0002d0 a3 ec c8 bd d6 af dc be 06 2f ea bd 43 f1 3e 3e
       -0.0981076 -0.43102902 -0.1143475 0.18646722
0002e0 4c fb 09 bf 70 ad 9a 3c f9 0e e8 bd 95 2e 09 bd
       -0.53899074 0.01888153 -0.11330981 -0.03349169
0002f0 b5 7c c1 bd e0 9c d0 bc d5 2a a5 3e 47 3e 3b be
       -0.09447614 -0.025465429 0.3225924 -0.18285476
000300 07 3c 20 bc 57 f2 96 3e 6b 1e bb 3e 54 1e 12 3d
       -0.009779937 0.29481766 0.36546645 0.035673454
000310 90 9a ef 3e 4d a5 d1 bd 9d 67 b7 be 5a f1 e8 bc
       0.4679761 -0.10236607 -0.35821238 -0.028435398
000320 d4 a3 cd 3b 8c 7e 9d 3e 14 fc 59 3e f0 de 6f be
       0.0062756334 0.3076061 0.21287566 -0.23424888
000330 8b d6 90 be b1 3d 8c bd 37 91 82 be 0e 12 91 bc
       -0.28288683 -0.06847704 -0.25501415 -0.017708804
000340 ce 62 e5 bd d3 37 d7 3e ff b1 e0 bd b2 5c aa 3e
       -0.11200486 0.42034778 -0.1097145 0.33273846
000350 c9 99 95 3e 2c 35 35 bd 3b 0d c9 3e 24 5b c6 3c
       0.2921889 -0.04424016 0.39267907 0.024213381
000360 43 b0 d7 be ee b3 48 3e 2f 79 a0 bd b0 c5 f3 3d
       -0.42126665 0.19599888 -0.07835614 0.1190294
000370 49 68 71 3e fb fc 2f be b6 19 3a 3e 16 6d e2 3d
       0.23574938 -0.17186348 0.1817387 0.11055963
000380 8a 92 62 3e bc 4b ff bd e5 95 ab 3e 24 74 d5 3d
       0.22126213 -0.12465617 0.33512798 0.10422543
000390 1b 08 a9 3b 78 53 68 3e a1 0e f7 3e 87 8f 25 be
       0.005158437 0.22688091 0.48253348 -0.16168033
0003a0 c1 1d 1e bc b8 df a0 3d 71 ec f4 be 86 ae 85 be
       -0.009650649 0.07855171 -0.4783664 -0.26109713
0003b0 5f 62 8a be d8 f4 4f 3d 43 a3 02 be a9 c7 32 be
       -0.27028176 0.05077061 -0.12757592 -0.17458977
0003c0 70 ca dd 3e a8 da c9 be 5c a0 9d bd d0 af 21 3e
       0.4331851 -0.39424634 -0.07696602 0.15789723
0003d0 5a 7e cb 3e 54 80 f0 3b 6d ef c8 bd a5 c0 03 3e
       0.39744836 0.0073395167 -0.09811292 0.12866457
0003e0 c6 58 2e 3e 89 22 f6 3d da 46 02 b7 11 1b fb bc
       0.17026052 0.12018306 -7.7651e-06 -0.030652555
0003f0 06 de e3 3e c4 88 62 be 5b 9b 62 3d 0b 1a 8b be
       0.44505328 -0.22122484 0.05532394 -0.27168307

mlp.0.bias f4 [16]
000000 ac 8c 05 3e d5 d0 2d 3d 3a 63 d1 3d c8 13 4c 3e
       0.13041943 0.042435486 0.10224004 0.19929421
000010 a7 56 de 3c 05 6f b2 bd 00 bc 70 be a1 73 2d 3d
       0.027140928 -0.087125815 -0.23509216 0.0423466
000020 99 b7 fc bd 7f 03 99 3d 6d 11 64 3e c4 6a 36 be
       -0.12339706 0.0747137 0.22272272 -0.17814165
000030 01 c4 1d be 9f 53 26 be 4f f8 36 bd de 29 23 be
       -0.15406801 -0.16242836 -0.0446704 -0.1593394

mlp.2.weight f4 [4, 16]
000000 73 38 4d 3e e5 7c ec bd ad 5e 71 bd 58 65 44 be
       0.20041065 -0.11547259 -0.05892818 -0.19179285
000010 11 8d fd bd dc 13 b0 be 5d 5b 80 be 6c 1c 84 3d
       -0.12380422 -0.34390152 -0.25069705 0.064507335
000020 19 5c b9 3d 95 fb f5 be e8 48 20 bf 5e 61 99 bc
       0.09050769 -0.48043504 -0.62611246 -0.018723186
000030 d7 a3 36 bd eb 52 ce 3b f5 94 1f be 13 e0 0e 3d
       -0.044589844 0.0062965057 -0.15584166 0.034881663
000040 0f 56 bb be 1d 31 d1 bb 51 59 2e be 77 01 05 bd
       -0.36589095 -0.0063840286 -0.17026259 -0.0324721
000050 36 0a 07 3e ac 01 94 bd 94 0e db 3d 41 fd 41 be
       0.13187489 -0.072268814 0.1069614 -0.18944265
000060 90 46 20 3f 87 0a da bc 6c 6a a9 bd c7 f8 5c 3d
       0.6260767 -0.026616348 -0.082722515 0.05394819
000070 5e 8e f8 be ce ae 45 be 96 90 39 3e 60 91 3f be
       -0.48546118 -0.19304964 0.18121561 -0.187078
000080 5c c3 30 be ae bd dc be d0 18 b0 3c 24 71 fd bc
       -0.17262024 -0.43113464 0.021496207 -0.030937739
000090 c3 0c 8a be 14 b5 54 be 3a 83 1a be 30 21 35 3e
       -0.2696286 -0.20772201 -0.15089121 0.17688441
0000a0 5c e9 7c 3d 13 4b 2b 3f ff b2 3f be 99 2e ac be
       0.061745986 0.6691143 -0.18720625 -0.336293
0000b0 42 50 6c bd 06 e2 eb 3c 2a 2d 56 38 c0 38 94 3d
       -0.057693727 0.0287943 5.106364e-05 0.07237387
0000c0 28 9b fd bd 24 17 62 3a ff 83 0b 3d 6f 4b f0 3e
       -0.12383109 0.0008624664 0.03406143 0.4693255
0000d0 fc 04 63 be 6a 59 22 bd 08 7a 80 be 09 03 45 3e
       -0.2216987 -0.039636053 -0.25093102 0.19239439
0000e0 65 77 23 3e 5f ba 8a be 56 e8 b9 3e 4f 4d 43 be
       0.15963514 -0.27095315 0.3631007 -0.1907246
0000f0 71 06 05 be 8d be 0b be 4e b6 04 bf 7a 5f d9 bc
       -0.12990738 -0.13646908 -0.51840675 -0.026534785

mlp.2.bias f4 [4]
000000 dd 03 5b bd ae 49 25 3e e0 4d 56 3e 42 16 5a be
       -0.05347048 0.16141388 0.20928144 -0.21297553
