output_bbox_gcn/GENERATOR_layout_MultiLayer_2023_09_21_17_53_01/Model/generator_270.pth (torch, 19605 bytes, 12 tensors)

encoder.weight_ih_l0 f4 [64, 4]
000000 1c 7e f3 3d 52 21 eb 3d 00 67 25 3c 0f e2 c0 3c
       0.11889288 0.11480965 0.010095358 0.023545293
000010 32 89 ce 3d e6 9c 0a 3e 05 06 21 3c c7 40 47 3d
       0.10084762 0.13536415 0.009828095 0.04864576
000020 1f f8 aa 3d f6 ee 01 3e ab 6c f3 3c b5 26 3f 3d
       0.083481066 0.12688813 0.029714903 0.046667773
000030 07 a9 a8 bd 37 25 51 3e 94 f5 44 bb a3 a2 1c 3e
       -0.082353644 0.20424353 -0.0030053603 0.15296416
000040 e7 8d 5c 3e c5 a8 82 3e 1b cb 1d 3e 24 0d 44 3e
       0.21538506 0.25519386 0.1540951 0.19145638
000050 a8 4d 5c 3d 6c 0a 84 3d d9 28 09 3d c9 cb 49 3d
       0.053784996 0.064473 0.03348622 0.04926661
000060 26 6e 90 3e 2b d4 da 3d 42 2c 0d 3e 98 a0 cf bc
       0.28209037 0.10684999 0.13786414 -0.025345132
000070 d4 e7 4d 3c fd ca 01 3e 0a f1 0e 3c 46 a0 63 3e
       0.012567479 0.1267509 0.00872446 0.22229108
000080 09 4d 5d 3e 25 17 03 3e 23 e3 49 3b c6 6a 92 bb
       0.21611418 0.12801798 0.003080555 -0.004468295
000090 06 a1 2b 3e 67 ee d6 3d 23 4a 4e 3e c4 5c 3a 3e
       0.16760644 0.104946904 0.20145468 0.1819945
0000a0 fb ae ef bb 13 bd 24 3e eb a0 1e bd 96 55 54 3e
       -0.0073145605 0.16087751 -0.038727682 0.20735773
0000b0 c1 b8 be 3d 0e 07 dd 3c 85 f4 99 3d 5e 8b 37 3e
       0.09312583 0.026980903 0.075173415 0.17924258
0000c0 5b 56 4a 3d cc 8b 71 3d 2c d7 ec 3c b3 33 69 3d
       0.04939876 0.05897121 0.028911196 0.05693407
0000d0 54 f4 17 3e 86 69 50 3e 9a 01 3a 3e b2 1b 63 3e
       0.14839298 0.20352754 0.18164673 0.22178534
0000e0 0d bd c3 3b 4d 05 98 3d 98 05 5d 3e 64 dd 25 3e
       0.0059734643 0.07422886 0.21584165 0.16197735
0000f0 d0 2d a1 3c 7f c6 8b 3d 60 b6 43 3c 28 24 8c bd
       0.019675165 0.068249695 0.011945337 -0.06842834
000100 d8 74 a2 3d 52 d7 ad 3d 5b c4 a8 3b 53 57 ed 3c
       0.079324424 0.08488335 0.0051503605 0.028972303
000110 e7 87 a4 3d 05 4d ab 3d 82 f2 1c 3c c3 d1 98 3d
       0.08033734 0.083643 0.009579303 0.07461884
000120 86 66 5d 3d 3b e1 6b 3d 44 0b 27 3d 9f d1 4a 3d
       0.054052852 0.057587843 0.040782228 0.049516317
000130 80 94 db 3d a3 4d 10 3e 0c b7 34 3d 5a f5 2b 3e
       0.107216835 0.14092116 0.04411988 0.16792813
000140 2d ce a9 be 1f e9 ae 3c 37 3c 61 be 60 67 4a be
       -0.33165112 0.021351395 -0.21995626 -0.19765997
000150 8a 89 a4 3d c4 f9 42 3d ef 29 3f 3d 0e 26 fb 3c
       0.08034046 0.047601476 0.04667085 0.030657794
000160 88 9c c4 3d 59 88 24 be 7e 78 0b be d0 36 ea 3e
       0.096001685 -0.16067638 -0.13620183 0.45744944
000170 30 d6 a2 3e 28 74 27 3e 11 48 07 bf d8 46 a8 bd
       0.31804037 0.16352904 -0.5284434 -0.082166374
000180 a2 bb db 3d f2 a8 3d be a7 e7 06 bd d9 09 df 3e
       0.107291475 -0.18521479 -0.032935765 0.435622
000190 e2 2c 4b be 76 b9 0f bd 06 3f f0 be 22 09 5a 3e
       -0.1984134 -0.03508898 -0.46923083 0.21292546
0001a0 fa c5 6c be 1c 69 93 3e 96 52 30 3e 61 6b f7 3c
       -0.23122397 0.2879113 0.17219004 0.03020257
0001b0 38 54 b7 bd 2b 8a 89 3c 7d ce 1b bf c6 63 75 3b
       -0.0895161 0.016789516 -0.6086195 0.0037443503
0001c0 c1 ec 93 3d d3 ab 67 3d 79 9f 40 3d 8d d0 75 3d
       0.072228916 0.05656035 0.047027085 0.060013343
0001d0 50 d4 95 3e da 7e ae bd c3 17 85 be eb 03 0e bf
       0.29263544 -0.08520289 -0.2599469 -0.5547473
0001e0 41 95 12 be 28 97 31 bd 29 be b5 be 46 54 87 3e
       -0.14314748 -0.043357044 -0.35496643 0.26431483
0001f0 72 4a af 3d 12 b2 c4 3d 8f b5 1a 3d d6 2c 05 bd
       0.08559121 0.09604277 0.037770804 -0.032513462
000200 0c d7 3f 3e 52 b7 33 3e 95 d6 9a 3b 36 ca 1f 3d
       0.18734378 0.175504 0.004725287 0.039011203
000210 32 3b 14 be 18 6e 63 be 9d fd 8f bb e1 dd 31 bd
       -0.14475706 -0.22209966 -0.0043942467 -0.04342449
000220 76 fe f1 bd cf 34 69 be f9 b4 a0 bd cf 45 5c bd
       -0.11816113 -0.22774051 -0.07847018 -0.053777512
000230 a3 dc 9e 3e 9c 7a db be 2f 14 82 3e 30 3b e9 be
       0.31027707 -0.4286698 0.25406024 -0.4555297
000240 6e 0b ac be e6 fa 53 be 0d d1 3b 3f 78 c4 28 3f
       -0.3360247 -0.20701179 0.7336586 0.6592479
000250 64 69 b9 bd a5 90 16 be ca 73 2b bd b8 5b 77 3d
       -0.09053305 -0.14703615 -0.041858472 0.060390204
000260 da a1 15 3d 33 3c e2 bd 35 7a 20 bf 1c 9c e2 3e
       0.036531307 -0.11046638 -0.62686473 0.44259727
000270 ac 5c 0b 3f ca 0c 32 3e 2c 7c 99 be 51 a2 63 be
       0.5443828 0.17387691 -0.29977548 -0.22229888
000280 66 62 06 bf 80 ae 2b 3f cb c2 47 bf 92 b7 85 3e
       -0.52493894 0.6706314 -0.78031605 0.26116616
000290 ff ff 88 be 54 31 78 bf 91 a4 31 bf 6e f6 dc bd
       -0.2675781 -0.9695027 -0.69391733 -0.1078919
0002a0 93 be e9 3d 0e 1e 95 bc 77 b1 8a be ab 34 70 3f
       0.11413302 -0.018202808 -0.2708852 0.93830365
0002b0 b3 74 28 3e d5 e5 cb be 18 18 fb 3d ea a3 1d 3f
       0.16450767 -0.39823785 0.12260455 0.6157824
0002c0 c8 45 8f bd 08 d7 f4 bd 07 c4 b2 bc 8c 27 8c bd
       -0.069957316 -0.119550765 -0.021821989 -0.068434805
0002d0 0d 08 5c 3f 5b 18 12 3e 59 c5 a1 3e 12 11 18 bf
       0.85949785 0.14267103 0.31595877 -0.5940105
0002e0 0f fb 61 bf 51 de 73 be c7 e6 05 3f d8 16 cd be
       -0.8827371 -0.23815276 0.52305263 -0.4005649
0002f0 72 95 3e 3d 04 ce 1c 3e 84 79 18 3d fe 8b 87 bd
       0.04652924 0.15312964 0.03722526 -0.06618498
000300 2b d5 11 3e 7f ac 4f 3e f3 cf e8 3d ac 68 9c be
       0.14241473 0.20280646 0.11367788 -0.30548608
000310 0d 1c 27 3e e6 c0 52 be 15 fd ba 3e e0 12 fc 3e
       0.16319294 -0.20581397 0.3652121 0.4923315
000320 1c f7 9e bc 59 b2 a4 be e2 08 0f 3f 04 2e 53 be
       -0.01940494 -0.32167318 0.5587293 -0.20623022
000330 27 48 b2 3d 4e 1d 4f 3e f8 cb 12 3e aa 4f 0a 3e
       0.08705168 0.20226023 0.1433562 0.13506952
000340 a5 ab 30 3e 4e 39 8a 3e ac 96 29 3e 82 ec 40 3e
       0.17252977 0.26996845 0.16561383 0.1884022
000350 fa a0 02 3e 8c bd 15 3e f8 af c7 3d 23 18 2c bd
       0.1275672 0.14623088 0.0975036 -0.042015206
000360 69 fb 83 3e 5d d8 09 3e 57 36 9e 3e 58 16 2d 3e
       0.25777748 0.13461442 0.30900833 0.16903055
000370 28 4f a9 3d 5b 81 15 3f b9 21 dc be f0 65 cf 3e
       0.08267051 0.58400506 -0.42994478 0.4050746
000380 83 85 7b 3e 29 26 e2 3d eb ce 64 bd df c7 0d 3e
       0.2456265 0.11042435 -0.055861395 0.13845776
000390 85 03 0f 3e 4b ff 15 3e 57 b5 0c 3e 01 9a 34 3e
       0.13966186 0.14648168 0.1374105 0.17636873
0003a0 ef d3 df bd c1 b6 b8 3d 5a 0c ae bd 79 81 54 3e
       -0.10929095 0.090192325 -0.084984496 0.20752515
0003b0 bc c4 01 3e e6 3c 7c 3c 15 fa 6e 3d 70 cd 8e 3e
       0.12672704 0.015395379 0.058343966 0.2789111
0003c0 a9 ab d8 3d 68 73 99 3d 82 e7 30 3e 0f 10 11 3e
       0.105796166 0.07492715 0.17275813 0.14166282
0003d0 12 e8 54 3e 78 aa 7f 3e a4 21 68 3e 51 4a c1 3d
       0.20791653 0.24967372 0.22669083 0.09438003
0003e0 7f 38 02 3d 8f 82 9f 3d 83 6f 26 3e 00 e2 85 3e
       0.03179216 0.07788574 0.16253476 0.26148987
0003f0 33 10 09 3e 68 6f 82 3e 92 4e 63 3d 1e 6e c1 bc
       0.13385086 0.2547562 0.055494852 -0.023612078

encoder.weight_hh_l0 f4 [64, 16]
000000 ab 9d c1 3d 44 ee ba bd 8b 58 93 bd 59 52 4b ba
       0.09453901 -0.09127477 -0.071946226 -0.0007756106
000010 88 32 42 bd 3f 51 bb bd 23 21 6b 3d 9a 6b 9a 3d
       -0.04741147 -0.09146356 0.05740465 0.075400546
000020 07 72 45 3d 91 de 03 3a 74 43 36 bc 72 ae 38 bd
       0.048204448 0.00050304184 -0.0111244805 -0.04508824
000030 ff ba b0 bd 07 e2 a4 3d 96 1f 28 bd 24 50 8e 3d
       -0.08629417 0.08050924 -0.041045748 0.06948879
000040 5a 2e c5 3d 01 b0 b8 bd a3 26 94 bd f6 89 35 bc
       0.096279815 -0.09017945 -0.07233932 -0.011080256
000050 a2 a6 46 bd df ac bd bd 34 cd 47 3d 90 40 70 3d
       -0.048498757 -0.09261488 0.04877968 0.05865532
000060 b1 15 79 3d 99 7b a6 bb ff 5f 29 bb b6 e5 87 bd
       0.060811702 -0.005080652 -0.0025844572 -0.06635611
000070 b2 97 b0 bd e1 52 97 3d 73 5b 0d bd f4 bb 94 3d
       -0.086226836 0.07388855 -0.03451104 0.07262412
000080 e8 45 be 3d 9e b0 b9 bd 85 cd 8b bd 0e 9b d3 bb
       0.09290677 -0.0906689 -0.06826309 -0.006457693
000090 49 77 56 bd 2a dc b6 bd 02 7a 77 3d 80 0b 83 3d
       -0.052359853 -0.08928712 0.06041909 0.06398678
0000a0 19 22 ab 3d 98 bb b0 bb 2d 73 01 3c 7d b6 96 bd
       0.08356113 -0.0053934567 0.007900995 -0.073590256
0000b0 48 38 ad bd de d6 8c 3d 31 f1 46 bd a7 f2 89 3d
       -0.084580004 0.0687692 -0.04856986 0.067357354
0000c0 ab 11 4c 3e 61 c8 57 be fa cd 21 be ce e2 f0 3c
       0.19928615 -0.21072532 -0.1580123 0.029405024
0000d0 d0 ce e7 bd 12 61 79 be ca 9f a5 3e 9d da 82 3e
       -0.11318743 -0.24353436 0.32348472 0.25557414
0000e0 ac 27 50 3d d8 53 e3 bd 5e bc b2 bd 94 d7 c1 3d
       0.050819084 -0.11099976 -0.087273344 0.094649464
0000f0 c0 27 6f be f8 9f 18 3e dc ea 0f 3e 7c b2 7f 3e
       -0.23355007 0.14904773 0.14054435 0.2497043
000100 9e 60 58 3e 7b 51 00 be 7c d4 f0 bd 40 c4 4a 3e
       0.21130607 -0.12531082 -0.11759278 0.19801426
000110 c1 f3 fb bd 29 ca 7d be ad 07 4e 3e 7e c5 5b 3e
       -0.12302352 -0.24784149 0.20120116 0.21462056
000120 94 e2 a1 bd d4 6e 00 bc c6 0a f1 bd a0 21 0d bc
       -0.079045445 -0.0078389235 -0.11769633 -0.008613974
000130 24 fd 68 be d6 60 86 3e 4c a7 32 bc 95 0c 76 3e
       -0.22752815 0.26245755 -0.0109041445 0.24028237
000140 19 11 b7 3d e4 cf bd bd bf dc 8e bd dc 3d 9c bb
       0.08938808 -0.092681676 -0.06975698 -0.0047681164
000150 76 11 2f bc 81 60 b7 bd 0f 51 7a 3d e5 95 56 3d
       -0.010685315 -0.089539535 0.06111246 0.052389044
000160 0a 44 44 3d 59 9e 94 3b 3f 4e 8d 3c c1 02 ef bc
       0.04791645 0.004535478 0.017249225 -0.029176118
000170 b2 a9 b4 bd b1 70 1b 3d b9 c1 8d bc 6c 01 92 3d
       -0.08821429 0.037949268 -0.017304288 0.071291775
000180 7e e4 67 3e ee c9 8e be 56 1e 35 be 15 3c d5 bd
       0.22645757 -0.27888435 -0.17687353 -0.1041185
000190 a2 b2 4b be 4f 5e 81 be f0 c7 05 3e 61 d2 c3 3d
       -0.19892362 -0.25267264 0.13064551 0.09561611
0001a0 6c 0d b5 3d ca 1c 77 3e 4f 1b b7 3c d6 42 aa bd
       0.08840451 0.24132076 0.022351889 -0.08313529
0001b0 de 01 83 be f4 6e 08 3e e3 d9 fe bc 4b be 6d 3e
       -0.25587362 0.13323575 -0.031109756 0.23217122
0001c0 83 5e 41 3e b4 5e 48 be 34 0d 1c be 9e 5c 49 3d
       0.1888371 -0.19567376 -0.15239412 0.049160592
0001d0 70 28 3f 3e 8c 15 5f be f3 5d ba 3d a5 2e 16 3e
       0.1866777 -0.21785563 0.09099951 0.14666231
0001e0 08 79 8a bd a0 68 0c be 19 53 bc bb 08 65 a6 3d
       -0.06761366 -0.13711786 -0.0057472107 0.08124739
0001f0 ce f2 75 be 77 ee 2b 3e 7f a0 af 3c 5f 3b 6d 3e
       -0.24018404 0.16790186 0.021438835 0.2316718
000200 f6 83 92 3e d4 b6 8a be f0 d7 6f be e9 f6 79 3d
       0.28616303 -0.27092612 -0.23422217 0.061026487
000210 01 3f a8 bd 97 cd 9f be 03 47 6c 3e 8c d8 83 3e
       -0.08215142 -0.3121154 0.23073964 0.2575115
000220 2a c7 08 be 2f 20 8d 3d 66 29 0e bd 50 6a 14 3e
       -0.13357225 0.06890904 -0.03470745 0.1449368
000230 21 34 9d be b1 7c fe 3d 44 cb b1 3c e9 26 95 3e
       -0.30703834 0.12426127 0.02170337 0.2913125
000240 ee a9 92 3e 99 5a 81 be c8 f3 5f be 5f fc 58 bd
       0.2864527 -0.25264433 -0.21870339 -0.052975055
000250 f2 f5 90 be a9 71 90 be 66 65 9f bd c0 17 d5 3d
       -0.2831264 -0.28211716 -0.07783012 0.104049206
000260 69 43 c2 3d 85 a1 16 3e 42 43 04 3d d2 ef 16 3e
       0.09485514 0.14710052 0.032290705 0.14739922
000270 0d b5 8d be 97 7c 56 3d f7 96 33 be fa ff 8a 3e
       -0.27677193 0.052364912 -0.17538057 0.2714842
000280 8f 9b 83 3e ab fd 2a be be 57 2e be 59 2e ea 3d
       0.2570462 -0.16698329 -0.17025658 0.11434621
000290 84 fd ac bc 0b ab 90 be 76 80 43 be f8 52 da 3d
       -0.02111698 -0.28255495 -0.19091973 0.10660356
0002a0 15 49 8e 3e 41 eb 71 3d 93 c7 5f 3d 16 db e6 bd
       0.27790132 0.059062246 0.05463369 -0.11272256
0002b0 40 70 8d be e9 24 63 3d 4b 86 a3 bd 7c 81 9a 3e
       -0.27624702 0.055455122 -0.07984599 0.30176914
0002c0 ed 7b 8f 3e a7 c0 8f be 80 01 55 be b8 29 51 bd
       0.28024235 -0.2807667 -0.20801353 -0.051065177
0002d0 79 a1 d9 3d a6 2a 91 be f9 83 4e bd c2 ab 7c 3e
       0.106265016 -0.2835285 -0.050418828 0.24674895
0002e0 94 53 31 3e fe f8 5e be 5d d4 39 3b e4 a9 e4 3d
       0.17317039 -0.2177467 0.0028355338 0.111652166
0002f0 5e fa 99 be c5 28 07 3e 80 33 bf bd 92 7f 86 3e
       -0.30073828 0.13199146 -0.09335995 0.26269203
000300 75 f3 9d 3d d1 2a a0 bd 36 46 76 bd d2 71 de 3a
       0.07712451 -0.078206666 -0.060125552 0.0016971177
000310 74 3c b1 bc 66 be a2 bd 4c f0 76 3d f0 52 66 3d
       -0.021635272 -0.07946472 0.06028776 0.05623144
000320 1c 99 16 3d 9b 7c 06 3c 86 8a fe 3b 44 fd 8e bc
       0.03676711 0.008208419 0.007767978 -0.01745475
000330 b3 b3 9c bd fe af 3f 3d 7b 31 5b bc 31 51 87 3d
       -0.076514624 0.0467987 -0.013378496 0.06607283
000340 95 5b 77 3e c6 fa 92 be e8 d1 31 be 5d 83 90 bd
       0.2415603 -0.2870695 -0.17365229 -0.070563056
000350 17 2e 25 3e ad 86 91 be d6 2b 69 3e ab 69 0b 3d
       0.16130863 -0.28423062 0.22770628 0.03403632
000360 46 75 05 3e ad 2f 0f bc 70 39 7c 3e 23 89 a6 3d
       0.13033018 -0.008739394 0.24631286 0.081316255
000370 45 26 92 be 32 64 fc 3c 45 b2 bd bd e8 78 8d 3e
       -0.28544822 0.030809496 -0.09262518 0.27631307
000380 62 91 3d 3e e6 36 5d be f9 95 0a be 08 41 3e be
       0.1851249 -0.21602973 -0.13533773 -0.18579495
000390 66 1c 7b 3c 0e 3a 66 be 4a 84 e8 3c e1 30 9b 3e
       0.015326595 -0.22483084 0.028383393 0.3031073
0003a0 c8 b0 53 bd b9 b7 27 3e 6c 12 2e be 89 c3 36 3e
       -0.051682264 0.16378678 -0.16999215 0.17848028
0003b0 9f 26 63 be ac 53 07 3e 58 d7 d6 bd 01 9d 50 3e
       -0.22182702 0.13215512 -0.10490292 0.20372392
0003c0 42 98 8b 3d 1b 3a 87 bd fc dc 60 bd b1 4d 9c bb
       0.0681615 -0.066028796 -0.054898247 -0.0047700037
0003d0 6f a4 f4 bb 8d f7 90 bd 65 62 e7 3c 33 2f e0 3c
       -0.007465891 -0.070784666 0.02824516 0.027366256
0003e0 28 83 97 3c 1a e9 c0 bb fc 22 09 3c 67 dd a9 bb
       0.018495157 -0.005887163 0.008370157 -0.005183864
0003f0 c2 50 94 bd 5b 2f 07 3c 00 e1 93 3c 85 d6 8c 3d
       -0.07241966 0.0082510365 0.018051624 0.06876854

encoder.bias_ih_l0 f4 [64]
000000 b0 59 64 3e d3 a7 6f 3e 48 43 54 3e 21 5b 7d 3e
       0.22299838 0.23403864 0.20728791 0.24741794
000010 cc 2c 7c 3e 43 b3 3c 3e 28 41 b9 3e 3f 65 4e 3e
       0.24626464 0.18427758 0.36182523 0.2015581
000020 ce 68 b2 3e 13 dd 9c 3e fd 4b 97 3e e7 60 a1 3e
       0.34845585 0.30637416 0.29550162 0.31519243
000030 90 a2 17 3e 9b 43 a8 3e 5d ea 8f 3e 16 d4 d2 3d
       0.14808106 0.3286408 0.28108492 0.102943584
000040 38 f5 48 3e c9 d4 63 3e 94 9e 3a 3e b2 5e 36 3a
       0.19624794 0.2224914 0.18224555 0.000695686
000050 3f 86 c4 bd 2c d9 43 3e 8c 13 0c 3e 49 00 d1 3d
       -0.09595918 0.19125813 0.13679332 0.102051325
000060 87 bc fc bd 65 11 82 bd ef 4a 5d bd 1b dc 0c 3d
       -0.12340646 -0.06350974 -0.05402654 0.034389596
000070 7e d6 2f 3e 4f 64 bb 3c 50 79 e8 bd e1 61 33 3e
       0.17171666 0.02287498 -0.113512635 0.17517807
000080 74 b6 95 3e c8 f2 90 be 68 ff 7b be d0 db 1b 3d
       0.29240763 -0.28310227 -0.24609149 0.038051426
000090 94 e0 8a bc 32 34 60 be 32 b4 11 3e 91 a2 9b 3d
       -0.01695279 -0.21894911 0.14228895 0.075993665
0000a0 e9 d8 d1 3d d0 8b 02 3e 78 b9 3b bb f1 bf aa bd
       0.102464505 0.12748647 -0.0028644484 -0.08337391
0000b0 5b 2e 68 be 27 a8 dc 3c 35 bc 85 bc 1c 94 0d 3e
       -0.22673933 0.02693565 -0.016325096 0.1382603
0000c0 fd 95 6e 3e 6a f9 47 3e 85 1d 27 3e 24 8a 92 3e
       0.23299403 0.19528738 0.16319855 0.28621018
0000d0 a8 93 97 3e b6 56 92 3e 34 68 b8 3e b9 67 19 3e
       0.2960484 0.2858178 0.36017 0.14980973
0000e0 f8 1a b4 3e 4b 2f a2 3e 9c 4f 93 3e 37 23 ac 3e
       0.35176826 0.31676707 0.28771675 0.33620617
0000f0 2d a5 89 3e 7b 60 af 3e df 1d 9a 3e 6f 3d 71 3e
       0.26883832 0.34253296 0.30100915 0.23558591

encoder.bias_hh_l0 f4 [64]
000000 af 59 64 3e d4 a7 6f 3e 45 43 54 3e 1e 5b 7d 3e
       0.22299837 0.23403865 0.20728786 0.2474179
000010 ca 2c 7c 3e 44 b3 3c 3e 28 41 b9 3e 3d 65 4e 3e
       0.2462646 0.1842776 0.36182523 0.20155807
000020 ce 68 b2 3e 11 dd 9c 3e fd 4b 97 3e eb 60 a1 3e
       0.34845585 0.3063741 0.29550162 0.31519255
000030 8f a2 17 3e 9a 43 a8 3e 60 ea 8f 3e 0f d4 d2 3d
       0.14808105 0.32864076 0.281085 0.10294353
000040 37 f5 48 3e c9 d4 63 3e 94 9e 3a 3e c6 5f 36 3a
       0.19624792 0.2224914 0.18224555 0.00069570204
000050 3d 86 c4 bd 2e d9 43 3e 89 13 0c 3e 49 00 d1 3d
       -0.095959164 0.19125816 0.13679327 0.102051325
000060 88 bc fc bd 5b 11 82 bd f8 4a 5d bd 23 dc 0c 3d
       -0.12340647 -0.063509665 -0.054026574 0.034389626
000070 7d d6 2f 3e 5b 64 bb 3c 47 79 e8 bd df 61 33 3e
       0.17171665 0.022875002 -0.11351257 0.17517804
000080 73 b6 95 3e cc f2 90 be 6a ff 7b be d5 db 1b 3d
       0.2924076 -0.2831024 -0.24609151 0.038051445
000090 98 e0 8a bc 2f 34 60 be 30 b4 11 3e 9f a2 9b 3d
       -0.016952798 -0.21894906 0.14228892 0.07599377
0000a0 dd d8 d1 3d d1 8b 02 3e 88 b9 3b bb fb bf aa bd
       0.102464415 0.12748648 -0.002864452 -0.083373986
0000b0 5c 2e 68 be 40 a8 dc 3c 39 bc 85 bc 17 94 0d 3e
       -0.22673935 0.026935697 -0.016325103 0.13826023
0000c0 fe 95 6e 3e 73 f9 47 3e 8a 1d 27 3e 23 8a 92 3e
       0.23299405 0.19528751 0.16319862 0.28621015
0000d0 a9 93 97 3e b5 56 92 3e 37 68 b8 3e bd 67 19 3e
       0.29604843 0.28581777 0.3601701 0.1498098
0000e0 f8 1a b4 3e 4b 2f a2 3e 9e 4f 93 3e 37 23 ac 3e
       0.35176826 0.31676707 0.2877168 0.33620617
0000f0 2e a5 89 3e 7a 60 af 3e de 1d 9a 3e 71 3d 71 3e
       0.26883835 0.34253293 0.30100912 0.23558594

decoder.weight_ih_l0 f4 [64, 16]
000000 70 13 d7 bd 14 cd 04 be 34 99 49 be b8 be 2d 3d
       -0.10501754 -0.12968856 -0.19687349 0.04241821
000010 d8 74 67 be a2 28 62 3e da f7 24 3e bc 60 0f 3e
       -0.22603166 0.22085813 0.16110173 0.14001745
000020 f0 f5 78 3e 02 7f 78 3e b4 4e ce bd 20 30 6e 3e
       0.24312568 0.242672 -0.10073605 0.23260546
000030 8c fe 24 be d0 88 07 3d 32 eb 5e be 9c c5 16 3e
       -0.16112727 0.03308946 -0.21769407 0.1472382
000040 10 98 46 bd 84 ff d2 3d e8 90 c6 bd 1a 6c 1a 3e
       -0.04848486 0.10302642 -0.096956074 0.150803
000050 9c f8 5c be ba 04 0e 3e 26 16 3e 3e 86 fb 70 be
       -0.21579212 0.1386899 0.18563136 -0.23533449
000060 08 4e 69 3e bc 59 11 3e 92 b0 2d be 5a 4c 70 3e
       0.22783673 0.14194387 -0.16961887 0.23466626
000070 ec 1d 74 3e 00 4e 25 bb 00 14 03 bd 50 f6 16 3e
       0.2383954 -0.0025223494 -0.032001495 0.14742398
000080 1c 4d 9b 3d a8 9a 6b 3d b0 fb 92 bc 38 e2 ea 3d
       0.07583067 0.05752054 -0.01794228 0.11468929
000090 f4 07 ab bd 74 41 a9 3d 68 22 a2 3d 30 c9 1f 3d
       -0.08351126 0.08264437 0.07916719 0.039010227
0000a0 18 f3 fa bd b2 fa 79 3e e0 53 a6 bd 54 12 34 3e
       -0.12253398 0.24412039 -0.08121467 0.17585117
0000b0 5c c9 10 be 5a 3a 47 3e cc 92 fc bd 00 da 1e 3d
       -0.14139313 0.19455853 -0.12332687 0.03878212
0000c0 30 65 90 bc a8 94 e1 3d 30 1a 96 3c f4 20 59 be
       -0.017626375 0.11014682 0.018323034 -0.21203977
0000d0 64 98 c3 3d 44 e5 8c 3d 2a 85 3d be 64 9c 4e be
       0.095505506 0.068796664 -0.1850783 -0.20176846
0000e0 7a 9a 4c 3e 36 77 38 3e 00 56 ca 3a 94 30 7a 3e
       0.19980803 0.18014225 0.0015437007 0.24432594
0000f0 4c f7 60 3e 60 0c e7 bc 00 b6 1f 3c 46 e8 3c be
       0.21969336 -0.028204143 0.009747982 -0.1844798
000100 18 64 37 bd f0 7c ba bc cc 3a 69 be c0 44 14 3e
       -0.04477319 -0.022764653 -0.22776335 0.14479351
000110 28 16 f7 bd b4 16 9d 3d 8e 9f 2b be d8 39 99 3d
       -0.12064773 0.07670346 -0.16760084 0.07481736
000120 32 92 22 be 70 f0 fe bc 4c 00 1e 3e 2c 43 34 be
       -0.15876082 -0.031120509 0.15429801 -0.17603749
000130 1a f7 43 3e 6c 94 22 be 98 39 36 bd a0 7b 57 bc
       0.1913723 -0.15876931 -0.04448852 -0.013152033
000140 a0 7b 1a 3c 64 4d 92 3d 1a ee 37 be 72 3a 78 3e
       0.009428889 0.07143667 -0.17961922 0.24241045
000150 c0 b0 c0 3d 72 63 1b 3e 8c 01 44 be e4 67 a8 bd
       0.094087124 0.15174654 -0.19141215 -0.082229406
000160 aa 7f 16 3e 90 28 e5 3c ce 7b 71 be 10 8a 1c be
       0.14697137 0.027973443 -0.23582384 -0.15287042
000170 d4 f1 87 3d c0 c3 c4 bc 40 8b 33 bd 3c 3c 55 be
       0.06637922 -0.024019122 -0.04383397 -0.20823759
000180 f0 e3 8c 3c 18 37 02 3d 50 1d a2 bc 20 57 61 bc
       0.017198533 0.031790823 -0.019789368 -0.013753682
000190 fc f1 46 be 10 35 6a bd ea f1 45 be fc 21 02 be
       -0.19428247 -0.05717951 -0.19330564 -0.12708277
0001a0 80 31 82 3d e8 0a ef bd 60 cf 70 bc c0 46 9f 3c
       0.063570976 -0.11672002 -0.01469788 0.019442916
0001b0 a4 fa 62 3e 5a 22 26 3e 48 4b 2f 3e c0 b2 8c bd
       0.22165924 0.16224042 0.17118561 -0.06870031
0001c0 50 4b 7c bd 6e f4 08 3e 76 63 70 be 08 71 14 3d
       -0.06159526 0.13374493 -0.23475441 0.036240608
0001d0 0a 24 1d 3e 00 f3 a3 3c a8 b5 af 3d 18 01 30 bd
       0.15345779 0.020013332 0.0857957 -0.042969793
0001e0 64 2a 17 3e ae e1 77 3e 2c 7f d6 3d 70 23 07 be
       0.14762264 0.24207184 0.10473475 -0.13197112
0001f0 00 b4 b2 3d de 0f 60 be 00 a2 92 bd 48 40 6a bd
       0.087257385 -0.21881053 -0.07159805 -0.05719021
000200 0c 48 62 be 48 1b 12 3e c8 85 51 bd f0 a7 27 3e
       -0.22097796 0.1426822 -0.051152974 0.16372657
000210 24 18 60 3e 40 30 17 bd e0 44 b4 bd d8 82 be 3d
       0.21884209 -0.03691125 -0.08802199 0.093023
000220 94 18 3c be 28 40 d0 bd 8a af 59 be 18 d0 2c 3e
       -0.18368751 -0.10168487 -0.21258369 0.16876256
000230 aa db 33 3e f0 b8 af bd 1c 80 e2 bd 38 fa 0a 3e
       0.17564264 -0.08580196 -0.11059591 0.13572013
000240 0e 68 00 3e 76 c7 7e 3e f4 1b 92 bd 82 c7 4e be
       0.12539694 0.24880776 -0.07134238 -0.20193294
000250 6a 01 5a 3e 8e c2 00 be 80 c6 3c 3b c8 64 f4 3d
       0.21289602 -0.12574217 0.0028804839 0.11933285
000260 b4 ce db 3d 20 a4 29 3c dc 13 f0 bd 80 72 73 3c
       0.10732785 0.010354072 -0.11722538 0.014858842
000270 32 13 74 be 34 e1 40 be ca 1e 69 3e 98 34 58 3e
       -0.23835447 -0.18835908 0.22765651 0.21113813
000280 4e cc 21 3e 3c 3e 5d be 24 f6 4d be c0 b3 a7 bc
       0.15800592 -0.21605772 -0.20113426 -0.020471454
000290 d6 21 73 be 4c f4 54 be f8 e1 42 be 32 bc 28 3e
       -0.23743376 -0.20796317 -0.19031513 0.16478041
0002a0 bc da 7c be b8 a4 06 be f8 71 56 bd 48 be 18 be
       -0.24692816 -0.13148773 -0.052354783 -0.14916337
0002b0 d8 a4 0e 3d 00 50 51 3c 68 84 0d bd 02 c0 11 be
       0.034825176 0.012775421 -0.0345501 -0.14233401
0002c0 66 92 31 be 08 15 41 3d 28 e7 17 3d 8e 6a 27 be
       -0.17341003 0.047139198 0.037085682 -0.16349241
0002d0 b4 8b c0 3d 98 f0 54 be 60 14 a5 3d 2c 37 00 3e
       0.09401646 -0.20794904 0.08060527 0.12521046
0002e0 ea ab 74 3e 3a 83 6d be ac 34 df 3d 64 b0 9f 3d
       0.23893705 -0.2319459 0.10898718 0.07797316
0002f0 72 3e 24 be 80 f7 ec 3d 60 3a 1b 3d b0 84 b1 bc
       -0.16039446 0.115706444 0.037897468 -0.021669716
000300 6c ea 62 3e 98 2f 83 3d 00 5e 8b ba 1c b7 56 be
       0.22159737 0.06405562 -0.0010632873 -0.20968288
000310 00 2b 0c be 7c 5c 3e 3e 48 98 3d 3d 30 bf d7 3c
       -0.13688278 0.18589967 0.046287805 0.026336282
000320 78 bf 0b bd d0 f3 8b bc fc 03 58 be e8 cb 7c 3e
       -0.034118146 -0.017084032 -0.2109527 0.24687159
000330 a6 78 60 3e 36 5d 21 be 58 80 89 bd 80 05 99 bb
       0.21921024 -0.15758213 -0.06713933 -0.004669845
000340 c4 df 13 be b4 e3 3c 3e 5c f4 53 be a0 95 3a 3e
       -0.14440829 0.18446237 -0.20698684 0.1822114
000350 f0 a9 55 be 72 74 7f be dc 44 4a 3e cc 51 db 3d
       -0.20865607 -0.24946764 0.1975283 0.10708961
000360 30 87 e8 bd f8 ad 1a bd 64 35 b9 bd c8 38 43 bd
       -0.1135391 -0.037763566 -0.090433866 -0.047661573
000370 da 5c 10 be c4 93 b9 bd 46 d7 6e 3e 48 0d 61 3d
       -0.1409792 -0.09061387 0.23324308 0.054944307
000380 38 b1 a0 3d ac 30 0c be 98 55 28 bd a6 5a 4c 3e
       0.07846302 -0.13690442 -0.041097254 0.19956455
000390 5a e6 37 be 30 5a f8 3d 34 c7 f0 bd b2 9c 60 be
       -0.17958966 0.12126577 -0.11756745 -0.21934775
0003a0 88 aa 06 3d 00 d3 be 3b 16 06 69 be ce 6d 7c 3e
       0.032877475 0.005823493 -0.22756228 0.24651262
0003b0 68 dc 54 be 2a 60 42 be de 63 0d be 38 f3 6f be
       -0.20787203 -0.18981996 -0.13807628 -0.23432624
0003c0 40 03 85 3d 40 a7 86 3c 10 ba c1 bd e6 fe 0e be
       0.064947605 0.016437173 -0.09459317 -0.13964424
0003d0 cc c3 82 3d 9a a0 55 3e 78 bb a4 bd 60 ea 19 bd
       0.063850015 0.20862046 -0.08043569 -0.037577033
0003e0 a0 c9 03 3e a4 01 92 3d 8c 0c de 3d 28 48 72 bd
       0.12869883 0.07129219 0.10842237 -0.059150845
0003f0 c8 c0 27 3e f0 7a 91 bc e6 b4 16 3e f8 13 6d be
       0.16382134 -0.017758816 0.14717445 -0.23152149

decoder.weight_hh_l0 f4 [64, 16]
000000 3c 4c 11 be 46 db 7f be e8 a1 1d be 34 72 ca 3d
       -0.14189237 -0.2498599 -0.15393794 0.09885064
000010 02 8e 48 be b8 e3 28 bd 48 80 14 3e 20 61 5c bd
       -0.19585422 -0.041232795 0.1450206 -0.053803563
000020 ac da c0 bd 1c b1 2a be 10 9d 7a be 9c 6b eb bd
       -0.09416708 -0.16669124 -0.24473977 -0.11495134
000030 22 7f 45 be f2 6f 44 3e 02 e4 2a be b6 9d 0b be
       -0.19286779 0.19183329 -0.1668854 -0.1363438
000040 30 44 18 be a0 23 a0 3d 4c cc b7 bd 86 7c 3a be
       -0.14869761 0.07819295 -0.089745134 -0.18211564
000050 4c dd de 3d 42 13 62 3e 38 e3 c8 3d 66 94 63 3e
       0.10882053 0.22077659 0.098089635 0.22224578
000060 10 0f 4f 3e cc 8f 3d 3e 48 62 5d be 42 33 1d 3e
       0.2022059 0.18511885 -0.21619523 0.15351585
000070 90 19 ba bc be 5a 1b 3e 84 77 45 be e8 12 9d bd
       -0.022717267 0.15171334 -0.19283873 -0.07669622
000080 c8 73 54 bd a8 ba 4e 3e 54 af 6a 3e 76 66 6f 3e
       -0.05186823 0.20188391 0.22918445 0.2337893
000090 94 f4 ec bd 22 a7 43 be 00 c0 8d 3b 80 10 91 3d
       -0.11570087 -0.19106725 0.0043258667 0.07083225
0000a0 fa 56 4a be d0 bd 68 3e c2 c7 03 3e f8 00 d4 bd
       -0.19759741 0.22728658 0.1286917 -0.10351747
0000b0 58 c6 d7 3d 30 24 16 3d f0 db 93 bc fc 7b c6 bd
       0.10535878 0.036655605 -0.01804921 -0.09691617
0000c0 f0 36 82 3c ce 83 6d 3e 00 05 b8 bd 92 68 17 be
       0.015895337 0.23194811 -0.08985329 -0.14785984
0000d0 10 38 5b 3d 4a 25 6d be c8 6c 0e 3e 18 af 0b be
       0.053520262 -0.23158756 0.13908684 -0.13641012
0000e0 60 72 1a bc c0 99 f0 bc d4 6d a9 bd c2 78 21 3e
       -0.009426683 -0.029370189 -0.08272901 0.15768722
0000f0 32 d8 7d be 88 01 24 bd 60 06 1c 3d 98 44 7f bd
       -0.24789503 -0.040040523 0.038092017 -0.062321275
000100 ec 81 49 be 40 0e 24 3c 40 db 12 3e 2a 61 6b 3e
       -0.19678468 0.010013163 0.1434145 0.22986284
000110 46 a3 0a be e0 21 bb bc 72 5e 51 3e c0 c9 44 bd
       -0.13538846 -0.022843301 0.20446184 -0.048043966
000120 d8 27 19 3d 18 69 de 3d a4 84 5e 3e 68 64 18 3e
       0.037391514 0.10859889 0.21730286 0.14882052
000130 80 3a f1 bb 42 99 51 3e 58 19 16 be 64 35 63 be
       -0.00736171 0.2046862 -0.14658105 -0.22188336
000140 ac e0 4c 3e a8 77 a7 3d e8 b3 3a 3e b8 b4 2a be
       0.2000758 0.081771195 0.18232691 -0.16670501
000150 ce c9 26 3e 80 2a 27 be 94 4e 17 be 38 c6 04 3d
       0.1628792 -0.16324806 -0.14776069 0.0324156
000160 68 4f d9 3d d0 b2 b1 bd 94 3b d8 bd 6a 42 14 be
       0.10610849 -0.08676684 -0.105582386 -0.1447846
000170 c8 e2 ae 3d 74 12 fe bd d0 bd a9 bd 42 a4 0a be
       0.08539349 -0.124058634 -0.08288157 -0.13539222
000180 b4 81 bd 3d 64 dc bb 3d 28 db 24 3d a4 47 3f 3e
       0.092532545 0.091728956 0.040248066 0.18679672
000190 90 43 35 3e d4 8e 9d 3d 78 75 44 be 60 7a f3 3d
       0.17701554 0.07693258 -0.19185436 0.118885756
0001a0 80 38 c0 3b 90 d0 3d be f2 5d 28 be e8 b1 3d be
       0.0058661103 -0.18536592 -0.16442087 -0.18524897
0001b0 30 ef 31 be aa f6 68 be 52 77 5f 3e 70 c1 e6 3c
       -0.17376399 -0.22750345 0.21822861 0.02816841
0001c0 30 da cd bc 54 fe 56 3e 40 ec 92 3d c8 85 8e 3d
       -0.025128454 0.20995456 0.07173967 0.069591105
0001d0 ca fe 67 be d0 01 aa bd 40 dd ef 3c 36 69 3f be
       -0.22655788 -0.08301127 0.029280305 -0.18692479
0001e0 9e 44 4e 3e a8 b2 73 3d 62 01 74 3e 60 85 02 3e
       0.20143363 0.05949655 0.23828653 0.12746191
0001f0 76 7f 31 be b4 8d 5e 3e ac f7 93 bd dc e2 d3 3d
       -0.17333779 0.21733743 -0.07224974 0.10346004
000200 24 d7 ef 3d 48 98 35 be 4c ef bb bd c0 f2 81 3b
       0.11710957 -0.17733872 -0.09176502 0.0039657056
000210 60 a5 10 3c 4a ad 52 3e 22 7d 18 be 52 8e 4a be
       0.008828491 0.20573917 -0.14891484 -0.19780853
000220 6a a4 08 be 18 80 ad 3d b0 18 ba 3c 40 39 72 3c
       -0.13343969 0.084716976 0.02271685 0.014784157
000230 50 d6 49 be 02 1d 35 be ca a9 25 be c0 9d 63 3e
       -0.1971066 -0.17686847 -0.1617805 0.22228146
000240 28 19 97 bd 18 c2 54 3e 30 38 d6 bc d4 76 c4 bd
       -0.07377845 0.20777166 -0.02614984 -0.09592977
000250 12 41 67 3e d4 0d 79 3e 30 b3 06 3e 44 42 ef 3d
       0.22583416 0.24321681 0.13154292 0.11682561
000260 fc 06 0d 3e 60 fd 9a bc 5c 4a 5b be 5a 70 52 be
       0.13772196 -0.018919647 -0.21415085 -0.20550671
000270 78 22 45 bd b0 90 45 3d 18 bc f4 bd 64 a9 f8 bd
       -0.048128575 0.048233688 -0.119499385 -0.12141684
000280 64 c6 f8 3d 6c b6 5a be 68 11 94 bd 70 7a 2a be
       0.12147215 -0.21358651 -0.072298825 -0.16648269
000290 46 6f 25 3e 00 4d 0a 3e f4 e2 62 be 6a bd 4d 3e
       0.16155729 0.13505936 -0.22156888 0.20091787
0002a0 0e 5d 4d be a0 19 29 3c dc be 79 3e 54 9f e3 bd
       -0.20055029 0.010321051 0.24389213 -0.11114374
0002b0 d8 32 ca bd bc 6b 54 be e2 ea 18 be b0 f0 a6 bd
       -0.09872979 -0.20744222 -0.1493335 -0.08151376
0002c0 f2 d8 4a be b4 37 99 3d 10 30 1f be 32 f6 79 3e
       -0.1980932 0.07481328 -0.15545678 0.24410322
0002d0 7e 76 7c 3e 6e ba 02 3e 80 de 33 3d f0 3d 35 bd
       0.24654576 0.1276643 0.043913364 -0.04424852
0002e0 3c ad 5c 3e b8 d2 3f be d4 93 b6 3d 00 f6 01 3a
       0.21550459 -0.18732727 0.08914915 0.00049576163
0002f0 86 15 26 be 6a 24 55 3e 40 95 63 3e 24 45 24 be
       -0.16219148 0.20814672 0.22224903 -0.16042
000300 3e 66 3f be b4 da 60 be 1a 46 70 be ca 72 7a be
       -0.18691346 -0.21958429 -0.23464242 -0.24457851
000310 98 a9 2a 3d b8 f3 76 bd 40 b5 af bb ae 31 10 be
       0.041665643 -0.060291022 -0.005362183 -0.14081451
000320 a0 3c 2e bc 6a 21 59 3e 5c 82 2c be b0 45 4c 3e
       -0.010634571 0.21204153 -0.16846603 0.19948459
000330 14 e8 9f bd 20 f8 e5 bc 40 6c 73 be 88 aa 40 3e
       -0.07807937 -0.028072417 -0.23771763 0.18815053
000340 40 60 db bb ce c8 07 3e ec c7 04 3e d8 bf 96 3d
       -0.0066948235 0.13260195 0.12966889 0.0736081
000350 20 93 28 bd 18 9c 61 3d 60 09 26 3c c0 d5 26 bd
       -0.041155934 0.055080503 0.010134071 -0.04073119
000360 20 42 cc bc d4 43 bc 3d 80 77 2b bb 52 6d 16 be
       -0.024933875 0.09192625 -0.0026163757 -0.1469014
000370 de d4 66 be a2 92 37 3e 32 4a 36 3e a8 1b 00 3e
       -0.2254214 0.1792703 0.17801741 0.1251055
000380 02 85 5c be 4c 38 55 3e 50 76 4c bd 94 85 f4 bd
       -0.21535113 0.20822257 -0.04991752 -0.119395405
000390 f4 00 99 bd 52 bf 66 3e 10 65 c9 bc 92 a9 7b be
       -0.07470885 0.2253392 -0.024584323 -0.24576405
0003a0 d8 04 6f bd 68 c6 26 bd 68 eb 2b 3e 36 9e 25 3e
       -0.05835423 -0.04071656 0.16789019 0.16173634
0003b0 d4 e6 53 be 7e fa 45 be 30 53 9f 3d 4a f3 62 be
       -0.20693523 -0.19333836 0.07779539 -0.2216312
0003c0 9a a6 12 3e 80 e5 2c 3e 46 e9 25 be cc e2 ad bd
       0.14321366 0.16884422 -0.16202268 -0.08490524
0003d0 76 10 6b be 68 44 15 3e a8 98 09 3e b8 85 2a 3e
       -0.22955498 0.14576876 0.1343714 0.16652572
0003e0 c6 99 09 be e8 81 5b bd c8 d9 8e 3d 48 c1 1b 3e
       -0.13437566 -0.053590685 0.06975132 0.1521045
0003f0 e0 61 4e 3e ae f1 71 be b0 bc 88 3c 00 f9 67 3e
       0.20154524 -0.2362735 0.016691536 0.2265358

decoder.bias_ih_l0 f4 [64]
000000 a0 75 07 be b8 ec 17 bd 80 05 73 bb a8 4b db bd
       -0.13228464 -0.037090987 -0.0037082136 -0.1070779
000010 80 b0 0b bc 54 40 aa bd d8 4b 6f bd 92 49 60 3e
       -0.008525968 -0.08313051 -0.05842194 0.21903065
000020 f8 00 5f 3d b0 ed f9 3d 04 e8 13 be 08 cf 4d bd
       0.054444283 0.122035384 -0.14443976 -0.05024627
000030 84 2c d7 bd a8 8c 9b bd 00 1d fb 3c d0 7e 6f be
       -0.105065376 -0.075951874 0.030653477 -0.23388219
000040 ce 6b 52 be 20 d2 60 3e 50 6f 96 bc 5e bd 39 be
       -0.20548937 0.21955156 -0.018363625 -0.18138644
000050 fc 92 2e 3e f0 08 ca bc 20 eb 29 be 78 52 41 3e
       0.17048258 -0.024662465 -0.165936 0.18879116
000060 f4 b3 10 3e 68 44 2a be d8 67 6c be 4c 9e 2e 3e
       0.14131147 -0.16627657 -0.23086488 0.17052573
000070 a2 b4 73 3e 52 a4 4a be 0a f9 6e be 70 d5 69 bd
       0.23799375 -0.19789246 -0.23337188 -0.057088315
000080 98 93 14 3e e0 c5 0c be c8 82 04 3e 9e e3 42 be
       0.14509428 -0.13747358 0.12940514 -0.19032142
000090 e8 43 0a 3d 20 76 c2 3c 00 de ca 3a 96 7c 7e be
       0.033756167 0.023737967 0.0015477538 -0.24852213
0000a0 46 58 4f be 20 62 fc 3d 66 0d 2b 3e 88 88 87 bd
       -0.20248517 0.12323403 0.1670433 -0.06617838
0000b0 84 da 70 3e 96 bd 6b 3e 54 a1 97 3d 50 9f 51 be
       0.23520857 0.2302154 0.07403818 -0.20470929
0000c0 32 d2 57 3e e8 db 7f 3e 8c 33 e1 3d 80 48 93 3b
       0.21076277 0.24986231 0.1099616 0.0044947267
0000d0 66 4a 74 3e a6 0c 37 be c4 dd 32 3e 50 3b 36 be
       0.23856506 -0.17875919 0.1746741 -0.17796063
0000e0 88 43 68 bd 9c c7 e4 bd 18 79 a2 bd 7a 3f 4c 3e
       -0.056705028 -0.11170885 -0.07933253 0.1994609
0000f0 04 cf 9c 3d 40 5d ca 3d c4 ca 3a be b4 4b f1 3d
       0.076566726 0.09881067 -0.18241411 0.11782017

decoder.bias_hh_l0 f4 [64]
000000 9c 86 a2 bd 06 04 51 be 80 49 1d 3d 28 e1 fe 3d
       -0.07935831 -0.20411691 0.038400173 0.12445289
000010 50 20 d6 3d 9c b4 8e bd d8 d1 54 bd 02 69 6d be
       0.10455382 -0.06968042 -0.051957935 -0.23184589
000020 b0 9c 11 3e e0 7f 55 3c 84 86 5d 3e e8 91 92 3d
       0.14219928 0.013030976 0.21633345 0.07156736
000030 d8 b5 a3 bd e0 a1 ba bd a0 5c 3a 3c 5c b4 9b bd
       -0.07993668 -0.091129065 0.011374623 -0.0760276
000040 5c 34 f8 3d a4 94 c7 3d 6a c6 70 be f0 f8 87 3c
       0.12119362 0.09745148 -0.23513189 0.016598195
000050 78 a3 35 3e b0 82 9c bc da fc 1e be 20 5b ae 3d
       0.1773814 -0.019105285 -0.15526143 0.085134745
000060 60 e9 f3 3d e8 1a 3f bd 4a 6a 06 3e 9c b6 49 be
       0.11909747 -0.04665652 0.13126484 -0.19698566
000070 e0 09 0d be 80 ba 54 bd a4 62 5c 3e e8 84 1a 3e
       -0.13773298 -0.051935673 0.21522003 0.15089762
000080 b0 bf 06 3e 44 69 fb bd b4 55 43 be 40 4f eb 3b
       0.1315906 -0.12275937 -0.19075662 0.007181078
000090 80 11 8d bc 00 da 8e 3a e0 f4 ac 3c 3c ab 32 be
       -0.017220259 0.0010898709 0.02111286 -0.17448133
0000a0 ba 7d 4f 3e e0 5d dc 3c 04 5b f8 3d f4 dd 71 3e
       0.20262805 0.026900232 0.12126735 0.23619825
0000b0 40 15 d6 3d 44 18 bf 3d 1e 8f 16 be 40 69 89 bb
       0.10453272 0.093308 -0.14703032 -0.004193455
0000c0 4e ee 4e be 42 c6 3f 3e dc 4b 1f be d0 76 38 3d
       -0.20208094 0.18727973 -0.15556282 0.045035183
0000d0 40 6e 09 3c 32 45 36 be f8 b0 2f bd 20 82 52 be
       0.008388102 -0.17799833 -0.04289338 -0.20557451
0000e0 fc 6e 7d be b4 d8 70 be 90 a8 86 bc 10 e1 0b be
       -0.24749368 -0.23520166 -0.016437799 -0.13660073
0000f0 a0 3c 24 bc 64 da a2 bd b6 dc 19 be 78 fc cf bd
       -0.01002422 -0.07951811 -0.15025601 -0.101555765

mlp.0.weight f4 [16, 16]
000000 46 13 80 3e 49 42 e7 be 1b a3 98 3e 6b c6 bb 3e
       0.25014704 -0.4516776 0.2981194 0.36674818
000010 d6 67 2c bf 9c ab f9 be bf 6b 0a 3f 7e f1 fd 3e
       -0.6734594 -0.4876374 0.5407066 0.49598306
000020 99 ca de 3e f4 78 94 3e 59 ef 2d 3f c6 80 85 be
       0.43513945 0.2899853 0.6794334 -0.2607481
000030 af e8 11 be 6a fc cf 3e 79 30 06 bf c6 41 e3 3e
       -0.14248918 0.40622264 -0.52417713 0.4438612
000040 d6 08 7e bc b2 5f 99 3d 6c 40 2d 3a 70 58 28 3f
       -0.015505036 0.074889556 0.0006609026 0.65759945
000050 0e 1d 19 bf 36 ad 44 3c f9 9c cf 3e 4c c0 b3 be
       -0.5980996 0.012004187 0.40549448 -0.35107648
000060 39 1b 2c bc b2 6e e6 be 99 4b 93 3e ad 6a 25 bf
       -0.010504537 -0.4500633 0.28768614 -0.646159
000070 c4 96 29 3d 50 af 25 3f 3c 47 fc 3e fa 3b 50 3b
       0.041403547 0.6472063 0.49273098 0.003177403
000080 57 e5 18 be 26 d7 ec be ac 5a 25 be 43 5b 57 be
       -0.14931236 -0.46257895 -0.1614787 -0.21030907
000090 d8 87 0a 3f 27 46 6c bd ac 83 07 3f 0d bd 76 3d
       0.5411353 -0.05768409 0.5293529 0.060238887
0000a0 97 71 2a 3e 92 bb 57 3f dc dc 89 3e b6 c6 06 3f
       0.16644894 0.84270585 0.26926315 0.5264696
0000b0 41 32 9b be 74 9b cc be b0 f1 21 bf 9f d5 b9 3d
       -0.30311778 -0.3996235 -0.6325941 0.09073948
0000c0 35 bb 07 be c2 13 ba be 8f c1 9f 3d 7a 88 8b be
       -0.13255008 -0.363432 0.0780059 -0.2725256
0000d0 b3 72 e6 3e 04 d9 74 3e 0c 42 07 3f 59 15 b2 be
       0.45009384 0.2391091 0.52835155 -0.34781912
0000e0 a6 a8 86 bc 67 95 19 be 30 72 dc 3e b8 56 05 3f
       -0.01643784 -0.14998399 0.43055868 0.5208545
0000f0 d8 25 95 be 69 67 05 bf 35 6a 18 be d5 df db bc
       -0.29130435 -0.52110916 -0.14884265 -0.02684013
000100 5a 1e 87 b4 16 ac 50 34 2a ac 30 34 a9 d2 59 b3
       -2.5167793e-07 1.9434114e-07 1.645391e-07 -5.0715844e-08
000110 c9 89 1d b3 b2 3a 47 34 a4 52 31 b4 19 85 45 b4
       -3.6679726e-08 1.8554672e-07 -1.6514474e-07 -1.8395475e-07
000120 cb 5a 6d b3 13 89 14 33 32 2a 13 b3 b5 b7 b7 b2
       -5.526344e-08 3.4583604e-08 -3.426448e-08 -2.1387544e-08
000130 33 c1 a5 34 bc 3c 76 b4 64 3b 3b b1 c5 45 92 b4
       3.0874216e-07 -2.293263e-07 -2.7245841e-09 -2.7245383e-07
000140 9e f9 95 3e ca ed df 3d cb bd 26 3e 95 5e 28 bf
       0.29292005 0.109340265 0.16283338 -0.6576932
000150 18 ed 69 be 0a c3 b9 bd 33 a2 58 3f 00 38 f6 3e
       -0.2284435 -0.09070404 0.84622496 0.480896
000160 16 ab 54 3f 90 91 5b 3e 6f 64 78 3e bf 21 12 bd
       0.83073556 0.21442246 0.24257062 -0.035676714
000170 b3 82 32 be ef 1f 15 bf d5 47 33 be 8f 98 90 3e
       -0.1743267 -0.5825185 -0.1750787 0.28241393
000180 bd c2 29 3e 6c 12 ab 3c 80 8e 69 bd 18 cf 8d 3e
       0.16578193 0.020882808 -0.057020664 0.27697062
000190 61 94 00 bf 38 9d 07 be 79 69 de 3e 48 53 1b 3f
       -0.5022641 -0.13243568 0.43439844 0.6067395
0001a0 1b d3 36 3f 77 f7 4e 3e 0b 73 e0 be a1 c4 60 bf
       0.7141587 0.20211588 -0.4383777 -0.8780003
0001b0 03 5a 38 be 6c 11 dd bc eb 2f 17 3e dd 97 08 3e
       -0.18003087 -0.026985846 0.14764373 0.13339181
0001c0 ec 08 d4 bd a4 37 1c bf 66 b0 5f be a1 17 cd bd
       -0.10353264 -0.610224 -0.21844634 -0.100142725
0001d0 9a b5 44 3f 36 0d 85 3d 05 b9 7e 3e b5 f2 db be
       0.768396 0.064966604 0.24875267 -0.42958608
0001e0 46 98 06 bf 5a 68 a8 3d a0 e1 33 3f 01 f4 36 3f
       -0.525761 0.082230285 0.7026615 0.7146607
0001f0 15 ca bf be a7 59 e6 3e 4d 3e b4 bc b1 2f e4 bd
       -0.37458864 0.44990274 -0.022002364 -0.11141909
000200 f6 15 cc bc a6 d9 e2 be a4 2f a9 bd 7f 43 75 bf
       -0.024912816 -0.44306678 -0.0826104 -0.95806116
000210 a8 13 da 3e 0c 2e b0 bc 1e 56 3d 3d 4e 95 0b 3f
       0.42593122 -0.021506332 0.046224706 0.54524696
000220 9f 33 79 be 03 76 a4 bf 8c fe 8a 3e 30 e8 31 3f
       -0.24336098 -1.2848514 0.2714733 0.69494915
000230 b8 7e 18 be 47 24 61 3e 4b dd 0c bf 23 fe d2 3e
       -0.1489209 0.21986495 -0.55025166 0.41209516
000240 69 f9 97 3e 27 b9 7f be db e9 12 bf cc 14 1c 3f
       0.29682472 -0.24972974 -0.57388085 0.60969234
000250 75 11 16 3f a1 59 db be 23 04 00 bf c9 6c bf bd
       0.5862039 -0.4284182 -0.5000631 -0.09346921
000260 c2 90 11 bf 85 a7 4d bf ab da 42 bf 3b 35 16 bf
       -0.5686151 -0.8033374 -0.7611491 -0.58674973
000270 e4 d0 d9 be 95 b8 12 3f 68 22 75 3f 4c 48 a2 3e
       -0.42542183 0.573129 0.95755625 0.31695783
000280 83 ed 38 be 0f af 69 be 0d 98 40 3e b0 d9 9b be
       -0.18059354 -0.22820686 0.18808003 -0.3043952
000290 d2 00 01 3f 98 61 e4 be 9a 09 19 3f 3f d8 73 bd
       0.50391877 -0.44605708 0.59780276 -0.0595324
0002a0 de 68 51 3f 67 e2 b4 3e da e2 35 3d 71 bd c3 3e
       0.8180064 0.3532898 0.044405796 0.3823047
0002b0 74 dd 2c be 99 f8 23 bf 88 6d 0f be c4 d4 82 3d
       -0.16881353 -0.64051205 -0.14006627 0.06388238
0002c0 3d 37 f6 3c 8f 3b 90 bd 74 45 a1 bd b8 97 33 3e
       0.030055637 -0.0704261 -0.07874575 0.17538345
0002d0 a9 b5 a9 3c 0d e5 22 bd 94 48 95 3e b8 3d 08 bd
       0.020716505 -0.03976922 0.29156935 -0.033261985
0002e0 9f a4 fb be e0 ee 40 3f 5f 68 86 bd d1 55 bc 3e
       -0.49149033 0.75364494 -0.06562876 0.36784223
0002f0 58 35 67 bc 58 37 8a 3e 97 81 03 bf 12 c8 a6 bc
       -0.014111839 0.2699535 -0.51369613 -0.020359073
000300 8c 7e 2c bc be cf 79 3d c0 30 82 3c 81 06 d1 be
       -0.010528218 0.060989134 0.015892386 -0.40825275
000310 1d a6 86 3d 71 2c 49 bc 80 14 4c be 5a af 7e bf
       0.06574652 -0.012278662 -0.19929695 -0.99486315
000320 b3 06 c5 3e 19 ff df 3e 0c 21 e7 3e 78 ca a4 3e
       0.38481674 0.43749312 0.451424 0.3218572
000330 0c 20 b1 bd 99 f4 b2 bf 56 bd 50 3c e8 1c 4d bd
       -0.086486906 -1.3980895 0.012740454 -0.050076395
000340 35 3c 7d 3d d0 79 d5 bd 2d f3 98 be 36 eb 47 be
       0.061824996 -0.104236245 -0.29873028 -0.1952332
000350 1c 8c 55 3f eb e7 4d be 70 48 cc 3e 57 1c d5 be
       0.83416915 -0.20108001 0.39899015 -0.41623184
000360 7c db 8d be 91 b4 2f 3e 6d 66 c9 be 9f c8 01 3e
       -0.27706516 0.17158724 -0.39335957 0.12674187
000370 99 cd 43 be 6a a7 1a bf 88 57 67 3f 79 a5 08 3e
       -0.19121398 -0.60411704 0.9036794 0.13344373
000380 6a b3 96 3e bf 0f 2c 3d f4 ce 13 be 2e eb db 3e
       0.29433757 0.042007204 -0.14434415 0.42952865
000390 11 cf ff be 89 6a 0c be e8 82 cf 3d 1a 99 f5 3e
       -0.49962667 -0.13712515 0.1013239 0.4796837
0003a0 af 69 a4 3d 61 e4 3f be 38 84 24 bf 70 f4 23 bf
       0.0802797 -0.18739463 -0.6426425 -0.6404486
0003b0 90 ed 27 be cc de ff 3e 89 bb d5 3e 9b d8 dc 3d
       -0.16399217 0.49974668 0.4174464 0.10783502
0003c0 45 36 91 3e 0d c9 1c bf a5 27 a6 be 51 23 87 3e
       0.28361717 -0.6124428 -0.3245212 0.26394132
0003d0 35 46 4d 3f f8 03 c5 bd 3c 93 71 3d 31 52 c7 be
       0.8018525 -0.096198976 0.058978304 -0.38929895
0003e0 78 5d c8 be 8c b5 21 3e 63 27 9d 3e 1f 20 ab 3e
       -0.3913381 0.15791911 0.30694112 0.33422944
0003f0 13 aa 22 3d 48 5b 01 3e 25 e2 45 3e 65 3f ad bd
       0.039712977 0.12632477 0.19324549 -0.08459357

mlp.0.bias f4 [16]
000000 dd e9 85 3e bd 5d 95 bd 2b 5d 1a 3e ae 4d 94 3e
       0.26154986 -0.0729327 0.15074603 0.28965515
000010 6b 4d b3 34 49 4d b3 3d 16 ed 5f 3e 5f c5 d2 3d
       3.3397677e-07 0.08754975 0.21867785 0.10291552
000020 c1 0a 26 3c 8e df 64 3e 5c 2a cb 3e 48 1e ef 3c
       0.0101344 0.22350904 0.39680755 0.029189244
000030 65 5b 9a bc f2 cd 4d 3e 3a a6 2f 3e 8a ec 23 3d
       -0.018842408 0.20098093 0.17153254 0.040020503

mlp.2.weight f4 [4, 16]
000000 22 30 18 3f d0 01 a7 3f f9 9b e9 3d 05 72 ad be
       0.59448445 1.3047428 0.114067025 -0.33876052
000010 f4 bc da b3 ae 9f d9 be 86 1b f6 be b1 2f d9 3e
       -1.01857864e-07 -0.42504638 -0.48067874 0.42419198
000020 d9 30 25 3f 66 e3 d9 be 24 73 3c bf a2 4c 12 3f
       0.6452766 -0.42556304 -0.7361319 0.5714818
000030 6f e4 a6 bf 7f 5f 88 bf 79 8b bf bd 58 91 12 3e
       -1.3038462 -1.0654143 -0.09352774 0.14313257
000040 fe 24 38 be 1e b7 3a 3e 84 a0 ed be 6c 89 3b be
       -0.17982861 0.18233916 -0.46411526 -0.18314141
000050 66 9e fc 34 36 6e b7 3e f5 00 16 3d ee 29 f7 be
       4.7053908e-07 0.35826272 0.036622006 -0.48274177
000060 c8 d2 8c 3f 42 ee 22 bd 69 7b da bd 98 91 4c bf
       1.1001825 -0.039778 -0.1066807 -0.7990966
000070 b0 a6 ac bf 44 7d 8f be 90 df 73 3d 53 43 0f bf
       -1.3488369 -0.28025258 0.059539378 -0.55962104
000080 b3 2e 2f bf 3c 74 e1 3e 8e 42 08 bf d9 4b 23 bc
       -0.6843063 0.44033992 -0.53226554 -0.009966814
000090 3d 37 24 32 d0 c3 54 bf 8b 00 73 bf 48 2d 16 3f
       9.558616e-09 -0.83111286 -0.94922704 0.58662844
0000a0 78 bb 02 3f c1 da 98 3f e9 56 32 bf 15 97 b9 be
       0.51067305 1.1941758 -0.69663864 -0.3624808
0000b0 b6 ad 4a bb 03 3a 52 3f 83 d9 09 bd 6b 42 17 3f
       -0.0030926294 0.8211977 -0.0336547 0.5908572
0000c0 bc 24 e6 be f0 07 d2 3e f1 b1 21 3f 98 95 80 3f
       -0.449499 0.4102168 0.6316214 1.0045652
0000d0 ba ea 3f 32 c3 61 d1 3e 3a 26 84 bf 85 a7 25 3f
       1.1171034e-08 0.408949 -1.0324166 0.6470874
0000e0 52 18 14 3f ac a3 5a bf 3d 3d 5b 3f 7c f5 67 3e
       0.5784961 -0.85405993 0.8564032 0.22652239
0000f0 e4 b7 d6 3e b6 46 28 3f 9a 4b 97 bf 83 f8 ec 3e
       0.41937172 0.65732896 -1.1819947 0.4628335

mlp.2.bias f4 [4]
000000 52 f4 ac 3c 26 b5 4e 3e 5d eb ab 3d 2e fd a2 be
       0.021112595 0.2018629 0.08394501 -0.31833786
