output_bbox_gcn/GENERATOR_layout_MultiLayer_2023_09_21_17_53_01/Model/generator_110.pth (torch, 19605 bytes, 12 tensors)

encoder.weight_ih_l0 f4 [64, 4]
0.1124189 0.10110711 -0.016748361 -0.13213901 0.119425565 0.11676634 -0.02741973 0.07758891
0.07384266 0.058728945 0.17225836 0.020867314 0.10273675 0.23052044 -0.011430116 0.19381468
0.08119468 0.14036642 0.24698985 0.21490327 0.046283517 0.066829376 0.013834332 -0.16938373
0.21300662 0.20780943 -0.008162114 0.22953814 0.07685943 0.20899986 -0.08213356 0.15762298
0.19772431 0.19293496 -0.13941483 0.107167035 0.28361052 0.17291914 0.404622 0.14114071
0.21548988 0.19190739 -0.048820574 0.2684056 0.22482456 0.21002659 0.0815245 0.15763341
0.075953506 0.062462907 0.018193688 0.06972744 0.26669818 0.11063581 0.36904392 0.004634043
0.21013361 0.08003754 0.11405013 0.2971948 0.057458512 0.07638949 0.054754015 -0.10614485
0.106523 0.06701394 -0.01566462 -0.04510775 0.09782831 0.07633471 -0.00063657155 -0.04775565
0.069621965 0.045321975 0.06361723 0.0510595 -0.15461804 0.22123313 -0.074103065 0.52924615
-0.45984748 -0.015109263 -0.02838092 0.37292978 -0.010747683 0.032535646 0.03296116 -0.15210895
0.10032933 -0.17254996 -0.3706612 0.30191088 0.4586103 0.25427464 -0.62473726 -0.14432463
-0.31427735 0.0076225633 -0.40945956 0.3190048 -0.05846002 0.10416677 -0.005306812 0.17054492
-0.07937597 0.38753653 -0.009804103 0.13571732 -0.27249175 0.0380294 -0.35557976 0.21757571
0.0904802 0.055263218 0.036729306 0.09946096 0.3892904 -0.070152424 0.15306596 -0.51455855
-0.016293732 0.024389083 -0.3033244 0.03646673 0.123803526 0.12513977 0.0135568455 -0.12629156
0.2306328 0.1758653 0.02366158 0.06966578 -0.13273409 -0.1837372 -0.012733552 -0.048465177
-0.09176678 -0.19580536 -0.11908422 -0.059525635 0.1336382 -0.39662507 0.2462416 -0.46111694
-0.33419287 -0.15375952 0.71202 0.62140334 -0.1373381 -0.097815216 -0.06493207 0.22454487
0.058508433 -0.11383921 -0.46821773 0.43551862 0.43447733 0.272594 -0.40433648 -0.26291183
-0.4070637 0.53763866 -0.63662386 0.13001606 -0.19386598 -0.93079484 -0.6017895 -0.047461398
0.17808367 -0.07195705 -0.26792493 0.79296017 0.14458106 -0.37253985 0.071200155 0.54208004
-0.11712626 -0.10175561 -0.012752764 -0.09388737 0.59838575 0.13322271 0.2774233 -0.47353253
-0.88506174 -0.2370134 0.507041 -0.38059255 0.13408059 0.16421194 0.06089804 -0.0029774273
0.22815116 0.17628759 0.10311981 -0.37836272 0.40222657 -0.53201675 0.37628073 0.51756614
-0.07979566 -0.37010932 0.623159 -0.29512674 0.19483343 0.25313166 -0.029611122 0.22873414
0.023642842 0.20955458 0.1913341 0.18124974 0.09005221 0.1798263 0.13567136 -0.16597173
0.30466068 0.21839891 -0.004156258 0.2564048 0.30248997 0.56407577 -0.4603412 0.4432584
0.18054244 0.25712767 -0.31939903 0.15486887 0.3131134 0.25669184 0.20515451 0.17871396
0.086389594 0.19629477 -0.1755547 0.3780011 0.2374178 0.17561089 0.08008492 0.1969159
0.045186117 0.03429831 0.47353137 0.14522687 0.3439753 0.20297645 0.38557124 -0.04065074
0.20376146 0.09414374 0.07473104 0.30253392 0.16095324 0.41616222 -0.018803637 -0.06826793
00000000: e13b e63d 3f11 cf3d dc33 89bc 734f 07be
00000010: 6495 f43d 3123 ef3d 579f e0bc efe6 9e3d
00000020: d23a 973d c38d 703d 7f64 303e eef1 aa3c
00000030: a567 d23d 8d0d 6c3e 6245 3bbc 5b77 463e
00000040: 6549 a63d 37bc 0f3e e8ea 7c3e 9a0f 5c3e
00000050: c993 3d3d d7dd 883d 65a9 623c ee72 2dbe
00000060: 681e 5a3e ffcb 543e 63ba 05bc 0c0c 6b3e
00000070: 7a68 9d3d 0f04 563e a435 a8bd eb67 213e
00000080: 3e78 4a3e be90 453e c3c2 0ebe 647a db3d
00000090: 6635 913e b711 313e 9d2a cf3e 3187 103e
000000a0: 61a9 5c3e 5f83 443e 15f8 47bd 756c 893e
000000b0: 6938 663e 3611 573e 51f6 a63d a76a 213e
000000c0: 838d 9b3d 1bd9 7f3d ee0a 953c 43cd 8e3d
000000d0: aa8c 883e 0795 e23d 53f3 bc3e 2cd9 973b
000000e0: 442d 573e b9ea a33d 1d93 e93d eb29 983e
000000f0: 9e59 6b3d 1872 9c3d bf45 603d 7962 d9bd
00000100: bb28 da3d 9b3e 893d 1753 80bc e7c2 38bd
00000110: 365a c83d 5f55 9c3d 98df 26ba 6e9b 43bd
00000120: f695 8e3d 89a3 393d c049 823d c423 513d
00000130: 3154 1ebe f08a 623e 59c3 97bd ad7c 073f
00000140: 2171 ebbe d88c 77bc 1a7f e8bc a7f0 be3e
00000150: 0d17 30bc 1944 053d 4802 073d 73c2 1bbe
00000160: 7779 cd3d f0b0 30be 4ec7 bdbe 1094 9a3e
00000170: f8ce ea3e 4930 823e c8ee 1fbf d6c9 13be
00000180: f6e8 a0be b2c6 f93b afa4 d1be 9954 a33e
00000190: c673 6fbd 6355 d53d c4e4 adbb 54a3 2e3e
000001a0: de8f a2bd 306b c63e 63a1 20bc 7bf9 0a3e
000001b0: 0a84 8bbe b7c4 1b3d 8d0e b6be 2bcc 5e3e
000001c0: af4d b93d af5b 623d 7871 163d 30b2 cb3d
000001d0: 1251 c73e 13ac 8fbd 53bd 1c3e 1cba 03bf
000001e0: 6f7a 85bc 9dcb c73c 564d 9bbe 235e 153d
000001f0: b48c fd3d a424 003e 881d 5e3c 9352 01be
00000200: 012b 6c3e 0916 343e eed5 c13c efac 8e3d
00000210: 72eb 07be 9b25 3cbe 63a0 50bc 6c83 46bd
00000220: 39f0 bbbd 3381 48be 6de2 f3bd 27d1 73bd
00000230: 74d8 083e 7112 cbbe c226 7c3e 8517 ecbe
00000240: 541b abbe 2373 1dbe f146 363f 4a14 1f3f
00000250: 5ca2 0cbe 5853 c8bd 1bfb 84bd 17ef 653e
00000260: 8aa6 6f3d 8824 e9bd 3cba efbe 4cfc de3e
00000270: d073 de3e 7191 8b3e 3105 cfbe 619c 86be
00000280: a76a d0be b0a2 093f c8f9 22bf ee22 053e
00000290: ce84 46be 9248 6ebf e00e 1abf e266 42bd
000002a0: 915b 363e 385e 93bd 752d 89be 70ff 4a3f
000002b0: 0f0d 143e 8bbd bebe 63d1 913d c2c5 0a3f
000002c0: e5df efbd 3f65 d0bd f8f0 50bc 0548 c0bd
000002d0: cf2f 193f 896b 083e 6d0a 8e3e db72 f2be
000002e0: 6893 62bf a4b3 72be 70cd 013f 07dd c2be
000002f0: 6c4c 093e 2d27 283e 3970 793d f120 43bb
00000300: 75a0 693e bc84 343e 7b30 d33d c2b8 c1be
00000310: a4f0 cd3e 4032 08bf dea7 c03e 377f 043f
00000320: e86b a3bd f87e bdbe 5987 1f3f da1a 97be
00000330: 6a82 473e 799a 813e 0693 f2bc 4839 6a3e
00000340: a2ae c13c 7a95 563e 16ed 433e 8899 393e
00000350: 4b6d b83d 6324 383e 6fed 0a3e 7ef4 29be
00000360: 7cfc 9b3e f7a3 5f3e 3831 88bb 7d47 833e
00000370: f7df 9a3e 4567 103f d7b1 ebbe c4f2 e23e
00000380: 1ee0 383e 3da6 833e 4588 a3be f295 1e3e
00000390: 6650 a03e 1d6d 833e 0614 523e cb00 373e
000003a0: 07ed b03d 7f01 493e 9cc4 33be 5c89 c13e
000003b0: a71d 733e 57d3 333e 9003 a43d 52a4 493e
000003c0: 1415 393d 627c 0c3d b472 f23e 5ab6 143e
000003d0: 881d b03e 0fd9 4f3e 9869 c53e 6481 26bd
000003e0: d8a6 503e 6fce c03d 960c 993d bae5 9a3e
000003f0: edd0 243e 3713 d53e 160a 9abc 0ed0 8bbd

encoder.weight_hh_l0 f4 [64, 16]
0.086149596 -0.08287157 -0.061820768 0.0074382424 -0.048662473 -0.09367939 0.06905275 0.082616806
0.062144063 0.004187233 -0.003878612 -0.040330444 -0.09380775 0.0669304 -0.02983469 0.09109445
0.10911994 -0.09501111 -0.07029061 0.010259835 -0.07348957 -0.10712255 0.07630022 0.11478471
0.09700476 -0.0036625834 -0.015005324 -0.0834933 -0.10818933 0.09579045 -0.04541557 0.09398045
0.086501494 -0.080879845 -0.05567571 0.0077990526 -0.034590103 -0.08195067 0.06529734 0.07024642
0.057922084 0.004643008 0.023786735 -0.025923094 -0.08747454 0.044053588 -0.026714353 0.09847315
0.1885551 -0.29775274 -0.16748154 -0.07825369 -0.0507386 -0.3472908 0.18831949 0.28496093
0.111928836 -0.08308551 0.090350166 0.017776346 -0.27079743 0.21196747 0.042252257 0.273717
0.35973606 -0.15734017 -0.1390973 -0.19552137 -0.02241406 -0.43609005 0.23820686 0.3307127
0.2732668 -0.051696192 0.24166761 0.08547068 -0.36891988 0.36819416 -0.18075746 0.3609937
0.10980886 -0.12602717 -0.076517835 0.0038784507 -0.005898209 -0.12053191 0.07378912 0.07191613
0.061517455 0.034144476 0.050777826 -0.011129037 -0.13054237 0.029574178 -0.005783319 0.12067633
0.23265798 -0.29097533 -0.20162478 0.020383617 -0.16455431 -0.25899613 0.17226765 0.22375984
0.25998086 0.12153336 0.14385737 -0.09043901 -0.30236945 0.19221883 -0.110318646 0.32215536
0.22900783 -0.19390897 -0.16177742 0.017999377 0.25090042 -0.22827496 0.027089074 0.08016588
-0.05107154 -0.18492098 0.046317354 0.115863144 -0.31201324 0.13096471 0.026269685 0.33100447
0.29332703 -0.33198097 -0.26206678 -0.02169608 0.05493225 -0.37115118 0.14332306 0.24860168
0.018281521 -0.03846606 0.043750256 0.116239525 -0.37012675 0.13513248 0.06371936 0.3464988
0.3949463 -0.2742235 -0.3041379 -0.089294516 -0.10209703 -0.30809012 0.11586038 0.22612292
0.2197245 -0.011044352 0.14766438 0.11430763 -0.30908775 0.116900325 -0.08998228 0.28434366
0.31244034 -0.26422143 -0.21697012 0.09029692 -0.05024875 -0.3375151 -0.071245335 0.199614
0.11952201 -0.016759107 0.013628545 -0.09352094 -0.31209904 0.15676376 -0.0251068 0.32828978
0.4855108 -0.34052554 -0.22863948 -0.0751405 0.09375642 -0.23420133 0.1749401 0.32184446
0.20736942 -0.13807979 0.18478788 0.057913214 -0.3588551 0.16034755 -0.10863492 0.24849553
0.08646997 -0.085456304 -0.05929771 0.003914816 -0.025800863 -0.08904807 0.060697086 0.065147795
0.052739862 0.008387265 0.014693285 -0.02012957 -0.090926945 0.047578573 -0.022520626 0.08328576
0.24827968 -0.29505375 -0.15223275 0.009416106 0.04234759 -0.29844904 0.2855197 0.07519919
0.1811366 0.061322566 0.20196459 0.045043465 -0.2844736 0.047028653 -0.07163897 0.3159107
0.231148 -0.27170768 -0.21328004 -0.09426257 -0.011892809 -0.29007775 0.05233485 0.3406566
-0.0310065 0.049353953 -0.064439215 0.08726643 -0.30770323 0.24264312 -0.036995064 0.27958366
0.07318602 -0.071714744 -0.049195405 0.00045068713 0.0071450733 -0.06606805 0.042399056 0.038301975
0.0068115513 0.010962203 0.007325132 0.02756229 -0.078866825 0.013145541 0.04505851 0.065784216
00000000: 336f b03d 92b8 a9bd c637 7dbd 80bc f33b
00000010: 4d52 47bd fbda bfbd 876b 8d3d 0033 a93d
00000020: c68a 7e3d 0e35 893b 5030 7ebb 8931 25bd
00000030: 471e c0bd ce12 893d e167 f4bc ba8f ba3d
00000040: 467a df3d 2f95 c2bd 86f4 8fbd de18 283c
00000050: b381 96bd 1163 dbbd 4a43 9c3d 3f14 eb3d
00000060: 6eaa c63d f407 70bb e4d8 75bc 89fe aabd
00000070: 5e92 ddbd c92d c43d ad05 3abd d278 c03d
00000080: b227 b13d 55a4 a5bd 370c 64bd 328f ff3b
00000090: 5aae 0dbd c1d5 a7bd 9dba 853d 5bdd 8f3d
000000a0: b53f 6d3d 6024 983b 66dc c23c ab5c d4bc
000000b0: da25 b3bd 8971 343d 0fd8 dabc 4aac c93d
000000c0: 9714 413e 0c73 98be 4880 2bbe 7843 a0bd
000000d0: 47d3 4fbd 1ad0 b1be d3d6 403e 66e6 913e
000000e0: f23a e53d bc28 aabd 8209 b93d b39f 913c
000000f0: f6a5 8abe 000e 593e b410 2d3d a224 8c3e
00000100: 532f b83e c81d 21be 866f 0ebe c136 48be
00000110: b19d b7bc 3247 dfbe 80ec 733e 2d53 a93e
00000120: a0e9 8b3e 63bf 53bd b777 773e 400b af3d
00000130: 11e3 bcbe f283 bc3e 7c18 39be 2bd4 b83e
00000140: 78e3 e03d 440d 01be 62b5 9cbd 9b2d 7e3b
00000150: c345 c1bb 6fd9 f6bd c01e 973d c448 933d
00000160: baf9 7b3d 14db 0b3d 69fc 4f3d 9056 36bc
00000170: e6ac 05be 8c45 f23c ff81 bdbb 2725 f73d
00000180: e53d 6e3e b8fa 94be ba76 4ebe 8bfb a63c
00000190: ed80 28be 249b 84be ee66 303e 4d21 653e
000001a0: 361c 853e 7be6 f83d 594f 133e 1638 b9bd
000001b0: 2bd0 9abe 03d5 443e beee e1bd 8cf1 a43e
000001c0: 0781 6a3e 1390 46be fba8 25be 6e73 933c
000001d0: 0576 803e e9c0 69be e8e9 dd3c 022e a43d
000001e0: 6430 51bd ed5b 3dbe 44b7 3d3d a849 ed3d
000001f0: 33c0 9fbe 9d1b 063e 8633 d73c 6b79 a93e
00000200: f62e 963e 69f9 a9be 9e2d 86be fabb b1bc
00000210: a400 613d 8707 bebe 48c3 123e 7091 7e3e
00000220: 21c3 953c 968e 1dbd 7833 333d fd0e ee3d
00000230: 4181 bdbe 2b60 0a3e 4c7f 823d 4a68 b13e
00000240: 6736 ca3e 0667 8cbe f6b7 9bbe 0be0 b6bd
00000250: 3f18 d1bd fdbd 9dbe 3548 ed3d c48c 673e
00000260: 76ff 603e 5ff3 34bc 5535 173e 1e1a ea3d
00000270: c040 9ebe 7069 ef3d a148 b8bd 7e95 913e
00000280: 2ef8 9f3e 0848 87be 6a2d 5ebe 97ed b83d
00000290: a2d1 4dbd c7ce acbe 13e9 91bd 9d67 4c3e
000002a0: f5c7 f43d 654a 89bc 434a 5f3c e887 bfbd
000002b0: 72cb 9fbe ae86 203e c7ac cdbc 9915 a83e
000002c0: df94 f83e 5d59 aebe 7820 6abe 43e3 99bd
000002d0: 5e03 c03d 79d2 6fbe 7f23 333e ccc8 a43e
000002e0: a658 543e ca64 0dbe 0939 3d3e 6836 6d3d
000002f0: dbbb b7be 2632 243e fc7b debd 9d75 7e3e
00000300: 2b17 b13d b703 afbd 28e2 72bd db47 803b
00000310: 555c d3bc d65e b6bd 829d 783d 356c 853d
00000320: c105 583d bd6a 093c 1bbc 703c c5e6 a4bc
00000330: e837 babd c0e1 423d 2d7d b8bc b991 aa3d
00000340: 073d 7e3e 4911 97be e7e2 1bbe 0346 1a3c
00000350: ab74 2d3d 50ce 98be a32f 923e 0802 9a3d
00000360: df7b 393e 5f2d 7b3d cecf 4e3e 7f7f 383d
00000370: 86a6 91be 1ea1 403d 74b7 92bd 0cbf a13e
00000380: 10b2 6c3e 451d 8bbe 1566 5abe bc0c c1bd
00000390: 0eda 42bc 1285 94be 115d 563d 8b6a ae3e
000003a0: 5801 febc 5f27 4a3d b5f8 83bd beb8 b23d
000003b0: 478b 9dbe 7077 783e 2388 17bd 9725 8f3e
000003c0: 8de2 953d 2edf 92bd 1f81 49bd 344a ec39
000003d0: 3821 ea3b b04e 87bd a2aa 2d3d 88e2 1c3d
000003e0: 6f33 df3b d09a 333c a907 f03b 50ca e13c
000003f0: ee84 a1bd 6560 573c 468f 383d e0b9 863d

encoder.bias_ih_l0 f4 [64]
0.17996003 0.2278672 0.16993856 0.27014974 0.28915888 0.18145998 0.3552183 0.15290979
0.33691105 0.33629853 0.29680595 0.32177177 0.17722633 0.32749787 0.31247464 0.11968505
0.1931187 0.20425558 0.18697427 -0.03768391 -0.19238044 0.17887393 0.12890135 0.123973064
-0.069506615 -0.1253194 0.019200515 0.0050155725 0.19931403 0.019280042 -0.13506584 0.16645485
0.19634575 -0.18624036 -0.16176838 0.05222918 0.002069173 -0.14769474 0.1218676 0.07757441
0.120419055 0.07233181 0.0057002585 -0.07150646 -0.19951455 0.05447089 0.0005817332 0.1309053
0.19535226 0.19024007 0.1380296 0.30319732 0.29855067 0.28379256 0.34982014 0.10961725
0.34319237 0.32820487 0.32035783 0.3204565 0.3061986 0.30824023 0.30650827 0.21613169
00000000: 7147 383e 0556 693e 6004 2e3e 1151 8a3e
00000010: a20c 943e a5d0 393e 2cdf b53e 6294 1c3e
00000020: 9b7f ac3e 522f ac3e f3f6 973e 45bf a43e
00000030: d27a 353e cdad a73e adfc 9f3e 6f1d f53d
00000040: e9c0 453e 6028 513e 2f76 3f3e 725a 1abd
00000050: 61ff 44be ba2a 373e b7fe 033e 97e5 fd3d
00000060: 7c59 8ebd bb53 00be 664a 9d3c ac59 a43b
00000070: fa18 4c3e 2ef1 9d3c b34e 0abe 2473 2a3e
00000080: dc0e 493e cbb5 3ebe 9ca6 25be 44ee 553d
00000090: f69a 073b 4a3d 17be b895 f93d 55df 9e3d
000000a0: 449e f63d b322 943d 3cc9 ba3b fb71 92bd
000000b0: 8b4d 4cbe de1c 5f3d 747f 183a 0a0c 063e
000000c0: 6c0a 483e 4bce 423e a257 0d3e ae3c 9b3e
000000d0: a2db 983e 424d 913e a01b b33e 027f e03d
000000e0: e9b6 af3e 780a a83e f105 a43e e012 a43e
000000f0: 10c6 9c3e aad1 9d3e a7ee 9c3e a051 5d3e

encoder.bias_hh_l0 f4 [64]
0.17996003 0.22786719 0.16993852 0.27014974 0.28915885 0.18145993 0.35521826 0.15290977
0.336911 0.3362985 0.296806 0.32177186 0.17722633 0.32749784 0.3124746 0.11968506
0.19311869 0.20425561 0.18697429 -0.037683878 -0.19238043 0.17887399 0.1289013 0.12397306
-0.06950664 -0.12531939 0.019200493 0.005015557 0.19931401 0.019280069 -0.1350658 0.16645482
0.1963457 -0.1862404 -0.16176836 0.052229166 0.002069141 -0.14769474 0.12186757 0.07757449
0.12041908 0.07233181 0.00570025 -0.07150651 -0.19951457 0.0544709 0.00058172154 0.13090527
0.19535229 0.19024014 0.13802962 0.30319735 0.29855072 0.2837926 0.34982017 0.10961719
0.34319234 0.32820487 0.32035786 0.32045648 0.30619857 0.3082403 0.30650836 0.21613167
00000000: 7147 383e 0456 693e 5d04 2e3e 1151 8a3e
00000010: a10c 943e a2d0 393e 2bdf b53e 6194 1c3e
00000020: 997f ac3e 512f ac3e f5f6 973e 48bf a43e
00000030: d27a 353e ccad a73e acfc 9f3e 711d f53d
00000040: e8c0 453e 6228 513e 3076 3f3e 695a 1abd
00000050: 60ff 44be be2a 373e b4fe 033e 96e5 fd3d
00000060: 7f59 8ebd ba53 00be 5a4a 9d3c 8b59 a43b
00000070: f918 4c3e 3cf1 9d3c b04e 0abe 2273 2a3e
00000080: d90e 493e ceb5 3ebe 9ba6 25be 40ee 553d
00000090: 6d9a 073b 4a3d 17be b495 f93d 60df 9e3d
000000a0: 479e f63d b322 943d 2ac9 ba3b 0172 92bd
000000b0: 8c4d 4cbe e11c 5f3d ac7e 183a 080c 063e
000000c0: 6e0a 483e 50ce 423e a357 0d3e af3c 9b3e
000000d0: a4db 983e 434d 913e a11b b33e fa7e e03d
000000e0: e8b6 af3e 780a a83e f205 a43e df12 a43e
000000f0: 0fc6 9c3e acd1 9d3e aaee 9c3e 9f51 5d3e

decoder.weight_ih_l0 f4 [64, 16]
-0.10501754 -0.12968856 -0.19687349 0.04241821 -0.22603166 0.22085813 0.16110173 0.14001745
0.24312568 0.242672 -0.10073605 0.23260546 -0.16112727 0.03308946 -0.21769407 0.1472382
-0.04848486 0.10302642 -0.096956074 0.150803 -0.21579212 0.1386899 0.18563136 -0.23533449
0.22783673 0.14194387 -0.16961887 0.23466626 0.2383954 -0.0025223494 -0.032001495 0.14742398
0.07583067 0.05752054 -0.01794228 0.11468929 -0.08351126 0.08264437 0.07916719 0.039010227
-0.12253398 0.24412039 -0.08121467 0.17585117 -0.14139313 0.19455853 -0.12332687 0.03878212
-0.017626375 0.11014682 0.018323034 -0.21203977 0.095505506 0.068796664 -0.1850783 -0.20176846
0.19980803 0.18014225 0.0015437007 0.24432594 0.21969336 -0.028204143 0.009747982 -0.1844798
-0.04477319 -0.022764653 -0.22776335 0.14479351 -0.12064773 0.07670346 -0.16760084 0.07481736
-0.15876082 -0.031120509 0.15429801 -0.17603749 0.1913723 -0.15876931 -0.04448852 -0.013152033
0.009428889 0.07143667 -0.17961922 0.24241045 0.094087124 0.15174654 -0.19141215 -0.082229406
0.14697137 0.027973443 -0.23582384 -0.15287042 0.06637922 -0.024019122 -0.04383397 -0.20823759
0.017198533 0.031790823 -0.019789368 -0.013753682 -0.19428247 -0.05717951 -0.19330564 -0.12708277
0.063570976 -0.11672002 -0.01469788 0.019442916 0.22165924 0.16224042 0.17118561 -0.06870031
-0.06159526 0.13374493 -0.23475441 0.036240608 0.15345779 0.020013332 0.0857957 -0.042969793
0.14762264 0.24207184 0.10473475 -0.13197112 0.087257385 -0.21881053 -0.07159805 -0.05719021
-0.22097796 0.1426822 -0.051152974 0.16372657 0.21884209 -0.03691125 -0.08802199 0.093023
-0.18368751 -0.10168487 -0.21258369 0.16876256 0.17564264 -0.08580196 -0.11059591 0.13572013
0.12539694 0.24880776 -0.07134238 -0.20193294 0.21289602 -0.12574217 0.0028804839 0.11933285
0.10732785 0.010354072 -0.11722538 0.014858842 -0.23835447 -0.18835908 0.22765651 0.21113813
0.15800592 -0.21605772 -0.20113426 -0.020471454 -0.23743376 -0.20796317 -0.19031513 0.16478041
-0.24692816 -0.13148773 -0.052354783 -0.14916337 0.034825176 0.012775421 -0.0345501 -0.14233401
-0.17341003 0.047139198 0.037085682 -0.16349241 0.09401646 -0.20794904 0.08060527 0.12521046
0.23893705 -0.2319459 0.10898718 0.07797316 -0.16039446 0.115706444 0.037897468 -0.021669716
0.22159737 0.06405562 -0.0010632873 -0.20968288 -0.13688278 0.18589967 0.046287805 0.026336282
-0.034118146 -0.017084032 -0.2109527 0.24687159 0.21921024 -0.15758213 -0.06713933 -0.004669845
-0.14440829 0.18446237 -0.20698684 0.1822114 -0.20865607 -0.24946764 0.1975283 0.10708961
-0.1135391 -0.037763566 -0.090433866 -0.047661573 -0.1409792 -0.09061387 0.23324308 0.054944307
0.07846302 -0.13690442 -0.041097254 0.19956455 -0.17958966 0.12126577 -0.11756745 -0.21934775
0.032877475 0.005823493 -0.22756228 0.24651262 -0.20787203 -0.18981996 -0.13807628 -0.23432624
0.064947605 0.016437173 -0.09459317 -0.13964424 0.063850015 0.20862046 -0.08043569 -0.037577033
0.12869883 0.07129219 0.10842237 -0.059150845 0.16382134 -0.017758816 0.14717445 -0.23152149
00000000: 7013 d7bd 14cd 04be 3499 49be b8be 2d3d
00000010: d874 67be a228 623e daf7 243e bc60 0f3e
00000020: f0f5 783e 027f 783e b44e cebd 2030 6e3e
00000030: 8cfe 24be d088 073d 32eb 5ebe 9cc5 163e
00000040: 1098 46bd 84ff d23d e890 c6bd 1a6c 1a3e
00000050: 9cf8 5cbe ba04 0e3e 2616 3e3e 86fb 70be
00000060: 084e 693e bc59 113e 92b0 2dbe 5a4c 703e
00000070: ec1d 743e 004e 25bb 0014 03bd 50f6 163e
00000080: 1c4d 9b3d a89a 6b3d b0fb 92bc 38e2 ea3d
00000090: f407 abbd 7441 a93d 6822 a23d 30c9 1f3d
000000a0: 18f3 fabd b2fa 793e e053 a6bd 5412 343e
000000b0: 5cc9 10be 5a3a 473e cc92 fcbd 00da 1e3d
000000c0: 3065 90bc a894 e13d 301a 963c f420 59be
000000d0: 6498 c33d 44e5 8c3d 2a85 3dbe 649c 4ebe
000000e0: 7a9a 4c3e 3677 383e 0056 ca3a 9430 7a3e
000000f0: 4cf7 603e 600c e7bc 00b6 1f3c 46e8 3cbe
00000100: 1864 37bd f07c babc cc3a 69be c044 143e
00000110: 2816 f7bd b416 9d3d 8e9f 2bbe d839 993d
00000120: 3292 22be 70f0 febc 4c00 1e3e 2c43 34be
00000130: 1af7 433e 6c94 22be 9839 36bd a07b 57bc
00000140: a07b 1a3c 644d 923d 1aee 37be 723a 783e
00000150: c0b0 c03d 7263 1b3e 8c01 44be e467 a8bd
00000160: aa7f 163e 9028 e53c ce7b 71be 108a 1cbe
00000170: d4f1 873d c0c3 c4bc 408b 33bd 3c3c 55be
00000180: f0e3 8c3c 1837 023d 501d a2bc 2057 61bc
00000190: fcf1 46be 1035 6abd eaf1 45be fc21 02be
000001a0: 8031 823d e80a efbd 60cf 70bc c046 9f3c
000001b0: a4fa 623e 5a22 263e 484b 2f3e c0b2 8cbd
000001c0: 504b 7cbd 6ef4 083e 7663 70be 0871 143d
000001d0: 0a24 1d3e 00f3 a33c a8b5 af3d 1801 30bd
000001e0: 642a 173e aee1 773e 2c7f d63d 7023 07be
000001f0: 00b4 b23d de0f 60be 00a2 92bd 4840 6abd
00000200: 0c48 62be 481b 123e c885 51bd f0a7 273e
00000210: 2418 603e 4030 17bd e044 b4bd d882 be3d
00000220: 9418 3cbe 2840 d0bd 8aaf 59be 18d0 2c3e
00000230: aadb 333e f0b8 afbd 1c80 e2bd 38fa 0a3e
00000240: 0e68 003e 76c7 7e3e f41b 92bd 82c7 4ebe
00000250: 6a01 5a3e 8ec2 00be 80c6 3c3b c864 f43d
00000260: b4ce db3d 20a4 293c dc13 f0bd 8072 733c
00000270: 3213 74be 34e1 40be ca1e 693e 9834 583e
00000280: 4ecc 213e 3c3e 5dbe 24f6 4dbe c0b3 a7bc
00000290: d621 73be 4cf4 54be f8e1 42be 32bc 283e
000002a0: bcda 7cbe b8a4 06be f871 56bd 48be 18be
000002b0: d8a4 0e3d 0050 513c 6884 0dbd 02c0 11be
000002c0: 6692 31be 0815 413d 28e7 173d 8e6a 27be
000002d0: b48b c03d 98f0 54be 6014 a53d 2c37 003e
000002e0: eaab 743e 3a83 6dbe ac34 df3d 64b0 9f3d
000002f0: 723e 24be 80f7 ec3d 603a 1b3d b084 b1bc
00000300: 6cea 623e 982f 833d 005e 8bba 1cb7 56be
00000310: 002b 0cbe 7c5c 3e3e 4898 3d3d 30bf d73c
00000320: 78bf 0bbd d0f3 8bbc fc03 58be e8cb 7c3e
00000330: a678 603e 365d 21be 5880 89bd 8005 99bb
00000340: c4df 13be b4e3 3c3e 5cf4 53be a095 3a3e
00000350: f0a9 55be 7274 7fbe dc44 4a3e cc51 db3d
00000360: 3087 e8bd f8ad 1abd 6435 b9bd c838 43bd
00000370: da5c 10be c493 b9bd 46d7 6e3e 480d 613d
00000380: 38b1 a03d ac30 0cbe 9855 28bd a65a 4c3e
00000390: 5ae6 37be 305a f83d 34c7 f0bd b29c 60be
000003a0: 88aa 063d 00d3 be3b 1606 69be ce6d 7c3e
000003b0: 68dc 54be 2a60 42be de63 0dbe 38f3 6fbe
000003c0: 4003 853d 40a7 863c 10ba c1bd e6fe 0ebe
000003d0: ccc3 823d 9aa0 553e 78bb a4bd 60ea 19bd
000003e0: a0c9 033e a401 923d 8c0c de3d 2848 72bd
000003f0: c8c0 273e f07a 91bc e6b4 163e f813 6dbe

decoder.weight_hh_l0 f4 [64, 16]
-0.14189237 -0.2498599 -0.15393794 0.09885064 -0.19585422 -0.041232795 0.1450206 -0.053803563
-0.09416708 -0.16669124 -0.24473977 -0.11495134 -0.19286779 0.19183329 -0.1668854 -0.1363438
-0.14869761 0.07819295 -0.089745134 -0.18211564 0.10882053 0.22077659 0.098089635 0.22224578
0.2022059 0.18511885 -0.21619523 0.15351585 -0.022717267 0.15171334 -0.19283873 -0.07669622
-0.05186823 0.20188391 0.22918445 0.2337893 -0.11570087 -0.19106725 0.0043258667 0.07083225
-0.19759741 0.22728658 0.1286917 -0.10351747 0.10535878 0.036655605 -0.01804921 -0.09691617
0.015895337 0.23194811 -0.08985329 -0.14785984 0.053520262 -0.23158756 0.13908684 -0.13641012
-0.009426683 -0.029370189 -0.08272901 0.15768722 -0.24789503 -0.040040523 0.038092017 -0.062321275
-0.19678468 0.010013163 0.1434145 0.22986284 -0.13538846 -0.022843301 0.20446184 -0.048043966
0.037391514 0.10859889 0.21730286 0.14882052 -0.00736171 0.2046862 -0.14658105 -0.22188336
0.2000758 0.081771195 0.18232691 -0.16670501 0.1628792 -0.16324806 -0.14776069 0.0324156
0.10610849 -0.08676684 -0.105582386 -0.1447846 0.08539349 -0.124058634 -0.08288157 -0.13539222
0.092532545 0.091728956 0.040248066 0.18679672 0.17701554 0.07693258 -0.19185436 0.118885756
0.0058661103 -0.18536592 -0.16442087 -0.18524897 -0.17376399 -0.22750345 0.21822861 0.02816841
-0.025128454 0.20995456 0.07173967 0.069591105 -0.22655788 -0.08301127 0.029280305 -0.18692479
0.20143363 0.05949655 0.23828653 0.12746191 -0.17333779 0.21733743 -0.07224974 0.10346004
0.11710957 -0.17733872 -0.09176502 0.0039657056 0.008828491 0.20573917 -0.14891484 -0.19780853
-0.13343969 0.084716976 0.02271685 0.014784157 -0.1971066 -0.17686847 -0.1617805 0.22228146
-0.07377845 0.20777166 -0.02614984 -0.09592977 0.22583416 0.24321681 0.13154292 0.11682561
0.13772196 -0.018919647 -0.21415085 -0.20550671 -0.048128575 0.048233688 -0.119499385 -0.12141684
0.12147215 -0.21358651 -0.072298825 -0.16648269 0.16155729 0.13505936 -0.22156888 0.20091787
-0.20055029 0.010321051 0.24389213 -0.11114374 -0.09872979 -0.20744222 -0.1493335 -0.08151376
-0.1980932 0.07481328 -0.15545678 0.24410322 0.24654576 0.1276643 0.043913364 -0.04424852
0.21550459 -0.18732727 0.08914915 0.00049576163 -0.16219148 0.20814672 0.22224903 -0.16042
-0.18691346 -0.21958429 -0.23464242 -0.24457851 0.041665643 -0.060291022 -0.005362183 -0.14081451
-0.010634571 0.21204153 -0.16846603 0.19948459 -0.07807937 -0.028072417 -0.23771763 0.18815053
-0.0066948235 0.13260195 0.12966889 0.0736081 -0.041155934 0.055080503 0.010134071 -0.04073119
-0.024933875 0.09192625 -0.0026163757 -0.1469014 -0.2254214 0.1792703 0.17801741 0.1251055
-0.21535113 0.20822257 -0.04991752 -0.119395405 -0.07470885 0.2253392 -0.024584323 -0.24576405
-0.05835423 -0.04071656 0.16789019 0.16173634 -0.20693523 -0.19333836 0.07779539 -0.2216312
0.14321366 0.16884422 -0.16202268 -0.08490524 -0.22955498 0.14576876 0.1343714 0.16652572
-0.13437566 -0.053590685 0.06975132 0.1521045 0.20154524 -0.2362735 0.016691536 0.2265358
00000000: 3c4c 11be 46db 7fbe e8a1 1dbe 3472 ca3d
00000010: 028e 48be b8e3 28bd 4880 143e 2061 5cbd
00000020: acda c0bd 1cb1 2abe 109d 7abe 9c6b ebbd
00000030: 227f 45be f26f 443e 02e4 2abe b69d 0bbe
00000040: 3044 18be a023 a03d 4ccc b7bd 867c 3abe
00000050: 4cdd de3d 4213 623e 38e3 c83d 6694 633e
00000060: 100f 4f3e cc8f 3d3e 4862 5dbe 4233 1d3e
00000070: 9019 babc be5a 1b3e 8477 45be e812 9dbd
00000080: c873 54bd a8ba 4e3e 54af 6a3e 7666 6f3e
00000090: 94f4 ecbd 22a7 43be 00c0 8d3b 8010 913d
000000a0: fa56 4abe d0bd 683e c2c7 033e f800 d4bd
000000b0: 58c6 d73d 3024 163d f0db 93bc fc7b c6bd
000000c0: f036 823c ce83 6d3e 0005 b8bd 9268 17be
000000d0: 1038 5b3d 4a25 6dbe c86c 0e3e 18af 0bbe
000000e0: 6072 1abc c099 f0bc d46d a9bd c278 213e
000000f0: 32d8 7dbe 8801 24bd 6006 1c3d 9844 7fbd
00000100: ec81 49be 400e 243c 40db 123e 2a61 6b3e
00000110: 46a3 0abe e021 bbbc 725e 513e c0c9 44bd
00000120: d827 193d 1869 de3d a484 5e3e 6864 183e
00000130: 803a f1bb 4299 513e 5819 16be 6435 63be
00000140: ace0 4c3e a877 a73d e8b3 3a3e b8b4 2abe
00000150: cec9 263e 802a 27be 944e 17be 38c6 043d
00000160: 684f d93d d0b2 b1bd 943b d8bd 6a42 14be
00000170: c8e2 ae3d 7412 febd d0bd a9bd 42a4 0abe
00000180: b481 bd3d 64dc bb3d 28db 243d a447 3f3e
00000190: 9043 353e d48e 9d3d 7875 44be 607a f33d
000001a0: 8038 c03b 90d0 3dbe f25d 28be e8b1 3dbe
000001b0: 30ef 31be aaf6 68be 5277 5f3e 70c1 e63c
000001c0: 30da cdbc 54fe 563e 40ec 923d c885 8e3d
000001d0: cafe 67be d001 aabd 40dd ef3c 3669 3fbe
000001e0: 9e44 4e3e a8b2 733d 6201 743e 6085 023e
000001f0: 767f 31be b48d 5e3e acf7 93bd dce2 d33d
00000200: 24d7 ef3d 4898 35be 4cef bbbd c0f2 813b
00000210: 60a5 103c 4aad 523e 227d 18be 528e 4abe
00000220: 6aa4 08be 1880 ad3d b018 ba3c 4039 723c
00000230: 50d6 49be 021d 35be caa9 25be c09d 633e
00000240: 2819 97bd 18c2 543e 3038 d6bc d476 c4bd
00000250: 1241 673e d40d 793e 30b3 063e 4442 ef3d
00000260: fc06 0d3e 60fd 9abc 5c4a 5bbe 5a70 52be
00000270: 7822 45bd b090 453d 18bc f4bd 64a9 f8bd
00000280: 64c6 f83d 6cb6 5abe 6811 94bd 707a 2abe
00000290: 466f 253e 004d 0a3e f4e2 62be 6abd 4d3e
000002a0: 0e5d 4dbe a019 293c dcbe 793e 549f e3bd
000002b0: d832 cabd bc6b 54be e2ea 18be b0f0 a6bd
000002c0: f2d8 4abe b437 993d 1030 1fbe 32f6 793e
000002d0: 7e76 7c3e 6eba 023e 80de 333d f03d 35bd
000002e0: 3cad 5c3e b8d2 3fbe d493 b63d 00f6 013a
000002f0: 8615 26be 6a24 553e 4095 633e 2445 24be
00000300: 3e66 3fbe b4da 60be 1a46 70be ca72 7abe
00000310: 98a9 2a3d b8f3 76bd 40b5 afbb ae31 10be
00000320: a03c 2ebc 6a21 593e 5c82 2cbe b045 4c3e
00000330: 14e8 9fbd 20f8 e5bc 406c 73be 88aa 403e
00000340: 4060 dbbb cec8 073e ecc7 043e d8bf 963d
00000350: 2093 28bd 189c 613d 6009 263c c0d5 26bd
00000360: 2042 ccbc d443 bc3d 8077 2bbb 526d 16be
00000370: ded4 66be a292 373e 324a 363e a81b 003e
00000380: 0285 5cbe 4c38 553e 5076 4cbd 9485 f4bd
00000390: f400 99bd 52bf 663e 1065 c9bc 92a9 7bbe
000003a0: d804 6fbd 68c6 26bd 68eb 2b3e 369e 253e
000003b0: d4e6 53be 7efa 45be 3053 9f3d 4af3 62be
000003c0: 9aa6 123e 80e5 2c3e 46e9 25be cce2 adbd
000003d0: 7610 6bbe 6844 153e a898 093e b885 2a3e
000003e0: c699 09be e881 5bbd c8d9 8e3d 48c1 1b3e
000003f0: e061 4e3e aef1 71be b0bc 883c 00f9 673e

decoder.bias_ih_l0 f4 [64]
-0.13228464 -0.037090987 -0.0037082136 -0.1070779 -0.008525968 -0.08313051 -0.05842194 0.21903065
0.054444283 0.122035384 -0.14443976 -0.05024627 -0.105065376 -0.075951874 0.030653477 -0.23388219
-0.20548937 0.21955156 -0.018363625 -0.18138644 0.17048258 -0.024662465 -0.165936 0.18879116
0.14131147 -0.16627657 -0.23086488 0.17052573 0.23799375 -0.19789246 -0.23337188 -0.057088315
0.14509428 -0.13747358 0.12940514 -0.19032142 0.033756167 0.023737967 0.0015477538 -0.24852213
-0.20248517 0.12323403 0.1670433 -0.06617838 0.23520857 0.2302154 0.07403818 -0.20470929
0.21076277 0.24986231 0.1099616 0.0044947267 0.23856506 -0.17875919 0.1746741 -0.17796063
-0.056705028 -0.11170885 -0.07933253 0.1994609 0.076566726 0.09881067 -0.18241411 0.11782017
00000000: a075 07be b8ec 17bd 8005 73bb a84b dbbd
00000010: 80b0 0bbc 5440 aabd d84b 6fbd 9249 603e
00000020: f800 5f3d b0ed f93d 04e8 13be 08cf 4dbd
00000030: 842c d7bd a88c 9bbd 001d fb3c d07e 6fbe
00000040: ce6b 52be 20d2 603e 506f 96bc 5ebd 39be
00000050: fc92 2e3e f008 cabc 20eb 29be 7852 413e
00000060: f4b3 103e 6844 2abe d867 6cbe 4c9e 2e3e
00000070: a2b4 733e 52a4 4abe 0af9 6ebe 70d5 69bd
00000080: 9893 143e e0c5 0cbe c882 043e 9ee3 42be
00000090: e843 0a3d 2076 c23c 00de ca3a 967c 7ebe
000000a0: 4658 4fbe 2062 fc3d 660d 2b3e 8888 87bd
000000b0: 84da 703e 96bd 6b3e 54a1 973d 509f 51be
000000c0: 32d2 573e e8db 7f3e 8c33 e13d 8048 933b
000000d0: 664a 743e a60c 37be c4dd 323e 503b 36be
000000e0: 8843 68bd 9cc7 e4bd 1879 a2bd 7a3f 4c3e
000000f0: 04cf 9c3d 405d ca3d c4ca 3abe b44b f13d

decoder.bias_hh_l0 f4 [64]
-0.07935831 -0.20411691 0.038400173 0.12445289 0.10455382 -0.06968042 -0.051957935 -0.23184589
0.14219928 0.013030976 0.21633345 0.07156736 -0.07993668 -0.091129065 0.011374623 -0.0760276
0.12119362 0.09745148 -0.23513189 0.016598195 0.1773814 -0.019105285 -0.15526143 0.085134745
0.11909747 -0.04665652 0.13126484 -0.19698566 -0.13773298 -0.051935673 0.21522003 0.15089762
0.1315906 -0.12275937 -0.19075662 0.007181078 -0.017220259 0.0010898709 0.02111286 -0.17448133
0.20262805 0.026900232 0.12126735 0.23619825 0.10453272 0.093308 -0.14703032 -0.004193455
-0.20208094 0.18727973 -0.15556282 0.045035183 0.008388102 -0.17799833 -0.04289338 -0.20557451
-0.24749368 -0.23520166 -0.016437799 -0.13660073 -0.01002422 -0.07951811 -0.15025601 -0.101555765
00000000: 9c86 a2bd 0604 51be 8049 1d3d 28e1 fe3d
00000010: 5020 d63d 9cb4 8ebd d8d1 54bd 0269 6dbe
00000020: b09c 113e e07f 553c 8486 5d3e e891 923d
00000030: d8b5 a3bd e0a1 babd a05c 3a3c 5cb4 9bbd
00000040: 5c34 f83d a494 c73d 6ac6 70be f0f8 873c
00000050: 78a3 353e b082 9cbc dafc 1ebe 205b ae3d
00000060: 60e9 f33d e81a 3fbd 4a6a 063e 9cb6 49be
00000070: e009 0dbe 80ba 54bd a462 5c3e e884 1a3e
00000080: b0bf 063e 4469 fbbd b455 43be 404f eb3b
00000090: 8011 8dbc 00da 8e3a e0f4 ac3c 3cab 32be
000000a0: ba7d 4f3e e05d dc3c 045b f83d f4dd 713e
000000b0: 4015 d63d 4418 bf3d 1e8f 16be 4069 89bb
000000c0: 4eee 4ebe 42c6 3f3e dc4b 1fbe d076 383d
000000d0: 406e 093c 3245 36be f8b0 2fbd 2082 52be
000000e0: fc6e 7dbe b4d8 70be 90a8 86bc 10e1 0bbe
000000f0: a03c 24bc 64da a2bd b6dc 19be 78fc cfbd

mlp.0.weight f4 [16, 16]
0.2610014 -0.5531993 0.3956254 0.5369249 -0.6673862 -0.5628572 0.6369813 0.60829836
0.4171527 0.32667828 0.82437193 -0.33589375 -0.16369544 0.35883287 -0.52831584 0.51430184
-0.03457451 0.053646736 0.011462405 0.52070874 -0.25568548 0.017311538 -0.032598745 -0.27332246
0.21263812 -0.37025374 0.611518 -0.60859966 0.040657528 0.35791084 0.33433825 -0.03275844
-0.24081437 -0.56516474 -0.20564772 -0.25662023 0.52862155 -0.026877932 0.58660185 0.2006769
0.14264415 0.9353018 0.31256205 0.59100336 -0.33533227 -0.5034167 -0.65159017 0.08145331
-0.110101186 -0.43092167 0.03539157 -0.30002633 0.38050708 0.31777167 0.3178986 -0.365899
-0.088708274 -0.05433052 0.47890127 0.5977914 -0.38779536 -0.65053886 -0.20707312 -0.033915997
2.5775065e-10 3.0877723e-07 -2.9087886e-07 4.3057103e-06 -1.0065927e-08 -5.445201e-05 8.195718e-18 7.286018e-11
-1.4249634e-14 -0.00023572503 6.9758457e-09 4.507799e-07 -3.1281236e-12 -8.86299e-40 -6.8233654e-05 -0.014045033
0.38543883 0.12590049 0.12652779 -0.88203204 -0.19377367 -0.091432154 0.8847851 0.38568538
0.8703434 0.20662478 0.5282302 0.04776933 -0.19933371 -0.7048991 -0.17328446 0.30785897
0.10304388 -0.021694405 -0.04857379 0.074203745 -0.48945805 -0.10004784 0.40126362 0.60055614
0.80404526 0.23666544 -0.374772 -0.747739 -0.1952564 -0.138502 0.40033853 0.13287552
-0.12457412 -0.66735 -0.22662778 -0.19423188 0.75642455 0.08673842 0.4052351 -0.3756901
-0.65263623 -0.011726657 0.6844699 0.8405756 -0.42027894 0.5419307 -0.024432316 -0.14295933
-0.07632308 -0.42491677 -0.052975185 -0.93867284 0.7504293 0.035941776 0.13709404 0.5885839
-0.2895894 -1.2903458 0.23652476 0.4543199 -0.10317921 0.2847456 -0.69113195 0.37190008
0.31104273 -0.2692507 -0.6097331 0.62308234 0.70064026 -0.5043248 -0.6243072 -0.42282918
-0.38896674 -0.8522741 -0.70168626 -0.6119316 -0.5049861 0.57440305 0.88456184 0.40097135
-0.24431083 -0.21360382 0.22979483 -0.45302996 0.55293614 -0.46712366 0.5190596 -0.098886505
0.9023152 0.37022093 0.03841445 0.5811796 -0.13883728 -0.6034222 -0.059964385 0.02281509
0.01791031 -0.08060185 -0.071157776 0.21510005 -0.09690907 -0.04214058 0.13398236 -0.024490047
-0.547858 0.8114141 -0.02947813 0.46668875 -0.011527394 0.3101285 -0.4568525 -0.006319032
-0.028143601 0.09330978 0.10523843 -0.099113636 0.32433856 -0.026043234 0.12822482 -0.641941
0.4195069 0.22581823 0.50692266 0.04843564 -0.11499058 -0.7778296 0.11332668 -0.016703904
0.03074592 0.002755608 -0.27891272 -0.14249209 0.81435424 -0.16598517 0.41278163 -0.4336788
-0.13915041 0.33005777 -0.35600084 0.29619738 -0.14511207 -0.647653 1.0211421 0.0890819
0.35141665 -0.049037974 -0.1093147 0.3342001 -0.42234784 -0.19820543 -0.032728765 0.38727793
0.31537825 0.05342931 -0.71138537 -0.5620552 -0.3069076 0.41826147 0.35944137 0.2126687
0.33076656 -0.6696087 -0.34460232 0.2965473 0.77588713 -0.09214757 0.09678088 -0.3901438
-0.43334803 -0.0007469559 0.26152992 0.5067963 0.08231055 0.08276098 0.21398072 -0.118565165
00000000: faa1 853e 789e 0dbf 6a8f ca3e e973 093f
00000010: d2d9 2abf 6917 10bf 3511 233f 71b9 1b3f
00000020: 0a95 d53e 6042 a73e 0a0a 533f 44fa abbe
00000030: c79f 27be f1b8 b73e b53f 07bf 49a9 033f
00000040: 009e 0dbd aebc 5b3d d0cc 3b3c 2b4d 053f
00000050: 35e9 82be edd0 8d3c 4386 05bd ecf0 8bbe
00000060: cfbd 593e e691 bdbe 728c 1c3f 30cd 1bbf
00000070: 8288 263d 1740 b73e 622e ab3e b72d 06bd
00000080: 0b98 76be a3ae 10bf 5195 52be ba63 83be
00000090: be53 073f 1c2f dcbc 8a2b 163f 3f7e 4d3e
000000a0: 4f11 123e f06f 6f3f 2208 a03e ff4b 173f
000000b0: acb0 abbe ebdf 00bf 9dce 26bf fed0 a63d
000000c0: bb7c e1bd c4a1 dcbe c0f6 103d 0d9d 99be
000000d0: d3d1 c23e f8b2 a23e 9bc3 a23e 1d57 bbbe
000000e0: afac b5bd ae89 5ebd 8c32 f53e db08 193f
000000f0: 1d8d c6be b789 26bf fa0a 54be 80eb 0abd
00000100: 2eb3 8d2f 05c6 a534 162a 9cb4 c579 9036
00000110: 6aee 2cb2 6763 64b8 2f2f 1723 a338 a02e
00000120: 6b59 80a8 f52c 77b9 30b0 ef31 b802 f234
00000130: 441f 5cac a4a6 0980 aa18 8fb8 231d 66bc
00000140: 3d58 c53e 0fec 003e 8090 013e dacc 61bf
00000150: 9b6c 46be c840 bbbd 4781 623f 8e78 c53e
00000160: d3ce 5e3f 7295 533e 183a 073f c6a9 433d
00000170: 231e 4cbe 4474 34bf 7b71 31be b19f 9d3e
00000180: ab08 d33d 77b8 b1bc 4ff5 46bd 22f8 973d
00000190: 3f9a fabe e2e5 ccbd 6d72 cd3e 0cbe 193f
000001a0: e9d5 4d3f 6d58 723e 1ee2 bfbe d36b 3fbf
000001b0: 4bf1 47be 78d3 0dbe 2cf9 cc3e 8510 083e
000001c0: b720 ffbd 73d7 2abf 1d11 68be b9e4 46be
000001d0: 0aa5 413f eaa3 b13d fa7a cf3e 745a c0be
000001e0: 2b13 27bf 2a21 40bc 6b39 2f3f f62f 573f
000001f0: cd2e d7be f8bb 0a3f 4826 c8bc ee63 12be
00000200: 464f 9cbd b18e d9be 82fc 58bd dd4c 70bf
00000210: 221c 403f af37 133d 6162 0c3e 6fad 163f
00000220: 1045 94be 0d2a a5bf 8c33 723e 9e9c e83e
00000230: 9f4f d3bd 2dca 913e 06ee 30bf b069 be3e
00000240: fe40 9f3e 3adb 89be 7817 1cbf 5382 1f3f
00000250: 295d 333f 6e1b 01bf 99d2 1fbf 117d d8be
00000260: a626 c7be a32e 5abf b6a1 33bf 8da7 1cbf
00000270: c546 01bf 140c 133f a572 623f 1e4c cd3e
00000280: 9e2c 7abe f6ba 5abe 564f 6b3e 8bf3 e7be
00000290: 398d 0d3f d52a efbe 17e1 043f 0285 cabd
000002a0: 21fe 663f 998d bd3e 7858 1d3d 30c8 143f
000002b0: 5c2b 0ebe e179 1abf 379d 75bd b6e6 ba3c
000002c0: a4b8 923c 9512 a5bd 2bbb 91bd 3043 5c3e
000002d0: 4378 c6bd 9a9b 2cbd ac32 093e 5a9f c8bc
000002e0: 6c40 0cbf d6b8 4f3f 1f7c f1bc d4f1 ee3e
000002f0: 65dd 3cbc 2ac9 9e3e 92e8 e9be e20f cfbb
00000300: 698d e6bc 3319 bf3d 3f87 d73d 17fc cabd
00000310: b40f a63e 9f58 d5bc 5e4d 033e 3f56 24bf
00000320: 9cc9 d63e e53c 673e afc5 013f 7364 463d
00000330: 2e80 ebbd d71f 47bf d217 e83d a0d6 88bc
00000340: dede fb3c 6e97 343b a6cd 8ebe 72e9 11be
00000350: 8579 503f 04f8 29be 1d58 d33e 260b debe
00000360: 727d 0ebe 55fd a83e be45 b6be 2fa7 973e
00000370: 4298 14be 96cc 25bf c9b4 823f 9270 b63d
00000380: e2ec b33e 0bdc 48bd 63e0 dfbd 471c ab3e
00000390: fa3d d8be 5df6 4abe 990e 06bd 4b49 c63e
000003a0: 4279 a13e b1d8 5a3d 5a1d 36bf d9e2 0fbf
000003b0: fe22 9dbe 5e26 d63e b308 b83e d3c5 593e
000003c0: 3c5a a93e 7a6b 2bbf b76f b0be 0cd5 973e
000003d0: 8aa0 463f ddb7 bcbd 0e35 c63d eec0 c7be
000003e0: cbdf ddbe 5dcf 43ba 40e7 853e 67bd 013f
000003f0: 6f92 a83d 977e a93d c31d 5b3e 4bd2 f2bd

mlp.0.bias f4 [16]
0.29426852 -0.03947096 0.118704654 0.37863535 0.0049515674 0.0902694 0.18582284 0.1107002
-0.03393786 0.23482183 0.37866604 0.0059698643 -0.038267925 0.15992615 0.24376798 0.018256916
00000000: 5daa 963e 4dac 21bd 6d1b f33d 7edc c13e
00000010: c240 a23b 2adf b83d 5848 3e3e c9b6 e23d
00000020: 6d02 0bbd 2275 703e 84e0 c13e da9e c33b
00000030: d4be 1cbd aec3 233e 509e 793e 878f 953c

mlp.2.weight f4 [4, 16]
0.5794026 0.94309145 0.062215924 -0.2899461 -9.933107e-19 -0.35255155 -0.42412394 0.36136666
0.5775877 -0.39771765 -0.7790549 0.5296679 -0.91603917 -0.9764116 -0.049269103 0.14414982
-0.16254406 0.11980498 -0.38293248 -0.23412663 1.8502894e-17 0.3337886 0.0757414 -0.45275772
1.057956 0.002445648 -0.084901646 -0.69012713 -0.8283481 -0.25062075 0.076155655 -0.49635366
-0.6254916 0.2763893 -0.43780634 0.05239733 -1.2139814e-06 -0.74246264 -0.7962128 0.52862436
0.46909326 1.1215546 -0.60971653 -0.07812727 0.061396644 0.8892835 -0.18834527 0.522688
-0.44140244 0.2948781 0.50394905 0.9311165 -2.9083622e-09 0.36196184 -0.78553617 0.5996871
0.565207 -0.76175535 0.7572783 0.1496521 0.60522556 0.7950201 -0.9329329 0.42430386
00000000: bb53 143f 716e 713f 20d6 7e3d d173 94be
00000010: 3896 92a1 a381 b4be c626 d9be 0d05 b93e
00000020: cadc 133f a6a1 cbbe 2470 47bf 5198 073f
00000030: 8b81 6abf 1cf6 79bf 66ce 49bd 039c 133e
00000040: f371 26be 505c f53d ba0f c4be e4be 6fbe
00000050: b9a8 aa23 57e6 aa3e 4f1e 9b3d dccf e7be
00000060: 1a6b 873f 2a47 203b eae0 adbd 2cac 30bf
00000070: 9f0e 54bf 5d51 80be 7ff7 9b3d 1122 febe
00000080: 3820 20bf e682 8d3e 2728 e0be 959e 563d
00000090: 15f0 a2b5 0812 3ebf 9ad4 4bbf ed53 073f
000000a0: fe2c f03e 1a8f 8f3f 6216 1cbf 3101 a0bd
000000b0: 0c7b 7b3d 15a8 633f 95dd 40be e1ce 053f
000000c0: 80ff e1be 43fa 963e ce02 013f a75d 6e3f
000000d0: 73dc 47b1 1053 b93e e618 49bf 1885 193f
000000e0: 68b1 103f 6602 43bf fedc 413f 663e 193e
000000f0: 10f0 1a3f 7086 4b3f b1d4 6ebf 5b3e d93e

mlp.2.bias f4 [4]
0.025129117 0.23270547 0.104923226 -0.37900874
00000000: 94db cd3c 584a 6e3e fde1 d63d 6f0d c2be
