output_bbox_gcn/GENERATOR_layout_MultiLayer_2023_09_21_17_53_01/Model/generator_100.pth (torch, 19605 bytes, 12 tensors)

encoder.weight_ih_l0 f4 [64, 4]
0.113159224 0.10328774 -0.013204935 -0.15186167 0.118716724 0.10891978 -0.024898699 0.08801369
0.078044415 0.054666582 0.18969634 0.0036444785 0.1477388 0.23396873 -0.0037820383 0.19426483
0.07375469 0.13738097 0.25321472 0.2189399 0.043359894 0.07658661 0.012165181 -0.19578096
0.20907032 0.21929358 -0.022828547 0.24352393 0.09791354 0.21746725 -0.10034329 0.14705509
0.20920703 0.20465471 -0.17016509 0.1164151 0.30207533 0.18284446 0.41945517 0.15298584
0.25237858 0.18447018 -0.060465753 0.2737655 0.23471698 0.21893145 0.08277667 0.15518771
0.08010119 0.06584837 0.019725103 0.07070498 0.2849834 0.09079379 0.37639695 -0.012812346
0.22692099 0.08919235 0.10547949 0.31306607 0.06330862 0.08190738 0.06608958 -0.11183953
0.11056377 0.06982797 -0.0075276317 -0.05158387 0.103472315 0.06740101 0.017892467 -0.061783615
0.0749722 0.04171215 0.065251894 0.04377236 -0.17613797 0.22332491 -0.072025426 0.55271983
-0.46002653 -0.017214963 0.0045409584 0.42683056 -0.033432 0.030238554 0.03485299 -0.16508049
0.09955454 -0.17750129 -0.38379607 0.29635853 0.47179264 0.25923 -0.62703675 -0.15475337
-0.34807843 0.006615831 -0.42381465 0.3069942 -0.058945384 0.122241996 0.039277233 0.14657919
-0.055070534 0.38377497 -0.030830687 0.14266504 -0.28486648 0.038942534 -0.30204913 0.23128805
0.094426475 0.057433054 0.03824737 0.10351513 0.39987478 -0.06519729 0.18118031 -0.5060943
-0.0005285788 0.035349835 -0.30482024 0.033886407 0.13435984 0.13313961 0.012658639 -0.13336988
0.2336273 0.17439722 0.02934978 0.0719654 -0.12681675 -0.17509972 -0.014840351 -0.04909442
-0.0900407 -0.19968656 -0.12068676 -0.058869697 0.11992383 -0.3936443 0.24457002 -0.46196994
-0.33508176 -0.14831617 0.7086657 0.6166901 -0.14331774 -0.09940541 -0.06911992 0.23286584
0.061391998 -0.11033071 -0.45626295 0.43148395 0.4200613 0.2825438 -0.41081473 -0.26072183
-0.39493963 0.51583487 -0.62938315 0.120625995 -0.19091505 -0.92003787 -0.59695584 -0.042713188
0.18085234 -0.07667957 -0.26872882 0.7786122 0.14451143 -0.36764708 0.0638944 0.5354242
-0.1183254 -0.0984239 -0.012864574 -0.096151136 0.58039695 0.1331476 0.27388978 -0.4617678
-0.8784605 -0.23568223 0.49840927 -0.37917015 0.14230344 0.16960974 0.061645135 -0.0008682137
0.23060027 0.17950816 0.105531216 -0.37916684 0.42069182 -0.55554205 0.3758913 0.5184445
-0.08363307 -0.36885926 0.6253601 -0.28680366 0.2249133 0.2579715 -0.038993657 0.23187396
0.016011687 0.21060032 0.19332416 0.18162681 0.08375119 0.18807459 0.1447718 -0.17145066
0.31658298 0.2303655 -0.015313311 0.25994888 0.33262202 0.5533704 -0.45170844 0.4434071
0.18000385 0.27590874 -0.33358166 0.15000112 0.335869 0.27061215 0.20807448 0.19172202
0.096346386 0.2084695 -0.18548034 0.38112506 0.24696253 0.18252207 0.09093764 0.19319353
0.02600146 0.020554204 0.4971907 0.14590794 0.3620838 0.19727129 0.390887 -0.046545833
0.23108207 0.115273274 0.063856535 0.3132817 0.16900064 0.43372935 -0.022626204 -0.067514725
00000000: 06c0 e73d 8688 d33d 8359 58bc a081 1bbe
00000010: c121 f33d 5511 df3d 5bf8 cbbc 8640 b43d
00000020: c0d5 9f3d 11ea 5f3d c23f 423e 34d8 6e3b
00000030: d748 173e 8095 6f3e 13dc 77bb 5ced 463e
00000040: b30c 973d 99ad 0c3e 5ca5 813e c831 603e
00000050: 259a 313d 71d9 9c3d 7850 473c ce7a 48be
00000060: 8816 563e 7f8e 603e ef02 bbbc 565e 793e
00000070: e586 c83d bcaf 5e3e c880 cdbd 9c95 163e
00000080: 5e3a 563e 0191 513e c23f 2ebe 0a6b ee3d
00000090: 9ea9 9a3e 943b 3b3e d4c2 d63e 52a8 1c3e
000000a0: c437 813e c0e5 3c3e f0aa 77bd fe2a 8c3e
000000b0: a659 703e 912f 603e d186 a93d 87e9 1e3e
000000c0: 180c a43d 83db 863d 8a96 a13c c6cd 903d
000000d0: 58e9 913e 18f2 b93d 1ab7 c03e e0ea 51bc
000000e0: fa5d 683e 7baa b63d a105 d83d 324a a03e
000000f0: f3a7 813d 0ebf a73d f959 873d 200c e5bd
00000100: 426f e23d f701 8f3d 5aaa f6bb 9c49 53bd
00000110: 4be9 d33d 8a09 8a3d 3993 923c d110 7dbd
00000120: 068b 993d 5cda 2a3d c9a2 853d a54a 333d
00000130: 835d 34be 49af 643e 1182 93bd 0c7f 0d3f
00000140: 9988 ebbe 6506 8dbc 52cc 943b 8989 da3e
00000150: feef 08bd d8b6 f73c 02c2 0e3d dc0a 29be
00000160: 40e3 cb3d e6c2 35be eb80 c4be 4ebc 973e
00000170: ce8e f13e cbb9 843e 7b85 20bf ab77 1ebe
00000180: 5637 b2be 9dc9 d83b 3cfe d8be 582e 9d3e
00000190: b770 71bd 035a fa3d 2ae1 203d db18 163e
000001a0: a491 61bd 277e c43e a390 fcbc c916 123e
000001b0: 05da 91be 3582 1f3d 2fa6 9abe c6d6 6c3e
000001c0: ab62 c13d ec3e 6b3d 46a9 1c3d beff d33d
000001d0: 63bc cc3e 2886 85bd 5587 393e 658f 01bf
000001e0: 5390 0aba fdca 103d 6611 9cbe 79cc 0a3d
000001f0: a095 093e c055 083e 2e66 4f3c 1d92 08be
00000200: ff3b 6f3e 2f95 323e f36e f03c 9862 933d
00000210: 40dc 01be 574d 33be f224 73bc 3b17 49bd
00000220: 4267 b8bd a27a 4cbe 9f2a f7bd 5a21 71bd
00000230: a09a f53d bf8b c9be 9070 7a3e 5387 ecbe
00000240: d68f abbe 32e0 17be 1e6b 353f 67df 1d3f
00000250: e3c1 12be 1095 cbbd bf8e 8dbd 6274 6e3e
00000260: 2d76 7b3d 11f5 e1bd 4c9b e9be 77eb dc3e
00000270: 4612 d73e 95a9 903e 4f56 d2be 557d 85be
00000280: 8735 cabe c10d 043f 411f 21bf c30a f73d
00000290: 3c7f 43be 9a87 6bbf 19d2 18bf 06f4 2ebd
000002a0: 5b31 393e 2e0a 9dbd d396 89be 2153 473f
000002b0: cefa 133e 3d3c bcbe 11db 823d 8f11 093f
000002c0: 9654 f2bd 7892 c9bd efc5 52bc e3ea c4bd
000002d0: e594 143f d857 083e 483b 8c3e d46c ecbe
000002e0: cae2 60bf af56 71be 802f ff3e 9722 c2be
000002f0: feb7 113e 2dae 2d3e 9c7f 7c3d d698 63ba
00000300: 7a22 6c3e fdd0 373e c020 d83d 2822 c2be
00000310: eb64 d73e 0138 0ebf d374 c03e c7b8 043f
00000320: d147 abbd 1fdb bcbe 9917 203f eed7 92be
00000330: ac4f 663e d714 843e d0b7 1fbd 5e70 6d3e
00000340: f12a 833c 9ca7 573e c5f6 453e 61fc 393e
00000350: be85 ab3d a096 403e 0f3f 143e c390 2fbe
00000360: 2a17 a23e efe4 6b3e aee4 7abc 0518 853e
00000370: 6f4d aa3e afa9 0d3f 5446 e7be 4106 e33e
00000380: ee52 383e e943 8d3e 37cb aabe e599 193e
00000390: 06f7 ab3e ad8d 8a3e 7a11 553e c752 443e
000003a0: 4151 c53d 0779 553e 8fee 3dbe d322 c33e
000003b0: bfe3 7c3e 11e7 3a3e 833d ba3d 86d4 453e
000003c0: 0401 d53c 4a61 a83c c88f fe3e e468 153e
000003d0: 0c63 b93e 7c01 4a3e 5722 c83e d8a6 3ebd
000003e0: c7a0 6c3e 6514 ec3d 37c7 823d 7566 a03e
000003f0: 810e 2d3e c611 de3e 975a b9bc 2945 8abd

encoder.weight_hh_l0 f4 [64, 16]
0.08389777 -0.080454156 -0.0619335 0.0072336993 -0.04499025 -0.0950441 0.069105014 0.08303245
0.06101629 0.0036445602 -0.0036046193 -0.039319642 -0.09418641 0.06537783 -0.027939513 0.09615295
0.10929555 -0.0907799 -0.0713379 0.009918973 -0.07663898 -0.10806421 0.080013566 0.12372073
0.10126269 -0.0042474917 -0.019164855 -0.088335894 -0.10863445 0.09753618 -0.04707651 0.09607778
0.087535225 -0.08075311 -0.05706828 0.0075240037 -0.033834513 -0.08088563 0.06614909 0.0724252
0.056444988 0.0064716334 0.024151584 -0.024020141 -0.08755544 0.043552496 -0.024486143 0.10577373
0.19016074 -0.3158122 -0.17605281 -0.1021637 -0.043133777 -0.36656573 0.1935064 0.30229563
0.1208858 -0.08483085 0.12287138 0.026208088 -0.28041387 0.22726294 0.0258795 0.280538
0.3665356 -0.15425995 -0.13624439 -0.23658183 -0.009618499 -0.4455354 0.2526798 0.34641144
0.29982695 -0.057600312 0.26309216 0.097263925 -0.3746818 0.38120174 -0.20561168 0.3656281
0.11528754 -0.13455507 -0.08106391 0.0019870503 -0.006359308 -0.1275651 0.07465799 0.07861065
0.065404624 0.034002453 0.060437944 -0.0088319285 -0.13886932 0.031293437 -0.010207768 0.1299613
0.23084785 -0.29625696 -0.20783255 0.0023448698 -0.15391535 -0.25872317 0.17830274 0.24548534
0.27632755 0.1060423 0.15721875 -0.08417671 -0.3072022 0.20441237 -0.11162851 0.33140856
0.23659019 -0.19838543 -0.16910674 0.028277695 0.24109949 -0.23194341 0.023703778 0.07462235
-0.045832198 -0.18161525 0.059462182 0.09669971 -0.32386068 0.13494138 0.030697549 0.34459615
0.2980048 -0.3450616 -0.27429026 -0.02832818 0.04726872 -0.38731205 0.16004236 0.27352485
0.047392458 -0.03707816 0.051336702 0.10595291 -0.38342842 0.16067155 0.049473103 0.35605028
0.41572312 -0.28223774 -0.32652292 -0.09354515 -0.08815057 -0.3173311 0.14316511 0.24279557
0.24441373 -0.032190807 0.16302425 0.11013229 -0.31780854 0.13642533 -0.09759327 0.28961852
0.32160205 -0.27882832 -0.22862156 0.089103505 -0.021604134 -0.3489625 -0.041937552 0.21143885
0.10694614 -0.046338454 0.025867745 -0.08951121 -0.31767353 0.16908921 -0.0096272975 0.33457187
0.5049963 -0.34574646 -0.2326977 -0.08794112 0.10582281 -0.22999579 0.19544381 0.34638253
0.2220963 -0.14204729 0.20165977 0.06716888 -0.36315012 0.16527528 -0.12129602 0.24717942
0.09067864 -0.08732445 -0.0618794 0.004833839 -0.026916144 -0.09337616 0.063991055 0.06928779
0.055623826 0.0059309294 0.014834564 -0.023259012 -0.093187846 0.050910633 -0.025407348 0.0893367
0.2474855 -0.29812562 -0.1483492 -0.007956338 0.04363163 -0.30159277 0.29034668 0.08494175
0.18138894 0.062107876 0.18742003 0.06037346 -0.28478995 0.04254477 -0.06652051 0.32309
0.23537491 -0.2807346 -0.22529262 -0.10210679 -0.01032819 -0.29827458 0.05551384 0.36286747
-0.037713606 0.022580944 -0.051383685 0.073171906 -0.31745395 0.2608527 -0.03705454 0.28582802
0.07511156 -0.07344418 -0.048989452 0.0014098033 0.0068018986 -0.06585828 0.041951705 0.041114945
0.007800999 0.014850387 0.004615785 0.0279064 -0.08029252 0.015030289 0.04600197 0.06609456
00000000: 98d2 ab3d 26c5 a4bd fbad 7dbd ab08 ed3b
00000010: b247 38bd 7ba6 c2bd ee86 8d3d eb0c aa3d
00000020: 38ec 793d 93d9 6e3b 7a3b 6cbb a20d 21bd
00000030: cee4 c0bd d0e4 853d 68e1 e4bc d6eb c43d
00000040: 58d6 df3d d0ea b9bd 9b19 92bd 3083 223c
00000050: e6f4 9cbd c550 ddbd 27de a33d 4b61 fd3d
00000060: d062 cf3d 8b2e 8bbb 9dff 9cbc 73e9 b4bd
00000070: bd7b debd 0cc1 c73d 4cd3 40bd 6dc4 c43d
00000080: ab45 b33d e361 a5bd 6ec0 69bd eb8b f63b
00000090: 0f96 0abd 5da7 a5bd 2d79 873d aa53 943d
000000a0: dc32 673d ff0f d43b 8bd9 c53c e3c5 c4bc
000000b0: 4450 b3bd 1a64 323d 2a97 c8bc e69f d83d
000000c0: 7fb9 423e 23b2 a1be 3047 34be 343b d1bd
000000d0: 0bad 30bd 81ae bbbe 8b26 463e 7ec6 9a3e
000000e0: f992 f73d ccbb adbd fda3 fb3d 58b2 d63c
000000f0: 6892 8fbe 9eb7 683e 3f01 d43c ada2 8f3e
00000100: 8eaa bb3e 52f6 1dbe a683 0bbe 8242 72be
00000110: e996 1dbc 371d e4be 3f5f 813e d75c b13e
00000120: eb82 993e 4eee 6bbd 04b4 863e 4f32 c73d
00000130: 4bd6 bfbe e02c c33e de8b 52be 9b33 bb3e
00000140: e01b ec3d cec8 09be d604 a6bd 2c39 023b
00000150: be61 d0bb 6da0 02be 4ae6 983d 9ffe a03d
00000160: dcf2 853d 2846 0b3d c78d 773d cbb3 10bc
00000170: c233 0ebe 8c2d 003d 7b3e 27bc 9314 053e
00000180: 6163 6c3e feae 97be 0ed2 54be 63ac 193b
00000190: fc9b 1dbe 5d77 84be fe94 363e 8260 7b3e
000001a0: ce7a 8d3e b52c d93d f4fd 203e d764 acbd
000001b0: 9b49 9dbe 7a51 513e 7d9d e4bd 62ae a93e
000001c0: b344 723e 8d25 4bbe 512a 2dbe a0a6 e73c
000001d0: c9e2 763e 9382 6dbe 6d2e c23c 9ad3 983d
000001e0: 8bba 3bbd 59f9 39be 9e8e 733d 7f0a c63d
000001f0: 11d1 a5be 132e 0a3e 6d79 fb3c e86e b03e
00000200: 1694 983e eaab b0be c66f 8cbe 8010 e8bc
00000210: d89c 413d c44d c6be 25e2 233e 730b 8c3e
00000220: 981e 423d 45df 17bd 6f46 523d d7fd d83d
00000230: bb50 c4be 1587 243e 4fa4 4a3d 394c b63e
00000240: a9d9 d43e 7781 90be 032e a7be 9994 bfbd
00000250: 4988 b4bd 3979 a2be e099 123e 679f 783e
00000260: 9847 7a3e 82da 03bd d4ef 263e 0a8d e13d
00000270: cdb7 a2be 15b3 0b3e fbde c7bd e148 943e
00000280: 06a9 a43e 96c2 8ebe c51b 6abe e67b b63d
00000290: 27fb b0bc 36ab b2be b6c6 2bbd 6d83 583e
000002a0: 9406 db3d 64cd 3dbd 98e8 d33c a751 b7bd
000002b0: 1ba6 a2be b925 2d3e d0bb 1dbc 014d ab3e
000002c0: 7047 013f ae05 b1be 4e48 6ebe 791a b4bd
000002d0: a1b9 d83d 0484 6bbe 6c22 483e 0d59 b13e
000002e0: 366d 633e d874 11be e67f 4e3e d68f 893d
000002f0: d0ee b9be ec3d 293e 0c6a f8bd 9a1c 7d3e
00000300: b9b5 b93d 29d7 b2bd 4175 7dbd 2e65 9e3b
00000310: 3f7f dcbc 003c bfbd be0d 833d c2e6 8d3d
00000320: cfd5 633d 3e58 c23b ac0c 733c af89 bebc
00000330: 45d9 bebd ab87 503d 1223 d0bc 29f6 b63d
00000340: d76c 7d3e eca3 98be dae8 17be 4d5b 02bc
00000350: 14b7 323d 5e6a 9abe 52a8 943e f1f5 ad3d
00000360: 06be 393e d464 7e3d 09eb 3f3e 294a 773d
00000370: fdcf 91be 6d43 2e3d e83b 88bd 0d6c a53e
00000380: 1f06 713e 72bc 8fbe 1cb3 66be 5d1d d1bd
00000390: 9237 29bc 72b7 98be 7b62 633d c4c9 b93e
000003a0: 9579 1abd acfb b83c b377 52bd 27db 953d
000003b0: 5389 a2be 7c8e 853e 80c6 17bd 0d58 923e
000003c0: 17d4 993d e769 96bd 2aa9 48bd 26c9 b83a
000003d0: 76e2 de3b b5e0 86bd 8dd5 2b3d 2568 283d
000003e0: 869f ff3b 0a4f 733c 0340 973b f69b e43c
000003f0: 6870 a4bd 9a41 763c 906c 3c3d 965c 873d

encoder.bias_ih_l0 f4 [64]
0.17263608 0.21721676 0.17159142 0.27525556 0.2902956 0.18458194 0.35005498 0.1574663
0.3401057 0.3400751 0.29732722 0.3186728 0.18160062 0.32213718 0.3180322 0.12292414
0.19242497 0.19824024 0.18855815 -0.040240187 -0.19448812 0.17584708 0.12384197 0.12601759
-0.06398546 -0.13073133 0.028869208 0.0030268815 0.2032044 0.016543891 -0.13438639 0.1673014
0.18769048 -0.17517206 -0.15785547 0.050352756 -0.00063491566 -0.14412154 0.1182562 0.079640076
0.12343667 0.068716675 0.004931051 -0.07047778 -0.19391806 0.05385753 -0.00042946154 0.13088101
0.19313444 0.18474405 0.13628994 0.30722493 0.2989053 0.2854733 0.3456938 0.11032728
0.34299785 0.33169344 0.32359108 0.31655133 0.30836818 0.30182165 0.3107617 0.21667607
00000000: 83c7 303e 126e 5e3e a9b5 2f3e 4cee 8c3e
00000010: a0a1 943e 0c03 3d3e 683a b33e d93e 213e
00000020: 5622 ae3e 531e ae3e 463b 983e 1529 a33e
00000030: 83f5 393e 2aef a43e 1ed5 a23e a7bf fb3d
00000040: 0d0b 453e 7dff 4a3e 6315 413e e5d2 24bd
00000050: e527 47be 4211 343e dca0 fd3d c10a 013e
00000060: cf0a 83bd 6fde 05be 1e7f ec3c a55e 463b
00000070: d014 503e 0e87 873c 969c 09be 0f51 2b3e
00000080: ef31 403e 4e60 33be dda4 21be b13e 4e3d
00000090: 7870 26ba 9994 13be 4e30 f23d 561a a33d
000000a0: 5dcc fc3d 54bb 8c3d a794 a13b a856 90bd
000000b0: 7592 46be b799 5c3d 5a29 e1b9 ac05 063e
000000c0: 09c5 453e 8b2d 3d3e 978f 0b3e 964c 9d3e
000000d0: 1e0a 993e 8e29 923e c7fe b03e 45f3 e13d
000000e0: 6a9d af3e b9d3 a93e bbad a53e 0413 a23e
000000f0: 6fe2 9d3e 5e88 9a3e 281c 9f3e 55e0 5d3e

encoder.bias_hh_l0 f4 [64]
0.17263609 0.21721676 0.17159142 0.27525556 0.29029557 0.18458188 0.35005495 0.1574663
0.34010565 0.34007508 0.29732728 0.3186729 0.18160063 0.32213718 0.3180322 0.12292415
0.19242497 0.19824027 0.18855812 -0.040240154 -0.19448812 0.17584714 0.12384194 0.12601756
-0.0639855 -0.13073131 0.028869184 0.0030268668 0.2032044 0.016543917 -0.13438636 0.16730137
0.18769044 -0.17517209 -0.15785548 0.050352722 -0.0006349478 -0.14412153 0.11825617 0.079640135
0.12343669 0.06871668 0.004931038 -0.070477836 -0.1939181 0.05385755 -0.00042947207 0.13088097
0.19313447 0.1847441 0.13628994 0.30722496 0.29890537 0.2854733 0.34569377 0.11032725
0.3429978 0.33169344 0.3235911 0.31655133 0.30836815 0.30182168 0.31076175 0.21667606
00000000: 84c7 303e 126e 5e3e a9b5 2f3e 4cee 8c3e
00000010: 9fa1 943e 0803 3d3e 673a b33e d93e 213e
00000020: 5422 ae3e 521e ae3e 483b 983e 1829 a33e
00000030: 84f5 393e 2aef a43e 1ed5 a23e a8bf fb3d
00000040: 0d0b 453e 7fff 4a3e 6115 413e dcd2 24bd
00000050: e527 47be 4611 343e d8a0 fd3d bf0a 013e
00000060: d40a 83bd 6ede 05be 117f ec3c 665e 463b
00000070: d014 503e 1c87 873c 949c 09be 0d51 2b3e
00000080: ec31 403e 5060 33be dea4 21be a83e 4e3d
00000090: a072 26ba 9894 13be 4a30 f23d 5e1a a33d
000000a0: 60cc fc3d 55bb 8c3d 8b94 a13b af56 90bd
000000b0: 7792 46be bc99 5c3d c42a e1b9 a905 063e
000000c0: 0bc5 453e 8f2d 3d3e 978f 0b3e 974c 9d3e
000000d0: 200a 993e 8e29 923e c6fe b03e 41f3 e13d
000000e0: 689d af3e b9d3 a93e bcad a53e 0413 a23e
000000f0: 6ee2 9d3e 5f88 9a3e 2a1c 9f3e 54e0 5d3e

decoder.weight_ih_l0 f4 [64, 16]
-0.10501754 -0.12968856 -0.19687349 0.04241821 -0.22603166 0.22085813 0.16110173 0.14001745
0.24312568 0.242672 -0.10073605 0.23260546 -0.16112727 0.03308946 -0.21769407 0.1472382
-0.04848486 0.10302642 -0.096956074 0.150803 -0.21579212 0.1386899 0.18563136 -0.23533449
0.22783673 0.14194387 -0.16961887 0.23466626 0.2383954 -0.0025223494 -0.032001495 0.14742398
0.07583067 0.05752054 -0.01794228 0.11468929 -0.08351126 0.08264437 0.07916719 0.039010227
-0.12253398 0.24412039 -0.08121467 0.17585117 -0.14139313 0.19455853 -0.12332687 0.03878212
-0.017626375 0.11014682 0.018323034 -0.21203977 0.095505506 0.068796664 -0.1850783 -0.20176846
0.19980803 0.18014225 0.0015437007 0.24432594 0.21969336 -0.028204143 0.009747982 -0.1844798
-0.04477319 -0.022764653 -0.22776335 0.14479351 -0.12064773 0.07670346 -0.16760084 0.07481736
-0.15876082 -0.031120509 0.15429801 -0.17603749 0.1913723 -0.15876931 -0.04448852 -0.013152033
0.009428889 0.07143667 -0.17961922 0.24241045 0.094087124 0.15174654 -0.19141215 -0.082229406
0.14697137 0.027973443 -0.23582384 -0.15287042 0.06637922 -0.024019122 -0.04383397 -0.20823759
0.017198533 0.031790823 -0.019789368 -0.013753682 -0.19428247 -0.05717951 -0.19330564 -0.12708277
0.063570976 -0.11672002 -0.01469788 0.019442916 0.22165924 0.16224042 0.17118561 -0.06870031
-0.06159526 0.13374493 -0.23475441 0.036240608 0.15345779 0.020013332 0.0857957 -0.042969793
0.14762264 0.24207184 0.10473475 -0.13197112 0.087257385 -0.21881053 -0.07159805 -0.05719021
-0.22097796 0.1426822 -0.051152974 0.16372657 0.21884209 -0.03691125 -0.08802199 0.093023
-0.18368751 -0.10168487 -0.21258369 0.16876256 0.17564264 -0.08580196 -0.11059591 0.13572013
0.12539694 0.24880776 -0.07134238 -0.20193294 0.21289602 -0.12574217 0.0028804839 0.11933285
0.10732785 0.010354072 -0.11722538 0.014858842 -0.23835447 -0.18835908 0.22765651 0.21113813
0.15800592 -0.21605772 -0.20113426 -0.020471454 -0.23743376 -0.20796317 -0.19031513 0.16478041
-0.24692816 -0.13148773 -0.052354783 -0.14916337 0.034825176 0.012775421 -0.0345501 -0.14233401
-0.17341003 0.047139198 0.037085682 -0.16349241 0.09401646 -0.20794904 0.08060527 0.12521046
0.23893705 -0.2319459 0.10898718 0.07797316 -0.16039446 0.115706444 0.037897468 -0.021669716
0.22159737 0.06405562 -0.0010632873 -0.20968288 -0.13688278 0.18589967 0.046287805 0.026336282
-0.034118146 -0.017084032 -0.2109527 0.24687159 0.21921024 -0.15758213 -0.06713933 -0.004669845
-0.14440829 0.18446237 -0.20698684 0.1822114 -0.20865607 -0.24946764 0.1975283 0.10708961
-0.1135391 -0.037763566 -0.090433866 -0.047661573 -0.1409792 -0.09061387 0.23324308 0.054944307
0.07846302 -0.13690442 -0.041097254 0.19956455 -0.17958966 0.12126577 -0.11756745 -0.21934775
0.032877475 0.005823493 -0.22756228 0.24651262 -0.20787203 -0.18981996 -0.13807628 -0.23432624
0.064947605 0.016437173 -0.09459317 -0.13964424 0.063850015 0.20862046 -0.08043569 -0.037577033
0.12869883 0.07129219 0.10842237 -0.059150845 0.16382134 -0.017758816 0.14717445 -0.23152149
00000000: 7013 d7bd 14cd 04be 3499 49be b8be 2d3d
00000010: d874 67be a228 623e daf7 243e bc60 0f3e
00000020: f0f5 783e 027f 783e b44e cebd 2030 6e3e
00000030: 8cfe 24be d088 073d 32eb 5ebe 9cc5 163e
00000040: 1098 46bd 84ff d23d e890 c6bd 1a6c 1a3e
00000050: 9cf8 5cbe ba04 0e3e 2616 3e3e 86fb 70be
00000060: 084e 693e bc59 113e 92b0 2dbe 5a4c 703e
00000070: ec1d 743e 004e 25bb 0014 03bd 50f6 163e
00000080: 1c4d 9b3d a89a 6b3d b0fb 92bc 38e2 ea3d
00000090: f407 abbd 7441 a93d 6822 a23d 30c9 1f3d
000000a0: 18f3 fabd b2fa 793e e053 a6bd 5412 343e
000000b0: 5cc9 10be 5a3a 473e cc92 fcbd 00da 1e3d
000000c0: 3065 90bc a894 e13d 301a 963c f420 59be
000000d0: 6498 c33d 44e5 8c3d 2a85 3dbe 649c 4ebe
000000e0: 7a9a 4c3e 3677 383e 0056 ca3a 9430 7a3e
000000f0: 4cf7 603e 600c e7bc 00b6 1f3c 46e8 3cbe
00000100: 1864 37bd f07c babc cc3a 69be c044 143e
00000110: 2816 f7bd b416 9d3d 8e9f 2bbe d839 993d
00000120: 3292 22be 70f0 febc 4c00 1e3e 2c43 34be
00000130: 1af7 433e 6c94 22be 9839 36bd a07b 57bc
00000140: a07b 1a3c 644d 923d 1aee 37be 723a 783e
00000150: c0b0 c03d 7263 1b3e 8c01 44be e467 a8bd
00000160: aa7f 163e 9028 e53c ce7b 71be 108a 1cbe
00000170: d4f1 873d c0c3 c4bc 408b 33bd 3c3c 55be
00000180: f0e3 8c3c 1837 023d 501d a2bc 2057 61bc
00000190: fcf1 46be 1035 6abd eaf1 45be fc21 02be
000001a0: 8031 823d e80a efbd 60cf 70bc c046 9f3c
000001b0: a4fa 623e 5a22 263e 484b 2f3e c0b2 8cbd
000001c0: 504b 7cbd 6ef4 083e 7663 70be 0871 143d
000001d0: 0a24 1d3e 00f3 a33c a8b5 af3d 1801 30bd
000001e0: 642a 173e aee1 773e 2c7f d63d 7023 07be
000001f0: 00b4 b23d de0f 60be 00a2 92bd 4840 6abd
00000200: 0c48 62be 481b 123e c885 51bd f0a7 273e
00000210: 2418 603e 4030 17bd e044 b4bd d882 be3d
00000220: 9418 3cbe 2840 d0bd 8aaf 59be 18d0 2c3e
00000230: aadb 333e f0b8 afbd 1c80 e2bd 38fa 0a3e
00000240: 0e68 003e 76c7 7e3e f41b 92bd 82c7 4ebe
00000250: 6a01 5a3e 8ec2 00be 80c6 3c3b c864 f43d
00000260: b4ce db3d 20a4 293c dc13 f0bd 8072 733c
00000270: 3213 74be 34e1 40be ca1e 693e 9834 583e
00000280: 4ecc 213e 3c3e 5dbe 24f6 4dbe c0b3 a7bc
00000290: d621 73be 4cf4 54be f8e1 42be 32bc 283e
000002a0: bcda 7cbe b8a4 06be f871 56bd 48be 18be
000002b0: d8a4 0e3d 0050 513c 6884 0dbd 02c0 11be
000002c0: 6692 31be 0815 413d 28e7 173d 8e6a 27be
000002d0: b48b c03d 98f0 54be 6014 a53d 2c37 003e
000002e0: eaab 743e 3a83 6dbe ac34 df3d 64b0 9f3d
000002f0: 723e 24be 80f7 ec3d 603a 1b3d b084 b1bc
00000300: 6cea 623e 982f 833d 005e 8bba 1cb7 56be
00000310: 002b 0cbe 7c5c 3e3e 4898 3d3d 30bf d73c
00000320: 78bf 0bbd d0f3 8bbc fc03 58be e8cb 7c3e
00000330: a678 603e 365d 21be 5880 89bd 8005 99bb
00000340: c4df 13be b4e3 3c3e 5cf4 53be a095 3a3e
00000350: f0a9 55be 7274 7fbe dc44 4a3e cc51 db3d
00000360: 3087 e8bd f8ad 1abd 6435 b9bd c838 43bd
00000370: da5c 10be c493 b9bd 46d7 6e3e 480d 613d
00000380: 38b1 a03d ac30 0cbe 9855 28bd a65a 4c3e
00000390: 5ae6 37be 305a f83d 34c7 f0bd b29c 60be
000003a0: 88aa 063d 00d3 be3b 1606 69be ce6d 7c3e
000003b0: 68dc 54be 2a60 42be de63 0dbe 38f3 6fbe
000003c0: 4003 853d 40a7 863c 10ba c1bd e6fe 0ebe
000003d0: ccc3 823d 9aa0 553e 78bb a4bd 60ea 19bd
000003e0: a0c9 033e a401 923d 8c0c de3d 2848 72bd
000003f0: c8c0 273e f07a 91bc e6b4 163e f813 6dbe

decoder.weight_hh_l0 f4 [64, 16]
-0.14189237 -0.2498599 -0.15393794 0.09885064 -0.19585422 -0.041232795 0.1450206 -0.053803563
-0.09416708 -0.16669124 -0.24473977 -0.11495134 -0.19286779 0.19183329 -0.1668854 -0.1363438
-0.14869761 0.07819295 -0.089745134 -0.18211564 0.10882053 0.22077659 0.098089635 0.22224578
0.2022059 0.18511885 -0.21619523 0.15351585 -0.022717267 0.15171334 -0.19283873 -0.07669622
-0.05186823 0.20188391 0.22918445 0.2337893 -0.11570087 -0.19106725 0.0043258667 0.07083225
-0.19759741 0.22728658 0.1286917 -0.10351747 0.10535878 0.036655605 -0.01804921 -0.09691617
0.015895337 0.23194811 -0.08985329 -0.14785984 0.053520262 -0.23158756 0.13908684 -0.13641012
-0.009426683 -0.029370189 -0.08272901 0.15768722 -0.24789503 -0.040040523 0.038092017 -0.062321275
-0.19678468 0.010013163 0.1434145 0.22986284 -0.13538846 -0.022843301 0.20446184 -0.048043966
0.037391514 0.10859889 0.21730286 0.14882052 -0.00736171 0.2046862 -0.14658105 -0.22188336
0.2000758 0.081771195 0.18232691 -0.16670501 0.1628792 -0.16324806 -0.14776069 0.0324156
0.10610849 -0.08676684 -0.105582386 -0.1447846 0.08539349 -0.124058634 -0.08288157 -0.13539222
0.092532545 0.091728956 0.040248066 0.18679672 0.17701554 0.07693258 -0.19185436 0.118885756
0.0058661103 -0.18536592 -0.16442087 -0.18524897 -0.17376399 -0.22750345 0.21822861 0.02816841
-0.025128454 0.20995456 0.07173967 0.069591105 -0.22655788 -0.08301127 0.029280305 -0.18692479
0.20143363 0.05949655 0.23828653 0.12746191 -0.17333779 0.21733743 -0.07224974 0.10346004
0.11710957 -0.17733872 -0.09176502 0.0039657056 0.008828491 0.20573917 -0.14891484 -0.19780853
-0.13343969 0.084716976 0.02271685 0.014784157 -0.1971066 -0.17686847 -0.1617805 0.22228146
-0.07377845 0.20777166 -0.02614984 -0.09592977 0.22583416 0.24321681 0.13154292 0.11682561
0.13772196 -0.018919647 -0.21415085 -0.20550671 -0.048128575 0.048233688 -0.119499385 -0.12141684
0.12147215 -0.21358651 -0.072298825 -0.16648269 0.16155729 0.13505936 -0.22156888 0.20091787
-0.20055029 0.010321051 0.24389213 -0.11114374 -0.09872979 -0.20744222 -0.1493335 -0.08151376
-0.1980932 0.07481328 -0.15545678 0.24410322 0.24654576 0.1276643 0.043913364 -0.04424852
0.21550459 -0.18732727 0.08914915 0.00049576163 -0.16219148 0.20814672 0.22224903 -0.16042
-0.18691346 -0.21958429 -0.23464242 -0.24457851 0.041665643 -0.060291022 -0.005362183 -0.14081451
-0.010634571 0.21204153 -0.16846603 0.19948459 -0.07807937 -0.028072417 -0.23771763 0.18815053
-0.0066948235 0.13260195 0.12966889 0.0736081 -0.041155934 0.055080503 0.010134071 -0.04073119
-0.024933875 0.09192625 -0.0026163757 -0.1469014 -0.2254214 0.1792703 0.17801741 0.1251055
-0.21535113 0.20822257 -0.04991752 -0.119395405 -0.07470885 0.2253392 -0.024584323 -0.24576405
-0.05835423 -0.04071656 0.16789019 0.16173634 -0.20693523 -0.19333836 0.07779539 -0.2216312
0.14321366 0.16884422 -0.16202268 -0.08490524 -0.22955498 0.14576876 0.1343714 0.16652572
-0.13437566 -0.053590685 0.06975132 0.1521045 0.20154524 -0.2362735 0.016691536 0.2265358
00000000: 3c4c 11be 46db 7fbe e8a1 1dbe 3472 ca3d
00000010: 028e 48be b8e3 28bd 4880 143e 2061 5cbd
00000020: acda c0bd 1cb1 2abe 109d 7abe 9c6b ebbd
00000030: 227f 45be f26f 443e 02e4 2abe b69d 0bbe
00000040: 3044 18be a023 a03d 4ccc b7bd 867c 3abe
00000050: 4cdd de3d 4213 623e 38e3 c83d 6694 633e
00000060: 100f 4f3e cc8f 3d3e 4862 5dbe 4233 1d3e
00000070: 9019 babc be5a 1b3e 8477 45be e812 9dbd
00000080: c873 54bd a8ba 4e3e 54af 6a3e 7666 6f3e
00000090: 94f4 ecbd 22a7 43be 00c0 8d3b 8010 913d
000000a0: fa56 4abe d0bd 683e c2c7 033e f800 d4bd
000000b0: 58c6 d73d 3024 163d f0db 93bc fc7b c6bd
000000c0: f036 823c ce83 6d3e 0005 b8bd 9268 17be
000000d0: 1038 5b3d 4a25 6dbe c86c 0e3e 18af 0bbe
000000e0: 6072 1abc c099 f0bc d46d a9bd c278 213e
000000f0: 32d8 7dbe 8801 24bd 6006 1c3d 9844 7fbd
00000100: ec81 49be 400e 243c 40db 123e 2a61 6b3e
00000110: 46a3 0abe e021 bbbc 725e 513e c0c9 44bd
00000120: d827 193d 1869 de3d a484 5e3e 6864 183e
00000130: 803a f1bb 4299 513e 5819 16be 6435 63be
00000140: ace0 4c3e a877 a73d e8b3 3a3e b8b4 2abe
00000150: cec9 263e 802a 27be 944e 17be 38c6 043d
00000160: 684f d93d d0b2 b1bd 943b d8bd 6a42 14be
00000170: c8e2 ae3d 7412 febd d0bd a9bd 42a4 0abe
00000180: b481 bd3d 64dc bb3d 28db 243d a447 3f3e
00000190: 9043 353e d48e 9d3d 7875 44be 607a f33d
000001a0: 8038 c03b 90d0 3dbe f25d 28be e8b1 3dbe
000001b0: 30ef 31be aaf6 68be 5277 5f3e 70c1 e63c
000001c0: 30da cdbc 54fe 563e 40ec 923d c885 8e3d
000001d0: cafe 67be d001 aabd 40dd ef3c 3669 3fbe
000001e0: 9e44 4e3e a8b2 733d 6201 743e 6085 023e
000001f0: 767f 31be b48d 5e3e acf7 93bd dce2 d33d
00000200: 24d7 ef3d 4898 35be 4cef bbbd c0f2 813b
00000210: 60a5 103c 4aad 523e 227d 18be 528e 4abe
00000220: 6aa4 08be 1880 ad3d b018 ba3c 4039 723c
00000230: 50d6 49be 021d 35be caa9 25be c09d 633e
00000240: 2819 97bd 18c2 543e 3038 d6bc d476 c4bd
00000250: 1241 673e d40d 793e 30b3 063e 4442 ef3d
00000260: fc06 0d3e 60fd 9abc 5c4a 5bbe 5a70 52be
00000270: 7822 45bd b090 453d 18bc f4bd 64a9 f8bd
00000280: 64c6 f83d 6cb6 5abe 6811 94bd 707a 2abe
00000290: 466f 253e 004d 0a3e f4e2 62be 6abd 4d3e
000002a0: 0e5d 4dbe a019 293c dcbe 793e 549f e3bd
000002b0: d832 cabd bc6b 54be e2ea 18be b0f0 a6bd
000002c0: f2d8 4abe b437 993d 1030 1fbe 32f6 793e
000002d0: 7e76 7c3e 6eba 023e 80de 333d f03d 35bd
000002e0: 3cad 5c3e b8d2 3fbe d493 b63d 00f6 013a
000002f0: 8615 26be 6a24 553e 4095 633e 2445 24be
00000300: 3e66 3fbe b4da 60be 1a46 70be ca72 7abe
00000310: 98a9 2a3d b8f3 76bd 40b5 afbb ae31 10be
00000320: a03c 2ebc 6a21 593e 5c82 2cbe b045 4c3e
00000330: 14e8 9fbd 20f8 e5bc 406c 73be 88aa 403e
00000340: 4060 dbbb cec8 073e ecc7 043e d8bf 963d
00000350: 2093 28bd 189c 613d 6009 263c c0d5 26bd
00000360: 2042 ccbc d443 bc3d 8077 2bbb 526d 16be
00000370: ded4 66be a292 373e 324a 363e a81b 003e
00000380: 0285 5cbe 4c38 553e 5076 4cbd 9485 f4bd
00000390: f400 99bd 52bf 663e 1065 c9bc 92a9 7bbe
000003a0: d804 6fbd 68c6 26bd 68eb 2b3e 369e 253e
000003b0: d4e6 53be 7efa 45be 3053 9f3d 4af3 62be
000003c0: 9aa6 123e 80e5 2c3e 46e9 25be cce2 adbd
000003d0: 7610 6bbe 6844 153e a898 093e b885 2a3e
000003e0: c699 09be e881 5bbd c8d9 8e3d 48c1 1b3e
000003f0: e061 4e3e aef1 71be b0bc 883c 00f9 673e

decoder.bias_ih_l0 f4 [64]
-0.13228464 -0.037090987 -0.0037082136 -0.1070779 -0.008525968 -0.08313051 -0.05842194 0.21903065
0.054444283 0.122035384 -0.14443976 -0.05024627 -0.105065376 -0.075951874 0.030653477 -0.23388219
-0.20548937 0.21955156 -0.018363625 -0.18138644 0.17048258 -0.024662465 -0.165936 0.18879116
0.14131147 -0.16627657 -0.23086488 0.17052573 0.23799375 -0.19789246 -0.23337188 -0.057088315
0.14509428 -0.13747358 0.12940514 -0.19032142 0.033756167 0.023737967 0.0015477538 -0.24852213
-0.20248517 0.12323403 0.1670433 -0.06617838 0.23520857 0.2302154 0.07403818 -0.20470929
0.21076277 0.24986231 0.1099616 0.0044947267 0.23856506 -0.17875919 0.1746741 -0.17796063
-0.056705028 -0.11170885 -0.07933253 0.1994609 0.076566726 0.09881067 -0.18241411 0.11782017
00000000: a075 07be b8ec 17bd 8005 73bb a84b dbbd
00000010: 80b0 0bbc 5440 aabd d84b 6fbd 9249 603e
00000020: f800 5f3d b0ed f93d 04e8 13be 08cf 4dbd
00000030: 842c d7bd a88c 9bbd 001d fb3c d07e 6fbe
00000040: ce6b 52be 20d2 603e 506f 96bc 5ebd 39be
00000050: fc92 2e3e f008 cabc 20eb 29be 7852 413e
00000060: f4b3 103e 6844 2abe d867 6cbe 4c9e 2e3e
00000070: a2b4 733e 52a4 4abe 0af9 6ebe 70d5 69bd
00000080: 9893 143e e0c5 0cbe c882 043e 9ee3 42be
00000090: e843 0a3d 2076 c23c 00de ca3a 967c 7ebe
000000a0: 4658 4fbe 2062 fc3d 660d 2b3e 8888 87bd
000000b0: 84da 703e 96bd 6b3e 54a1 973d 509f 51be
000000c0: 32d2 573e e8db 7f3e 8c33 e13d 8048 933b
000000d0: 664a 743e a60c 37be c4dd 323e 503b 36be
000000e0: 8843 68bd 9cc7 e4bd 1879 a2bd 7a3f 4c3e
000000f0: 04cf 9c3d 405d ca3d c4ca 3abe b44b f13d

decoder.bias_hh_l0 f4 [64]
-0.07935831 -0.20411691 0.038400173 0.12445289 0.10455382 -0.06968042 -0.051957935 -0.23184589
0.14219928 0.013030976 0.21633345 0.07156736 -0.07993668 -0.091129065 0.011374623 -0.0760276
0.12119362 0.09745148 -0.23513189 0.016598195 0.1773814 -0.019105285 -0.15526143 0.085134745
0.11909747 -0.04665652 0.13126484 -0.19698566 -0.13773298 -0.051935673 0.21522003 0.15089762
0.1315906 -0.12275937 -0.19075662 0.007181078 -0.017220259 0.0010898709 0.02111286 -0.17448133
0.20262805 0.026900232 0.12126735 0.23619825 0.10453272 0.093308 -0.14703032 -0.004193455
-0.20208094 0.18727973 -0.15556282 0.045035183 0.008388102 -0.17799833 -0.04289338 -0.20557451
-0.24749368 -0.23520166 -0.016437799 -0.13660073 -0.01002422 -0.07951811 -0.15025601 -0.101555765
00000000: 9c86 a2bd 0604 51be 8049 1d3d 28e1 fe3d
00000010: 5020 d63d 9cb4 8ebd d8d1 54bd 0269 6dbe
00000020: b09c 113e e07f 553c 8486 5d3e e891 923d
00000030: d8b5 a3bd e0a1 babd a05c 3a3c 5cb4 9bbd
00000040: 5c34 f83d a494 c73d 6ac6 70be f0f8 873c
00000050: 78a3 353e b082 9cbc dafc 1ebe 205b ae3d
00000060: 60e9 f33d e81a 3fbd 4a6a 063e 9cb6 49be
00000070: e009 0dbe 80ba 54bd a462 5c3e e884 1a3e
00000080: b0bf 063e 4469 fbbd b455 43be 404f eb3b
00000090: 8011 8dbc 00da 8e3a e0f4 ac3c 3cab 32be
000000a0: ba7d 4f3e e05d dc3c 045b f83d f4dd 713e
000000b0: 4015 d63d 4418 bf3d 1e8f 16be 4069 89bb
000000c0: 4eee 4ebe 42c6 3f3e dc4b 1fbe d076 383d
000000d0: 406e 093c 3245 36be f8b0 2fbd 2082 52be
000000e0: fc6e 7dbe b4d8 70be 90a8 86bc 10e1 0bbe
000000f0: a03c 24bc 64da a2bd b6dc 19be 78fc cfbd

mlp.0.weight f4 [16, 16]
0.26046035 -0.5578447 0.40300968 0.54419714 -0.66587275 -0.56631225 0.6386238 0.6129192
0.4136042 0.3319223 0.833754 -0.33953694 -0.16399446 0.34649202 -0.5243475 0.5171648
-0.031933445 0.048847783 0.009548961 0.49831274 -0.2445826 0.013260118 -0.03997504 -0.27081624
0.21121751 -0.38478604 0.60765845 -0.58072007 0.035645373 0.32548732 0.3073308 -0.029183565
-0.24716596 -0.56983125 -0.2107579 -0.2647581 0.52084005 -0.024578411 0.58288604 0.22087975
0.11969651 0.9406441 0.3066348 0.5950251 -0.33662662 -0.5112407 -0.6478176 0.08088852
-0.11019452 -0.4324574 0.033177026 -0.29974657 0.37769547 0.3233788 0.3047748 -0.36784184
-0.10059509 -0.06622257 0.47711393 0.5985944 -0.3911734 -0.6471627 -0.2078287 -0.034421794
5.024749e-09 2.3559608e-06 -2.2109944e-06 2.1971142e-05 -1.0402744e-07 -0.00019331656 2.3671344e-15 1.8149813e-09
-1.00487e-12 -0.0006907168 8.3127965e-08 2.9391394e-06 -1.2929287e-10 -4.423325e-34 -0.00023930047 -0.023797829
0.39114785 0.12626599 0.122875914 -0.8863005 -0.19179718 -0.091267996 0.8839482 0.3761668
0.8661464 0.20358072 0.5373546 0.050330155 -0.20121162 -0.70500594 -0.16930091 0.309261
0.09747638 -0.023269087 -0.04950276 0.06284243 -0.47238684 -0.09518272 0.40258864 0.5987612
0.7992182 0.24207214 -0.37518123 -0.7302029 -0.19445577 -0.14708863 0.44599456 0.12902024
-0.12701567 -0.66904324 -0.22520137 -0.2090213 0.7538328 0.088750996 0.41150984 -0.3680397
-0.6564789 -0.022834733 0.6826632 0.84549147 -0.4220277 0.54875976 -0.02382039 -0.14474414
-0.08043389 -0.42466652 -0.051165096 -0.9317014 0.76600355 0.04009917 0.1413231 0.5852961
-0.2912973 -1.2826549 0.23475163 0.4387803 -0.10018379 0.28770813 -0.70866036 0.36869118
0.30694744 -0.26594576 -0.60614604 0.62207645 0.70630056 -0.5035769 -0.6209388 -0.43893036
-0.3743073 -0.85352033 -0.6917345 -0.61152756 -0.5043661 0.57243365 0.87951964 0.40025356
-0.24784556 -0.2128764 0.23063122 -0.45740616 0.5514173 -0.46847504 0.51396894 -0.10105921
0.8967244 0.36368233 0.02965179 0.5933821 -0.13686307 -0.59124845 -0.055254225 0.020659026
0.018355053 -0.07995123 -0.07132381 0.22518362 -0.10323573 -0.043627884 0.10841924 -0.028011208
-0.54847676 0.8088679 -0.01110886 0.4679049 -0.012000088 0.3015653 -0.45202574 -0.0032382323
-0.024855372 0.094185986 0.107374705 -0.07737801 0.34458286 -0.029846983 0.13421203 -0.61681414
0.4087264 0.23983288 0.5060316 0.049257986 -0.119236894 -0.73414576 0.10180338 -0.0121135935
0.029325591 0.009288175 -0.27693182 -0.14650634 0.80712795 -0.16392094 0.40683967 -0.4317487
-0.117438085 0.32351893 -0.3422372 0.3108116 -0.14194103 -0.6436979 1.0091732 0.087704375
0.34941536 -0.050702296 -0.09772147 0.33154994 -0.41271004 -0.19499299 -0.025036821 0.374664
0.32778102 0.07920307 -0.7041829 -0.5552735 -0.3108876 0.39785802 0.36561263 0.21070781
0.33407137 -0.672525 -0.34507066 0.2860073 0.7716259 -0.09231817 0.09831598 -0.38282493
-0.43114695 -0.01658891 0.256881 0.51445115 0.08528951 0.08130235 0.21882549 -0.1196166
00000000: 0f5b 853e e9ce 0ebf 4957 ce3e 8150 0b3f
00000010: a376 2abf d7f9 10bf d97c 233f 46e8 1c3f
00000020: eec3 d33e b8f1 a93e e770 553f c9d7 adbe
00000030: 2aee 27be 6767 b13e a33b 06bf ea64 043f
00000040: a5cc 02bd 9d14 483d 3f73 1c3c d922 ff3e
00000050: dc73 7abe f740 593c debc 23bd 6da8 8abe
00000060: 6749 583e ad02 c5be 818f 1b3f 12aa 14bf
00000070: e200 123d 46a6 a63e 765a 9d3e 5f12 efbc
00000080: 1319 7dbe 76e0 11bf ebd0 57be 608e 87be
00000090: c655 053f aa58 c9bc 0538 153f 4d2e 623e
000000a0: 7223 f53d 0dce 703f 3dff 9c3e 9153 183f
000000b0: 535a acbe ace0 02bf 60d7 25bf e1a8 a53d
000000c0: aaad e1bd 0e6b ddbe a2e4 073d 6278 99be
000000d0: 4d61 c13e e891 a53e 710b 9c3e c455 bcbe
000000e0: cc04 cebd b39f 87bd 4748 f43e 7c3d 193f
000000f0: e147 c8be 74ac 25bf 0cd1 54be defd 0cbd
00000100: 29a6 ac31 191b 1e36 9860 14b6 ab4e b837
00000110: b165 dfb3 05b5 4ab9 ec91 2a27 fa72 f930
00000120: 426c 8dab 3811 35ba 1584 b233 083e 4536
00000130: b528 0eaf 7dfd 1288 bbec 7ab9 aaf3 c2bc
00000140: 8844 c83e df4b 013e 5ea6 fb3d 97e4 62bf
00000150: 7b66 44be b7ea babd 6e4a 623f ef98 c03e
00000160: c5bb 5d3f 7777 503e 1290 093f fe26 4e3d
00000170: 6b0a 4ebe 457b 34bf 385d 2dbe 7557 9e3e
00000180: b2a1 c73d d09e bebc 68c3 4abd 88b3 803d
00000190: b0dc f1be 28ef c2bd 1920 ce3e 6a48 193f
000001a0: 9099 4c3f c2e1 773e c117 c0be 94ee 3abf
000001b0: 6a1f 47be 679e 16be 6659 e43e e21d 043e
000001c0: 6510 02be 6b46 2bbf 309b 66be ae09 56be
000001d0: 30fb 403f 15c3 b53d 6bb1 d23e b36f bcbe
000001e0: 000f 28bf e80f bbbc 04c3 2e3f 2172 583f
000001f0: 0414 d8be 857b 0c3f fb22 c3bc cf37 14be
00000200: 86ba a4bd e46d d9be 7e92 51bd fc83 6ebf
00000210: cf18 443f 073f 243d 01b7 103e f7d5 153f
00000220: eb24 95be 092e a4bf bb62 703e d0a7 e03e
00000230: 292d cdbd 7b4e 933e c46a 35bf 17c5 bc3e
00000240: 3728 9d3e 0b2a 88be 632c 1bbf 6740 1f3f
00000250: 1dd0 343f 6aea 00bf d8f5 1ebf 7bbb e0be
00000260: 35a5 bfbe 4f80 5abf 8315 31bf 128d 1cbf
00000270: 231e 01bf 038b 123f 3328 613f 09ee cc3e
00000280: 3acb 7dbe 45fc 59be 972a 6c3e 2431 eabe
00000290: af29 0d3f f6db efbe 7893 033f 22f8 cebd
000002a0: bb8f 653f 9234 ba3e 50e8 f23c e4e7 173f
000002b0: d525 0cbe 0f5c 17bf 4152 62bd 1e3d a93c
000002c0: 565d 963c 78bd a3bd 3812 92bd 8996 663e
000002d0: 416d d3bd 27b3 32bd e80a de3d c377 e5bc
000002e0: f968 0cbf f711 4f3f f001 36bc 3b91 ef3e
000002f0: 049c 44bc c466 9a3e eb6f e7be 8638 54bb
00000300: 7e9d cbbc 95e4 c03d 45e7 db3d 5d78 9ebd
00000310: 2a6d b03e a981 f4bc e16e 093e 88e7 1dbf
00000320: 9644 d13e c096 753e 498b 013f bec2 493d
00000330: 7932 f4bd faf0 3bbf 4a7e d03d 1878 46bc
00000340: 393c f03c 6e2d 183c 02ca 8dbe c205 16be
00000350: f09f 4e3f e4da 27be 4a4d d03e 2a0e ddbe
00000360: 6183 f0bd 46a4 a53e b739 afbe b322 9f3e
00000370: fd58 11be 63c9 24bf 962c 813f 5a9e b33d
00000380: 92e6 b23e 36ad 4fbd 3222 c8bd eac0 a93e
00000390: bb4e d3be 3eac 47be 051a cdbc f6d3 bf3e
000003a0: ead2 a73e 3835 a23d 5545 34bf 6726 0ebf
000003b0: a92c 9fbe 0cb4 cb3e 9431 bb3e cac3 573e
000003c0: 670b ab3e 992a 2cbf 1aad b0be 8c6f 923e
000003d0: 4689 453f 4f11 bdbd e359 c93d a101 c4be
000003e0: 4bbf dcbe 77e5 87bc e885 833e 12b3 033f
000003f0: 44ac ae3d d981 a63d ca13 603e 8cf9 f4bd

mlp.0.bias f4 [16]
0.2951415 -0.032742225 0.11425036 0.38038045 0.006354104 0.090569705 0.18219334 0.10945869
-0.03625849 0.23194294 0.37725806 0.0033016508 -0.036588 0.1560647 0.24400297 0.016066615
00000000: c91c 973e b61c 06bd 18fc e93d 3ac1 c23e
00000010: 1636 d03b 9c7c b93d e490 3a3e e12b e03d
00000020: c883 14bd 7382 6d3e f827 c13e 8260 583b
00000030: 4cdd 15bd 6dcf 1f3e eadb 793e 229e 833c

mlp.2.weight f4 [4, 16]
0.5767979 0.8953542 0.061034773 -0.2880267 -4.167592e-16 -0.34770128 -0.42124745 0.35460776
0.57004786 -0.39986786 -0.78053945 0.52902216 -0.90607196 -0.9594686 -0.049429618 0.14177905
-0.16133077 0.12759021 -0.37569815 -0.2382268 4.93673e-15 0.3295609 0.07329561 -0.4486374
1.0530369 0.005049944 -0.08289426 -0.6606887 -0.7994352 -0.25002274 0.075415604 -0.4891377
-0.62130094 0.26623115 -0.42958274 0.056742076 -7.5809344e-06 -0.7347542 -0.7668092 0.52437186
0.46816647 1.1151806 -0.60092854 -0.08185109 0.069592774 0.8751154 -0.20355532 0.51618814
-0.43894374 0.26543233 0.4956204 0.92461675 -4.4311445e-08 0.35108346 -0.7541072 0.59713525
0.5651949 -0.7520247 0.7487622 0.15159605 0.59287584 0.7731585 -0.9114879 0.4222728
00000000: 07a9 133f ef35 653f 99ff 793d 3c78 93be
00000010: cd3e f0a5 e705 b2be bfad d7be 268f b53e
00000020: a8ee 113f 7bbb ccbe 6fd1 47bf ff6d 073f
00000030: 55f4 67bf bc9f 75bf b676 4abd 872e 113e
00000040: e533 25be 02a7 023e 825b c0be baf1 73be
00000050: 4cdd b127 35bc a83e 021c 963d cdb3 e5be
00000060: eac9 863f 007a a53b 77c4 a9bd e522 29bf
00000070: c9a7 4cbf fb02 80be 7f73 9a3d 4270 fabe
00000080: 940d 1fbf 734f 883e 45f2 dbbe 616a 683d
00000090: bb5f feb6 da18 3cbf 9c4d 44bf 3c3d 063f
000000a0: 84b3 ef3e 3dbe 8e3f 74d6 19bf 8ba1 a7bd
000000b0: a886 8e3d 9007 603f ce70 50be e824 043f
000000c0: 3cbd e0be bfe6 873e f5c1 fd3e afb3 6c3f
000000d0: f350 3eb3 36c1 b33e 2b0d 41bf dbdd 183f
000000e0: 9db0 103f b184 40bf e1ae 3f3f ff3b 1b3e
000000f0: b6c6 173f b7ed 453f 4557 69bf 2434 d83e

mlp.2.bias f4 [4]
0.024623355 0.23502146 0.10463431 -0.37934104
00000000: ebb6 c93c 77a9 703e 834a d63d fd38 c2be
