output_bbox_gcn/GENERATOR_layout_MultiLayer_2023_09_21_17_53_01/Model/generator_190.pth (torch, 19605 bytes, 12 tensors)

encoder.weight_ih_l0 f4 [64, 4]
00000000: 1420 e53d b567 d43d 2850 0abb 0f28 86bc
00000010: a94c e83d 9317 0b3e 2825 d3bb c561 1d3d
00000020: 3deb 963d bc4a d03d f48f 883d 9d1c 733d
00000030: 9a30 b7bd 08c9 603e 8e18 8a3a 55a4 3d3e
00000040: 18ed 1e3e 9904 363e f777 433e 8563 3b3e
00000050: 20fa 5a3d 2b7e 5b3d 33ff 123d 34de 91ba
00000060: db47 803e a904 1f3e a4f1 d23d 51ab b93d
00000070: e7e5 1d3c d262 213e 61b9 843c 3181 6c3e
00000080: 7628 343e 5897 1c3e 789f d33c 6ded 9e3c
00000090: ec19 443e a6ff cc3d e7b5 943e ec91 113e
000000a0: 0601 2e3d c045 4f3e 2bc3 3ebd daf2 663e
000000b0: 2f4c 183e 3af2 f23d 83ed 9a3d 27d2 393e
000000c0: cd7b 7f3d e101 843d 4226 db3c 88ee 8c3d
000000d0: a547 373e ae74 403e d546 933e f756 0c3e
000000e0: c75b cb3d c291 633d c1da 2b3e 55fe 683e
000000f0: e68e f63c 5205 7d3d 94dd 0a3d 8cb2 89bd
00000100: fcc0 af3d bd41 9e3d 2547 7fbc 8851 1e3b
00000110: 4be5 b13d 51dc bb3d a9a1 afbc c64f fc3c
00000120: b60b 663d b40d 863d a0d0 4b3d 0e93 8d3d
00000130: 1d20 b93c e00f 423e e49d 34bd eb31 aa3e
00000140: eab6 e5be 7f54 853c 3a1b 2fbe 7b99 05bb
00000150: aa47 903d 9fb7 2b3d 77e7 3f3d 8840 25bd
00000160: 9348 c83d be11 24be 085c 86be bbd3 b63e
00000170: 9322 bd3e 1acc 523e 100b 16bf a372 bbbd
00000180: 472a c0bd 93e7 45bd 3e74 5dbe af83 d43e
00000190: b6d5 96bd b640 0c3d 4781 8ebe b671 793e
000001a0: 7b71 49be c494 ac3e de74 e33d 7800 d83d
000001b0: 2411 2dbe b350 473d 4f03 1cbf cc09 963d
000001c0: 9689 a03d 7c75 713d a754 293d e65f aa3d
000001d0: e056 a93e cabd b1bd a5b0 bebd ddf7 11bf
000001e0: 48e3 c0bd 6537 33bd bc88 9cbe ef1e 2f3e
000001f0: f980 b93d 09e4 c43d 61da 263d 3354 87bd
00000200: 2021 513e 0cf2 333e d00b 04bb fcae 533d
00000210: e212 1fbe 3845 60be f362 1dbb 9eff 30bd
00000220: 63eb dbbd ea69 54be 8379 d0bd 8e04 7dbd
00000230: 5791 663e a119 d9be 20bd 803e b1d2 e9be
00000240: 0f33 a3be b21a 3ebe 2000 3b3f 71d2 253f
00000250: 8174 d9bd 81de f3bd fe91 51bd 9963 123e
00000260: d7f9 343d 7018 00be 03ee 0ebf 387e e83e
00000270: 7894 033f 4066 623e 2241 b2be 851b 82be
00000280: 3465 f2be 3e35 213f 2f8d 30bf e33d 473e
00000290: 3ff2 78be e655 74bf dfa7 25bf 11fb b0bd
000002a0: 9d16 183e 42b9 3cbd d1c1 8dbe b92c 613f
000002b0: c4ea 243e 62bc c6be f940 033e 6ad0 153f
000002c0: 6f73 c0bd 9b54 f2bd 3cfe 79bc 6c0c a6bd
000002d0: fe4a 3c3f 8459 043e c5e0 9c3e 038e 0bbf
000002e0: 1b74 68bf 5974 76be 4bd8 093f 32d2 c7be
000002f0: fb7a a63d 9176 173e ccfb 883d b9e6 c6bc
00000300: 3f26 3e3e 32c0 403e d4f5 ab3d e5ae b5be
00000310: d883 823e 7192 abbe 9d55 c03e 677b 023f
00000320: 9e4a 6bbd a30b b0be f9df 153f 0457 95be
00000330: 186e 9d3d d415 6c3e ee95 933d 26fb 433e
00000340: 861b ca3d 06ac 5e3e 87d8 333e b3fa 333e
00000350: 1a68 f13d 78e7 203e 5c80 ca3d c219 d6bd
00000360: 8e56 873e b798 2a3e 57f1 033e 4fc8 563e
00000370: 306f 253e 700c 153f dcac f4be 6e9f db3e
00000380: 9a27 493e 06bc 3f3e 94a9 37be 5e3b 233e
00000390: 9755 403e 634a 243e 2acc 383e 301a 1d3e
000003a0: 3e4b 70bc 551d 003e 15e9 e8bd 8b72 a43e
000003b0: 0cd6 2c3e 8421 d73d ec7f f83c b3d6 7b3e
000003c0: a03d cc3d 1bdd 9e3d 977d 923e 744d 133e
000003d0: 0aa7 793e b19f 753e 191e a53e 9f79 dc3c
000003e0: c1b7 9b3d 11f3 2a3d 759a 0e3e 7bd3 8f3e
000003f0: db19 0d3e e61d a13e ee96 973c dd3f 6fbd
0.11187759 0.10371343 -0.0021104906 -0.016376523 0.11342747 0.13583212 -0.0064436384 0.03842332
0.07369087 0.101705045 0.06668082 0.05935346 -0.08944817 0.21951687 0.0010535882 0.18519719
0.15520132 0.17775191 0.19088732 0.18299682 0.053461194 0.05358712 0.03588791 -0.0011128844
0.2505482 0.15529121 0.102999955 0.09065879 0.0096373325 0.15760353 0.016201677 0.23096158
0.1759356 0.15292108 0.025832877 0.019400323 0.19150513 0.100096986 0.2904503 0.14215821
0.042481445 0.20241451 -0.046572845 0.22553578 0.14872812 0.11862607 0.07564833 0.18146573
0.062373925 0.06445671 0.026751641 0.06881434 0.17898424 0.1879451 0.28764978 0.1370505
0.099296145 0.055558927 0.16782667 0.2275327 0.030097436 0.061772652 0.03390272 -0.06723508
0.08581731 0.07727382 -0.015580927 0.0024157483 0.08686312 0.091728814 -0.02143939 0.030799758
0.056163512 0.065455824 0.049759507 0.06912814 0.02259832 0.18951368 -0.04409589 0.3324121
-0.44866115 0.016275642 -0.1710023 -0.002038567 0.07044919 0.04192316 0.0468516 -0.040344745
0.097794674 -0.16022393 -0.2624209 0.35708413 0.3694044 0.20585671 -0.5861063 -0.091527246
-0.09383064 -0.04831655 -0.21626374 0.41506717 -0.07364981 0.0342414 -0.27833006 0.24359784
-0.19672196 0.3370725 0.11106275 0.105469644 -0.1690107 0.048660945 -0.6094255 0.07326087
0.078387424 0.058949932 0.041340496 0.083190724 0.33074093 -0.086787775 -0.09311036 -0.57018834
-0.094183505 -0.043754 -0.3057307 0.17101644 0.09057803 0.09613807 0.040735606 -0.066078566
0.20422792 0.17572802 -0.0020148642 0.05168055 -0.15534547 -0.21901405 -0.0024015277 -0.043212526
-0.10738256 -0.20743528 -0.101794265 -0.06177192 0.2251638 -0.42402366 0.2514429 -0.45668557
-0.31874892 -0.18564871 0.73047066 0.64774233 -0.106179245 -0.119076736 -0.05116462 0.14295806
0.04418358 -0.12509322 -0.5583193 0.45408797 0.5139842 0.22109318 -0.34815317 -0.2541162
-0.47342837 0.62971866 -0.6896543 0.19457202 -0.2431116 -0.9544357 -0.64709276 -0.08641637
0.14852376 -0.046075113 -0.27686933 0.87958866 0.16105181 -0.388156 0.12817754 0.5852114
-0.09397017 -0.118325435 -0.015258368 -0.08107838 0.7355193 0.12924773 0.30640236 -0.5451357
-0.9080216 -0.2406782 0.5384566 -0.39027554 0.081289254 0.14791323 0.066886514 -0.024279939
0.18569277 0.18823317 0.08396497 -0.35484996 0.25491214 -0.33510163 0.37565318 0.5096955
-0.057444207 -0.34383878 0.5854488 -0.2916795 0.07687014 0.23055202 0.07206331 0.19138774
0.09868531 0.21745309 0.17563067 0.17576103 0.11787434 0.15713298 0.09887764 -0.10454132
0.26433223 0.16659819 0.12885033 0.20974849 0.16155696 0.58222103 -0.4778813 0.42895073
0.19644013 0.18724069 -0.17935783 0.15940616 0.1878265 0.16044001 0.18046632 0.15342021
-0.014666377 0.1251119 -0.11372582 0.3211864 0.16878527 0.105044395 0.030334435 0.2459362
0.099726915 0.07757016 0.28611442 0.14385015 0.24380127 0.23986699 0.32249525 0.026913462
0.07603408 0.041735712 0.13926108 0.28091034 0.13779394 0.31468123 0.018504586 -0.058410514

encoder.weight_hh_l0 f4 [64, 16]
00000000: c52d b63d eeb2 b6bd b68b 83bd 37ee c23b
00000010: 5ada 3fbd 6587 b3bd 70a1 7c3d 7b16 9b3d
00000020: 3d98 543d e65d 97ba af5f b6bb 6067 20bd
00000030: c6f3 b2bd d9a7 953d 2182 16bd 7f77 903d
00000040: b208 d33d e34c cfbd f385 95bd 2153 6c3b
00000050: 6722 64bd c4aa ccbd d123 713d fd15 a03d
00000060: 555d 9b3d 18df c1bb de52 b7bb c3ea 9fbd
00000070: 6c8e c9bd ccce b33d 1332 1abd 7e78 a03d
00000080: bed1 bd3d 0c32 bdbd 8c79 83bd b415 153b
00000090: cbdb 1fbd dc5f bbbd aeed 873d 58a9 913d
000000a0: 3fb9 9b3d ce24 4abc 21b1 863c 89ac 6bbd
000000b0: 72c4 bcbd 704b 7c3d aab3 21bd 70ad a03d
000000c0: 9ba0 483e 5fa3 69be 6c8c 21be 2778 8f3b
000000d0: 809a c2bd 8115 89be 0803 6f3e 45da 793e
000000e0: 3fd4 863d 83c2 ffbd b60f 8bbd 2a20 853d
000000f0: a358 75be 265d 303e 0500 153e dcec 823e
00000100: b279 903e 6247 22be 70c8 0ebe ca8d 513d
00000110: f9a9 a9bd b32b acbe 5679 433e 7fec 703e
00000120: 7cb7 6e3d 5758 84bc e2f5 733d 3554 5f3d
00000130: 0676 98be 3675 923e 9c88 80bd 345e 9b3e
00000140: ea80 c33d 90b0 d5bd 9111 92bd eb30 8dba
00000150: 0bd1 a5bb 0894 cbbd 3f5a 8a3d 6d00 673d
00000160: 841b 513d f1eb 343c 6170 dd3c e725 debc
00000170: d281 d2bd 5019 0d3d 0497 d7bb cc6a ad3d
00000180: 55bc 723e b848 8fbe 1267 3cbe ead7 473a
00000190: 6a2a 4cbe 3884 85be 15ea 1c3e fd5a 0b3e
000001a0: 695c 193e e9d4 483e 9b65 8e3d 2a8b 78bd
000001b0: 6f7a 8dbe a475 153e 8707 82bd 4367 873e
000001c0: 5856 4c3e 53af 3bbe 07bd 17be 2ff1 f53c
000001d0: 8f87 713e e5e3 60be 0802 803d 1ccf 073e
000001e0: eec7 32bd 335b 28be 5773 45bc fa0f 013e
000001f0: 15db 86be 9bcb 173e d05f e73c 5b69 893e
00000200: eb64 913e 0236 94be 49ef 79be 9fe2 273d
00000210: 91e8 2a3b 7ca3 a3be 61cf 3a3e 76a2 6c3e
00000220: a4d0 d7bd 7a22 08bc cd0a 3bbb e12b 1c3e
00000230: 5fa3 a5be abb3 d53d 8bd3 8c3d dd68 9e3e
00000240: 20e7 9d3e 940a 86be 8b42 6dbe 0253 acbd
00000250: e813 41be 73cb 91be 8399 e1bc 861a 1f3e
00000260: 32f2 f63d 34fc 873d f52f ad3d 024e 163e
00000270: aaf2 92be 5cec ad3c aedd d4bd 3d09 8c3e
00000280: 2f1f 8f3e 8aba 43be 8992 3abe 8fc6 843d
00000290: 11d5 27bd 7f6a 99be 8abb 65be ab2d 033e
000002a0: 7374 7d3e d1d8 113d 9115 393d 2d78 a4bd
000002b0: d6bd 95be 24e6 903d 4b6d ddbd 5dce a23e
000002c0: eedb b83e 9c13 a1be 40c5 61be 25bf e5bc
000002d0: df4e cd3d a62b 8ebe 0ea3 1c3d 8020 613e
000002e0: 179d 1a3e d2e7 2ebe f880 893d 95c8 8b3d
000002f0: 8e83 acbe 719d 123e 97d9 97bd 286d 883e
00000300: e986 ad3d c41c b6bd 1aca 82bd 24a2 323b
00000310: e656 b7bc 1d79 b2bd 123c 7f3d 6e17 813d
00000320: 9028 403d 5c54 a43b 34bd 4e3c b0c3 cfbc
00000330: c9f6 b2bd 5735 503d 4bd3 94bc 4e14 943d
00000340: fcb7 793e 3a0a 94be f46d 2abe 0ae5 be3c
00000350: f37c d23d 7842 91be 8de8 8a3e a2bb f73c
00000360: f3c7 2b3e fef1 fe3c ba84 883e bc30 f33c
00000370: 7833 90be 3c4b 6e3d 1594 a8bd c187 8d3e
00000380: e260 5f3e ff71 73be 578d 2fbe 8fe6 0cbe
00000390: 567b ccbb e366 85be f93d ba3c ad26 953e
000003a0: bcad 0f3d 2f18 0b3e 6c39 f2bd 5c6b d33d
000003b0: 2f4e 87be 6310 3a3e d955 76bd f331 7f3e
000003c0: f49d 8a3d 50b0 89bd 3ad8 57bd 0eea 133b
000003d0: 1ee9 d93b a92c 8cbd 9f7c 363d 03ed f33c
000003e0: f9f4 953b f0ec d7bb fd9f 9e3c 9558 ba3c
000003f0: 5465 97bd 32bf 943b a1f8 083d cbf0 883d
0.088954486 -0.08920847 -0.06423132 0.0059488076 -0.046839096 -0.08766059 0.061677396 0.07572647
0.051903 -0.001154837 -0.0055656056 -0.039161086 -0.08737902 0.07307405 -0.036745194 0.07054042
0.10304393 -0.10122087 -0.073009394 0.003606029 -0.05569687 -0.099935085 0.058872048 0.07816694
0.07586161 -0.0059164874 -0.0055945953 -0.07808449 -0.09841618 0.08779678 -0.03764541 0.07835482
0.09268521 -0.09238061 -0.064196676 0.0022748532 -0.03902797 -0.09149143 0.06637131 0.07112378
0.07603692 -0.0123378765 0.016441884 -0.05753759 -0.092171565 0.06159538 -0.03947798 0.078455806
0.19592516 -0.22816227 -0.15776223 0.004378337 -0.09502125 -0.2677422 0.23341 0.2439967
0.065834515 -0.12488272 -0.06790106 0.065002754 -0.23959593 0.17223033 0.14550789 0.25571334
0.28217846 -0.15847543 -0.13943648 0.05116061 -0.08284373 -0.3362709 0.19089255 0.23527716
0.058280453 -0.016155405 0.059560664 0.054523665 -0.29777545 0.2860505 -0.06276056 0.3034531
0.09546073 -0.10434067 -0.07132257 -0.0010772025 -0.0050603203 -0.09940344 0.06755494 0.05639689
0.05105163 0.011042581 0.027031126 -0.027117683 -0.102786675 0.034447968 -0.0065792818 0.084676355
0.23704655 -0.27985168 -0.18398693 0.0007623421 -0.19938055 -0.26077437 0.1532367 0.13608928
0.14976658 0.19612469 0.069529735 -0.060679592 -0.27632472 0.14595658 -0.06349092 0.2644597
0.19954813 -0.183286 -0.14818202 0.030022232 0.23586868 -0.21961935 0.062503874 0.132626
-0.0436477 -0.1644104 -0.012051425 0.12603751 -0.2633902 0.14823763 0.02824393 0.26838192
0.28397307 -0.28947455 -0.24407686 0.040987607 0.0026078562 -0.31960666 0.18243171 0.23108849
-0.10537842 -0.008309001 -0.0028540373 0.15251113 -0.32351205 0.104346596 0.06876286 0.3093938
0.30840397 -0.26179945 -0.23169915 -0.0841427 -0.1885525 -0.28475532 -0.02753902 0.15537462
0.12057914 0.06639901 0.08456413 0.14678195 -0.28700763 0.021230869 -0.103938445 0.27350798
0.2795348 -0.19114128 -0.18219961 0.064831845 -0.04097468 -0.29964063 -0.22434822 0.1281039
0.24751453 0.035607163 0.045186583 -0.08030734 -0.29246396 0.07075146 -0.108118616 0.31798068
0.36105293 -0.31460273 -0.22047901 -0.028045246 0.10024809 -0.27767676 0.03824144 0.21985054
0.15098988 -0.1708062 0.06714052 0.06825367 -0.33694118 0.14317872 -0.07414549 0.2664578
0.08472998 -0.08892205 -0.06386204 0.0027257288 -0.022380304 -0.08714507 0.062313147 0.06303297
0.046913683 0.0050149392 0.012618352 -0.025361866 -0.08738477 0.05083212 -0.018167159 0.07230435
0.2438659 -0.28914052 -0.16643506 0.023302574 0.102777384 -0.28371024 0.27130547 0.030240837
0.16775493 0.03112125 0.26663762 0.029686324 -0.28164268 0.058177218 -0.082313694 0.27642635
0.21814302 -0.23773955 -0.1714376 -0.13759826 -0.0062402887 -0.2605506 0.022734629 0.2913107
0.035077795 0.13583444 -0.118273586 0.103232116 -0.26426837 0.18170314 -0.060140464 0.24921398
0.067684084 -0.06723082 -0.052696444 0.0022569927 0.006650104 -0.06844456 0.04455244 0.029776102
0.004576322 -0.0065895244 0.019363398 0.022747317 -0.07392374 0.004539394 0.033440236 0.066865526

encoder.bias_ih_l0 f4 [64]
00000000: cecc 543e 80de 7c3e 801d 3e3e 1e26 813e
00000010: 698b 883e 1783 373e af32 bf3e c82a 283e
00000020: f808 a93e 867f a53e ce3b 943e 104d ac3e
00000030: cbcb 263e ca11 af3e 397e 923e f752 d83d
00000040: 5368 443e ac9f 6b3e e827 413e e026 84bb
00000050: 72d8 12be 4095 463e f098 0e3e b0e0 e63d
00000060: bd86 eabd fe18 a7bd e6bd e5bc dc73 073d
00000070: 86d9 3f3e 1ff4 dc3c 43df 09be 6a0e 2d3e
00000080: 389c 823e 9e70 81be 15e7 51be 6b46 4e3d
00000090: a4f1 95ba 2409 3cbe b971 0c3e 9042 983d
000000a0: 0355 d73d b811 d13d ae4b 033b 191c 9cbd
000000b0: f155 66be 130a 393d ea6f d0bb 0793 073e
000000c0: e9bb 5a3e ffab 533e 59a2 1d3e 2cc8 923e
000000d0: bf64 953e cac2 923e 5f16 bc3e d54c ff3d
000000e0: cf47 b63e c2e6 a13e 8d9a 993e 8cdd b03e
000000f0: 0f52 933e 2155 ac3e 59d8 943e eef7 653e
0.20781252 0.24694252 0.18565941 0.25224394 0.26668862 0.179211 0.37343356 0.1642257
0.33014655 0.32323855 0.28951877 0.33652544 0.16288678 0.3419326 0.28611925 0.10562699
0.19180422 0.23010129 0.1886288 -0.0040329546 -0.1434038 0.19392872 0.13925529 0.112733245
-0.114514805 -0.08159064 -0.028044652 0.033069476 0.18735322 0.026971875 -0.13464074 0.1690003
0.2550981 -0.25281233 -0.20498307 0.050360125 -0.0011439812 -0.18362862 0.13715257 0.07434571
0.105142616 0.10208458 0.0020034122 -0.07622547 -0.22493722 0.045175623 -0.0063609974 0.1323968
0.21360745 0.2067108 0.15393962 0.28668344 0.29178426 0.28664237 0.36735818 0.124658264
0.3560166 0.31621367 0.30000725 0.34544027 0.28773543 0.33658698 0.2907131 0.22457859

encoder.bias_hh_l0 f4 [64]
00000000: cecc 543e 7fde 7c3e 821d 3e3e 1e26 813e
00000010: 668b 883e 1a83 373e ad32 bf3e c52a 283e
00000020: f708 a93e 867f a53e d03b 943e 124d ac3e
00000030: cccb 263e cb11 af3e 397e 923e f652 d83d
00000040: 5168 443e ac9f 6b3e eb27 413e c426 84bb
00000050: 71d8 12be 4495 463e ea98 0e3e afe0 e63d
00000060: c086 eabd fa18 a7bd ecbd e5bc d773 073d
00000070: 88d9 3f3e 2bf4 dc3c 40df 09be 6a0e 2d3e
00000080: 389c 823e a070 81be 12e7 51be 6c46 4e3d
00000090: c5f2 95ba 2209 3cbe b271 0c3e a042 983d
000000a0: fb54 d73d bc11 d13d 7e4b 033b 1c1c 9cbd
000000b0: f255 66be 260a 393d e76f d0bb 0193 073e
000000c0: e9bb 5a3e 04ac 533e 5da2 1d3e 2ac8 923e
000000d0: c064 953e cac2 923e 6116 bc3e d54c ff3d
000000e0: cf47 b63e c2e6 a13e 8d9a 993e 8cdd b03e
000000f0: 0f52 933e 2155 ac3e 5bd8 943e ebf7 653e
0.20781252 0.2469425 0.18565944 0.25224394 0.26668853 0.17921105 0.3734335 0.16422565
0.33014652 0.32323855 0.28951883 0.3365255 0.1628868 0.34193262 0.28611925 0.105626985
0.19180419 0.23010129 0.18862884 -0.0040329415 -0.14340378 0.19392878 0.1392552 0.11273324
-0.11451483 -0.08159061 -0.028044663 0.033069458 0.18735325 0.026971897 -0.1346407 0.1690003
0.2550981 -0.2528124 -0.20498303 0.05036013 -0.0011440149 -0.18362859 0.13715246 0.07434583
0.105142556 0.10208461 0.002003401 -0.07622549 -0.22493723 0.045175694 -0.006360996 0.13239671
0.21360745 0.20671088 0.15393968 0.28668338 0.2917843 0.28664237 0.36735824 0.124658264
0.3560166 0.31621367 0.30000725 0.34544027 0.28773543 0.33658698 0.29071316 0.22457854

decoder.weight_ih_l0 f4 [64, 16]
00000000: 7013 d7bd 14cd 04be 3499 49be b8be 2d3d
00000010: d874 67be a228 623e daf7 243e bc60 0f3e
00000020: f0f5 783e 027f 783e b44e cebd 2030 6e3e
00000030: 8cfe 24be d088 073d 32eb 5ebe 9cc5 163e
00000040: 1098 46bd 84ff d23d e890 c6bd 1a6c 1a3e
00000050: 9cf8 5cbe ba04 0e3e 2616 3e3e 86fb 70be
00000060: 084e 693e bc59 113e 92b0 2dbe 5a4c 703e
00000070: ec1d 743e 004e 25bb 0014 03bd 50f6 163e
00000080: 1c4d 9b3d a89a 6b3d b0fb 92bc 38e2 ea3d
00000090: f407 abbd 7441 a93d 6822 a23d 30c9 1f3d
000000a0: 18f3 fabd b2fa 793e e053 a6bd 5412 343e
000000b0: 5cc9 10be 5a3a 473e cc92 fcbd 00da 1e3d
000000c0: 3065 90bc a894 e13d 301a 963c f420 59be
000000d0: 6498 c33d 44e5 8c3d 2a85 3dbe 649c 4ebe
000000e0: 7a9a 4c3e 3677 383e 0056 ca3a 9430 7a3e
000000f0: 4cf7 603e 600c e7bc 00b6 1f3c 46e8 3cbe
00000100: 1864 37bd f07c babc cc3a 69be c044 143e
00000110: 2816 f7bd b416 9d3d 8e9f 2bbe d839 993d
00000120: 3292 22be 70f0 febc 4c00 1e3e 2c43 34be
00000130: 1af7 433e 6c94 22be 9839 36bd a07b 57bc
00000140: a07b 1a3c 644d 923d 1aee 37be 723a 783e
00000150: c0b0 c03d 7263 1b3e 8c01 44be e467 a8bd
00000160: aa7f 163e 9028 e53c ce7b 71be 108a 1cbe
00000170: d4f1 873d c0c3 c4bc 408b 33bd 3c3c 55be
00000180: f0e3 8c3c 1837 023d 501d a2bc 2057 61bc
00000190: fcf1 46be 1035 6abd eaf1 45be fc21 02be
000001a0: 8031 823d e80a efbd 60cf 70bc c046 9f3c
000001b0: a4fa 623e 5a22 263e 484b 2f3e c0b2 8cbd
000001c0: 504b 7cbd 6ef4 083e 7663 70be 0871 143d
000001d0: 0a24 1d3e 00f3 a33c a8b5 af3d 1801 30bd
000001e0: 642a 173e aee1 773e 2c7f d63d 7023 07be
000001f0: 00b4 b23d de0f 60be 00a2 92bd 4840 6abd
00000200: 0c48 62be 481b 123e c885 51bd f0a7 273e
00000210: 2418 603e 4030 17bd e044 b4bd d882 be3d
00000220: 9418 3cbe 2840 d0bd 8aaf 59be 18d0 2c3e
00000230: aadb 333e f0b8 afbd 1c80 e2bd 38fa 0a3e
00000240: 0e68 003e 76c7 7e3e f41b 92bd 82c7 4ebe
00000250: 6a01 5a3e 8ec2 00be 80c6 3c3b c864 f43d
00000260: b4ce db3d 20a4 293c dc13 f0bd 8072 733c
00000270: 3213 74be 34e1 40be ca1e 693e 9834 583e
00000280: 4ecc 213e 3c3e 5dbe 24f6 4dbe c0b3 a7bc
00000290: d621 73be 4cf4 54be f8e1 42be 32bc 283e
000002a0: bcda 7cbe b8a4 06be f871 56bd 48be 18be
000002b0: d8a4 0e3d 0050 513c 6884 0dbd 02c0 11be
000002c0: 6692 31be 0815 413d 28e7 173d 8e6a 27be
000002d0: b48b c03d 98f0 54be 6014 a53d 2c37 003e
000002e0: eaab 743e 3a83 6dbe ac34 df3d 64b0 9f3d
000002f0: 723e 24be 80f7 ec3d 603a 1b3d b084 b1bc
00000300: 6cea 623e 982f 833d 005e 8bba 1cb7 56be
00000310: 002b 0cbe 7c5c 3e3e 4898 3d3d 30bf d73c
00000320: 78bf 0bbd d0f3 8bbc fc03 58be e8cb 7c3e
00000330: a678 603e 365d 21be 5880 89bd 8005 99bb
00000340: c4df 13be b4e3 3c3e 5cf4 53be a095 3a3e
00000350: f0a9 55be 7274 7fbe dc44 4a3e cc51 db3d
00000360: 3087 e8bd f8ad 1abd 6435 b9bd c838 43bd
00000370: da5c 10be c493 b9bd 46d7 6e3e 480d 613d
00000380: 38b1 a03d ac30 0cbe 9855 28bd a65a 4c3e
00000390: 5ae6 37be 305a f83d 34c7 f0bd b29c 60be
000003a0: 88aa 063d 00d3 be3b 1606 69be ce6d 7c3e
000003b0: 68dc 54be 2a60 42be de63 0dbe 38f3 6fbe
000003c0: 4003 853d 40a7 863c 10ba c1bd e6fe 0ebe
000003d0: ccc3 823d 9aa0 553e 78bb a4bd 60ea 19bd
000003e0: a0c9 033e a401 923d 8c0c de3d 2848 72bd
000003f0: c8c0 273e f07a 91bc e6b4 163e f813 6dbe
-0.10501754 -0.12968856 -0.19687349 0.04241821 -0.22603166 0.22085813 0.16110173 0.14001745
0.24312568 0.242672 -0.10073605 0.23260546 -0.16112727 0.03308946 -0.21769407 0.1472382
-0.04848486 0.10302642 -0.096956074 0.150803 -0.21579212 0.1386899 0.18563136 -0.23533449
0.22783673 0.14194387 -0.16961887 0.23466626 0.2383954 -0.0025223494 -0.032001495 0.14742398
0.07583067 0.05752054 -0.01794228 0.11468929 -0.08351126 0.08264437 0.07916719 0.039010227
-0.12253398 0.24412039 -0.08121467 0.17585117 -0.14139313 0.19455853 -0.12332687 0.03878212
-0.017626375 0.11014682 0.018323034 -0.21203977 0.095505506 0.068796664 -0.1850783 -0.20176846
0.19980803 0.18014225 0.0015437007 0.24432594 0.21969336 -0.028204143 0.009747982 -0.1844798
-0.04477319 -0.022764653 -0.22776335 0.14479351 -0.12064773 0.07670346 -0.16760084 0.07481736
-0.15876082 -0.031120509 0.15429801 -0.17603749 0.1913723 -0.15876931 -0.04448852 -0.013152033
0.009428889 0.07143667 -0.17961922 0.24241045 0.094087124 0.15174654 -0.19141215 -0.082229406
0.14697137 0.027973443 -0.23582384 -0.15287042 0.06637922 -0.024019122 -0.04383397 -0.20823759
0.017198533 0.031790823 -0.019789368 -0.013753682 -0.19428247 -0.05717951 -0.19330564 -0.12708277
0.063570976 -0.11672002 -0.01469788 0.019442916 0.22165924 0.16224042 0.17118561 -0.06870031
-0.06159526 0.13374493 -0.23475441 0.036240608 0.15345779 0.020013332 0.0857957 -0.042969793
0.14762264 0.24207184 0.10473475 -0.13197112 0.087257385 -0.21881053 -0.07159805 -0.05719021
-0.22097796 0.1426822 -0.051152974 0.16372657 0.21884209 -0.03691125 -0.08802199 0.093023
-0.18368751 -0.10168487 -0.21258369 0.16876256 0.17564264 -0.08580196 -0.11059591 0.13572013
0.12539694 0.24880776 -0.07134238 -0.20193294 0.21289602 -0.12574217 0.0028804839 0.11933285
0.10732785 0.010354072 -0.11722538 0.014858842 -0.23835447 -0.18835908 0.22765651 0.21113813
0.15800592 -0.21605772 -0.20113426 -0.020471454 -0.23743376 -0.20796317 -0.19031513 0.16478041
-0.24692816 -0.13148773 -0.052354783 -0.14916337 0.034825176 0.012775421 -0.0345501 -0.14233401
-0.17341003 0.047139198 0.037085682 -0.16349241 0.09401646 -0.20794904 0.08060527 0.12521046
0.23893705 -0.2319459 0.10898718 0.07797316 -0.16039446 0.115706444 0.037897468 -0.021669716
0.22159737 0.06405562 -0.0010632873 -0.20968288 -0.13688278 0.18589967 0.046287805 0.026336282
-0.034118146 -0.017084032 -0.2109527 0.24687159 0.21921024 -0.15758213 -0.06713933 -0.004669845
-0.14440829 0.18446237 -0.20698684 0.1822114 -0.20865607 -0.24946764 0.1975283 0.10708961
-0.1135391 -0.037763566 -0.090433866 -0.047661573 -0.1409792 -0.09061387 0.23324308 0.054944307
0.07846302 -0.13690442 -0.041097254 0.19956455 -0.17958966 0.12126577 -0.11756745 -0.21934775
0.032877475 0.005823493 -0.22756228 0.24651262 -0.20787203 -0.18981996 -0.13807628 -0.23432624
0.064947605 0.016437173 -0.09459317 -0.13964424 0.063850015 0.20862046 -0.08043569 -0.037577033
0.12869883 0.07129219 0.10842237 -0.059150845 0.16382134 -0.017758816 0.14717445 -0.23152149

decoder.weight_hh_l0 f4 [64, 16]
00000000: 3c4c 11be 46db 7fbe e8a1 1dbe 3472 ca3d
00000010: 028e 48be b8e3 28bd 4880 143e 2061 5cbd
00000020: acda c0bd 1cb1 2abe 109d 7abe 9c6b ebbd
00000030: 227f 45be f26f 443e 02e4 2abe b69d 0bbe
00000040: 3044 18be a023 a03d 4ccc b7bd 867c 3abe
00000050: 4cdd de3d 4213 623e 38e3 c83d 6694 633e
00000060: 100f 4f3e cc8f 3d3e 4862 5dbe 4233 1d3e
00000070: 9019 babc be5a 1b3e 8477 45be e812 9dbd
00000080: c873 54bd a8ba 4e3e 54af 6a3e 7666 6f3e
00000090: 94f4 ecbd 22a7 43be 00c0 8d3b 8010 913d
000000a0: fa56 4abe d0bd 683e c2c7 033e f800 d4bd
000000b0: 58c6 d73d 3024 163d f0db 93bc fc7b c6bd
000000c0: f036 823c ce83 6d3e 0005 b8bd 9268 17be
000000d0: 1038 5b3d 4a25 6dbe c86c 0e3e 18af 0bbe
000000e0: 6072 1abc c099 f0bc d46d a9bd c278 213e
000000f0: 32d8 7dbe 8801 24bd 6006 1c3d 9844 7fbd
00000100: ec81 49be 400e 243c 40db 123e 2a61 6b3e
00000110: 46a3 0abe e021 bbbc 725e 513e c0c9 44bd
00000120: d827 193d 1869 de3d a484 5e3e 6864 183e
00000130: 803a f1bb 4299 513e 5819 16be 6435 63be
00000140: ace0 4c3e a877 a73d e8b3 3a3e b8b4 2abe
00000150: cec9 263e 802a 27be 944e 17be 38c6 043d
00000160: 684f d93d d0b2 b1bd 943b d8bd 6a42 14be
00000170: c8e2 ae3d 7412 febd d0bd a9bd 42a4 0abe
00000180: b481 bd3d 64dc bb3d 28db 243d a447 3f3e
00000190: 9043 353e d48e 9d3d 7875 44be 607a f33d
000001a0: 8038 c03b 90d0 3dbe f25d 28be e8b1 3dbe
000001b0: 30ef 31be aaf6 68be 5277 5f3e 70c1 e63c
000001c0: 30da cdbc 54fe 563e 40ec 923d c885 8e3d
000001d0: cafe 67be d001 aabd 40dd ef3c 3669 3fbe
000001e0: 9e44 4e3e a8b2 733d 6201 743e 6085 023e
000001f0: 767f 31be b48d 5e3e acf7 93bd dce2 d33d
00000200: 24d7 ef3d 4898 35be 4cef bbbd c0f2 813b
00000210: 60a5 103c 4aad 523e 227d 18be 528e 4abe
00000220: 6aa4 08be 1880 ad3d b018 ba3c 4039 723c
00000230: 50d6 49be 021d 35be caa9 25be c09d 633e
00000240: 2819 97bd 18c2 543e 3038 d6bc d476 c4bd
00000250: 1241 673e d40d 793e 30b3 063e 4442 ef3d
00000260: fc06 0d3e 60fd 9abc 5c4a 5bbe 5a70 52be
00000270: 7822 45bd b090 453d 18bc f4bd 64a9 f8bd
00000280: 64c6 f83d 6cb6 5abe 6811 94bd 707a 2abe
00000290: 466f 253e 004d 0a3e f4e2 62be 6abd 4d3e
000002a0: 0e5d 4dbe a019 293c dcbe 793e 549f e3bd
000002b0: d832 cabd bc6b 54be e2ea 18be b0f0 a6bd
000002c0: f2d8 4abe b437 993d 1030 1fbe 32f6 793e
000002d0: 7e76 7c3e 6eba 023e 80de 333d f03d 35bd
000002e0: 3cad 5c3e b8d2 3fbe d493 b63d 00f6 013a
000002f0: 8615 26be 6a24 553e 4095 633e 2445 24be
00000300: 3e66 3fbe b4da 60be 1a46 70be ca72 7abe
00000310: 98a9 2a3d b8f3 76bd 40b5 afbb ae31 10be
00000320: a03c 2ebc 6a21 593e 5c82 2cbe b045 4c3e
00000330: 14e8 9fbd 20f8 e5bc 406c 73be 88aa 403e
00000340: 4060 dbbb cec8 073e ecc7 043e d8bf 963d
00000350: 2093 28bd 189c 613d 6009 263c c0d5 26bd
00000360: 2042 ccbc d443 bc3d 8077 2bbb 526d 16be
00000370: ded4 66be a292 373e 324a 363e a81b 003e
00000380: 0285 5cbe 4c38 553e 5076 4cbd 9485 f4bd
00000390: f400 99bd 52bf 663e 1065 c9bc 92a9 7bbe
000003a0: d804 6fbd 68c6 26bd 68eb 2b3e 369e 253e
000003b0: d4e6 53be 7efa 45be 3053 9f3d 4af3 62be
000003c0: 9aa6 123e 80e5 2c3e 46e9 25be cce2 adbd
000003d0: 7610 6bbe 6844 153e a898 093e b885 2a3e
000003e0: c699 09be e881 5bbd c8d9 8e3d 48c1 1b3e
000003f0: e061 4e3e aef1 71be b0bc 883c 00f9 673e
-0.14189237 -0.2498599 -0.15393794 0.09885064 -0.19585422 -0.041232795 0.1450206 -0.053803563
-0.09416708 -0.16669124 -0.24473977 -0.11495134 -0.19286779 0.19183329 -0.1668854 -0.1363438
-0.14869761 0.07819295 -0.089745134 -0.18211564 0.10882053 0.22077659 0.098089635 0.22224578
0.2022059 0.18511885 -0.21619523 0.15351585 -0.022717267 0.15171334 -0.19283873 -0.07669622
-0.05186823 0.20188391 0.22918445 0.2337893 -0.11570087 -0.19106725 0.0043258667 0.07083225
-0.19759741 0.22728658 0.1286917 -0.10351747 0.10535878 0.036655605 -0.01804921 -0.09691617
0.015895337 0.23194811 -0.08985329 -0.14785984 0.053520262 -0.23158756 0.13908684 -0.13641012
-0.009426683 -0.029370189 -0.08272901 0.15768722 -0.24789503 -0.040040523 0.038092017 -0.062321275
-0.19678468 0.010013163 0.1434145 0.22986284 -0.13538846 -0.022843301 0.20446184 -0.048043966
0.037391514 0.10859889 0.21730286 0.14882052 -0.00736171 0.2046862 -0.14658105 -0.22188336
0.2000758 0.081771195 0.18232691 -0.16670501 0.1628792 -0.16324806 -0.14776069 0.0324156
0.10610849 -0.08676684 -0.105582386 -0.1447846 0.08539349 -0.124058634 -0.08288157 -0.13539222
0.092532545 0.091728956 0.040248066 0.18679672 0.17701554 0.07693258 -0.19185436 0.118885756
0.0058661103 -0.18536592 -0.16442087 -0.18524897 -0.17376399 -0.22750345 0.21822861 0.02816841
-0.025128454 0.20995456 0.07173967 0.069591105 -0.22655788 -0.08301127 0.029280305 -0.18692479
0.20143363 0.05949655 0.23828653 0.12746191 -0.17333779 0.21733743 -0.07224974 0.10346004
0.11710957 -0.17733872 -0.09176502 0.0039657056 0.008828491 0.20573917 -0.14891484 -0.19780853
-0.13343969 0.084716976 0.02271685 0.014784157 -0.1971066 -0.17686847 -0.1617805 0.22228146
-0.07377845 0.20777166 -0.02614984 -0.09592977 0.22583416 0.24321681 0.13154292 0.11682561
0.13772196 -0.018919647 -0.21415085 -0.20550671 -0.048128575 0.048233688 -0.119499385 -0.12141684
0.12147215 -0.21358651 -0.072298825 -0.16648269 0.16155729 0.13505936 -0.22156888 0.20091787
-0.20055029 0.010321051 0.24389213 -0.11114374 -0.09872979 -0.20744222 -0.1493335 -0.08151376
-0.1980932 0.07481328 -0.15545678 0.24410322 0.24654576 0.1276643 0.043913364 -0.04424852
0.21550459 -0.18732727 0.08914915 0.00049576163 -0.16219148 0.20814672 0.22224903 -0.16042
-0.18691346 -0.21958429 -0.23464242 -0.24457851 0.041665643 -0.060291022 -0.005362183 -0.14081451
-0.010634571 0.21204153 -0.16846603 0.19948459 -0.07807937 -0.028072417 -0.23771763 0.18815053
-0.0066948235 0.13260195 0.12966889 0.0736081 -0.041155934 0.055080503 0.010134071 -0.04073119
-0.024933875 0.09192625 -0.0026163757 -0.1469014 -0.2254214 0.1792703 0.17801741 0.1251055
-0.21535113 0.20822257 -0.04991752 -0.119395405 -0.07470885 0.2253392 -0.024584323 -0.24576405
-0.05835423 -0.04071656 0.16789019 0.16173634 -0.20693523 -0.19333836 0.07779539 -0.2216312
0.14321366 0.16884422 -0.16202268 -0.08490524 -0.22955498 0.14576876 0.1343714 0.16652572
-0.13437566 -0.053590685 0.06975132 0.1521045 0.20154524 -0.2362735 0.016691536 0.2265358

decoder.bias_ih_l0 f4 [64]
00000000: a075 07be b8ec 17bd 8005 73bb a84b dbbd
00000010: 80b0 0bbc 5440 aabd d84b 6fbd 9249 603e
00000020: f800 5f3d b0ed f93d 04e8 13be 08cf 4dbd
00000030: 842c d7bd a88c 9bbd 001d fb3c d07e 6fbe
00000040: ce6b 52be 20d2 603e 506f 96bc 5ebd 39be
00000050: fc92 2e3e f008 cabc 20eb 29be 7852 413e
00000060: f4b3 103e 6844 2abe d867 6cbe 4c9e 2e3e
00000070: a2b4 733e 52a4 4abe 0af9 6ebe 70d5 69bd
00000080: 9893 143e e0c5 0cbe c882 043e 9ee3 42be
00000090: e843 0a3d 2076 c23c 00de ca3a 967c 7ebe
000000a0: 4658 4fbe 2062 fc3d 660d 2b3e 8888 87bd
000000b0: 84da 703e 96bd 6b3e 54a1 973d 509f 51be
000000c0: 32d2 573e e8db 7f3e 8c33 e13d 8048 933b
000000d0: 664a 743e a60c 37be c4dd 323e 503b 36be
000000e0: 8843 68bd 9cc7 e4bd 1879 a2bd 7a3f 4c3e
000000f0: 04cf 9c3d 405d ca3d c4ca 3abe b44b f13d
-0.13228464 -0.037090987 -0.0037082136 -0.1070779 -0.008525968 -0.08313051 -0.05842194 0.21903065
0.054444283 0.122035384 -0.14443976 -0.05024627 -0.105065376 -0.075951874 0.030653477 -0.23388219
-0.20548937 0.21955156 -0.018363625 -0.18138644 0.17048258 -0.024662465 -0.165936 0.18879116
0.14131147 -0.16627657 -0.23086488 0.17052573 0.23799375 -0.19789246 -0.23337188 -0.057088315
0.14509428 -0.13747358 0.12940514 -0.19032142 0.033756167 0.023737967 0.0015477538 -0.24852213
-0.20248517 0.12323403 0.1670433 -0.06617838 0.23520857 0.2302154 0.07403818 -0.20470929
0.21076277 0.24986231 0.1099616 0.0044947267 0.23856506 -0.17875919 0.1746741 -0.17796063
-0.056705028 -0.11170885 -0.07933253 0.1994609 0.076566726 0.09881067 -0.18241411 0.11782017

decoder.bias_hh_l0 f4 [64]
00000000: 9c86 a2bd 0604 51be 8049 1d3d 28e1 fe3d
00000010: 5020 d63d 9cb4 8ebd d8d1 54bd 0269 6dbe
00000020: b09c 113e e07f 553c 8486 5d3e e891 923d
00000030: d8b5 a3bd e0a1 babd a05c 3a3c 5cb4 9bbd
00000040: 5c34 f83d a494 c73d 6ac6 70be f0f8 873c
00000050: 78a3 353e b082 9cbc dafc 1ebe 205b ae3d
00000060: 60e9 f33d e81a 3fbd 4a6a 063e 9cb6 49be
00000070: e009 0dbe 80ba 54bd a462 5c3e e884 1a3e
00000080: b0bf 063e 4469 fbbd b455 43be 404f eb3b
00000090: 8011 8dbc 00da 8e3a e0f4 ac3c 3cab 32be
000000a0: ba7d 4f3e e05d dc3c 045b f83d f4dd 713e
000000b0: 4015 d63d 4418 bf3d 1e8f 16be 4069 89bb
000000c0: 4eee 4ebe 42c6 3f3e dc4b 1fbe d076 383d
000000d0: 406e 093c 3245 36be f8b0 2fbd 2082 52be
000000e0: fc6e 7dbe b4d8 70be 90a8 86bc 10e1 0bbe
000000f0: a03c 24bc 64da a2bd b6dc 19be 78fc cfbd
-0.07935831 -0.20411691 0.038400173 0.12445289 0.10455382 -0.06968042 -0.051957935 -0.23184589
0.14219928 0.013030976 0.21633345 0.07156736 -0.07993668 -0.091129065 0.011374623 -0.0760276
0.12119362 0.09745148 -0.23513189 0.016598195 0.1773814 -0.019105285 -0.15526143 0.085134745
0.11909747 -0.04665652 0.13126484 -0.19698566 -0.13773298 -0.051935673 0.21522003 0.15089762
0.1315906 -0.12275937 -0.19075662 0.007181078 -0.017220259 0.0010898709 0.02111286 -0.17448133
0.20262805 0.026900232 0.12126735 0.23619825 0.10453272 0.093308 -0.14703032 -0.004193455
-0.20208094 0.18727973 -0.15556282 0.045035183 0.008388102 -0.17799833 -0.04289338 -0.20557451
-0.24749368 -0.23520166 -0.016437799 -0.13660073 -0.01002422 -0.07951811 -0.15025601 -0.101555765

mlp.0.weight f4 [16, 16]
00000000: cca9 833e 71e9 01bf f1ac af3e 27cf ee3e
00000010: 5161 2dbf 49fd 06bf f41c 1b3f 0d4f 0f3f
00000020: 7f73 e13e cb1a 933e a720 403f b51c 92be
00000030: 7e9d 1ebe 0b48 cc3e 1017 08bf d65e f63e
00000040: 8cba 1fbd 20c9 963d 9d1d 493c 3141 1e3f
00000050: 82a0 bcbe c1e6 ec3c 65be 2a3e 448b 9fbe
00000060: 22f1 0c3e db1d a6be fa04 033f 1dee 37bf
00000070: 6d18 6d3d d65e 083f de8a f93e 335c 09bd
00000080: cd5f 49be 4703 04bf 417b 31be 9614 6ebe
00000090: ab38 0d3f ae5e 23bd d9dd 123f 3149 d33d
000000a0: d722 5b3e 692d 5f3f cd01 9a3e 4e4c 0e3f
000000b0: aa4b a2be 9f76 ebbe fe50 2abf 6f07 a63d
000000c0: f31d 01be 6969 ccbe 979d 8e3d 0921 96be
000000d0: cfbb d13e 8b5f 913e cced dd3e b7ff b9be
000000e0: 7686 b6bc 820e 7ebd 904c f43e 4ed8 103f
000000f0: e6d3 acbe fc7e 22bf cffe 48be 374f 21bd
00000100: 4426 2fb8 b694 7c38 b5fa 5438 3949 54b7
00000110: 4281 33b5 0c42 a538 12ae f0b5 6036 a2b7
00000120: bb60 8cb6 fcf6 2738 7e27 86b7 6b07 19b6
00000130: 83e1 0738 6145 bb2e 212f bfb7 5801 03b9
00000140: 37f2 ac3e bed3 f83d 46f5 173e ab4d 4bbf
00000150: f012 58be fc59 b9bd e411 5f3f 0988 e03e
00000160: fa8c 5f3f aac6 613e 4821 d23e ed60 2b3b
00000170: f84f 3cbe 077b 27bf 6217 45be f95e 973e
00000180: d50c 0c3e a6f1 e5b9 7cac 49bd 955f 3b3e
00000190: d1dd 00bf ca63 f8bd f0dd c63e d038 173f
000001a0: 3b97 4c3f 5853 603e ce23 c5be af2f 58bf
000001b0: 69db 42be ac28 a3bd 62b1 4f3e da50 123e
000001c0: 8623 ddbd ac5d 25bf 67d2 69be c83d 05be
000001d0: 122b 443f 3053 913d 662c b13e 508f cdbe
000001e0: fc0f 18bf bc02 663d 8647 2f3f fe46 473f
000001f0: 193a cebe 709a f73e 012d ddbc 7d99 01be
00000200: eb92 3cbd 32bc debe db6a 93bd a152 71bf
00000210: e27a 123f 92f7 5e3b 8e46 d73d 2649 163f
00000220: 2f78 8fbe 85db a7bf 0f4b 803e 1d9f 193f
00000230: c06b 03be e327 8b3e 03c0 13bf daf0 ca3e
00000240: c5ce a23e 4cc0 89be 110e 1cbf ce92 1b3f
00000250: 9bbb 263f e128 f6be 236a 17bf 2e7f 81be
00000260: cb2d fdbe dc93 52bf ed53 41bf 7a77 1bbf
00000270: 75d4 f5be 3a79 123f 3a33 6b3f 92da bf3e
00000280: e3eb 56be 8277 64be 04dc 573e cdcf c9be
00000290: 5121 0f3f ccc9 ebbe ca43 0f3f 81c8 b8bd
000002a0: d50b 653f fccc c33e 0f07 9d3d 8b17 ef3e
000002b0: e956 21be 5441 25bf dca5 e4bd 7672 3b3d
000002c0: b90b a03c d800 9fbd 7384 8fbd 1c14 353e
000002d0: 0771 0dbd 8c28 10bd 1bca 823e bfb2 7ebc
000002e0: 40ee 03bf 55fe 413f bda4 bebd edfb cc3e
000002f0: f210 0cbc b978 9d3e 12cd f5be 2238 c8bc
00000300: 090f 04bd dec0 a43d 57f3 7b3d d943 86be
00000310: 1a46 fd3d dfe3 13bc b543 453c e94f 59bf
00000320: 8444 d43e c7d4 873e 3388 ef3e 8491 753e
00000330: 0c4f bfbd 1ecb 95bf cf39 2f3e 8713 2fbd
00000340: 4d7d 373d 7ee8 36bd c406 92be cfa6 25be
00000350: 20c8 5b3f 28b5 39be e442 df3e 271d e0be
00000360: c58f 7bbe 7424 903e 0414 cdbe 004b 363e
00000370: 617d 2abe a1d9 1fbf fbc4 7b3f e094 d93d
00000380: 015e a63e def0 213a 4cd0 12be a965 be3e
00000390: f91b f6be 35ad 30be a4ec 303c ddd1 eb3e
000003a0: 707a 453e 0ade c1bd 612b 34bf 482a 18bf
000003b0: 45b5 6dbe d8fd f93e fccd c43e 7d2d 2f3e
000003c0: 4fe4 9a3e c557 23bf f12c a9be ba16 973e
000003d0: 9d12 4e3f e4c5 b7bd 3719 b13d c516 d0be
000003e0: 2f51 d8be b839 d13d fbfc 923e fe79 d13e
000003f0: a07a 813d fd8c b33d 3b95 3f3e 49c6 dfbd
0.25715482 -0.5074683 0.3431163 0.4664242 -0.6772662 -0.5273023 0.60591054 0.55979997
0.4403343 0.2873138 0.75049824 -0.28537527 -0.15489766 0.39898714 -0.5316019 0.4811923
-0.038996264 0.0736258 0.012275127 0.61818224 -0.36841208 0.028918626 0.16674192 -0.3116094
0.1376386 -0.32444653 0.5117947 -0.7184771 0.057884622 0.5326971 0.4873876 -0.033535194
-0.19665451 -0.515675 -0.17332174 -0.2325004 0.55164593 -0.039885215 0.5736976 0.103166945
0.21400009 0.87178665 0.300795 0.5558518 -0.31698352 -0.45988938 -0.66529834 0.081068866
-0.12609081 -0.39924172 0.069636516 -0.2932208 0.409636 0.28393206 0.43345487 -0.36327907
-0.022280913 -0.062025554 0.47714663 0.56580055 -0.33755416 -0.6347501 -0.19628452 -0.039382186
-4.175889e-05 6.021998e-05 5.0778228e-05 -1.2653233e-05 -6.687079e-07 7.880115e-05 -1.7932055e-06 -1.9337225e-05
-4.183586e-06 4.0045925e-05 -1.5992435e-05 -2.2803094e-06 3.2396532e-05 8.5160996e-11 -2.279092e-05 -0.00012493634
0.33778545 0.121497616 0.14839658 -0.79415387 -0.21100974 -0.09050366 0.87136674 0.43853787
0.8732449 0.2204844 0.41041017 0.0026150302 -0.1838988 -0.654221 -0.19247201 0.29564646
0.1367677 -0.00043858326 -0.04923676 0.1829818 -0.50338465 -0.12128408 0.388412 0.59071064
0.7991826 0.21906793 -0.3850388 -0.8444776 -0.19029011 -0.07966742 0.2028251 0.14288655
-0.10797791 -0.64596057 -0.22834168 -0.13011849 0.7662822 0.07095945 0.34604186 -0.401484
-0.5939939 0.05615495 0.6846851 0.778427 -0.402787 0.48360014 -0.026998999 -0.12656207
-0.04603855 -0.43502957 -0.071981154 -0.94266707 0.57218754 0.0034022075 0.10511504 0.58705366
-0.2802138 -1.3113867 0.25057265 0.6000841 -0.12834072 0.2717887 -0.5771486 0.3963688
0.31798378 -0.26904523 -0.60958964 0.6077088 0.65130013 -0.48078063 -0.59146327 -0.25292343
-0.49449 -0.82256866 -0.75518686 -0.6072918 -0.48013654 0.5721623 0.9187504 0.37471443
-0.20988421 -0.22311214 0.21080023 -0.39416352 0.5591021 -0.46052396 0.5596281 -0.09022618
0.8947118 0.38242328 0.07667362 0.4669765 -0.1575581 -0.6455281 -0.11164448 0.045763455
0.01953684 -0.07763833 -0.070076846 0.17683452 -0.03453162 -0.03519492 0.2554482 -0.015545546
-0.51535416 0.75778705 -0.09308765 0.40035954 -0.008548962 0.30756167 -0.4800802 -0.024440829
-0.0322409 0.08044599 0.061511364 -0.2622364 0.123668864 -0.009026497 0.012040068 -0.8488756
0.41458523 0.26529524 0.467836 0.23981291 -0.09341249 -1.1702611 0.17111896 -0.042743232
0.04479723 -0.044655316 -0.28520787 -0.16176914 0.8585224 -0.18135512 0.4360572 -0.4377224
-0.24566562 0.28152812 -0.40054333 0.17802048 -0.16649391 -0.6244145 0.98347443 0.10624099
0.32493594 0.00061775546 -0.14337271 0.37186936 -0.48068216 -0.17253573 0.010798607 0.4605855
0.19284987 -0.09466179 -0.7037869 -0.59439516 -0.2321368 0.4882648 0.38438404 0.17107196
0.3025231 -0.638058 -0.330421 0.29509526 0.8049715 -0.089732915 0.086473875 -0.40642372
-0.42249438 0.10216087 0.28708634 0.40913385 0.06322217 0.08767126 0.1870927 -0.10926492

mlp.0.bias f4 [16]
00000000: 1dbf 8f3e 835b 90bd 77f2 0d3e a8f0 ac3e
00000010: 5f2b 3a39 b37c ae3d c2cd 4f3e 94f7 ec3d
00000020: 7154 38bc 7942 753e 4b95 c83e 4cfc a23c
00000030: 1282 1ebd 7347 3a3e bf40 513e bab0 f13c
0.28075495 -0.070487045 0.13862024 0.33777356 0.000177545 0.08519878 0.20293334 0.11570659
-0.011250601 0.23951139 0.39176401 0.019895695 -0.038698263 0.18191318 0.20434855 0.029503215

mlp.2.weight f4 [4, 16]
00000000: 4269 173f eb23 963f 8e3c 9a3d 8813 9bbe
00000010: 7e9d 9db6 ceb2 cabe 3b28 e5be 82f4 ca3e
00000020: 20a3 1d3f f9cf d0be 3bc8 43bf fa16 083f
00000030: 9369 8ebf ad8e 85bf 2ceb 7cbd fbb8 133e
00000040: 1ee4 2fbe 24d0 d73d dcd1 ddbe 3b9d 59be
00000050: 41b4 6637 3292 b23e b4d6 723d 8b16 f1be
00000060: 767f 8a3f ac0f 90bc dc81 dbbd 120a 49bf
00000070: 3a6d 8abf 1612 8abe 407e 983d 4efd 08bf
00000080: 4d65 28bf 6988 b93e e535 fcbe 43c4 813c
00000090: b5a6 bfb5 936b 4abf 5fcd 6abf d223 0e3f
000000a0: fbd0 f53e 3336 943f ea0b 2bbf ab2b 55be
000000b0: 3534 c03b 3011 683f 0d24 c3bd d4cc 0e3f
000000c0: 0b99 e6be de4a e33e d8ef 103f b701 7a3f
000000d0: ace3 0237 a906 d13e faa5 72bf 4e2b 1f3f
000000e0: 5b9c 113f f737 50bf 2d44 503f 8fb1 293e
000000f0: d58f 033f a38a 433f 3dce 88bf 945f e33e
0.59144986 1.1729711 0.07531081 -0.3028834 -4.697299e-06 -0.39589542 -0.44757256 0.3963967
0.61577034 -0.4078367 -0.764774 0.5316006 -1.1125969 -1.0434166 -0.061747715 0.14426033
-0.17176864 0.105377465 -0.43324172 -0.21251385 1.3751037e-05 0.34877163 0.059286788 -0.4708751
1.0820148 -0.017585598 -0.10718128 -0.7853099 -1.0814583 -0.26966923 0.07445955 -0.5351151
-0.6577957 0.36236885 -0.49259868 0.015840655 -1.4279127e-06 -0.79070395 -0.9171962 0.5552341
0.48011002 1.157904 -0.66815054 -0.2081744 0.0058655986 0.90651226 -0.095283605 0.5578129
-0.45038638 0.44393057 0.5661597 0.97658867 7.801613e-06 0.40825394 -0.9478451 0.6217545
0.56879205 -0.81335396 0.8135403 0.1657164 0.51391345 0.7638342 -1.0687939 0.44408858

mlp.2.bias f4 [4]
00000000: 7f5c bf3c 1903 5b3e 468a c63d 2b83 b7be
0.023359535 0.213879 0.09694342 -0.3584226
