output_bbox_gcn/EVALUATOR_layout_MultiLayer_2023_09_21_16_49_47/Model/evaluator_0.pth (torch, 9087 bytes, 11 tensors)

LayoutSeq.weight_ih_l0 f4 [32, 4]
00000000: 5883 f0bd 0381 a43e 248d 623e 8ffb 953d
00000010: 8449 903e 4e7c 843d 6164 75be ef25 9dbd
00000020: 445b 853e 3dc5 6abb 0a5f 543d 3aad 48bd
00000030: b656 b4be a916 a33e abaf 5bbe 2eeb 8c3e
00000040: c805 203d 7948 0d3e 0cb2 1d3e cfb5 a93d
00000050: 5861 7c3e 6d0e 1f3e eae6 f13d 24a8 abbe
00000060: cdf8 44be c32b 9bbe bf53 adbe b911 1b3e
00000070: 7115 9d3e 5324 adbe 36d7 043e 2b3b 673e
00000080: 5f20 013d 1697 27bb f4fb 963d 1970 963e
00000090: 2e83 79bd 85be d13d 7121 30be f602 5fbe
000000a0: 75dc 073d 605e 003e dfb2 263e 4fb7 bcbd
000000b0: 659c e7bc 53af 493e 1073 7dbe f674 a0be
000000c0: 3884 c43d b21d ad3e d24f b4be 8d07 953e
000000d0: e20c 11be 9962 abbe 626d 233e b93f 88bc
000000e0: 60b7 e33d 4017 2e3e 0d6e 5cbe 9156 be3d
000000f0: 7c68 99be 39ce 023e 794e d63d 691d 903e
00000100: a491 88be 3fe8 62bd c7b6 533e d9dc 023e
00000110: a970 d9bb ca7a f03d 01d6 883d 6374 81be
00000120: 33dc d1bd e36a 133e cf5e 993e 5894 cfbc
00000130: 4c03 8ebe fd28 a33b 913d 4d3d e24f eabd
00000140: df85 983c 7a24 a1bd e0f5 8abe ed31 94bd
00000150: 3987 983e a5ce 7d3d 3689 dbbd 750f 903d
00000160: 3599 e53d bc08 b5bd 9086 573e bdea 9e3c
00000170: e8f4 6ebe 7e4e 49be 54c5 203b cde7 c4bc
00000180: 5558 65be 8f7f 80be 32d5 abbe 9fd5 abbe
00000190: 5db5 98be 68d3 353e a1a5 3d3e aa91 dbbd
000001a0: 0ba0 e6bd 2e65 333e ab1a b03d 2769 1f3e
000001b0: f3d8 adbe 6c0b aa3e 0a64 e53d 3966 293e
000001c0: 6300 33be 11a6 1fbe 61bd ae3e 09af 2b3e
000001d0: 56c4 09be e2e2 7b3e 4242 9cbe 1381 0f3e
000001e0: 37ff b1be 3e65 99bd 7f7e 39be d0e1 993e
000001f0: e26a 243e 783e 8abd f0ce 3f3e ecc7 ab3e
-0.11743802 0.32129678 0.22124153 0.073233716 0.28181088 0.06469022 -0.23964073 -0.07673251
0.26046193 -0.003582313 0.05184845 -0.048993327 -0.35222405 0.31853226 -0.21453731 0.27523178
0.039068013 0.13797177 0.1539995 0.0828663 0.24646509 0.15532847 0.118116215 -0.3352672
-0.19235535 -0.30306825 -0.33852956 0.1514348 0.3068042 -0.33816776 0.12972721 0.22581165
0.031525012 -0.0025572232 0.07372275 0.293824 -0.06091612 0.10241417 -0.17200257 -0.21778473
0.03316923 0.12536001 0.16279171 -0.09214651 -0.028272817 0.19695787 -0.24750924 -0.31339234
0.09595531 0.33811718 -0.35217148 0.29107323 -0.1416507 -0.33473662 0.15959695 -0.016631948
0.111189604 0.17001057 -0.21526356 0.09293855 -0.29962528 0.1277398 0.10464186 0.28147438
-0.26673615 -0.05539727 0.20675193 0.12779559 -0.0066357446 0.1174217 0.06681443 -0.2528411
-0.10247078 0.14396243 0.29955146 -0.02533929 -0.2773689 0.0049792514 0.050107542 -0.11441018
0.018618522 -0.078682855 -0.27140713 -0.07236085 0.29790667 0.06196465 -0.1071953 0.07034198
0.112108625 -0.088395566 0.21047425 0.019399041 -0.23335612 -0.19658849 0.002453168 -0.024036312
-0.22396977 -0.2509732 -0.33561093 -0.33561417 -0.2982587 0.17756426 0.18520214 -0.107211426
-0.112609945 0.17519066 0.085988365 0.15567456 -0.33954582 0.3321184 0.112007216 0.16542901
-0.17480616 -0.15590693 0.3412886 0.1676599 -0.13453802 0.24598268 -0.305193 0.14014082
-0.34765026 -0.074900135 -0.1811466 0.30055094 0.16056398 -0.06750196 0.18731284 0.33550966

LayoutSeq.weight_hh_l0 f4 [32, 8]
00000000: 4ad3 993e 6e96 fe3b 3b3a 403e 17ce 8cbd
00000010: 36b3 7d3e 6ee6 7a3e 7b32 cf3c 9d55 e7bd
00000020: eb18 063c 407e d5bd 21d8 de3d 9a0a 92be
00000030: 6f38 50be f21e ea3d dc36 ae3e 175c 543e
00000040: 46d9 b33c 0c50 7abe a8aa 823d 6766 aabd
00000050: 0026 94bd ee9c 803e 8908 2bbe 2c66 703e
00000060: 64ac aabd 488f 203e 66cc 293e 1574 65be
00000070: fbc5 963e db39 a6be 0408 98be b3e8 403e
00000080: ffcb 18be c20a 96bb f90e 853e 468f 69be
00000090: dd71 23be b646 c2bd d4de 5d3d 97e4 6f3d
000000a0: 1135 053d 8dab a7be 6b85 443e c198 5e3e
000000b0: 9115 a73e e006 f93d 196d 8ebe 9e25 85be
000000c0: 0ff3 973e 7352 953e 51ea f2bb 56b5 073d
000000d0: 490a 8f3e 2820 3e3e f512 a93e 2547 543e
000000e0: 64de a73e 388c 853e 2a53 fdbd f2a2 43be
000000f0: 3b9b ee3d 81a6 9dbe a73f 523e 9fb7 e6bc
00000100: 834f 69bd c759 a23e f761 7a3e 21fd f33d
00000110: 2d8f d9bd 7ed9 08be 5889 4bbd 57ff 5fbe
00000120: c0ab f0bd a153 033d 8e52 0f3e 8e89 4f3e
00000130: a3b4 583e bb08 39bd 6747 8dbb b79d 033e
00000140: 45e6 7dbe 7be6 603e c2ba 1c3e e698 76bd
00000150: 064c 65be f917 b03e 4cf0 22be 3e72 1bbe
00000160: 824c a2be 49a0 1bbe 4e93 72ba 3052 7cbe
00000170: bd6f a93e b9b7 f9bd 2d50 87be c24e 9ebe
00000180: d222 cfbd 9a9d 953d f03d 1dbe 96f3 99bd
00000190: 7da3 2e3e 5af7 45bd 1fda 9fbe 5d7f 543e
000001a0: d2bc e73d 0784 ffbd 561f a33d 8e0a bcbd
000001b0: ff3b 2f3e ff90 a33e b6ad 4fbe ab9c 33bd
000001c0: cfbf 933b f33c 67bd 780c 5b3c 42d3 a4be
000001d0: 9761 8ebe 1a82 013e 7e49 3c3e dbda 783d
000001e0: 0b14 9a3e 6f33 fbbd 29d2 83be 21e1 41bc
000001f0: f344 92be 0a8f 78bd 5ecf a73e ef18 853b
00000200: 3c8c abbe 435a 95be e2cd 793e ef8c acbd
00000210: 1719 89be 09be 8dbd 01f1 f23d 91ef b2be
00000220: f2d1 aabe 37cb 333e e9e9 6abe 7d98 94bd
00000230: fddf a03d 6fa7 923c 92f0 963e c3cf 9c3e
00000240: 18b4 acbe a5fb 923e 5669 15bc 0451 72be
00000250: 23ca a8be e680 21be 6116 963d 4b47 75bc
00000260: 6a53 89be 5b76 143e 75fd 813e 826a 5ebd
00000270: 22cb 823e 37e9 64be 61d1 64be 5829 22be
00000280: f01f 053e 72c2 9dbe 0126 aebe 3960 c1bb
00000290: 5bd7 083e 9de9 22be b47a 20be c497 96be
000002a0: f30a 86be 24f1 a9be 08d4 293d 3377 303e
000002b0: 1c42 a3be 60ef 8fbe 255e 383d 7ff7 71be
000002c0: 6b47 3f3e 5fd7 51be c6b4 dc3c 0f86 6bbe
000002d0: 15f0 3cbe b73e 4abe 85dd 78be 4185 893d
000002e0: 6814 83be 33af 0d3e f19e 3abe 6158 703e
000002f0: f7a0 55be e759 86be d194 59be a76e 333e
00000300: 7391 4bbc d19d 873e b784 5bbe 73b8 433e
00000310: f49a 443e 6f25 5bbc 3130 1bbe fa7f 6bbe
00000320: e3f8 7bbc aa3a 24be f95b 2dbe 7379 973e
00000330: 34f8 053e 0632 cebd 1e6e 043d 45a5 8a3e
00000340: c982 dbbc 6e37 943e 668a a7be 305e 3abe
00000350: 4f54 a43e 02d1 a1be 26fa 423d c1e9 8d3e
00000360: b5dc 81be 8239 f6bc 7bf4 3fbe 18c3 a13d
00000370: ee5f 293d 557e ff3d d064 0f3d a3bf ab3e
00000380: e94f a2bd 6135 343e e0ab 9d3e 7793 3cbd
00000390: 7f9f 0dba 2be5 4e3c 820d aabe 4bcb a9be
000003a0: ec94 1bbd a996 4a3e 31d0 1b3e 8040 473e
000003b0: b25a 4ebe 1291 39be 7ff7 b13e 54ff 943e
000003c0: 6a1d dabc 5e96 313e 43a1 2abe 9d5b 22be
000003d0: 60f3 bf3c fd54 43be a277 13bd 7b1d 963e
000003e0: be3a 2abe 316e 803d 7d25 be3d 34b0 5a3e
000003f0: 0d02 2d3a 746f 54be ddb3 87be 2133 0b3e
0.30044013 0.0077693975 0.18772213 -0.06875246 0.24775395 0.24501964 0.025292626 -0.11295626
0.008184652 -0.10424471 0.10881067 -0.28523713 -0.20334028 0.114316836 0.3402623 0.20738254
0.02195419 -0.24444598 0.06380206 -0.08320313 -0.072338104 0.25119728 -0.16702475 0.23476475
-0.08333662 0.15679657 0.16581878 -0.22407563 0.29447922 -0.32466015 -0.29693615 0.18838768
-0.14921568 -0.004578919 0.25987986 -0.2280856 -0.15961404 -0.09486143 0.054167584 0.05856761
0.03252131 -0.3274807 0.1919152 0.21737958 0.3263364 0.121595144 -0.2781761 -0.26005262
0.29677626 0.29164466 -0.0074131866 0.03313192 0.27937534 0.18566954 0.33022276 0.20730264
0.32786858 0.2608354 -0.12369378 -0.19105127 0.116507016 -0.30791095 0.20532094 -0.02816373
-0.056960594 0.3170912 0.24451433 0.11913515 -0.10623012 -0.13364217 -0.049691528 -0.21874748
-0.11751509 0.032062177 0.13996336 0.20267317 0.21162657 -0.04517434 -0.0043114903 0.12853132
-0.24794872 0.21962921 0.15305617 -0.06020441 -0.22392282 0.3439329 -0.15911978 -0.15180299
-0.31698996 -0.15197863 -0.00092535175 -0.24640727 0.33093062 -0.121932454 -0.26428357 -0.30919462
-0.10114063 0.07305451 -0.15355659 -0.075171635 0.17054553 -0.048331596 -0.312211 0.2075171
0.113153115 -0.12476354 0.07964961 -0.09181701 0.1711273 0.3194656 -0.20281109 -0.043850582
0.0045089494 -0.05645461 0.013369672 -0.32192427 -0.2780883 0.12647286 0.1838741 0.06075559
0.30093417 -0.122656696 -0.25746277 -0.01183346 -0.2856823 -0.060683288 0.32775396 0.00406181
-0.33505428 -0.29170427 0.24394944 -0.084253184 -0.26776955 -0.06921012 0.11862374 -0.349484
-0.333633 0.17557989 -0.22940792 -0.07255647 0.078552224 0.017902104 0.29480416 0.3062726
-0.3373115 0.28707615 -0.009119352 -0.23663718 -0.32966718 -0.15771827 0.07328487 -0.014970611
-0.26821452 0.14498274 0.25388685 -0.054300793 0.25545603 -0.2235459 -0.22345497 -0.15836084
0.13000464 -0.30812413 -0.3401337 -0.005901363 0.13363402 -0.15909429 -0.15671808 -0.29412663
-0.2618023 -0.33191788 0.041461974 0.17232971 -0.31886375 -0.28112316 0.04501166 -0.23629569
0.18679588 -0.20492314 0.026941668 -0.23000358 -0.18450959 -0.19750486 -0.24303253 0.06714869
-0.25601506 0.13836364 -0.18224694 0.23471214 -0.20862184 -0.26240465 -0.21248175 0.1752268
-0.0124248145 0.26487592 -0.21437345 0.1911333 0.19199735 -0.013375624 -0.15155102 -0.22998038
-0.015379163 -0.16038004 -0.16929616 0.29584846 0.13082963 -0.10068135 0.03233158 0.27079216
-0.026795762 0.2894854 -0.32722777 -0.18199992 0.32095572 -0.31604773 0.04760184 0.27717403
-0.253637 -0.030056719 -0.18745606 0.07898539 0.04135125 0.12475268 0.03500825 0.33544645
-0.07925398 0.17598487 0.30795193 -0.04603907 -0.000540249 0.01262788 -0.3321343 -0.33162913
-0.03798382 0.19784035 0.15216137 0.19458199 -0.20151785 -0.18121746 0.34759137 0.2910105
-0.026625354 0.17342517 -0.16663079 -0.1585526 0.02343148 -0.19075389 -0.036002763 0.29319367
-0.16623971 0.06271017 0.09284494 0.21356279 0.0006599732 -0.20745641 -0.26504412 0.13593723

LayoutSeq.bias_ih_l0 f4 [32]
00000000: 10e4 c7bd 10ea 123e 665c 8e3c 97ec b3be
00000010: 9778 08bd ddb5 d23d 505f d73c 4542 5c3e
00000020: 99a5 b03e fbeb 483e b442 123e 79a6 82be
00000030: 575e 7cbe 41e5 833e cd80 173e 232d 5bbe
00000040: 979d a1be fdc1 e33d fa41 9c3e 2dbb d83d
00000050: c999 94be 693e 95bb c558 b93d 13b3 993d
00000060: dd3a 213e 8738 ce3d d02d d8bd 3716 3abd
00000070: 366e 88be f9b5 233c af1e a33e d10d 63be
-0.09760296 0.143471 0.017378043 -0.3514144 -0.03331813 0.10288594 0.026290566 0.21509655
0.3450134 0.1962127 0.14283258 -0.25517634 -0.24645363 0.25760844 0.14795227 -0.21403937
-0.31565544 0.11120985 0.30519086 0.10582576 -0.2902358 -0.004554559 0.090501346 0.07504859
0.15745111 0.100693755 -0.10555613 -0.045431342 -0.26646584 0.009992116 0.31859347 -0.2217324

LayoutSeq.bias_hh_l0 f4 [32]
00000000: 0cbf 9a3c db15 3bbe a9fe 9ebe 21b8 723e
00000010: 5691 1a3e 0108 e3bd 4cce 7f3e 21b7 b63d
00000020: 3839 2bbe 720a 593e 5644 683e 186d 6f3e
00000030: 8529 83be a3de 0a3e b1e7 1abe 2ff7 48be
00000040: 8fe8 fe3d d8bb bebc c204 a53d 5ebc 473d
00000050: 46b1 5d3e b81b fc3d e651 5abd d071 763e
00000060: 6bef 4fbd 415f 7b3d 2874 d03d ff46 25bd
00000070: 35d8 d9bd cfae 923e b350 fe3d a7ed 69bd
0.018889926 -0.18270056 -0.31053665 0.23703052 0.15094504 -0.11085511 0.2498104 0.08921648
-0.16721046 0.21195391 0.22682318 0.2338146 -0.25617614 0.13561492 -0.15127446 -0.19625543
0.12446701 -0.02328293 0.08057548 0.048763625 0.21649656 0.123099744 -0.05330076 0.24066854
-0.050765436 0.061370138 0.10178405 -0.04035091 -0.10636941 0.28648993 0.12417736 -0.05711141

mlp.0.weight f4 [32, 8]
00000000: 973f 143e 132b 583e 6c7e 2d3e 6454 54bd
00000010: 7c90 523e 29b4 c03e 6e84 6fbe e351 c43d
00000020: 613f 91be c523 873e 4052 bc3e 950d 033e
00000030: 1f7b 703d 2a4d fcbb 2152 1c3e 460c 67be
00000040: ae58 4b3d 8d6e 88bd 5a47 a8bc 926a 8abe
00000050: dc36 e7be dbee cd3b 0e7e 243e 7d95 8bbe
00000060: de00 fa3d 3d6d 823e c3ac a5be 2b82 83be
00000070: afae 04bc 4d9d b33e 911d 45ba b3c2 963e
00000080: 131b 6a3e 6763 183f cc8a cb3e c4e3 4ebd
00000090: f0a9 16be 5918 7c3d ca02 c1be 7e0f 00bf
000000a0: 82a0 a53d d4a1 bebe 613e fb3d f8bf de3c
000000b0: 7ff1 253e a8b9 cd3e aae2 da3d f82e c73d
000000c0: 4a79 a9bc 4637 c63d ce44 1a3e 8de6 a03d
000000d0: 1d1a 9a3e 4f6a ee3e 2df8 633e 27d7 94bc
000000e0: 3bc8 a4be 1b10 aebe 7045 44be fe6a 4bbd
000000f0: 9f77 41be b6ca 9f3e 285b 2fbe 8441 6c3e
00000100: 931a 62be bea3 a8be d2f8 643e 6077 eb3e
00000110: 18d2 edbd 0205 aebe 035e a33e d570 13be
00000120: ce79 40be d27d 75bd 0e53 b03d a8e7 39bd
00000130: f916 b5bd 9916 9dbc 79aa b4bd 5fd9 b5bc
00000140: f995 0b3f 9b06 bfbe e188 a7be bd66 99be
00000150: 7a72 b53b d519 39be 3759 24be 13cb 8b3e
00000160: 87a1 203e 5dcb 563d bac8 f7bd f04b 1bbd
00000170: f715 793b ac43 c63d a087 b5be b077 963e
00000180: d6bb d1be 8181 513c 0278 b93c e291 fabc
00000190: 2212 8b3d 196f 803d 9971 283e 4fc6 bf3e
000001a0: e1a0 70be c9c3 6b3b 6ee5 b63e ea52 ff3d
000001b0: 8604 713e 3341 123e 5ed3 6fbc 1881 a7be
000001c0: 9a9e 893e f96d 0d3e 1c4f a9bd ec63 7fbe
000001d0: efb8 503e 3bf6 e53d e398 733e e470 6f3c
000001e0: 7a7f 61b9 a354 1c3e 863e a7bb d37f 77be
000001f0: 5949 193d cbad 25bd 47fe 8abe 7523 adbd
00000200: 3569 cd3e cd43 70ba be98 1fbf a5f9 3cbe
00000210: 9ce7 0a3d b369 adbd 5293 1abd 1318 4e3c
00000220: 60c3 f2bd 8174 d83d 6cec 4dbd 3424 bcbd
00000230: ba8e 13bd 196e 78bd 70c5 883e 00c0 893e
00000240: 64f3 043e 52c3 a1be da5e 27bd 38f2 c23c
00000250: b730 983d 22bb 263e b5ab 713e b557 953d
00000260: 4104 7abd 4024 61bd 5961 a0be c87c 6e3c
00000270: 7dbd 953e 7738 60be 029f acbe b13e 05bd
00000280: b73c 803e e3a6 3bbe e130 8a3e 7cd5 2dbe
00000290: 037c a73e 9c4b 53bc 5fe4 35be cc79 a6be
000002a0: 8912 133d 0a0f 08be acb6 70be a070 d73d
000002b0: a8da 363e 4b56 5c3e bf0c 8b3d 2547 503e
000002c0: 115e 0a3e e137 be3d e0dd d1bd 063c 583e
000002d0: d765 87bc 51b7 673d ba4c 26bd 7260 c7bd
000002e0: e9ff d83d 29bc 5ebd cc70 25be 21e7 a2be
000002f0: c839 cb3e c09c 8d3e 9022 74bd d493 d73d
00000300: 4ec9 2f3e dd27 873e eba2 5dbe 054e fb3d
00000310: ca37 c23d 7593 bf3e 9355 acbe f384 adbe
00000320: 4fe9 8d3d aedd bebe 922f cd3d 680a 9abd
00000330: b637 c83d 83d2 19be 84ea d53c d7ac 29be
00000340: fcf1 5cbc b3ef 67bd 1cf6 143d 52c0 0b3d
00000350: 51c8 74be 396e 95be 29f5 d8be 01f3 af3d
00000360: 7f44 fb3d a864 81be ee90 a0bc 2988 0dbd
00000370: 57b4 cdbc 9516 01be ccde a6be 19ab 5d3e
00000380: 33c5 cbbc bc4a b1be 4328 04be 3022 92be
00000390: 13a8 ca3d 4699 8c3d efce 30be 9b24 db3d
000003a0: 1898 013d b59d 1abe bf8a 9fbd ff70 563e
000003b0: 3246 aa3e 2fe8 583e a01a a7bd 3da3 2a3e
000003c0: be33 133e 9da7 573d 855b d23d 3312 b7bd
000003d0: bf18 ea3d 5ffa a33d 30e7 62be 87c9 b7bd
000003e0: 83e2 8fbc 2921 65bb d810 3a3e 6627 b9be
000003f0: fc41 173d 88cb 28be e5df f73e c41d 0e3e
0.14477383 0.21110182 0.16942757 -0.051838294 0.20562929 0.3763745 -0.23390362 0.09585931
-0.28368667 0.26394477 0.36781502 0.1279815 0.058711167 -0.0076996284 0.15265705 -0.22563276
0.04964512 -0.06661711 -0.020541836 -0.27034432 -0.45159042 0.0062845773 0.16063711 -0.27262488
0.12207197 0.25473967 -0.3235837 -0.25685248 -0.008098288 0.35080948 -0.00075193594 0.2944542
0.2286189 0.59526676 0.3975433 -0.050510183 -0.14713264 0.061546657 -0.3769744 -0.5002364
0.08087255 -0.3723284 0.12267757 0.027191147 0.16205405 0.40180707 0.10687764 0.097257555
-0.020687718 0.09678511 0.1506531 0.07856474 0.30098048 0.46565482 0.2226264 -0.018168999
-0.32184014 -0.33996662 -0.19167113 -0.049662583 -0.18893288 0.31209344 -0.17124617 0.23071867
-0.2208045 -0.32937425 0.22360542 0.45989513 -0.11612338 -0.33988196 0.31907663 -0.14398511
-0.18796465 -0.059934445 0.086095914 -0.04538694 -0.08842272 -0.019175814 -0.088215776 -0.022198377
0.54525715 -0.37309727 -0.32721618 -0.29961196 0.0055373283 -0.1807626 -0.16049658 0.2730337
0.15686618 0.052440036 -0.120988324 -0.037914217 0.0038007477 0.09680876 -0.35455036 0.2938819
-0.4096362 0.012787224 0.022640232 -0.03058714 0.06790568 0.0627119 0.16449584 0.37455985
-0.2349887 0.0035974851 0.35721916 0.124669865 0.23536882 0.14282684 -0.014637796 -0.32715678
0.26878816 0.13811482 -0.08267042 -0.24940461 0.20383047 0.11228605 0.2378879 0.014614318
-0.00021505161 0.15266661 -0.005103889 -0.24169855 0.037423465 -0.040448945 -0.27147123 -0.084540285
0.4011933 -0.00091653765 -0.6234244 -0.18454607 0.033912286 -0.08467426 -0.03773815 0.012578982
-0.11853671 0.10569096 -0.050274298 -0.09186593 -0.036024787 -0.060651872 0.26713133 0.26904297
0.12983471 -0.3159433 -0.040861942 0.02379714 0.074311666 0.16282323 0.23600657 0.072921194
-0.061039213 -0.05496621 -0.3132427 0.014556117 0.2924613 -0.2189654 -0.33715063 -0.03253049
0.25046322 -0.18325381 0.26990417 -0.16975969 0.327118 -0.012896445 -0.17762898 -0.325148
0.03590635 -0.13286987 -0.23507184 0.105195284 0.17856848 0.21517293 0.067895405 0.2033964
0.13512446 0.09288002 -0.102473974 0.21116647 -0.016528053 0.05657131 -0.040600516 -0.09735192
0.10595686 -0.054378662 -0.1615631 -0.31816962 0.3969252 0.27658653 -0.059603274 0.10526243
0.17166635 0.263976 -0.2164418 0.122707404 0.09483297 0.37417188 -0.33659038 -0.33890495
0.06929266 -0.37278503 0.10018839 -0.07521516 0.09776251 -0.1502171 0.026112802 -0.1656984
-0.013485428 -0.05662508 0.03636752 0.034118958 -0.2390454 -0.29185656 -0.42374542 0.08591271
0.12268924 -0.25272107 -0.019600358 -0.03455368 -0.025110407 -0.1260627 -0.32591856 0.216473
-0.024874305 -0.3462733 -0.12905984 -0.28541708 0.09895339 0.06865172 -0.17266439 0.10700341
0.03163919 -0.15099223 -0.077901356 0.20941542 0.3325668 0.21182321 -0.08159375 0.16663833
0.14375207 0.052650083 0.10271362 -0.08939018 0.11430501 0.08006739 -0.22158504 -0.08973985
-0.017564064 -0.0034962392 0.18170488 -0.3616287 0.036928162 -0.16483891 0.48413005 0.13878542

mlp.0.bias f4 [32]
00000000: a4b3 a037 24e0 02b7 922a 2737 7399 91b7
00000010: dcff 0b38 bc0c f636 e219 1336 f2b1 1338
00000020: 6c89 bab5 ecdb 89b7 cc19 e436 7c06 0ab7
00000030: 9694 42b8 f6fe ad37 7650 51b7 2e8c 1ab8
00000040: 2006 82b8 c535 bab7 a0ce 0fb7 3e5b 9fb5
00000050: 70ae a8b5 2eb8 dbb7 e91b 4137 7cab 83b7
00000060: a0c8 4c31 a863 4fb7 c516 60b8 bd50 04b8
00000070: dccd 2736 572a 0535 32e2 2838 7c41 77b7
1.9157138e-05 -7.800791e-06 9.963887e-06 -1.7356802e-05 3.337847e-05 7.332854e-06 2.1919773e-06 3.5213256e-05
-1.3898075e-06 -1.6434082e-05 6.7979327e-06 -8.226951e-06 -4.6391586e-05 2.0741933e-05 -1.24761045e-05 -3.6847014e-05
-6.200024e-05 -2.2197966e-05 -8.571573e-06 -1.1872978e-06 -1.2567743e-06 -2.61926e-05 1.1510195e-05 -1.569627e-05
2.979995e-09 -1.23613645e-05 -5.3426967e-05 -3.1546446e-05 2.5004765e-06 4.9607974e-07 4.0264982e-05 -1.4737594e-05

mlp.1.weight f4 [32]
00000000: f8d9 7f3f 4adb 7f3f 6d10 803f 90ee 7f3f
00000010: 6b12 803f d712 803f 900d 803f 7214 803f
00000020: 1cea 7f3f 4614 803f 1a10 803f a5d8 7f3f
00000030: aed6 7f3f 890f 803f 2ad9 7f3f bbd8 7f3f
00000040: 8906 803f e9d8 7f3f 9712 803f e7d8 7f3f
00000050: f912 803f d60b 803f 660e 803f bcd8 7f3f
00000060: b1d8 7f3f a2da 7f3f 2113 803f b2d8 7f3f
00000070: 4b14 803f 8af8 7f3f f8de 7f3f 02dc 7f3f
0.9994197 0.99943984 1.0005013 0.9997339 1.0005621 1.000575 1.0004139 1.000624
0.999666 1.0006187 1.0004914 0.9993995 0.9993695 1.0004741 0.9994074 0.9994008
1.0001994 0.99940354 1.0005673 0.9994034 1.000579 1.0003612 1.0004394 0.99940085
0.9994002 0.9994298 1.0005838 0.99940026 1.0006193 0.99988616 0.999496 0.9994508

mlp.1.bias f4 [32]
00000000: 520e 12ba 9331 14ba a30a 183a d2a3 8bb9
00000010: 6edd 193a 8c3f 163a 7ccb ea39 be3b 033a
00000020: c333 5eb9 d87d 1c3a db4d 133a 815b 1bba
00000030: 4f32 1bba 413b f639 8c88 1aba 19d3 18ba
00000040: 7566 0e3a b0c9 19ba 8a83 173a 3296 0c3a
00000050: debb 1c3a 30ad bdb9 ffaf 8339 7b4f f839
00000060: fe1e a3b9 58a0 17ba c333 173a ebca dfb9
00000070: 6fc5 13ba b01a ccb9 ba7e 0e3a 1cb6 18ba
-0.0005571592 -0.0005653139 0.0005799925 -0.00026634202 0.00058694824 0.0005731515 0.00044783566 0.00050061557
-0.00021190853 0.000596968 0.00056192063 -0.0005926416 -0.00059202773 0.00046964924 -0.0005894981 -0.0005829796
0.00054321374 -0.00058665406 0.0005779794 0.0005362957 0.0005978922 -0.00036177924 0.00025117394 0.00047361464
-0.00031112874 -0.0005784086 0.0005767906 -0.0004268506 -0.0005637025 -0.00038929796 0.0005435754 -0.0005825476

mlp.1.running_mean f4 [32]
00000000: 1f45 853d 9ed8 f73d d55b b83d a69b d2bc
00000010: cd0a 043e 043d a73d ed62 c03d 3ffa d83c
00000020: a7e9 443d 7a27 163d 0e71 26be e0e3 42bd
00000030: aa86 133d ce5a b93d 7c1c d8bc fac5 0cbd
00000040: bbbd 67be 1593 443c 3c98 653c c77e 61be
00000050: d2df 15bc ebe0 80bd b9f3 dbbc d459 a1bd
00000060: 202c 4cbd ca57 c0bc 51e3 fdbc b836 62bd
00000070: 124a 7bbd a8e3 6ebd 2ebc 533b 329a 833d
0.065073244 0.12101863 0.090018906 -0.025708985 0.12894745 0.08165935 0.093938686 0.026486514
0.04807439 0.03665874 -0.16254064 -0.0475806 0.036017098 0.09050523 -0.02638077 -0.034368493
-0.2263097 0.011997958 0.014013346 -0.22021018 -0.009147601 -0.062929 -0.026849614 -0.078784615
-0.04984677 -0.023479361 -0.030992182 -0.055227965 -0.061349936 -0.05832258 0.0032308209 0.06425895

mlp.1.running_var f4 [32]
00000000: 13d7 5e39 02d7 d339 571f 703a 7008 3339
00000010: b7d8 773a bd24 ff39 2cf6 3b39 8941 063a
00000020: 1281 e939 1d46 af37 cc71 723a dc50 1539
00000030: b022 6b39 97af 6a39 3db6 bb38 19c1 1339
00000040: 52e1 9539 a186 7f38 320f e739 21c5 7d3a
00000050: 049b 4339 5211 9a39 0a5d e937 1c49 453a
00000060: 6cf1 233a ae6a a639 e9ef 0d39 bda0 f738
00000070: 33f0 093a 9491 ea39 a2df 2538 8de7 ef39
0.00021251691 0.0004040525 0.00091599434 0.00017073913 0.0009454595 0.00048664762 0.00017925416 0.000512146
0.00044537388 2.0894275e-05 0.00092485244 0.0001423987 0.00022424269 0.00022381391 8.9507994e-05 0.00014090947
0.0002858737 6.092212e-05 0.00044071075 0.00096805586 0.00018654397 0.00029386074 2.781909e-05 0.0007525848
0.0006253931 0.0003174147 0.00013536181 0.00011807818 0.0005261928 0.00044740422 3.954734e-05 0.0004575815

mlp.3.weight f4 [1, 32]
00000000: 4b6e 953e 64df 8f3e 2845 553e e339 92bd
00000010: c577 b0be d034 ad3d 403e 4d3e c35f 2bbf
00000020: 232a d6bd c3f3 62be e3c2 053e 4d14 ab3e
00000030: 0833 013f 6309 10be b557 b7be 3587 db3e
00000040: d734 323e 9a19 aa3e 029a fd3d ffb2 79bb
00000050: 4c17 a73d a73d 48be b900 4dbe 3a5c 773d
00000060: bfb4 f8b8 32e1 0cbe 08ca c8be cd02 333e
00000070: 7b3c 2bbe b363 e0bd cf63 863e d532 cebe
0.2918571 0.2810012 0.20827162 -0.07139947 -0.34466377 0.08457339 0.20043278 -0.66942996
-0.10457256 -0.221633 0.13062625 0.33413926 0.5046849 -0.14066081 -0.35809103 0.42876592
0.1740297 0.33222657 0.1238289 -0.0038101075 0.081587404 -0.19554769 -0.20019807 0.06039069
-0.00011859228 -0.1375778 -0.39216638 0.17481537 -0.1672229 -0.10956516 0.26248023 -0.40273157
